…
2022-03-01 02:32:29.489920: I tensorflow/core/platform/profile_utils/cpu_utils.cc:94] CPU Frequency: 2200045000 Hz
2022-03-01 02:32:29.494579: I tensorflow/compiler/xla/service/service.cc:168] XLA service 0xb301560 executing computations on platform Host. Devices:
2022-03-01 02:32:29.494640: I tensorflow/compiler/xla/service/service.cc:175]   StreamExecutor device (0): <undefined>, <undefined>
Model: "sequential"
_________________________________________________________________
Layer (type)                 Output Shape              Param #   
=================================================================
dense (Dense)                (None, 1000)              10001000  
_________________________________________________________________
dropout (Dropout)            (None, 1000)              0         
_________________________________________________________________
dense_1 (Dense)              (None, 666)               666666    
_________________________________________________________________
dropout_1 (Dropout)          (None, 666)               0         
_________________________________________________________________
dense_2 (Dense)              (None, 443)               295481    
_________________________________________________________________
dropout_2 (Dropout)          (None, 443)               0         
_________________________________________________________________
dense_3 (Dense)              (None, 295)               130980    
_________________________________________________________________
dropout_3 (Dropout)          (None, 295)               0         
_________________________________________________________________
dense_4 (Dense)              (None, 196)               58016     
_________________________________________________________________
dropout_4 (Dropout)          (None, 196)               0         
_________________________________________________________________
dense_5 (Dense)              (None, 1)                 197       
=================================================================
Total params: 11,152,340
Trainable params: 11,152,340
Non-trainable params: 0
_________________________________________________________________
None
2022-03-01 02:32:34.566417: W tensorflow/compiler/jit/mark_for_compilation_pass.cc:1483] (One-time warning): Not using XLA:CPU for cluster because envvar TF_XLA_FLAGS=--t
…
o_profile.
Red
-0.015163055673111714
Typer KerasRegressor
Hello world
{'rate': 0.3, 'HP_NUM_HIDDEN_LAYERS': 3, 'HP_L1_REG': 1e-05, 'epochs': 100, 'HP_L2_REG': 0.001, 'kernel_initializer': 'he_uniform', 'network_shape': 'long_funnel', 'HP_OPTIMIZER': 'Adam', 'units': 100, 'batch_size': 128, 'learning_rate': 0.001, 'activation': 'relu'}
Blue
Model: "sequential"
_________________________________________________________________
Layer (type)                 Output Shape              Param #   
=================================================================
dense (Dense)                (None, 100)               1000100   
_________________________________________________________________
dropout (Dropout)            (None, 100)               0         
_________________________________________________________________
dense_1 (Dense)              (None, 100)               10100     
_________________________________________________________________
dropout_1 (Dropout)          (None, 100)               0         
_________________________________________________________________
dense_2 (Dense)              (None, 66)                6666      
_________________________________________________________________
dropout_2 (Dropout)          (None, 66)                0         
_________________________________________________________________
dense_3 (Dense)              (None, 1)                 67        
=================================================================
Total params: 1,016,933
Trainable params: 1,016,933
Non-trainable params: 0
_________________________________________________________________
None
Red
0.5242767165516035
Typer KerasRegressor
Hello world
{'rate': 0.0, 'HP_NUM_HIDDEN_LAYERS': 3, 'HP_L1_REG': 0.001, 'epochs': 200, 'HP_L2_REG': 0.001, 'kernel_initializer': 'glorot_normal', 'network_shape': 'long_funnel', 'HP_OPTIMIZER': 'Adam', 'units': 200, 'batch_size': 128, 'learning_rate': 0.01, 'activation': 'elu'}
Blue
Model: "sequential"
_________________________________________________________________
Layer (type)                 Output Shape              Param #   
=================================================================
dense (Dense)                (None, 200)               2000200   
_________________________________________________________________
dense_1 (Dense)              (None, 200)               40200     
_________________________________________________________________
dense_2 (Dense)              (None, 133)               26733     
_________________________________________________________________
dense_3 (Dense)              (None, 1)                 134       
=================================================================
Total params: 2,067,267
Trainable params: 2,067,267
Non-trainable params: 0
_________________________________________________________________
None
Red
0.36156045980138296
Typer KerasRegressor
Hello world
{'rate': 0.0, 'HP_NUM_HIDDEN_LAYERS': 3, 'HP_L1_REG': 1e-05, 'epochs': 100, 'HP_L2_REG': 0.0, 'kernel_initializer': 'he_uniform', 'network_shape': 'funnel', 'HP_OPTIMIZER': 'Adamax', 'units': 1000, 'batch_size': 16, 'learning_rate': 1e-05, 'activation': 'tanh'}
Blue
Model: "sequential"
_________________________________________________________________
Layer (type)                 Output Shape              Param #   
=================================================================
dense (Dense)                (None, 1000)              10001000  
_________________________________________________________________
dense_1 (Dense)              (None, 666)               666666    
_________________________________________________________________
dense_2 (Dense)              (None, 443)               295481    
_________________________________________________________________
dense_3 (Dense)              (None, 1)                 444       
=================================================================
Total params: 10,963,591
Trainable params: 10,963,591
Non-trainable params: 0
_________________________________________________________________
None
Red
0.4066907705009619
Typer KerasRegressor
Hello world
{'rate': 0.0, 'HP_NUM_HIDDEN_LAYERS': 5, 'HP_L1_REG': 1e-05, 'epochs': 100, 'HP_L2_REG': 0.0, 'kernel_initializer': 'random_uniform', 'network_shape': 'funnel', 'HP_OPTIMIZER': 'SGD', 'units': 100, 'batch_size': 16, 'learning_rate': 0.001, 'activation': 'tanh'}
Blue
Model: "sequential"
_________________________________________________________________
Layer (type)                 Output Shape              Param #   
=================================================================
dense (Dense)                (None, 100)               1000100   
_________________________________________________________________
dense_1 (Dense)              (None, 66)                6666      
_________________________________________________________________
dense_2 (Dense)              (None, 43)                2881      
_________________________________________________________________
dense_3 (Dense)              (None, 28)                1232      
_________________________________________________________________
dense_4 (Dense)              (None, 18)                522       
_________________________________________________________________
dense_5 (Dense)              (None, 1)                 19        
=================================================================
Total params: 1,011,420
Trainable params: 1,011,420
Non-trainable params: 0
_________________________________________________________________
None
Red
-0.004405755877240569
Typer KerasRegressor
Hello world
{'rate': 0.3, 'HP_NUM_HIDDEN_LAYERS': 3, 'HP_L1_REG': 0.0001, 'epochs': 50, 'HP_L2_REG': 1e-08, 'kernel_initializer': 'he_uniform', 'network_shape': 'funnel', 'HP_OPTIMIZER': 'RMSprop', 'units': 100, 'batch_size': 32, 'learning_rate': 0.01, 'activation': 'elu'}
Blue
Model: "sequential"
_________________________________________________________________
Layer (type)                 Output Shape              Param #   
=================================================================
dense (Dense)                (None, 100)               1000100   
_________________________________________________________________
dropout (Dropout)            (None, 100)               0         
_________________________________________________________________
dense_1 (Dense)              (None, 66)                6666      
_________________________________________________________________
dropout_1 (Dropout)          (None, 66)                0         
_________________________________________________________________
dense_2 (Dense)              (None, 43)                2881      
_________________________________________________________________
dropout_2 (Dropout)          (None, 43)                0         
_________________________________________________________________
dense_3 (Dense)              (None, 1)                 44        
=================================================================
Total params: 1,009,691
Trainable params: 1,009,691
Non-trainable params: 0
_________________________________________________________________
None
Red
0.18478128603235333
Typer KerasRegressor
Hello world
{'rate': 0.0, 'HP_NUM_HIDDEN_LAYERS': 3, 'HP_L1_REG': 1e-06, 'epochs': 50, 'HP_L2_REG': 0.1, 'kernel_initializer': 'random_uniform', 'network_shape': 'funnel', 'HP_OPTIMIZER': 'Adagrad', 'units': 100, 'batch_size': 16, 'learning_rate': 0.01, 'activation': 'elu'}
Blue
Model: "sequential"
_________________________________________________________________
Layer (type)                 Output Shape              Param #   
=================================================================
dense (Dense)                (None, 100)               1000100   
_________________________________________________________________
dense_1 (Dense)              (None, 66)                6666      
_________________________________________________________________
dense_2 (Dense)              (None, 43)                2881      
_________________________________________________________________
dense_3 (Dense)              (None, 1)                 44        
=================================================================
Total params: 1,009,691
Trainable params: 1,009,691
Non-trainable params: 0
_________________________________________________________________
None
Red
0.46345118018631815
Typer KerasRegressor
Hello world
{'rate': 0.1, 'HP_NUM_HIDDEN_LAYERS': 2, 'HP_L1_REG': 0.0001, 'epochs': 50, 'HP_L2_REG': 0.1, 'kernel_initializer': 'glorot_uniform', 'network_shape': 'brick', 'HP_OPTIMIZER': 'Adam', 'units': 100, 'batch_size': 32, 'learning_rate': 0.001, 'activation': 'tanh'}
Blue
Model: "sequential"
_________________________________________________________________
Layer (type)                 Output Shape              Param #   
=================================================================
dense (Dense)                (None, 100)               1000100   
_________________________________________________________________
dropout (Dropout)            (None, 100)               0         
_________________________________________________________________
dense_1 (Dense)              (None, 100)               10100     
_________________________________________________________________
dropout_1 (Dropout)          (None, 100)               0         
_________________________________________________________________
dense_2 (Dense)              (None, 1)                 101       
=================================================================
Total params: 1,010,301
Trainable params: 1,010,301
Non-trainable params: 0
_________________________________________________________________
None
Red
0.4559112382441677
Typer KerasRegressor
Hello world
{'rate': 0.3, 'HP_NUM_HIDDEN_LAYERS': 5, 'HP_L1_REG': 0.001, 'epochs': 200, 'HP_L2_REG': 0.0, 'kernel_initializer': 'random_uniform', 'network_shape': 'brick', 'HP_OPTIMIZER': 'Adamax', 'units': 100, 'batch_size': 16, 'learning_rate': 0.01, 'activation': 'elu'}
Blue
Model: "sequential"
_________________________________________________________________
Layer (type)                 Output Shape              Param #   
=================================================================
dense (Dense)                (None, 100)               1000100   
_________________________________________________________________
dropout (Dropout)            (None, 100)               0         
_________________________________________________________________
dense_1 (Dense)              (None, 100)               10100     
_________________________________________________________________
dropout_1 (Dropout)          (None, 100)               0         
_________________________________________________________________
dense_2 (Dense)              (None, 100)               10100     
_________________________________________________________________
dropout_2 (Dropout)          (None, 100)               0         
_________________________________________________________________
dense_3 (Dense)              (None, 100)               10100     
_________________________________________________________________
dropout_3 (Dropout)          (None, 100)               0         
_________________________________________________________________
dense_4 (Dense)              (None, 100)               10100     
_________________________________________________________________
dropout_4 (Dropout)          (None, 100)               0         
_________________________________________________________________
dense_5 (Dense)              (None, 1)                 101       
=================================================================
Total params: 1,040,601
Trainable params: 1,040,601
Non-trainable params: 0
_________________________________________________________________
None
Red
-0.015414600696807446
Typer KerasRegressor
Hello world
{'rate': 0.0, 'HP_NUM_HIDDEN_LAYERS': 3, 'HP_L1_REG': 0.001, 'epochs': 200, 'HP_L2_REG': 0.001, 'kernel_initializer': 'glorot_uniform', 'network_shape': 'long_funnel', 'HP_OPTIMIZER': 'Adam', 'units': 100, 'batch_size': 32, 'learning_rate': 0.01, 'activation': 'relu'}
Blue
Model: "sequential"
_________________________________________________________________
Layer (type)                 Output Shape              Param #   
=================================================================
dense (Dense)                (None, 100)               1000100   
_________________________________________________________________
dense_1 (Dense)              (None, 100)               10100     
_________________________________________________________________
dense_2 (Dense)              (None, 66)                6666      
_________________________________________________________________
dense_3 (Dense)              (None, 1)                 67        
=================================================================
Total params: 1,016,933
Trainable params: 1,016,933
Non-trainable params: 0
_________________________________________________________________
None
Red
0.3381165246397021
Typer KerasRegressor
Hello world
{'rate': 0.1, 'HP_NUM_HIDDEN_LAYERS': 2, 'HP_L1_REG': 1e-05, 'epochs': 50, 'HP_L2_REG': 0.001, 'kernel_initializer': 'he_uniform', 'network_shape': 'funnel', 'HP_OPTIMIZER': 'RMSprop', 'units': 200, 'batch_size': 128, 'learning_rate': 0.01, 'activation': 'elu'}
Blue
Model: "sequential"
_________________________________________________________________
Layer (type)                 Output Shape              Param #   
=================================================================
dense (Dense)                (None, 200)               2000200   
_________________________________________________________________
dropout (Dropout)            (None, 200)               0         
_________________________________________________________________
dense_1 (Dense)              (None, 133)               26733     
_________________________________________________________________
dropout_1 (Dropout)          (None, 133)               0         
_________________________________________________________________
dense_2 (Dense)              (None, 1)                 134       
=================================================================
Total params: 2,027,067
Trainable params: 2,027,067
Non-trainable params: 0
_________________________________________________________________
None
Red
-0.09420095135693596
Typer KerasRegressor
Hello world
{'rate': 0.1, 'HP_NUM_HIDDEN_LAYERS': 3, 'HP_L1_REG': 1e-06, 'epochs': 200, 'HP_L2_REG': 0.0, 'kernel_initializer': 'random_uniform', 'network_shape': 'brick', 'HP_OPTIMIZER': 'Adagrad', 'units': 1000, 'batch_size': 32, 'learning_rate': 0.0001, 'activation': 'tanh'}
Blue
Model: "sequential"
_________________________________________________________________
Layer (type)                 Output Shape              Param #   
=================================================================
dense (Dense)                (None, 1000)              10001000  
_________________________________________________________________
dropout (Dropout)            (None, 1000)              0         
_________________________________________________________________
dense_1 (Dense)              (None, 1000)              1001000   
_________________________________________________________________
dropout_1 (Dropout)          (None, 1000)              0         
_________________________________________________________________
dense_2 (Dense)              (None, 1000)              1001000   
_________________________________________________________________
dropout_2 (Dropout)          (None, 1000)              0         
_________________________________________________________________
dense_3 (Dense)              (None, 1)                 1001      
=================================================================
Total params: 12,004,001
Trainable params: 12,004,001
Non-trainable params: 0
_________________________________________________________________
None
Red
0.4878517172778879
Typer KerasRegressor
Hello world
{'rate': 0.1, 'HP_NUM_HIDDEN_LAYERS': 5, 'HP_L1_REG': 0.0001, 'epochs': 100, 'HP_L2_REG': 0.001, 'kernel_initializer': 'glorot_normal', 'network_shape': 'brick', 'HP_OPTIMIZER': 'Adagrad', 'units': 200, 'batch_size': 128, 'learning_rate': 0.0001, 'activation': 'relu'}
Blue
Model: "sequential"
_________________________________________________________________
Layer (type)                 Output Shape              Param #   
=================================================================
dense (Dense)                (None, 200)               2000200   
_________________________________________________________________
dropout (Dropout)            (None, 200)               0         
_________________________________________________________________
dense_1 (Dense)              (None, 200)               40200     
_________________________________________________________________
dropout_1 (Dropout)          (None, 200)               0         
_________________________________________________________________
dense_2 (Dense)              (None, 200)               40200     
_________________________________________________________________
dropout_2 (Dropout)          (None, 200)               0         
_________________________________________________________________
dense_3 (Dense)              (None, 200)               40200     
_________________________________________________________________
dropout_3 (Dropout)          (None, 200)               0         
_________________________________________________________________
dense_4 (Dense)              (None, 200)               40200     
_________________________________________________________________
dropout_4 (Dropout)          (None, 200)               0         
_________________________________________________________________
dense_5 (Dense)              (None, 1)                 201       
=================================================================
Total params: 2,161,201
Trainable params: 2,161,201
Non-trainable params: 0
_________________________________________________________________
None
Red
0.008966719524534983
Typer KerasRegressor
Hello world
{'rate': 0.0, 'HP_NUM_HIDDEN_LAYERS': 3, 'HP_L1_REG': 0.0001, 'epochs': 200, 'HP_L2_REG': 1e-08, 'kernel_initializer': 'glorot_normal', 'network_shape': 'brick', 'HP_OPTIMIZER': 'SGD', 'units': 200, 'batch_size': 16, 'learning_rate': 0.01, 'activation': 'elu'}
Blue
Model: "sequential"
_________________________________________________________________
Layer (type)                 Output Shape              Param #   
=================================================================
dense (Dense)                (None, 200)               2000200   
_________________________________________________________________
dense_1 (Dense)              (None, 200)               40200     
_________________________________________________________________
dense_2 (Dense)              (None, 200)               40200     
_________________________________________________________________
dense_3 (Dense)              (None, 1)                 201       
=================================================================
Total params: 2,080,801
Trainable params: 2,080,801
Non-trainable params: 0
_________________________________________________________________
None
Red
0.4336504574922647
Typer KerasRegressor
Hello world
{'rate': 0.0, 'HP_NUM_HIDDEN_LAYERS': 3, 'HP_L1_REG': 0.0001, 'epochs': 200, 'HP_L2_REG': 1e-08, 'kernel_initializer': 'glorot_uniform', 'network_shape': 'long_funnel', 'HP_OPTIMIZER': 'SGD', 'units': 100, 'batch_size': 16, 'learning_rate': 0.001, 'activation': 'tanh'}
Blue
Model: "sequential"
_________________________________________________________________
Layer (type)                 Output Shape              Param #   
=================================================================
dense (Dense)                (None, 100)               1000100   
_________________________________________________________________
dense_1 (Dense)              (None, 100)               10100     
_________________________________________________________________
dense_2 (Dense)              (None, 66)                6666      
_________________________________________________________________
dense_3 (Dense)              (None, 1)                 67        
=================================================================
Total params: 1,016,933
Trainable params: 1,016,933
Non-trainable params: 0
_________________________________________________________________
None
Red
0.32176025705326206
Typer KerasRegressor
Hello world
{'rate': 0.3, 'HP_NUM_HIDDEN_LAYERS': 5, 'HP_L1_REG': 1e-06, 'epochs': 50, 'HP_L2_REG': 1e-08, 'kernel_initializer': 'he_uniform', 'network_shape': 'long_funnel', 'HP_OPTIMIZER': 'Adagrad', 'units': 1000, 'batch_size': 16, 'learning_rate': 0.001, 'activation': 'elu'}
Blue
Model: "sequential"
_________________________________________________________________
Layer (type)                 Output Shape              Param #   
=================================================================
dense (Dense)                (None, 1000)              10001000  
_________________________________________________________________
dropout (Dropout)            (None, 1000)              0         
_________________________________________________________________
dense_1 (Dense)              (None, 1000)              1001000   
_________________________________________________________________
dropout_1 (Dropout)          (None, 1000)              0         
_________________________________________________________________
dense_2 (Dense)              (None, 666)               666666    
_________________________________________________________________
dropout_2 (Dropout)          (None, 666)               0         
_________________________________________________________________
dense_3 (Dense)              (None, 443)               295481    
_________________________________________________________________
dropout_3 (Dropout)          (None, 443)               0         
_________________________________________________________________
dense_4 (Dense)              (None, 295)               130980    
_________________________________________________________________
dropout_4 (Dropout)          (None, 295)               0         
_________________________________________________________________
dense_5 (Dense)              (None, 1)                 296       
=================================================================
Total params: 12,095,423
Trainable params: 12,095,423
Non-trainable params: 0
_________________________________________________________________
None
Red
0.49746338446056526
Typer KerasRegressor
Hello world
{'rate': 0.3, 'HP_NUM_HIDDEN_LAYERS': 5, 'HP_L1_REG': 0.001, 'epochs': 200, 'HP_L2_REG': 0.1, 'kernel_initializer': 'glorot_normal', 'network_shape': 'brick', 'HP_OPTIMIZER': 'Adam', 'units': 200, 'batch_size': 128, 'learning_rate': 1e-05, 'activation': 'tanh'}
Blue
Model: "sequential"
_________________________________________________________________
Layer (type)                 Output Shape              Param #   
=================================================================
dense (Dense)                (None, 200)               2000200   
_________________________________________________________________
dropout (Dropout)            (None, 200)               0         
_________________________________________________________________
dense_1 (Dense)              (None, 200)               40200     
_________________________________________________________________
dropout_1 (Dropout)          (None, 200)               0         
_________________________________________________________________
dense_2 (Dense)              (None, 200)               40200     
_________________________________________________________________
dropout_2 (Dropout)          (None, 200)               0         
_________________________________________________________________
dense_3 (Dense)              (None, 200)               40200     
_________________________________________________________________
dropout_3 (Dropout)          (None, 200)               0         
_________________________________________________________________
dense_4 (Dense)              (None, 200)               40200     
_________________________________________________________________
dropout_4 (Dropout)          (None, 200)               0         
_________________________________________________________________
dense_5 (Dense)              (None, 1)                 201       
=================================================================
Total params: 2,161,201
Trainable params: 2,161,201
Non-trainable params: 0
_________________________________________________________________
None
Red
0.08792267248483754
Typer KerasRegressor
Hello world
{'rate': 0.0, 'HP_NUM_HIDDEN_LAYERS': 3, 'HP_L1_REG': 0.0001, 'epochs': 100, 'HP_L2_REG': 0.0, 'kernel_initializer': 'glorot_uniform', 'network_shape': 'long_funnel', 'HP_OPTIMIZER': 'SGD', 'units': 1000, 'batch_size': 32, 'learning_rate': 0.0001, 'activation': 'elu'}
Blue
Model: "sequential"
_________________________________________________________________
Layer (type)                 Output Shape              Param #   
=================================================================
dense (Dense)                (None, 1000)              10001000  
_________________________________________________________________
dense_1 (Dense)              (None, 1000)              1001000   
_________________________________________________________________
dense_2 (Dense)              (None, 666)               666666    
_________________________________________________________________
dense_3 (Dense)              (None, 1)                 667       
=================================================================
Total params: 11,669,333
Trainable params: 11,669,333
Non-trainable params: 0
_________________________________________________________________
None
Red
0.29894356570097247
Typer KerasRegressor
Hello world
{'rate': 0.0, 'HP_NUM_HIDDEN_LAYERS': 5, 'HP_L1_REG': 0.0001, 'epochs': 50, 'HP_L2_REG': 0.001, 'kernel_initializer': 'he_normal', 'network_shape': 'brick', 'HP_OPTIMIZER': 'Adamax', 'units': 200, 'batch_size': 16, 'learning_rate': 0.01, 'activation': 'tanh'}
Blue
Model: "sequential"
_________________________________________________________________
Layer (type)                 Output Shape              Param #   
=================================================================
dense (Dense)                (None, 200)               2000200   
_________________________________________________________________
dense_1 (Dense)              (None, 200)               40200     
_________________________________________________________________
dense_2 (Dense)              (None, 200)               40200     
_________________________________________________________________
dense_3 (Dense)              (None, 200)               40200     
_________________________________________________________________
dense_4 (Dense)              (None, 200)               40200     
_________________________________________________________________
dense_5 (Dense)              (None, 1)                 201       
=================================================================
Total params: 2,161,201
Trainable params: 2,161,201
Non-trainable params: 0
_________________________________________________________________
None
Red
0.3243962779125992
Typer KerasRegressor
Hello world
{'rate': 0.0, 'HP_NUM_HIDDEN_LAYERS': 3, 'HP_L1_REG': 1e-05, 'epochs': 200, 'HP_L2_REG': 0.0, 'kernel_initializer': 'random_normal', 'network_shape': 'long_funnel', 'HP_OPTIMIZER': 'SGD', 'units': 1000, 'batch_size': 32, 'learning_rate': 1e-05, 'activation': 'elu'}
Blue
Model: "sequential"
_________________________________________________________________
Layer (type)                 Output Shape              Param #   
=================================================================
dense (Dense)                (None, 1000)              10001000  
_________________________________________________________________
dense_1 (Dense)              (None, 1000)              1001000   
_________________________________________________________________
dense_2 (Dense)              (None, 666)               666666    
_________________________________________________________________
dense_3 (Dense)              (None, 1)                 667       
=================================================================
Total params: 11,669,333
Trainable params: 11,669,333
Non-trainable params: 0
_________________________________________________________________
None
Red
-0.10347567686757642
Typer KerasRegressor
Hello world
INNER COUNT NO.  2
/external_storage/ciaran/arabadopsis/FT16cv_new_10k/shuf
test_raw_plink_shuf_1_in_2_in.raw
…
organism: arabadopsis
Binary is False
Set size set to 10000
organism: arabadopsis
Binary is False
{'rate': 0.1, 'HP_NUM_HIDDEN_LAYERS': 5, 'HP_L1_REG': 1e-05, 'epochs': 200, 'HP_L2_REG': 0.1, 'kernel_initializer': 'he_uniform', 'network_shape': 'funnel', 'HP_OPTIMIZER': 'Adamax', 'units': 1000, 'batch_size': 128, 'learning_rate': 0.01, 'activation': 'elu'}
Blue
Model: "sequential"
_________________________________________________________________
Layer (type)                 Output Shape              Param #   
=================================================================
dense (Dense)                (None, 1000)              10001000  
_________________________________________________________________
dropout (Dropout)            (None, 1000)              0         
_________________________________________________________________
dense_1 (Dense)              (None, 666)               666666    
_________________________________________________________________
dropout_1 (Dropout)          (None, 666)               0         
_________________________________________________________________
dense_2 (Dense)              (None, 443)               295481    
_________________________________________________________________
dropout_2 (Dropout)          (None, 443)               0         
_________________________________________________________________
dense_3 (Dense)              (None, 295)               130980    
_________________________________________________________________
dropout_3 (Dropout)          (None, 295)               0         
_________________________________________________________________
dense_4 (Dense)              (None, 196)               58016     
_________________________________________________________________
dropout_4 (Dropout)          (None, 196)               0         
_________________________________________________________________
dense_5 (Dense)              (None, 1)                 197       
=================================================================
Total params: 11,152,340
Trainable params: 11,152,340
Non-trainable params: 0
_________________________________________________________________
None
Red
0.3819665802848188
Typer KerasRegressor
Hello world
{'rate': 0.0, 'HP_NUM_HIDDEN_LAYERS': 5, 'HP_L1_REG': 1e-05, 'epochs': 100, 'HP_L2_REG': 0.001, 'kernel_initializer': 'he_normal', 'network_shape': 'long_funnel', 'HP_OPTIMIZER': 'Adagrad', 'units': 200, 'batch_size': 16, 'learning_rate': 0.001, 'activation': 'tanh'}
Blue
Model: "sequential"
_________________________________________________________________
Layer (type)                 Output Shape              Param #   
=================================================================
dense (Dense)                (None, 200)               2000200   
_________________________________________________________________
dense_1 (Dense)              (None, 200)               40200     
_________________________________________________________________
dense_2 (Dense)              (None, 133)               26733     
_________________________________________________________________
dense_3 (Dense)              (None, 88)                11792     
_________________________________________________________________
dense_4 (Dense)              (None, 58)                5162      
_________________________________________________________________
dense_5 (Dense)              (None, 1)                 59        
=================================================================
Total params: 2,084,146
Trainable params: 2,084,146
Non-trainable params: 0
_________________________________________________________________
None
Red
0.4269433679940774
Typer KerasRegressor
Hello world
{'rate': 0.3, 'HP_NUM_HIDDEN_LAYERS': 2, 'HP_L1_REG': 1e-05, 'epochs': 200, 'HP_L2_REG': 0.0, 'kernel_initializer': 'he_normal', 'network_shape': 'funnel', 'HP_OPTIMIZER': 'Adam', 'units': 1000, 'batch_size': 16, 'learning_rate': 1e-05, 'activation': 'tanh'}
Blue
Model: "sequential"
_________________________________________________________________
Layer (type)                 Output Shape              Param #   
=================================================================
dense (Dense)                (None, 1000)              10001000  
_________________________________________________________________
dropout (Dropout)            (None, 1000)              0         
_________________________________________________________________
dense_1 (Dense)              (None, 666)               666666    
_________________________________________________________________
dropout_1 (Dropout)          (None, 666)               0         
_________________________________________________________________
dense_2 (Dense)              (None, 1)                 667       
=================================================================
Total params: 10,668,333
Trainable params: 10,668,333
Non-trainable params: 0
_________________________________________________________________
None
Red
0.4660454415557529
Typer KerasRegressor
Hello world
{'rate': 0.1, 'HP_NUM_HIDDEN_LAYERS': 5, 'HP_L1_REG': 0.001, 'epochs': 200, 'HP_L2_REG': 1e-08, 'kernel_initializer': 'glorot_uniform', 'network_shape': 'long_funnel', 'HP_OPTIMIZER': 'SGD', 'units': 100, 'batch_size': 128, 'learning_rate': 0.001, 'activation': 'elu'}
Blue
Model: "sequential"
_________________________________________________________________
Layer (type)                 Output Shape              Param #   
=================================================================
dense (Dense)                (None, 100)               1000100   
_________________________________________________________________
dropout (Dropout)            (None, 100)               0         
_________________________________________________________________
dense_1 (Dense)              (None, 100)               10100     
_________________________________________________________________
dropout_1 (Dropout)          (None, 100)               0         
_________________________________________________________________
dense_2 (Dense)              (None, 66)                6666      
_________________________________________________________________
dropout_2 (Dropout)          (None, 66)                0         
_________________________________________________________________
dense_3 (Dense)              (None, 43)                2881      
_________________________________________________________________
dropout_3 (Dropout)          (None, 43)                0         
_________________________________________________________________
dense_4 (Dense)              (None, 28)                1232      
_________________________________________________________________
dropout_4 (Dropout)          (None, 28)                0         
_________________________________________________________________
dense_5 (Dense)              (None, 1)                 29        
=================================================================
Total params: 1,021,008
Trainable params: 1,021,008
Non-trainable params: 0
_________________________________________________________________
None
Red
0.3628540947676623
Typer KerasRegressor
Hello world
{'rate': 0.3, 'HP_NUM_HIDDEN_LAYERS': 2, 'HP_L1_REG': 1e-06, 'epochs': 50, 'HP_L2_REG': 0.1, 'kernel_initializer': 'random_uniform', 'network_shape': 'long_funnel', 'HP_OPTIMIZER': 'Adagrad', 'units': 200, 'batch_size': 128, 'learning_rate': 0.0001, 'activation': 'tanh'}
Blue
Model: "sequential"
_________________________________________________________________
Layer (type)                 Output Shape              Param #   
=================================================================
dense (Dense)                (None, 200)               2000200   
_________________________________________________________________
dropout (Dropout)            (None, 200)               0         
_________________________________________________________________
dense_1 (Dense)              (None, 200)               40200     
_________________________________________________________________
dropout_1 (Dropout)          (None, 200)               0         
_________________________________________________________________
dense_2 (Dense)              (None, 1)                 201       
=================================================================
Total params: 2,040,601
Trainable params: 2,040,601
Non-trainable params: 0
_________________________________________________________________
None
Red
0.017127766003909084
Typer KerasRegressor
Hello world
{'rate': 0.3, 'HP_NUM_HIDDEN_LAYERS': 2, 'HP_L1_REG': 0.001, 'epochs': 50, 'HP_L2_REG': 0.0, 'kernel_initializer': 'glorot_uniform', 'network_shape': 'brick', 'HP_OPTIMIZER': 'Adamax', 'units': 1000, 'batch_size': 128, 'learning_rate': 0.0001, 'activation': 'tanh'}
Blue
Model: "sequential"
_________________________________________________________________
Layer (type)                 Output Shape              Param #   
=================================================================
dense (Dense)                (None, 1000)              10001000  
_________________________________________________________________
dropout (Dropout)            (None, 1000)              0         
_________________________________________________________________
dense_1 (Dense)              (None, 1000)              1001000   
_________________________________________________________________
dropout_1 (Dropout)          (None, 1000)              0         
_________________________________________________________________
dense_2 (Dense)              (None, 1)                 1001      
=================================================================
Total params: 11,003,001
Trainable params: 11,003,001
Non-trainable params: 0
_________________________________________________________________
None
Red
0.33262647291245784
Typer KerasRegressor
Hello world
{'rate': 0.0, 'HP_NUM_HIDDEN_LAYERS': 3, 'HP_L1_REG': 1e-05, 'epochs': 200, 'HP_L2_REG': 0.1, 'kernel_initializer': 'random_normal', 'network_shape': 'long_funnel', 'HP_OPTIMIZER': 'Adam', 'units': 100, 'batch_size': 16, 'learning_rate': 0.0001, 'activation': 'relu'}
Blue
Model: "sequential"
_________________________________________________________________
Layer (type)                 Output Shape              Param #   
=================================================================
dense (Dense)                (None, 100)               1000100   
_________________________________________________________________
dense_1 (Dense)              (None, 100)               10100     
_________________________________________________________________
dense_2 (Dense)              (None, 66)                6666      
_________________________________________________________________
dense_3 (Dense)              (None, 1)                 67        
=================================================================
Total params: 1,016,933
Trainable params: 1,016,933
Non-trainable params: 0
_________________________________________________________________
None
Red
0.4157175289218201
Typer KerasRegressor
Hello world
{'rate': 0.0, 'HP_NUM_HIDDEN_LAYERS': 2, 'HP_L1_REG': 1e-05, 'epochs': 200, 'HP_L2_REG': 1e-08, 'kernel_initializer': 'glorot_normal', 'network_shape': 'brick', 'HP_OPTIMIZER': 'Adam', 'units': 1000, 'batch_size': 128, 'learning_rate': 0.01, 'activation': 'relu'}
Blue
Model: "sequential"
_________________________________________________________________
Layer (type)                 Output Shape              Param #   
=================================================================
dense (Dense)                (None, 1000)              10001000  
_________________________________________________________________
dense_1 (Dense)              (None, 1000)              1001000   
_________________________________________________________________
dense_2 (Dense)              (None, 1)                 1001      
=================================================================
Total params: 11,003,001
Trainable params: 11,003,001
Non-trainable params: 0
_________________________________________________________________
None
Red
0.5297312652990676
Typer KerasRegressor
Hello world
{'rate': 0.0, 'HP_NUM_HIDDEN_LAYERS': 5, 'HP_L1_REG': 0.0001, 'epochs': 200, 'HP_L2_REG': 0.0, 'kernel_initializer': 'random_uniform', 'network_shape': 'funnel', 'HP_OPTIMIZER': 'Adamax', 'units': 200, 'batch_size': 16, 'learning_rate': 0.01, 'activation': 'tanh'}
Blue
Model: "sequential"
_________________________________________________________________
Layer (type)                 Output Shape              Param #   
=================================================================
dense (Dense)                (None, 200)               2000200   
_________________________________________________________________
dense_1 (Dense)              (None, 133)               26733     
_________________________________________________________________
dense_2 (Dense)              (None, 88)                11792     
_________________________________________________________________
dense_3 (Dense)              (None, 58)                5162      
_________________________________________________________________
dense_4 (Dense)              (None, 38)                2242      
_________________________________________________________________
dense_5 (Dense)              (None, 1)                 39        
=================================================================
Total params: 2,046,168
Trainable params: 2,046,168
Non-trainable params: 0
_________________________________________________________________
None
Red
0.40322898403468865
Typer KerasRegressor
Hello world
{'rate': 0.3, 'HP_NUM_HIDDEN_LAYERS': 3, 'HP_L1_REG': 0.001, 'epochs': 200, 'HP_L2_REG': 0.1, 'kernel_initializer': 'glorot_normal', 'network_shape': 'funnel', 'HP_OPTIMIZER': 'Adagrad', 'units': 1000, 'batch_size': 16, 'learning_rate': 1e-05, 'activation': 'tanh'}
Blue
Model: "sequential"
_________________________________________________________________
Layer (type)                 Output Shape              Param #   
=================================================================
dense (Dense)                (None, 1000)              10001000  
_________________________________________________________________
dropout (Dropout)            (None, 1000)              0         
_________________________________________________________________
dense_1 (Dense)              (None, 666)               666666    
_________________________________________________________________
dropout_1 (Dropout)          (None, 666)               0         
_________________________________________________________________
dense_2 (Dense)              (None, 443)               295481    
_________________________________________________________________
dropout_2 (Dropout)          (None, 443)               0         
_________________________________________________________________
dense_3 (Dense)              (None, 1)                 444       
=================================================================
Total params: 10,963,591
Trainable params: 10,963,591
Non-trainable params: 0
_________________________________________________________________
None
Red
0.0328091384229805
Typer KerasRegressor
Hello world
{'rate': 0.3, 'HP_NUM_HIDDEN_LAYERS': 2, 'HP_L1_REG': 0.0001, 'epochs': 50, 'HP_L2_REG': 0.001, 'kernel_initializer': 'random_uniform', 'network_shape': 'brick', 'HP_OPTIMIZER': 'RMSprop', 'units': 200, 'batch_size': 16, 'learning_rate': 0.001, 'activation': 'relu'}
Blue
Model: "sequential"
_________________________________________________________________
Layer (type)                 Output Shape              Param #   
=================================================================
dense (Dense)                (None, 200)               2000200   
_________________________________________________________________
dropout (Dropout)            (None, 200)               0         
_________________________________________________________________
dense_1 (Dense)              (None, 200)               40200     
_________________________________________________________________
dropout_1 (Dropout)          (None, 200)               0         
_________________________________________________________________
dense_2 (Dense)              (None, 1)                 201       
=================================================================
Total params: 2,040,601
Trainable params: 2,040,601
Non-trainable params: 0
_________________________________________________________________
None
Red
0.4267081226331425
Typer KerasRegressor
Hello world
{'rate': 0.3, 'HP_NUM_HIDDEN_LAYERS': 3, 'HP_L1_REG': 0.001, 'epochs': 50, 'HP_L2_REG': 0.1, 'kernel_initializer': 'glorot_normal', 'network_shape': 'brick', 'HP_OPTIMIZER': 'RMSprop', 'units': 100, 'batch_size': 32, 'learning_rate': 0.01, 'activation': 'elu'}
Blue
Model: "sequential"
_________________________________________________________________
Layer (type)                 Output Shape              Param #   
=================================================================
dense (Dense)                (None, 100)               1000100   
_________________________________________________________________
dropout (Dropout)            (None, 100)               0         
_________________________________________________________________
dense_1 (Dense)              (None, 100)               10100     
_________________________________________________________________
dropout_1 (Dropout)          (None, 100)               0         
_________________________________________________________________
dense_2 (Dense)              (None, 100)               10100     
_________________________________________________________________
dropout_2 (Dropout)          (None, 100)               0         
_________________________________________________________________
dense_3 (Dense)              (None, 1)                 101       
=================================================================
Total params: 1,020,401
Trainable params: 1,020,401
Non-trainable params: 0
_________________________________________________________________
None
Red
-0.005932108162606253
Typer KerasRegressor
Hello world
{'rate': 0.1, 'HP_NUM_HIDDEN_LAYERS': 5, 'HP_L1_REG': 1e-05, 'epochs': 200, 'HP_L2_REG': 0.0, 'kernel_initializer': 'he_uniform', 'network_shape': 'long_funnel', 'HP_OPTIMIZER': 'Adam', 'units': 1000, 'batch_size': 32, 'learning_rate': 0.001, 'activation': 'elu'}
Blue
Model: "sequential"
_________________________________________________________________
Layer (type)                 Output Shape              Param #   
=================================================================
dense (Dense)                (None, 1000)              10001000  
_________________________________________________________________
dropout (Dropout)            (None, 1000)              0         
_________________________________________________________________
dense_1 (Dense)              (None, 1000)              1001000   
_________________________________________________________________
dropout_1 (Dropout)          (None, 1000)              0         
_________________________________________________________________
dense_2 (Dense)              (None, 666)               666666    
_________________________________________________________________
dropout_2 (Dropout)          (None, 666)               0         
_________________________________________________________________
dense_3 (Dense)              (None, 443)               295481    
_________________________________________________________________
dropout_3 (Dropout)          (None, 443)               0         
_________________________________________________________________
dense_4 (Dense)              (None, 295)               130980    
_________________________________________________________________
dropout_4 (Dropout)          (None, 295)               0         
_________________________________________________________________
dense_5 (Dense)              (None, 1)                 296       
=================================================================
Total params: 12,095,423
Trainable params: 12,095,423
Non-trainable params: 0
_________________________________________________________________
None
Red
0.5185541825534437
Typer KerasRegressor
Hello world
{'rate': 0.1, 'HP_NUM_HIDDEN_LAYERS': 5, 'HP_L1_REG': 1e-06, 'epochs': 50, 'HP_L2_REG': 0.1, 'kernel_initializer': 'glorot_uniform', 'network_shape': 'long_funnel', 'HP_OPTIMIZER': 'Adagrad', 'units': 1000, 'batch_size': 128, 'learning_rate': 1e-05, 'activation': 'elu'}
Blue
Model: "sequential"
_________________________________________________________________
Layer (type)                 Output Shape              Param #   
=================================================================
dense (Dense)                (None, 1000)              10001000  
_________________________________________________________________
dropout (Dropout)            (None, 1000)              0         
_________________________________________________________________
dense_1 (Dense)              (None, 1000)              1001000   
_________________________________________________________________
dropout_1 (Dropout)          (None, 1000)              0         
_________________________________________________________________
dense_2 (Dense)              (None, 666)               666666    
_________________________________________________________________
dropout_2 (Dropout)          (None, 666)               0         
_________________________________________________________________
dense_3 (Dense)              (None, 443)               295481    
_________________________________________________________________
dropout_3 (Dropout)          (None, 443)               0         
_________________________________________________________________
dense_4 (Dense)              (None, 295)               130980    
_________________________________________________________________
dropout_4 (Dropout)          (None, 295)               0         
_________________________________________________________________
dense_5 (Dense)              (None, 1)                 296       
=================================================================
Total params: 12,095,423
Trainable params: 12,095,423
Non-trainable params: 0
_________________________________________________________________
None
Red
-0.06740919783976751
Typer KerasRegressor
Hello world
{'rate': 0.0, 'HP_NUM_HIDDEN_LAYERS': 5, 'HP_L1_REG': 1e-05, 'epochs': 100, 'HP_L2_REG': 0.001, 'kernel_initializer': 'glorot_uniform', 'network_shape': 'brick', 'HP_OPTIMIZER': 'SGD', 'units': 200, 'batch_size': 32, 'learning_rate': 0.01, 'activation': 'relu'}
Blue
Model: "sequential"
_________________________________________________________________
Layer (type)                 Output Shape              Param #   
=================================================================
dense (Dense)                (None, 200)               2000200   
_________________________________________________________________
dense_1 (Dense)              (None, 200)               40200     
_________________________________________________________________
dense_2 (Dense)              (None, 200)               40200     
_________________________________________________________________
dense_3 (Dense)              (None, 200)               40200     
_________________________________________________________________
dense_4 (Dense)              (None, 200)               40200     
_________________________________________________________________
dense_5 (Dense)              (None, 1)                 201       
=================================================================
Total params: 2,161,201
Trainable params: 2,161,201
Non-trainable params: 0
_________________________________________________________________
None
Red
0.4175520694990188
Typer KerasRegressor
Hello world
{'rate': 0.0, 'HP_NUM_HIDDEN_LAYERS': 2, 'HP_L1_REG': 0.001, 'epochs': 100, 'HP_L2_REG': 0.1, 'kernel_initializer': 'he_uniform', 'network_shape': 'long_funnel', 'HP_OPTIMIZER': 'Adam', 'units': 100, 'batch_size': 16, 'learning_rate': 0.001, 'activation': 'tanh'}
Blue
Model: "sequential"
_________________________________________________________________
Layer (type)                 Output Shape              Param #   
=================================================================
dense (Dense)                (None, 100)               1000100   
_________________________________________________________________
dense_1 (Dense)              (None, 100)               10100     
_________________________________________________________________
dense_2 (Dense)              (None, 1)                 101       
=================================================================
Total params: 1,010,301
Trainable params: 1,010,301
Non-trainable params: 0
_________________________________________________________________
None
Red
0.4059350234134389
Typer KerasRegressor
Hello world
{'rate': 0.3, 'HP_NUM_HIDDEN_LAYERS': 2, 'HP_L1_REG': 1e-06, 'epochs': 100, 'HP_L2_REG': 0.0, 'kernel_initializer': 'random_normal', 'network_shape': 'long_funnel', 'HP_OPTIMIZER': 'Adagrad', 'units': 100, 'batch_size': 16, 'learning_rate': 0.01, 'activation': 'relu'}
Blue
Model: "sequential"
_________________________________________________________________
Layer (type)                 Output Shape              Param #   
=================================================================
dense (Dense)                (None, 100)               1000100   
_________________________________________________________________
dropout (Dropout)            (None, 100)               0         
_________________________________________________________________
dense_1 (Dense)              (None, 100)               10100     
_________________________________________________________________
dropout_1 (Dropout)          (None, 100)               0         
_________________________________________________________________
dense_2 (Dense)              (None, 1)                 101       
=================================================================
Total params: 1,010,301
Trainable params: 1,010,301
Non-trainable params: 0
_________________________________________________________________
None
Red
0.46080848651099293
Typer KerasRegressor
Hello world
{'rate': 0.3, 'HP_NUM_HIDDEN_LAYERS': 2, 'HP_L1_REG': 1e-06, 'epochs': 50, 'HP_L2_REG': 0.001, 'kernel_initializer': 'random_uniform', 'network_shape': 'brick', 'HP_OPTIMIZER': 'Adagrad', 'units': 200, 'batch_size': 16, 'learning_rate': 0.0001, 'activation': 'relu'}
Blue
Model: "sequential"
_________________________________________________________________
Layer (type)                 Output Shape              Param #   
=================================================================
dense (Dense)                (None, 200)               2000200   
_________________________________________________________________
dropout (Dropout)            (None, 200)               0         
_________________________________________________________________
dense_1 (Dense)              (None, 200)               40200     
_________________________________________________________________
dropout_1 (Dropout)          (None, 200)               0         
_________________________________________________________________
dense_2 (Dense)              (None, 1)                 201       
=================================================================
Total params: 2,040,601
Trainable params: 2,040,601
Non-trainable params: 0
_________________________________________________________________
None
Red
0.0033044363948986355
Typer KerasRegressor
Hello world
{'rate': 0.1, 'HP_NUM_HIDDEN_LAYERS': 3, 'HP_L1_REG': 0.001, 'epochs': 100, 'HP_L2_REG': 0.001, 'kernel_initializer': 'he_normal', 'network_shape': 'funnel', 'HP_OPTIMIZER': 'RMSprop', 'units': 100, 'batch_size': 32, 'learning_rate': 0.0001, 'activation': 'elu'}
Blue
Model: "sequential"
_________________________________________________________________
Layer (type)                 Output Shape              Param #   
=================================================================
dense (Dense)                (None, 100)               1000100   
_________________________________________________________________
dropout (Dropout)            (None, 100)               0         
_________________________________________________________________
dense_1 (Dense)              (None, 66)                6666      
_________________________________________________________________
dropout_1 (Dropout)          (None, 66)                0         
_________________________________________________________________
dense_2 (Dense)              (None, 43)                2881      
_________________________________________________________________
dropout_2 (Dropout)          (None, 43)                0         
_________________________________________________________________
dense_3 (Dense)              (None, 1)                 44        
=================================================================
Total params: 1,009,691
Trainable params: 1,009,691
Non-trainable params: 0
_________________________________________________________________
None
Red
0.3870388850779075
Typer KerasRegressor
Hello world
{'rate': 0.3, 'HP_NUM_HIDDEN_LAYERS': 5, 'HP_L1_REG': 1e-05, 'epochs': 200, 'HP_L2_REG': 0.1, 'kernel_initializer': 'he_normal', 'network_shape': 'funnel', 'HP_OPTIMIZER': 'Adamax', 'units': 200, 'batch_size': 16, 'learning_rate': 0.0001, 'activation': 'elu'}
Blue
Model: "sequential"
_________________________________________________________________
Layer (type)                 Output Shape              Param #   
=================================================================
dense (Dense)                (None, 200)               2000200   
_________________________________________________________________
dropout (Dropout)            (None, 200)               0         
_________________________________________________________________
dense_1 (Dense)              (None, 133)               26733     
_________________________________________________________________
dropout_1 (Dropout)          (None, 133)               0         
_________________________________________________________________
dense_2 (Dense)              (None, 88)                11792     
_________________________________________________________________
dropout_2 (Dropout)          (None, 88)                0         
_________________________________________________________________
dense_3 (Dense)              (None, 58)                5162      
_________________________________________________________________
dropout_3 (Dropout)          (None, 58)                0         
_________________________________________________________________
dense_4 (Dense)              (None, 38)                2242      
_________________________________________________________________
dropout_4 (Dropout)          (None, 38)                0         
_________________________________________________________________
dense_5 (Dense)              (None, 1)                 39        
=================================================================
Total params: 2,046,168
Trainable params: 2,046,168
Non-trainable params: 0
_________________________________________________________________
None
Red
0.42003889590338117
Typer KerasRegressor
Hello world
INNER COUNT NO.  3
/external_storage/ciaran/arabadopsis/FT16cv_new_10k/shuf
test_raw_plink_shuf_1_in_3_in.raw
…
organism: arabadopsis
Binary is False
Set size set to 10000
organism: arabadopsis
Binary is False
{'rate': 0.3, 'HP_NUM_HIDDEN_LAYERS': 5, 'HP_L1_REG': 1e-06, 'epochs': 50, 'HP_L2_REG': 0.0, 'kernel_initializer': 'random_normal', 'network_shape': 'funnel', 'HP_OPTIMIZER': 'Adam', 'units': 200, 'batch_size': 128, 'learning_rate': 0.001, 'activation': 'elu'}
Blue
Model: "sequential"
_________________________________________________________________
Layer (type)                 Output Shape              Param #   
=================================================================
dense (Dense)                (None, 200)               2000200   
_________________________________________________________________
dropout (Dropout)            (None, 200)               0         
_________________________________________________________________
dense_1 (Dense)              (None, 133)               26733     
_________________________________________________________________
dropout_1 (Dropout)          (None, 133)               0         
_________________________________________________________________
dense_2 (Dense)              (None, 88)                11792     
_________________________________________________________________
dropout_2 (Dropout)          (None, 88)                0         
_________________________________________________________________
dense_3 (Dense)              (None, 58)                5162      
_________________________________________________________________
dropout_3 (Dropout)          (None, 58)                0         
_________________________________________________________________
dense_4 (Dense)              (None, 38)                2242      
_________________________________________________________________
dropout_4 (Dropout)          (None, 38)                0         
_________________________________________________________________
dense_5 (Dense)              (None, 1)                 39        
=================================================================
Total params: 2,046,168
Trainable params: 2,046,168
Non-trainable params: 0
_________________________________________________________________
None
Red
0.6156679468693411
Typer KerasRegressor
Hello world
{'rate': 0.1, 'HP_NUM_HIDDEN_LAYERS': 2, 'HP_L1_REG': 0.001, 'epochs': 100, 'HP_L2_REG': 0.001, 'kernel_initializer': 'random_uniform', 'network_shape': 'funnel', 'HP_OPTIMIZER': 'Adagrad', 'units': 100, 'batch_size': 32, 'learning_rate': 1e-05, 'activation': 'relu'}
Blue
Model: "sequential"
_________________________________________________________________
Layer (type)                 Output Shape              Param #   
=================================================================
dense (Dense)                (None, 100)               1000100   
_________________________________________________________________
dropout (Dropout)            (None, 100)               0         
_________________________________________________________________
dense_1 (Dense)              (None, 66)                6666      
_________________________________________________________________
dropout_1 (Dropout)          (None, 66)                0         
_________________________________________________________________
dense_2 (Dense)              (None, 1)                 67        
=================================================================
Total params: 1,006,833
Trainable params: 1,006,833
Non-trainable params: 0
_________________________________________________________________
None
Red
0.012887769182384434
Typer KerasRegressor
Hello world
{'rate': 0.1, 'HP_NUM_HIDDEN_LAYERS': 5, 'HP_L1_REG': 1e-05, 'epochs': 200, 'HP_L2_REG': 0.1, 'kernel_initializer': 'he_normal', 'network_shape': 'funnel', 'HP_OPTIMIZER': 'Adam', 'units': 200, 'batch_size': 16, 'learning_rate': 0.001, 'activation': 'elu'}
Blue
Model: "sequential"
_________________________________________________________________
Layer (type)                 Output Shape              Param #   
=================================================================
dense (Dense)                (None, 200)               2000200   
_________________________________________________________________
dropout (Dropout)            (None, 200)               0         
_________________________________________________________________
dense_1 (Dense)              (None, 133)               26733     
_________________________________________________________________
dropout_1 (Dropout)          (None, 133)               0         
_________________________________________________________________
dense_2 (Dense)              (None, 88)                11792     
_________________________________________________________________
dropout_2 (Dropout)          (None, 88)                0         
_________________________________________________________________
dense_3 (Dense)              (None, 58)                5162      
_________________________________________________________________
dropout_3 (Dropout)          (None, 58)                0         
_________________________________________________________________
dense_4 (Dense)              (None, 38)                2242      
_________________________________________________________________
dropout_4 (Dropout)          (None, 38)                0         
_________________________________________________________________
dense_5 (Dense)              (None, 1)                 39        
=================================================================
Total params: 2,046,168
Trainable params: 2,046,168
Non-trainable params: 0
_________________________________________________________________
None
Red
0.5096106547327868
Typer KerasRegressor
Hello world
{'rate': 0.0, 'HP_NUM_HIDDEN_LAYERS': 5, 'HP_L1_REG': 1e-05, 'epochs': 200, 'HP_L2_REG': 0.001, 'kernel_initializer': 'glorot_uniform', 'network_shape': 'brick', 'HP_OPTIMIZER': 'Adagrad', 'units': 200, 'batch_size': 32, 'learning_rate': 0.01, 'activation': 'elu'}
Blue
Model: "sequential"
_________________________________________________________________
Layer (type)                 Output Shape              Param #   
=================================================================
dense (Dense)                (None, 200)               2000200   
_________________________________________________________________
dense_1 (Dense)              (None, 200)               40200     
_________________________________________________________________
dense_2 (Dense)              (None, 200)               40200     
_________________________________________________________________
dense_3 (Dense)              (None, 200)               40200     
_________________________________________________________________
dense_4 (Dense)              (None, 200)               40200     
_________________________________________________________________
dense_5 (Dense)              (None, 1)                 201       
=================================================================
Total params: 2,161,201
Trainable params: 2,161,201
Non-trainable params: 0
_________________________________________________________________
None
Red
0.514463371032326
Typer KerasRegressor
Hello world
{'rate': 0.3, 'HP_NUM_HIDDEN_LAYERS': 2, 'HP_L1_REG': 0.001, 'epochs': 100, 'HP_L2_REG': 1e-08, 'kernel_initializer': 'glorot_normal', 'network_shape': 'funnel', 'HP_OPTIMIZER': 'SGD', 'units': 100, 'batch_size': 16, 'learning_rate': 0.0001, 'activation': 'elu'}
Blue
Model: "sequential"
_________________________________________________________________
Layer (type)                 Output Shape              Param #   
=================================================================
dense (Dense)                (None, 100)               1000100   
_________________________________________________________________
dropout (Dropout)            (None, 100)               0         
_________________________________________________________________
dense_1 (Dense)              (None, 66)                6666      
_________________________________________________________________
dropout_1 (Dropout)          (None, 66)                0         
_________________________________________________________________
dense_2 (Dense)              (None, 1)                 67        
=================================================================
Total params: 1,006,833
Trainable params: 1,006,833
Non-trainable params: 0
_________________________________________________________________
None
Red
0.04811757868300337
Typer KerasRegressor
Hello world
{'rate': 0.1, 'HP_NUM_HIDDEN_LAYERS': 3, 'HP_L1_REG': 1e-05, 'epochs': 200, 'HP_L2_REG': 0.1, 'kernel_initializer': 'random_normal', 'network_shape': 'long_funnel', 'HP_OPTIMIZER': 'Adamax', 'units': 1000, 'batch_size': 128, 'learning_rate': 0.0001, 'activation': 'tanh'}
Blue
Model: "sequential"
_________________________________________________________________
Layer (type)                 Output Shape              Param #   
=================================================================
dense (Dense)                (None, 1000)              10001000  
_________________________________________________________________
dropout (Dropout)            (None, 1000)              0         
_________________________________________________________________
dense_1 (Dense)              (None, 1000)              1001000   
_________________________________________________________________
dropout_1 (Dropout)          (None, 1000)              0         
_________________________________________________________________
dense_2 (Dense)              (None, 666)               666666    
_________________________________________________________________
dropout_2 (Dropout)          (None, 666)               0         
_________________________________________________________________
dense_3 (Dense)              (None, 1)                 667       
=================================================================
Total params: 11,669,333
Trainable params: 11,669,333
Non-trainable params: 0
_________________________________________________________________
None
Red
0.5051940905656676
Typer KerasRegressor
Hello world
{'rate': 0.3, 'HP_NUM_HIDDEN_LAYERS': 5, 'HP_L1_REG': 1e-06, 'epochs': 50, 'HP_L2_REG': 0.1, 'kernel_initializer': 'glorot_uniform', 'network_shape': 'funnel', 'HP_OPTIMIZER': 'Adam', 'units': 200, 'batch_size': 16, 'learning_rate': 1e-05, 'activation': 'tanh'}
Blue
Model: "sequential"
_________________________________________________________________
Layer (type)                 Output Shape              Param #   
=================================================================
dense (Dense)                (None, 200)               2000200   
_________________________________________________________________
dropout (Dropout)            (None, 200)               0         
_________________________________________________________________
dense_1 (Dense)              (None, 133)               26733     
_________________________________________________________________
dropout_1 (Dropout)          (None, 133)               0         
_________________________________________________________________
dense_2 (Dense)              (None, 88)                11792     
_________________________________________________________________
dropout_2 (Dropout)          (None, 88)                0         
_________________________________________________________________
dense_3 (Dense)              (None, 58)                5162      
_________________________________________________________________
dropout_3 (Dropout)          (None, 58)                0         
_________________________________________________________________
dense_4 (Dense)              (None, 38)                2242      
_________________________________________________________________
dropout_4 (Dropout)          (None, 38)                0         
_________________________________________________________________
dense_5 (Dense)              (None, 1)                 39        
=================================================================
Total params: 2,046,168
Trainable params: 2,046,168
Non-trainable params: 0
_________________________________________________________________
None
Red
0.49572577421977104
Typer KerasRegressor
Hello world
{'rate': 0.0, 'HP_NUM_HIDDEN_LAYERS': 5, 'HP_L1_REG': 1e-05, 'epochs': 200, 'HP_L2_REG': 0.1, 'kernel_initializer': 'glorot_normal', 'network_shape': 'brick', 'HP_OPTIMIZER': 'Adagrad', 'units': 1000, 'batch_size': 16, 'learning_rate': 0.0001, 'activation': 'tanh'}
Blue
Model: "sequential"
_________________________________________________________________
Layer (type)                 Output Shape              Param #   
=================================================================
dense (Dense)                (None, 1000)              10001000  
_________________________________________________________________
dense_1 (Dense)              (None, 1000)              1001000   
_________________________________________________________________
dense_2 (Dense)              (None, 1000)              1001000   
_________________________________________________________________
dense_3 (Dense)              (None, 1000)              1001000   
_________________________________________________________________
dense_4 (Dense)              (None, 1000)              1001000   
_________________________________________________________________
dense_5 (Dense)              (None, 1)                 1001      
=================================================================
Total params: 14,006,001
Trainable params: 14,006,001
Non-trainable params: 0
_________________________________________________________________
None
Red
0.4691544258435245
Typer KerasRegressor
Hello world
{'rate': 0.1, 'HP_NUM_HIDDEN_LAYERS': 2, 'HP_L1_REG': 0.001, 'epochs': 100, 'HP_L2_REG': 1e-08, 'kernel_initializer': 'glorot_normal', 'network_shape': 'brick', 'HP_OPTIMIZER': 'Adam', 'units': 200, 'batch_size': 16, 'learning_rate': 0.01, 'activation': 'tanh'}
Blue
Model: "sequential"
_________________________________________________________________
Layer (type)                 Output Shape              Param #   
=================================================================
dense (Dense)                (None, 200)               2000200   
_________________________________________________________________
dropout (Dropout)            (None, 200)               0         
_________________________________________________________________
dense_1 (Dense)              (None, 200)               40200     
_________________________________________________________________
dropout_1 (Dropout)          (None, 200)               0         
_________________________________________________________________
dense_2 (Dense)              (None, 1)                 201       
=================================================================
Total params: 2,040,601
Trainable params: 2,040,601
Non-trainable params: 0
_________________________________________________________________
None
Red
0.17613889079676426
Typer KerasRegressor
Hello world
{'rate': 0.3, 'HP_NUM_HIDDEN_LAYERS': 5, 'HP_L1_REG': 0.001, 'epochs': 200, 'HP_L2_REG': 1e-08, 'kernel_initializer': 'random_uniform', 'network_shape': 'brick', 'HP_OPTIMIZER': 'Adamax', 'units': 100, 'batch_size': 128, 'learning_rate': 0.01, 'activation': 'elu'}
Blue
Model: "sequential"
_________________________________________________________________
Layer (type)                 Output Shape              Param #   
=================================================================
dense (Dense)                (None, 100)               1000100   
_________________________________________________________________
dropout (Dropout)            (None, 100)               0         
_________________________________________________________________
dense_1 (Dense)              (None, 100)               10100     
_________________________________________________________________
dropout_1 (Dropout)          (None, 100)               0         
_________________________________________________________________
dense_2 (Dense)              (None, 100)               10100     
_________________________________________________________________
dropout_2 (Dropout)          (None, 100)               0         
_________________________________________________________________
dense_3 (Dense)              (None, 100)               10100     
_________________________________________________________________
dropout_3 (Dropout)          (None, 100)               0         
_________________________________________________________________
dense_4 (Dense)              (None, 100)               10100     
_________________________________________________________________
dropout_4 (Dropout)          (None, 100)               0         
_________________________________________________________________
dense_5 (Dense)              (None, 1)                 101       
=================================================================
Total params: 1,040,601
Trainable params: 1,040,601
Non-trainable params: 0
_________________________________________________________________
None
Red
-0.03891988601315055
Typer KerasRegressor
Hello world
{'rate': 0.3, 'HP_NUM_HIDDEN_LAYERS': 3, 'HP_L1_REG': 1e-06, 'epochs': 100, 'HP_L2_REG': 1e-08, 'kernel_initializer': 'glorot_uniform', 'network_shape': 'long_funnel', 'HP_OPTIMIZER': 'RMSprop', 'units': 100, 'batch_size': 32, 'learning_rate': 1e-05, 'activation': 'elu'}
Blue
Model: "sequential"
_________________________________________________________________
Layer (type)                 Output Shape              Param #   
=================================================================
dense (Dense)                (None, 100)               1000100   
_________________________________________________________________
dropout (Dropout)            (None, 100)               0         
_________________________________________________________________
dense_1 (Dense)              (None, 100)               10100     
_________________________________________________________________
dropout_1 (Dropout)          (None, 100)               0         
_________________________________________________________________
dense_2 (Dense)              (None, 66)                6666      
_________________________________________________________________
dropout_2 (Dropout)          (None, 66)                0         
_________________________________________________________________
dense_3 (Dense)              (None, 1)                 67        
=================================================================
Total params: 1,016,933
Trainable params: 1,016,933
Non-trainable params: 0
_________________________________________________________________
None
Red
0.5215885250229886
Typer KerasRegressor
Hello world
{'rate': 0.1, 'HP_NUM_HIDDEN_LAYERS': 2, 'HP_L1_REG': 0.0001, 'epochs': 50, 'HP_L2_REG': 0.001, 'kernel_initializer': 'random_normal', 'network_shape': 'funnel', 'HP_OPTIMIZER': 'Adamax', 'units': 1000, 'batch_size': 16, 'learning_rate': 0.0001, 'activation': 'elu'}
Blue
Model: "sequential"
_________________________________________________________________
Layer (type)                 Output Shape              Param #   
=================================================================
dense (Dense)                (None, 1000)              10001000  
_________________________________________________________________
dropout (Dropout)            (None, 1000)              0         
_________________________________________________________________
dense_1 (Dense)              (None, 666)               666666    
_________________________________________________________________
dropout_1 (Dropout)          (None, 666)               0         
_________________________________________________________________
dense_2 (Dense)              (None, 1)                 667       
=================================================================
Total params: 10,668,333
Trainable params: 10,668,333
Non-trainable params: 0
_________________________________________________________________
None
Red
0.5165711716121425
Typer KerasRegressor
Hello world
{'rate': 0.1, 'HP_NUM_HIDDEN_LAYERS': 2, 'HP_L1_REG': 1e-06, 'epochs': 50, 'HP_L2_REG': 1e-08, 'kernel_initializer': 'glorot_uniform', 'network_shape': 'long_funnel', 'HP_OPTIMIZER': 'Adamax', 'units': 100, 'batch_size': 16, 'learning_rate': 0.0001, 'activation': 'relu'}
Blue
Model: "sequential"
_________________________________________________________________
Layer (type)                 Output Shape              Param #   
=================================================================
dense (Dense)                (None, 100)               1000100   
_________________________________________________________________
dropout (Dropout)            (None, 100)               0         
_________________________________________________________________
dense_1 (Dense)              (None, 100)               10100     
_________________________________________________________________
dropout_1 (Dropout)          (None, 100)               0         
_________________________________________________________________
dense_2 (Dense)              (None, 1)                 101       
=================================================================
Total params: 1,010,301
Trainable params: 1,010,301
Non-trainable params: 0
_________________________________________________________________
None
Red
0.5469111983172161
Typer KerasRegressor
Hello world
{'rate': 0.1, 'HP_NUM_HIDDEN_LAYERS': 2, 'HP_L1_REG': 0.0001, 'epochs': 50, 'HP_L2_REG': 0.1, 'kernel_initializer': 'random_normal', 'network_shape': 'long_funnel', 'HP_OPTIMIZER': 'RMSprop', 'units': 1000, 'batch_size': 16, 'learning_rate': 0.0001, 'activation': 'tanh'}
Blue
Model: "sequential"
_________________________________________________________________
Layer (type)                 Output Shape              Param #   
=================================================================
dense (Dense)                (None, 1000)              10001000  
_________________________________________________________________
dropout (Dropout)            (None, 1000)              0         
_________________________________________________________________
dense_1 (Dense)              (None, 1000)              1001000   
_________________________________________________________________
dropout_1 (Dropout)          (None, 1000)              0         
_________________________________________________________________
dense_2 (Dense)              (None, 1)                 1001      
=================================================================
Total params: 11,003,001
Trainable params: 11,003,001
Non-trainable params: 0
_________________________________________________________________
None
Red
0.42438469818759117
Typer KerasRegressor
Hello world
{'rate': 0.3, 'HP_NUM_HIDDEN_LAYERS': 3, 'HP_L1_REG': 1e-06, 'epochs': 100, 'HP_L2_REG': 0.001, 'kernel_initializer': 'glorot_normal', 'network_shape': 'long_funnel', 'HP_OPTIMIZER': 'Adagrad', 'units': 100, 'batch_size': 32, 'learning_rate': 0.001, 'activation': 'relu'}
Blue
Model: "sequential"
_________________________________________________________________
Layer (type)                 Output Shape              Param #   
=================================================================
dense (Dense)                (None, 100)               1000100   
_________________________________________________________________
dropout (Dropout)            (None, 100)               0         
_________________________________________________________________
dense_1 (Dense)              (None, 100)               10100     
_________________________________________________________________
dropout_1 (Dropout)          (None, 100)               0         
_________________________________________________________________
dense_2 (Dense)              (None, 66)                6666      
_________________________________________________________________
dropout_2 (Dropout)          (None, 66)                0         
_________________________________________________________________
dense_3 (Dense)              (None, 1)                 67        
=================================================================
Total params: 1,016,933
Trainable params: 1,016,933
Non-trainable params: 0
_________________________________________________________________
None
Red
0.5015704126208171
Typer KerasRegressor
Hello world
{'rate': 0.0, 'HP_NUM_HIDDEN_LAYERS': 2, 'HP_L1_REG': 0.001, 'epochs': 200, 'HP_L2_REG': 0.0, 'kernel_initializer': 'random_uniform', 'network_shape': 'brick', 'HP_OPTIMIZER': 'Adam', 'units': 200, 'batch_size': 128, 'learning_rate': 0.01, 'activation': 'relu'}
Blue
Model: "sequential"
_________________________________________________________________
Layer (type)                 Output Shape              Param #   
=================================================================
dense (Dense)                (None, 200)               2000200   
_________________________________________________________________
dense_1 (Dense)              (None, 200)               40200     
_________________________________________________________________
dense_2 (Dense)              (None, 1)                 201       
=================================================================
Total params: 2,040,601
Trainable params: 2,040,601
Non-trainable params: 0
_________________________________________________________________
None
Red
0.49353722530451816
Typer KerasRegressor
Hello world
{'rate': 0.3, 'HP_NUM_HIDDEN_LAYERS': 2, 'HP_L1_REG': 0.0001, 'epochs': 100, 'HP_L2_REG': 1e-08, 'kernel_initializer': 'random_normal', 'network_shape': 'long_funnel', 'HP_OPTIMIZER': 'Adam', 'units': 100, 'batch_size': 32, 'learning_rate': 1e-05, 'activation': 'relu'}
Blue
Model: "sequential"
_________________________________________________________________
Layer (type)                 Output Shape              Param #   
=================================================================
dense (Dense)                (None, 100)               1000100   
_________________________________________________________________
dropout (Dropout)            (None, 100)               0         
_________________________________________________________________
dense_1 (Dense)              (None, 100)               10100     
_________________________________________________________________
dropout_1 (Dropout)          (None, 100)               0         
_________________________________________________________________
dense_2 (Dense)              (None, 1)                 101       
=================================================================
Total params: 1,010,301
Trainable params: 1,010,301
Non-trainable params: 0
_________________________________________________________________
None
Red
0.5401490045192965
Typer KerasRegressor
Hello world
{'rate': 0.1, 'HP_NUM_HIDDEN_LAYERS': 3, 'HP_L1_REG': 0.001, 'epochs': 200, 'HP_L2_REG': 0.1, 'kernel_initializer': 'he_normal', 'network_shape': 'long_funnel', 'HP_OPTIMIZER': 'SGD', 'units': 200, 'batch_size': 128, 'learning_rate': 0.001, 'activation': 'relu'}
Blue
Model: "sequential"
_________________________________________________________________
Layer (type)                 Output Shape              Param #   
=================================================================
dense (Dense)                (None, 200)               2000200   
_________________________________________________________________
dropout (Dropout)            (None, 200)               0         
_________________________________________________________________
dense_1 (Dense)              (None, 200)               40200     
_________________________________________________________________
dropout_1 (Dropout)          (None, 200)               0         
_________________________________________________________________
dense_2 (Dense)              (None, 133)               26733     
_________________________________________________________________
dropout_2 (Dropout)          (None, 133)               0         
_________________________________________________________________
dense_3 (Dense)              (None, 1)                 134       
=================================================================
Total params: 2,067,267
Trainable params: 2,067,267
Non-trainable params: 0
_________________________________________________________________
None
Red
0.4165411845139202
Typer KerasRegressor
Hello world
{'rate': 0.1, 'HP_NUM_HIDDEN_LAYERS': 2, 'HP_L1_REG': 0.0001, 'epochs': 50, 'HP_L2_REG': 0.001, 'kernel_initializer': 'he_normal', 'network_shape': 'brick', 'HP_OPTIMIZER': 'RMSprop', 'units': 200, 'batch_size': 16, 'learning_rate': 0.0001, 'activation': 'relu'}
Blue
Model: "sequential"
_________________________________________________________________
Layer (type)                 Output Shape              Param #   
=================================================================
dense (Dense)                (None, 200)               2000200   
_________________________________________________________________
dropout (Dropout)            (None, 200)               0         
_________________________________________________________________
dense_1 (Dense)              (None, 200)               40200     
_________________________________________________________________
dropout_1 (Dropout)          (None, 200)               0         
_________________________________________________________________
dense_2 (Dense)              (None, 1)                 201       
=================================================================
Total params: 2,040,601
Trainable params: 2,040,601
Non-trainable params: 0
_________________________________________________________________
None
Red
0.5460027209613636
Typer KerasRegressor
Hello world
{'rate': 0.1, 'HP_NUM_HIDDEN_LAYERS': 5, 'HP_L1_REG': 1e-06, 'epochs': 100, 'HP_L2_REG': 0.001, 'kernel_initializer': 'he_normal', 'network_shape': 'funnel', 'HP_OPTIMIZER': 'Adagrad', 'units': 1000, 'batch_size': 16, 'learning_rate': 1e-05, 'activation': 'tanh'}
Blue
Model: "sequential"
_________________________________________________________________
Layer (type)                 Output Shape              Param #   
=================================================================
dense (Dense)                (None, 1000)              10001000  
_________________________________________________________________
dropout (Dropout)            (None, 1000)              0         
_________________________________________________________________
dense_1 (Dense)              (None, 666)               666666    
_________________________________________________________________
dropout_1 (Dropout)          (None, 666)               0         
_________________________________________________________________
dense_2 (Dense)              (None, 443)               295481    
_________________________________________________________________
dropout_2 (Dropout)          (None, 443)               0         
_________________________________________________________________
dense_3 (Dense)              (None, 295)               130980    
_________________________________________________________________
dropout_3 (Dropout)          (None, 295)               0         
_________________________________________________________________
dense_4 (Dense)              (None, 196)               58016     
_________________________________________________________________
dropout_4 (Dropout)          (None, 196)               0         
_________________________________________________________________
dense_5 (Dense)              (None, 1)                 197       
=================================================================
Total params: 11,152,340
Trainable params: 11,152,340
Non-trainable params: 0
_________________________________________________________________
None
Red
-0.11576795516490757
Typer KerasRegressor
Hello world
INNER COUNT NO.  4
/external_storage/ciaran/arabadopsis/FT16cv_new_10k/shuf
test_raw_plink_shuf_1_in_4_in.raw
…
Binary is False
Set size set to 10000
organism: arabadopsis
Binary is False
{'rate': 0.1, 'HP_NUM_HIDDEN_LAYERS': 3, 'HP_L1_REG': 0.0001, 'epochs': 200, 'HP_L2_REG': 0.1, 'kernel_initializer': 'glorot_uniform', 'network_shape': 'funnel', 'HP_OPTIMIZER': 'Adamax', 'units': 100, 'batch_size': 128, 'learning_rate': 0.01, 'activation': 'elu'}
Blue
Model: "sequential"
_________________________________________________________________
Layer (type)                 Output Shape              Param #   
=================================================================
dense (Dense)                (None, 100)               1000100   
_________________________________________________________________
dropout (Dropout)            (None, 100)               0         
_________________________________________________________________
dense_1 (Dense)              (None, 66)                6666      
_________________________________________________________________
dropout_1 (Dropout)          (None, 66)                0         
_________________________________________________________________
dense_2 (Dense)              (None, 43)                2881      
_________________________________________________________________
dropout_2 (Dropout)          (None, 43)                0         
_________________________________________________________________
dense_3 (Dense)              (None, 1)                 44        
=================================================================
Total params: 1,009,691
Trainable params: 1,009,691
Non-trainable params: 0
_________________________________________________________________
None
Red
0.42585978902140664
Typer KerasRegressor
Hello world
{'rate': 0.0, 'HP_NUM_HIDDEN_LAYERS': 5, 'HP_L1_REG': 0.0001, 'epochs': 200, 'HP_L2_REG': 0.001, 'kernel_initializer': 'random_normal', 'network_shape': 'brick', 'HP_OPTIMIZER': 'Adagrad', 'units': 200, 'batch_size': 128, 'learning_rate': 1e-05, 'activation': 'relu'}
Blue
Model: "sequential"
_________________________________________________________________
Layer (type)                 Output Shape              Param #   
=================================================================
dense (Dense)                (None, 200)               2000200   
_________________________________________________________________
dense_1 (Dense)              (None, 200)               40200     
_________________________________________________________________
dense_2 (Dense)              (None, 200)               40200     
_________________________________________________________________
dense_3 (Dense)              (None, 200)               40200     
_________________________________________________________________
dense_4 (Dense)              (None, 200)               40200     
_________________________________________________________________
dense_5 (Dense)              (None, 1)                 201       
=================================================================
Total params: 2,161,201
Trainable params: 2,161,201
Non-trainable params: 0
_________________________________________________________________
None
Red
-0.001739413235042564
Typer KerasRegressor
Hello world
{'rate': 0.3, 'HP_NUM_HIDDEN_LAYERS': 3, 'HP_L1_REG': 0.001, 'epochs': 50, 'HP_L2_REG': 0.1, 'kernel_initializer': 'random_normal', 'network_shape': 'brick', 'HP_OPTIMIZER': 'Adamax', 'units': 200, 'batch_size': 32, 'learning_rate': 0.01, 'activation': 'relu'}
Blue
Model: "sequential"
_________________________________________________________________
Layer (type)                 Output Shape              Param #   
=================================================================
dense (Dense)                (None, 200)               2000200   
_________________________________________________________________
dropout (Dropout)            (None, 200)               0         
_________________________________________________________________
dense_1 (Dense)              (None, 200)               40200     
_________________________________________________________________
dropout_1 (Dropout)          (None, 200)               0         
_________________________________________________________________
dense_2 (Dense)              (None, 200)               40200     
_________________________________________________________________
dropout_2 (Dropout)          (None, 200)               0         
_________________________________________________________________
dense_3 (Dense)              (None, 1)                 201       
=================================================================
Total params: 2,080,801
Trainable params: 2,080,801
Non-trainable params: 0
_________________________________________________________________
None
Red
-0.013637672034243264
Typer KerasRegressor
Hello world
{'rate': 0.0, 'HP_NUM_HIDDEN_LAYERS': 2, 'HP_L1_REG': 0.001, 'epochs': 100, 'HP_L2_REG': 0.001, 'kernel_initializer': 'random_uniform', 'network_shape': 'brick', 'HP_OPTIMIZER': 'Adamax', 'units': 200, 'batch_size': 128, 'learning_rate': 0.001, 'activation': 'relu'}
Blue
Model: "sequential"
_________________________________________________________________
Layer (type)                 Output Shape              Param #   
=================================================================
dense (Dense)                (None, 200)               2000200   
_________________________________________________________________
dense_1 (Dense)              (None, 200)               40200     
_________________________________________________________________
dense_2 (Dense)              (None, 1)                 201       
=================================================================
Total params: 2,040,601
Trainable params: 2,040,601
Non-trainable params: 0
_________________________________________________________________
None
Red
0.3650198434763914
Typer KerasRegressor
Hello world
{'rate': 0.3, 'HP_NUM_HIDDEN_LAYERS': 3, 'HP_L1_REG': 0.0001, 'epochs': 100, 'HP_L2_REG': 1e-08, 'kernel_initializer': 'random_uniform', 'network_shape': 'funnel', 'HP_OPTIMIZER': 'SGD', 'units': 100, 'batch_size': 128, 'learning_rate': 0.01, 'activation': 'relu'}
Blue
Model: "sequential"
_________________________________________________________________
Layer (type)                 Output Shape              Param #   
=================================================================
dense (Dense)                (None, 100)               1000100   
_________________________________________________________________
dropout (Dropout)            (None, 100)               0         
_________________________________________________________________
dense_1 (Dense)              (None, 66)                6666      
_________________________________________________________________
dropout_1 (Dropout)          (None, 66)                0         
_________________________________________________________________
dense_2 (Dense)              (None, 43)                2881      
_________________________________________________________________
dropout_2 (Dropout)          (None, 43)                0         
_________________________________________________________________
dense_3 (Dense)              (None, 1)                 44        
=================================================================
Total params: 1,009,691
Trainable params: 1,009,691
Non-trainable params: 0
_________________________________________________________________
None
Red
-0.007283758806521323
Typer KerasRegressor
Hello world
{'rate': 0.3, 'HP_NUM_HIDDEN_LAYERS': 3, 'HP_L1_REG': 0.001, 'epochs': 200, 'HP_L2_REG': 0.001, 'kernel_initializer': 'random_normal', 'network_shape': 'funnel', 'HP_OPTIMIZER': 'Adam', 'units': 200, 'batch_size': 32, 'learning_rate': 1e-05, 'activation': 'tanh'}
Blue
Model: "sequential"
_________________________________________________________________
Layer (type)                 Output Shape              Param #   
=================================================================
dense (Dense)                (None, 200)               2000200   
_________________________________________________________________
dropout (Dropout)            (None, 200)               0         
_________________________________________________________________
dense_1 (Dense)              (None, 133)               26733     
_________________________________________________________________
dropout_1 (Dropout)          (None, 133)               0         
_________________________________________________________________
dense_2 (Dense)              (None, 88)                11792     
_________________________________________________________________
dropout_2 (Dropout)          (None, 88)                0         
_________________________________________________________________
dense_3 (Dense)              (None, 1)                 89        
=================================================================
Total params: 2,038,814
Trainable params: 2,038,814
Non-trainable params: 0
_________________________________________________________________
None
Red
0.4432362556791323
Typer KerasRegressor
Hello world
{'rate': 0.1, 'HP_NUM_HIDDEN_LAYERS': 2, 'HP_L1_REG': 1e-06, 'epochs': 50, 'HP_L2_REG': 1e-08, 'kernel_initializer': 'he_uniform', 'network_shape': 'brick', 'HP_OPTIMIZER': 'RMSprop', 'units': 200, 'batch_size': 128, 'learning_rate': 0.0001, 'activation': 'relu'}
Blue
Model: "sequential"
_________________________________________________________________
Layer (type)                 Output Shape              Param #   
=================================================================
dense (Dense)                (None, 200)               2000200   
_________________________________________________________________
dropout (Dropout)            (None, 200)               0         
_________________________________________________________________
dense_1 (Dense)              (None, 200)               40200     
_________________________________________________________________
dropout_1 (Dropout)          (None, 200)               0         
_________________________________________________________________
dense_2 (Dense)              (None, 1)                 201       
=================================================================
Total params: 2,040,601
Trainable params: 2,040,601
Non-trainable params: 0
_________________________________________________________________
None
Red
0.4408816872230278
Typer KerasRegressor
Hello world
{'rate': 0.1, 'HP_NUM_HIDDEN_LAYERS': 3, 'HP_L1_REG': 0.001, 'epochs': 200, 'HP_L2_REG': 0.1, 'kernel_initializer': 'glorot_normal', 'network_shape': 'long_funnel', 'HP_OPTIMIZER': 'Adamax', 'units': 1000, 'batch_size': 32, 'learning_rate': 0.001, 'activation': 'elu'}
Blue
Model: "sequential"
_________________________________________________________________
Layer (type)                 Output Shape              Param #   
=================================================================
dense (Dense)                (None, 1000)              10001000  
_________________________________________________________________
dropout (Dropout)            (None, 1000)              0         
_________________________________________________________________
dense_1 (Dense)              (None, 1000)              1001000   
_________________________________________________________________
dropout_1 (Dropout)          (None, 1000)              0         
_________________________________________________________________
dense_2 (Dense)              (None, 666)               666666    
_________________________________________________________________
dropout_2 (Dropout)          (None, 666)               0         
_________________________________________________________________
dense_3 (Dense)              (None, 1)                 667       
=================================================================
Total params: 11,669,333
Trainable params: 11,669,333
Non-trainable params: 0
_________________________________________________________________
None
Red
0.3794221878613019
Typer KerasRegressor
Hello world
{'rate': 0.3, 'HP_NUM_HIDDEN_LAYERS': 3, 'HP_L1_REG': 0.0001, 'epochs': 50, 'HP_L2_REG': 0.001, 'kernel_initializer': 'he_uniform', 'network_shape': 'brick', 'HP_OPTIMIZER': 'Adam', 'units': 200, 'batch_size': 128, 'learning_rate': 0.001, 'activation': 'relu'}
Blue
Model: "sequential"
_________________________________________________________________
Layer (type)                 Output Shape              Param #   
=================================================================
dense (Dense)                (None, 200)               2000200   
_________________________________________________________________
dropout (Dropout)            (None, 200)               0         
_________________________________________________________________
dense_1 (Dense)              (None, 200)               40200     
_________________________________________________________________
dropout_1 (Dropout)          (None, 200)               0         
_________________________________________________________________
dense_2 (Dense)              (None, 200)               40200     
_________________________________________________________________
dropout_2 (Dropout)          (None, 200)               0         
_________________________________________________________________
dense_3 (Dense)              (None, 1)                 201       
=================================================================
Total params: 2,080,801
Trainable params: 2,080,801
Non-trainable params: 0
_________________________________________________________________
None
Red
0.46696774579851286
Typer KerasRegressor
Hello world
{'rate': 0.1, 'HP_NUM_HIDDEN_LAYERS': 3, 'HP_L1_REG': 1e-06, 'epochs': 100, 'HP_L2_REG': 1e-08, 'kernel_initializer': 'random_normal', 'network_shape': 'funnel', 'HP_OPTIMIZER': 'Adam', 'units': 1000, 'batch_size': 32, 'learning_rate': 0.01, 'activation': 'relu'}
Blue
Model: "sequential"
_________________________________________________________________
Layer (type)                 Output Shape              Param #   
=================================================================
dense (Dense)                (None, 1000)              10001000  
_________________________________________________________________
dropout (Dropout)            (None, 1000)              0         
_________________________________________________________________
dense_1 (Dense)              (None, 666)               666666    
_________________________________________________________________
dropout_1 (Dropout)          (None, 666)               0         
_________________________________________________________________
dense_2 (Dense)              (None, 443)               295481    
_________________________________________________________________
dropout_2 (Dropout)          (None, 443)               0         
_________________________________________________________________
dense_3 (Dense)              (None, 1)                 444       
=================================================================
Total params: 10,963,591
Trainable params: 10,963,591
Non-trainable params: 0
_________________________________________________________________
None
Red
0.5219103055097982
Typer KerasRegressor
Hello world
{'rate': 0.1, 'HP_NUM_HIDDEN_LAYERS': 3, 'HP_L1_REG': 1e-06, 'epochs': 50, 'HP_L2_REG': 0.1, 'kernel_initializer': 'random_uniform', 'network_shape': 'brick', 'HP_OPTIMIZER': 'SGD', 'units': 1000, 'batch_size': 32, 'learning_rate': 0.001, 'activation': 'tanh'}
Blue
Model: "sequential"
_________________________________________________________________
Layer (type)                 Output Shape              Param #   
=================================================================
dense (Dense)                (None, 1000)              10001000  
_________________________________________________________________
dropout (Dropout)            (None, 1000)              0         
_________________________________________________________________
dense_1 (Dense)              (None, 1000)              1001000   
_________________________________________________________________
dropout_1 (Dropout)          (None, 1000)              0         
_________________________________________________________________
dense_2 (Dense)              (None, 1000)              1001000   
_________________________________________________________________
dropout_2 (Dropout)          (None, 1000)              0         
_________________________________________________________________
dense_3 (Dense)              (None, 1)                 1001      
=================================================================
Total params: 12,004,001
Trainable params: 12,004,001
Non-trainable params: 0
_________________________________________________________________
None
Red
0.37509104573233787
Typer KerasRegressor
Hello world
{'rate': 0.1, 'HP_NUM_HIDDEN_LAYERS': 3, 'HP_L1_REG': 1e-06, 'epochs': 200, 'HP_L2_REG': 1e-08, 'kernel_initializer': 'glorot_normal', 'network_shape': 'long_funnel', 'HP_OPTIMIZER': 'Adam', 'units': 100, 'batch_size': 16, 'learning_rate': 0.0001, 'activation': 'elu'}
Blue
Model: "sequential"
_________________________________________________________________
Layer (type)                 Output Shape              Param #   
=================================================================
dense (Dense)                (None, 100)               1000100   
_________________________________________________________________
dropout (Dropout)            (None, 100)               0         
_________________________________________________________________
dense_1 (Dense)              (None, 100)               10100     
_________________________________________________________________
dropout_1 (Dropout)          (None, 100)               0         
_________________________________________________________________
dense_2 (Dense)              (None, 66)                6666      
_________________________________________________________________
dropout_2 (Dropout)          (None, 66)                0         
_________________________________________________________________
dense_3 (Dense)              (None, 1)                 67        
=================================================================
Total params: 1,016,933
Trainable params: 1,016,933
Non-trainable params: 0
_________________________________________________________________
None
Red
0.5129962789217155
Typer KerasRegressor
Hello world
{'rate': 0.1, 'HP_NUM_HIDDEN_LAYERS': 3, 'HP_L1_REG': 1e-06, 'epochs': 50, 'HP_L2_REG': 0.1, 'kernel_initializer': 'he_normal', 'network_shape': 'brick', 'HP_OPTIMIZER': 'Adam', 'units': 1000, 'batch_size': 128, 'learning_rate': 0.001, 'activation': 'tanh'}
Blue
Model: "sequential"
_________________________________________________________________
Layer (type)                 Output Shape              Param #   
=================================================================
dense (Dense)                (None, 1000)              10001000  
_________________________________________________________________
dropout (Dropout)            (None, 1000)              0         
_________________________________________________________________
dense_1 (Dense)              (None, 1000)              1001000   
_________________________________________________________________
dropout_1 (Dropout)          (None, 1000)              0         
_________________________________________________________________
dense_2 (Dense)              (None, 1000)              1001000   
_________________________________________________________________
dropout_2 (Dropout)          (None, 1000)              0         
_________________________________________________________________
dense_3 (Dense)              (None, 1)                 1001      
=================================================================
Total params: 12,004,001
Trainable params: 12,004,001
Non-trainable params: 0
_________________________________________________________________
None
Red
0.3582769421584968
Typer KerasRegressor
Hello world
{'rate': 0.1, 'HP_NUM_HIDDEN_LAYERS': 2, 'HP_L1_REG': 1e-06, 'epochs': 200, 'HP_L2_REG': 0.001, 'kernel_initializer': 'he_uniform', 'network_shape': 'long_funnel', 'HP_OPTIMIZER': 'Adagrad', 'units': 200, 'batch_size': 128, 'learning_rate': 1e-05, 'activation': 'relu'}
Blue
Model: "sequential"
_________________________________________________________________
Layer (type)                 Output Shape              Param #   
=================================================================
dense (Dense)                (None, 200)               2000200   
_________________________________________________________________
dropout (Dropout)            (None, 200)               0         
_________________________________________________________________
dense_1 (Dense)              (None, 200)               40200     
_________________________________________________________________
dropout_1 (Dropout)          (None, 200)               0         
_________________________________________________________________
dense_2 (Dense)              (None, 1)                 201       
=================================================================
Total params: 2,040,601
Trainable params: 2,040,601
Non-trainable params: 0
_________________________________________________________________
None
Red
0.006098421558995981
Typer KerasRegressor
Hello world
{'rate': 0.0, 'HP_NUM_HIDDEN_LAYERS': 3, 'HP_L1_REG': 1e-05, 'epochs': 200, 'HP_L2_REG': 1e-08, 'kernel_initializer': 'glorot_normal', 'network_shape': 'long_funnel', 'HP_OPTIMIZER': 'RMSprop', 'units': 1000, 'batch_size': 16, 'learning_rate': 0.01, 'activation': 'elu'}
Blue
Model: "sequential"
_________________________________________________________________
Layer (type)                 Output Shape              Param #   
=================================================================
dense (Dense)                (None, 1000)              10001000  
_________________________________________________________________
dense_1 (Dense)              (None, 1000)              1001000   
_________________________________________________________________
dense_2 (Dense)              (None, 666)               666666    
_________________________________________________________________
dense_3 (Dense)              (None, 1)                 667       
=================================================================
Total params: 11,669,333
Trainable params: 11,669,333
Non-trainable params: 0
_________________________________________________________________
None
Red
-1.978660202089897
Typer KerasRegressor
Hello world
{'rate': 0.0, 'HP_NUM_HIDDEN_LAYERS': 5, 'HP_L1_REG': 0.0001, 'epochs': 100, 'HP_L2_REG': 0.1, 'kernel_initializer': 'he_normal', 'network_shape': 'long_funnel', 'HP_OPTIMIZER': 'Adamax', 'units': 100, 'batch_size': 128, 'learning_rate': 0.001, 'activation': 'elu'}
Blue
Model: "sequential"
_________________________________________________________________
Layer (type)                 Output Shape              Param #   
=================================================================
dense (Dense)                (None, 100)               1000100   
_________________________________________________________________
dense_1 (Dense)              (None, 100)               10100     
_________________________________________________________________
dense_2 (Dense)              (None, 66)                6666      
_________________________________________________________________
dense_3 (Dense)              (None, 43)                2881      
_________________________________________________________________
dense_4 (Dense)              (None, 28)                1232      
_________________________________________________________________
dense_5 (Dense)              (None, 1)                 29        
=================================================================
Total params: 1,021,008
Trainable params: 1,021,008
Non-trainable params: 0
_________________________________________________________________
None
Red
0.44802397862886434
Typer KerasRegressor
Hello world
{'rate': 0.3, 'HP_NUM_HIDDEN_LAYERS': 2, 'HP_L1_REG': 0.0001, 'epochs': 200, 'HP_L2_REG': 1e-08, 'kernel_initializer': 'glorot_normal', 'network_shape': 'funnel', 'HP_OPTIMIZER': 'RMSprop', 'units': 200, 'batch_size': 128, 'learning_rate': 0.01, 'activation': 'tanh'}
Blue
Model: "sequential"
_________________________________________________________________
Layer (type)                 Output Shape              Param #   
=================================================================
dense (Dense)                (None, 200)               2000200   
_________________________________________________________________
dropout (Dropout)            (None, 200)               0         
_________________________________________________________________
dense_1 (Dense)              (None, 133)               26733     
_________________________________________________________________
dropout_1 (Dropout)          (None, 133)               0         
_________________________________________________________________
dense_2 (Dense)              (None, 1)                 134       
=================================================================
Total params: 2,027,067
Trainable params: 2,027,067
Non-trainable params: 0
_________________________________________________________________
None
Red
-1.1889671932519588
Typer KerasRegressor
Hello world
{'rate': 0.0, 'HP_NUM_HIDDEN_LAYERS': 5, 'HP_L1_REG': 1e-05, 'epochs': 100, 'HP_L2_REG': 1e-08, 'kernel_initializer': 'random_normal', 'network_shape': 'long_funnel', 'HP_OPTIMIZER': 'Adagrad', 'units': 1000, 'batch_size': 32, 'learning_rate': 0.001, 'activation': 'elu'}
Blue
Model: "sequential"
_________________________________________________________________
Layer (type)                 Output Shape              Param #   
=================================================================
dense (Dense)                (None, 1000)              10001000  
_________________________________________________________________
dense_1 (Dense)              (None, 1000)              1001000   
_________________________________________________________________
dense_2 (Dense)              (None, 666)               666666    
_________________________________________________________________
dense_3 (Dense)              (None, 443)               295481    
_________________________________________________________________
dense_4 (Dense)              (None, 295)               130980    
_________________________________________________________________
dense_5 (Dense)              (None, 1)                 296       
=================================================================
Total params: 12,095,423
Trainable params: 12,095,423
Non-trainable params: 0
_________________________________________________________________
None
Red
0.40934276131838976
Typer KerasRegressor
Hello world
{'rate': 0.3, 'HP_NUM_HIDDEN_LAYERS': 3, 'HP_L1_REG': 0.0001, 'epochs': 50, 'HP_L2_REG': 0.001, 'kernel_initializer': 'glorot_normal', 'network_shape': 'funnel', 'HP_OPTIMIZER': 'Adamax', 'units': 100, 'batch_size': 32, 'learning_rate': 0.001, 'activation': 'relu'}
Blue
Model: "sequential"
_________________________________________________________________
Layer (type)                 Output Shape              Param #   
=================================================================
dense (Dense)                (None, 100)               1000100   
_________________________________________________________________
dropout (Dropout)            (None, 100)               0         
_________________________________________________________________
dense_1 (Dense)              (None, 66)                6666      
_________________________________________________________________
dropout_1 (Dropout)          (None, 66)                0         
_________________________________________________________________
dense_2 (Dense)              (None, 43)                2881      
_________________________________________________________________
dropout_2 (Dropout)          (None, 43)                0         
_________________________________________________________________
dense_3 (Dense)              (None, 1)                 44        
=================================================================
Total params: 1,009,691
Trainable params: 1,009,691
Non-trainable params: 0
_________________________________________________________________
None
Red
0.46579346591938475
Typer KerasRegressor
Hello world
{'rate': 0.0, 'HP_NUM_HIDDEN_LAYERS': 3, 'HP_L1_REG': 1e-06, 'epochs': 200, 'HP_L2_REG': 0.1, 'kernel_initializer': 'random_normal', 'network_shape': 'brick', 'HP_OPTIMIZER': 'Adamax', 'units': 200, 'batch_size': 32, 'learning_rate': 0.0001, 'activation': 'relu'}
Blue
Model: "sequential"
_________________________________________________________________
Layer (type)                 Output Shape              Param #   
=================================================================
dense (Dense)                (None, 200)               2000200   
_________________________________________________________________
dense_1 (Dense)              (None, 200)               40200     
_________________________________________________________________
dense_2 (Dense)              (None, 200)               40200     
_________________________________________________________________
dense_3 (Dense)              (None, 1)                 201       
=================================================================
Total params: 2,080,801
Trainable params: 2,080,801
Non-trainable params: 0
_________________________________________________________________
None
Red
0.44047714747515776
Typer KerasRegressor
Hello world
OUTER COUNT NO.  1
/external_storage/ciaran/arabadopsis/FT16cv_new_10k/shuf
test_raw_plink_shuf_1_in_4_out.raw
Set size set to 10000
organism: arabadopsis
Binary is False
Set size set to 10000
organism: arabadopsis
Binary is False
Model: "sequential"
_________________________________________________________________
Layer (type)                 Output Shape              Param #   
=================================================================
dense (Dense)                (None, 200)               2000200   
_________________________________________________________________
dropout (Dropout)            (None, 200)               0         
_________________________________________________________________
dense_1 (Dense)              (None, 133)               26733     
_________________________________________________________________
dropout_1 (Dropout)          (None, 133)               0         
_________________________________________________________________
dense_2 (Dense)              (None, 88)                11792     
_________________________________________________________________
dropout_2 (Dropout)          (None, 88)                0         
_________________________________________________________________
dense_3 (Dense)              (None, 58)                5162      
_________________________________________________________________
dropout_3 (Dropout)          (None, 58)                0         
_________________________________________________________________
dense_4 (Dense)              (None, 38)                2242      
_________________________________________________________________
dropout_4 (Dropout)          (None, 38)                0         
_________________________________________________________________
dense_5 (Dense)              (None, 1)                 39        
=================================================================
Total params: 2,046,168
Trainable params: 2,046,168
Non-trainable params: 0
_________________________________________________________________
None
0.5582902423996772
INNER COUNT NO.  1
/external_storage/ciaran/arabadopsis/FT16cv_new_10k/shuf
test_raw_plink_shuf_2_in_1_in.raw
Set size set to 10000
organism: arabadopsis
Binary is False
Set size set to 10000
organism: arabadopsis
Binary is False
{'rate': 0.3, 'HP_NUM_HIDDEN_LAYERS': 2, 'HP_L1_REG': 1e-05, 'epochs': 200, 'HP_L2_REG': 0.001, 'kernel_initializer': 'random_normal', 'network_shape': 'brick', 'HP_OPTIMIZER': 'Adamax', 'units': 200, 'batch_size': 16, 'learning_rate': 0.0001, 'activation': 'relu'}
Blue
Model: "sequential_1"
_________________________________________________________________
Layer (type)                 Output Shape              Param #   
=================================================================
dense_6 (Dense)              (None, 200)               2000200   
_________________________________________________________________
dropout_5 (Dropout)          (None, 200)               0         
_________________________________________________________________
dense_7 (Dense)              (None, 200)               40200     
_________________________________________________________________
dropout_6 (Dropout)          (None, 200)               0         
_________________________________________________________________
dense_8 (Dense)              (None, 1)                 201       
=================================================================
Total params: 2,040,601
Trainable params: 2,040,601
Non-trainable params: 0
_________________________________________________________________
None
Red
0.4671609937945618
Typer KerasRegressor
Hello world
{'rate': 0.0, 'HP_NUM_HIDDEN_LAYERS': 2, 'HP_L1_REG': 0.001, 'epochs': 100, 'HP_L2_REG': 0.001, 'kernel_initializer': 'glorot_uniform', 'network_shape': 'funnel', 'HP_OPTIMIZER': 'Adagrad', 'units': 1000, 'batch_size': 32, 'learning_rate': 0.01, 'activation': 'tanh'}
Blue
Model: "sequential"
_________________________________________________________________
Layer (type)                 Output Shape              Param #   
=================================================================
dense (Dense)                (None, 1000)              10001000  
_________________________________________________________________
dense_1 (Dense)              (None, 666)               666666    
_________________________________________________________________
dense_2 (Dense)              (None, 1)                 667       
=================================================================
Total params: 10,668,333
Trainable params: 10,668,333
Non-trainable params: 0
_________________________________________________________________
None
Red
0.41438800349362215
Typer KerasRegressor
Hello world
{'rate': 0.1, 'HP_NUM_HIDDEN_LAYERS': 2, 'HP_L1_REG': 0.001, 'epochs': 100, 'HP_L2_REG': 0.1, 'kernel_initializer': 'random_normal', 'network_shape': 'long_funnel', 'HP_OPTIMIZER': 'RMSprop', 'units': 100, 'batch_size': 16, 'learning_rate': 0.001, 'activation': 'relu'}
Blue
Model: "sequential"
_________________________________________________________________
Layer (type)                 Output Shape              Param #   
=================================================================
dense (Dense)                (None, 100)               1000100   
_________________________________________________________________
dropout (Dropout)            (None, 100)               0         
_________________________________________________________________
dense_1 (Dense)              (None, 100)               10100     
_________________________________________________________________
dropout_1 (Dropout)          (None, 100)               0         
_________________________________________________________________
dense_2 (Dense)              (None, 1)                 101       
=================================================================
Total params: 1,010,301
Trainable params: 1,010,301
Non-trainable params: 0
_________________________________________________________________
None
Red
0.40377870178917297
Typer KerasRegressor
Hello world
{'rate': 0.1, 'HP_NUM_HIDDEN_LAYERS': 3, 'HP_L1_REG': 1e-05, 'epochs': 50, 'HP_L2_REG': 0.0, 'kernel_initializer': 'glorot_uniform', 'network_shape': 'brick', 'HP_OPTIMIZER': 'RMSprop', 'units': 200, 'batch_size': 16, 'learning_rate': 1e-05, 'activation': 'tanh'}
Blue
Model: "sequential"
_________________________________________________________________
Layer (type)                 Output Shape              Param #   
=================================================================
dense (Dense)                (None, 200)               2000200   
_________________________________________________________________
dropout (Dropout)            (None, 200)               0         
_________________________________________________________________
dense_1 (Dense)              (None, 200)               40200     
_________________________________________________________________
dropout_1 (Dropout)          (None, 200)               0         
_________________________________________________________________
dense_2 (Dense)              (None, 200)               40200     
_________________________________________________________________
dropout_2 (Dropout)          (None, 200)               0         
_________________________________________________________________
dense_3 (Dense)              (None, 1)                 201       
=================================================================
Total params: 2,080,801
Trainable params: 2,080,801
Non-trainable params: 0
_________________________________________________________________
None
Red
0.4907533886053098
Typer KerasRegressor
Hello world
{'rate': 0.3, 'HP_NUM_HIDDEN_LAYERS': 5, 'HP_L1_REG': 1e-06, 'epochs': 100, 'HP_L2_REG': 0.0, 'kernel_initializer': 'random_uniform', 'network_shape': 'brick', 'HP_OPTIMIZER': 'RMSprop', 'units': 100, 'batch_size': 16, 'learning_rate': 1e-05, 'activation': 'tanh'}
Blue
Model: "sequential"
_________________________________________________________________
Layer (type)                 Output Shape              Param #   
=================================================================
dense (Dense)                (None, 100)               1000100   
_________________________________________________________________
dropout (Dropout)            (None, 100)               0         
_________________________________________________________________
dense_1 (Dense)              (None, 100)               10100     
_________________________________________________________________
dropout_1 (Dropout)          (None, 100)               0         
_________________________________________________________________
dense_2 (Dense)              (None, 100)               10100     
_________________________________________________________________
dropout_2 (Dropout)          (None, 100)               0         
_________________________________________________________________
dense_3 (Dense)              (None, 100)               10100     
_________________________________________________________________
dropout_3 (Dropout)          (None, 100)               0         
_________________________________________________________________
dense_4 (Dense)              (None, 100)               10100     
_________________________________________________________________
dropout_4 (Dropout)          (None, 100)               0         
_________________________________________________________________
dense_5 (Dense)              (None, 1)                 101       
=================================================================
Total params: 1,040,601
Trainable params: 1,040,601
Non-trainable params: 0
_________________________________________________________________
None
Red
0.008507671656269866
Typer KerasRegressor
Hello world
{'rate': 0.0, 'HP_NUM_HIDDEN_LAYERS': 2, 'HP_L1_REG': 0.0001, 'epochs': 100, 'HP_L2_REG': 0.1, 'kernel_initializer': 'random_uniform', 'network_shape': 'brick', 'HP_OPTIMIZER': 'Adamax', 'units': 200, 'batch_size': 128, 'learning_rate': 0.0001, 'activation': 'relu'}
Blue
Model: "sequential"
_________________________________________________________________
Layer (type)                 Output Shape              Param #   
=================================================================
dense (Dense)                (None, 200)               2000200   
_________________________________________________________________
dense_1 (Dense)              (None, 200)               40200     
_________________________________________________________________
dense_2 (Dense)              (None, 1)                 201       
=================================================================
Total params: 2,040,601
Trainable params: 2,040,601
Non-trainable params: 0
_________________________________________________________________
None
Red
0.4674597028737031
Typer KerasRegressor
Hello world
{'rate': 0.3, 'HP_NUM_HIDDEN_LAYERS': 3, 'HP_L1_REG': 0.0001, 'epochs': 200, 'HP_L2_REG': 1e-08, 'kernel_initializer': 'random_uniform', 'network_shape': 'long_funnel', 'HP_OPTIMIZER': 'RMSprop', 'units': 1000, 'batch_size': 128, 'learning_rate': 1e-05, 'activation': 'elu'}
Blue
Model: "sequential"
_________________________________________________________________
Layer (type)                 Output Shape              Param #   
=================================================================
dense (Dense)                (None, 1000)              10001000  
_________________________________________________________________
dropout (Dropout)            (None, 1000)              0         
_________________________________________________________________
dense_1 (Dense)              (None, 1000)              1001000   
_________________________________________________________________
dropout_1 (Dropout)          (None, 1000)              0         
_________________________________________________________________
dense_2 (Dense)              (None, 666)               666666    
_________________________________________________________________
dropout_2 (Dropout)          (None, 666)               0         
_________________________________________________________________
dense_3 (Dense)              (None, 1)                 667       
=================================================================
Total params: 11,669,333
Trainable params: 11,669,333
Non-trainable params: 0
_________________________________________________________________
None
Red
0.4927958571224642
Typer KerasRegressor
Hello world
{'rate': 0.3, 'HP_NUM_HIDDEN_LAYERS': 2, 'HP_L1_REG': 0.001, 'epochs': 100, 'HP_L2_REG': 1e-08, 'kernel_initializer': 'random_uniform', 'network_shape': 'brick', 'HP_OPTIMIZER': 'Adamax', 'units': 200, 'batch_size': 32, 'learning_rate': 0.01, 'activation': 'tanh'}
Blue
Model: "sequential"
_________________________________________________________________
Layer (type)                 Output Shape              Param #   
=================================================================
dense (Dense)                (None, 200)               2000200   
_________________________________________________________________
dropout (Dropout)            (None, 200)               0         
_________________________________________________________________
dense_1 (Dense)              (None, 200)               40200     
_________________________________________________________________
dropout_1 (Dropout)          (None, 200)               0         
_________________________________________________________________
dense_2 (Dense)              (None, 1)                 201       
=================================================================
Total params: 2,040,601
Trainable params: 2,040,601
Non-trainable params: 0
_________________________________________________________________
None
Red
0.3026281163234694
Typer KerasRegressor
Hello world
{'rate': 0.3, 'HP_NUM_HIDDEN_LAYERS': 2, 'HP_L1_REG': 1e-06, 'epochs': 50, 'HP_L2_REG': 1e-08, 'kernel_initializer': 'he_normal', 'network_shape': 'funnel', 'HP_OPTIMIZER': 'Adam', 'units': 100, 'batch_size': 128, 'learning_rate': 0.001, 'activation': 'relu'}
Blue
Model: "sequential"
_________________________________________________________________
Layer (type)                 Output Shape              Param #   
=================================================================
dense (Dense)                (None, 100)               1000100   
_________________________________________________________________
dropout (Dropout)            (None, 100)               0         
_________________________________________________________________
dense_1 (Dense)              (None, 66)                6666      
_________________________________________________________________
dropout_1 (Dropout)          (None, 66)                0         
_________________________________________________________________
dense_2 (Dense)              (None, 1)                 67        
=================================================================
Total params: 1,006,833
Trainable params: 1,006,833
Non-trainable params: 0
_________________________________________________________________
None
Red
0.4222009840019757
Typer KerasRegressor
Hello world
{'rate': 0.1, 'HP_NUM_HIDDEN_LAYERS': 3, 'HP_L1_REG': 1e-05, 'epochs': 200, 'HP_L2_REG': 0.0, 'kernel_initializer': 'glorot_normal', 'network_shape': 'long_funnel', 'HP_OPTIMIZER': 'Adamax', 'units': 1000, 'batch_size': 128, 'learning_rate': 0.0001, 'activation': 'relu'}
Blue
Model: "sequential"
_________________________________________________________________
Layer (type)                 Output Shape              Param #   
=================================================================
dense (Dense)                (None, 1000)              10001000  
_________________________________________________________________
dropout (Dropout)            (None, 1000)              0         
_________________________________________________________________
dense_1 (Dense)              (None, 1000)              1001000   
_________________________________________________________________
dropout_1 (Dropout)          (None, 1000)              0         
_________________________________________________________________
dense_2 (Dense)              (None, 666)               666666    
_________________________________________________________________
dropout_2 (Dropout)          (None, 666)               0         
_________________________________________________________________
dense_3 (Dense)              (None, 1)                 667       
=================================================================
Total params: 11,669,333
Trainable params: 11,669,333
Non-trainable params: 0
_________________________________________________________________
None
Red
0.4823827036528133
Typer KerasRegressor
Hello world
{'rate': 0.0, 'HP_NUM_HIDDEN_LAYERS': 3, 'HP_L1_REG': 1e-05, 'epochs': 50, 'HP_L2_REG': 0.0, 'kernel_initializer': 'he_uniform', 'network_shape': 'brick', 'HP_OPTIMIZER': 'SGD', 'units': 200, 'batch_size': 32, 'learning_rate': 0.001, 'activation': 'relu'}
Blue
Model: "sequential"
_________________________________________________________________
Layer (type)                 Output Shape              Param #   
=================================================================
dense (Dense)                (None, 200)               2000200   
_________________________________________________________________
dense_1 (Dense)              (None, 200)               40200     
_________________________________________________________________
dense_2 (Dense)              (None, 200)               40200     
_________________________________________________________________
dense_3 (Dense)              (None, 1)                 201       
=================================================================
Total params: 2,080,801
Trainable params: 2,080,801
Non-trainable params: 0
_________________________________________________________________
None
Red
0.3850652907686716
Typer KerasRegressor
Hello world
{'rate': 0.1, 'HP_NUM_HIDDEN_LAYERS': 2, 'HP_L1_REG': 1e-06, 'epochs': 100, 'HP_L2_REG': 0.1, 'kernel_initializer': 'glorot_uniform', 'network_shape': 'brick', 'HP_OPTIMIZER': 'RMSprop', 'units': 100, 'batch_size': 128, 'learning_rate': 0.01, 'activation': 'elu'}
Blue
Model: "sequential"
_________________________________________________________________
Layer (type)                 Output Shape              Param #   
=================================================================
dense (Dense)                (None, 100)               1000100   
_________________________________________________________________
dropout (Dropout)            (None, 100)               0         
_________________________________________________________________
dense_1 (Dense)              (None, 100)               10100     
_________________________________________________________________
dropout_1 (Dropout)          (None, 100)               0         
_________________________________________________________________
dense_2 (Dense)              (None, 1)                 101       
=================================================================
Total params: 1,010,301
Trainable params: 1,010,301
Non-trainable params: 0
_________________________________________________________________
None
Red
-0.07513946020911111
Typer KerasRegressor
Hello world
{'rate': 0.1, 'HP_NUM_HIDDEN_LAYERS': 5, 'HP_L1_REG': 0.0001, 'epochs': 50, 'HP_L2_REG': 0.1, 'kernel_initializer': 'he_uniform', 'network_shape': 'funnel', 'HP_OPTIMIZER': 'Adam', 'units': 1000, 'batch_size': 16, 'learning_rate': 1e-05, 'activation': 'elu'}
Blue
Model: "sequential"
_________________________________________________________________
Layer (type)                 Output Shape              Param #   
=================================================================
dense (Dense)                (None, 1000)              10001000  
_________________________________________________________________
dropout (Dropout)            (None, 1000)              0         
_________________________________________________________________
dense_1 (Dense)              (None, 666)               666666    
_________________________________________________________________
dropout_1 (Dropout)          (None, 666)               0         
_________________________________________________________________
dense_2 (Dense)              (None, 443)               295481    
_________________________________________________________________
dropout_2 (Dropout)          (None, 443)               0         
_________________________________________________________________
dense_3 (Dense)              (None, 295)               130980    
_________________________________________________________________
dropout_3 (Dropout)          (None, 295)               0         
_________________________________________________________________
dense_4 (Dense)              (None, 196)               58016     
_________________________________________________________________
dropout_4 (Dropout)          (None, 196)               0         
_________________________________________________________________
dense_5 (Dense)              (None, 1)                 197       
=================================================================
Total params: 11,152,340
Trainable params: 11,152,340
Non-trainable params: 0
_________________________________________________________________
None
Red
0.47301841480595364
Typer KerasRegressor
Hello world
{'rate': 0.0, 'HP_NUM_HIDDEN_LAYERS': 5, 'HP_L1_REG': 1e-05, 'epochs': 100, 'HP_L2_REG': 0.001, 'kernel_initializer': 'he_uniform', 'network_shape': 'brick', 'HP_OPTIMIZER': 'Adagrad', 'units': 200, 'batch_size': 128, 'learning_rate': 0.01, 'activation': 'elu'}
Blue
Model: "sequential"
…
conv1d (Conv1D)              (None, 10000, 1)          2         
_________________________________________________________________
max_pooling1d (MaxPooling1D) (None, 10000, 1)          0         
_________________________________________________________________
conv1d_1 (Conv1D)            (None, 10000, 1)          2         
_________________________________________________________________
max_pooling1d_1 (MaxPooling1 (None, 10000, 1)          0         
_________________________________________________________________
flatten (Flatten)            (None, 10000)             0         
_________________________________________________________________
dense (Dense)                (None, 1)                 10001     
=================================================================
Total params: 10,005
Trainable params: 10,005
Non-trainable params: 0
_________________________________________________________________
Summary  None
Red
-0.00044804969326084354
Typer KerasRegressor
Hello world
{'rate': 0.5, 'strides': 10, 'filters': 10, 'HP_NUM_HIDDEN_LAYERS': 2, 'HP_L1_REG': 0.0001, 'pool': 1, 'kernel': 1, 'HP_L2_REG': 0, 'kernel_initializer': 'he_uniform', 'network_shape': 'funnel', 'epochs': 100, 'HP_OPTIMIZER': 'Adam', 'units': 1000, 'batch_size': 64, 'learning_rate': 0.001, 'activation': 'elu'}
Blue
Model: "sequential"
_________________________________________________________________
Layer (type)                 Output Shape              Param #   
=================================================================
conv1d (Conv1D)              (None, 1000, 10)          20        
_________________________________________________________________
max_pooling1d (MaxPooling1D) (None, 100, 10)           0         
_________________________________________________________________
conv1d_1 (Conv1D)            (None, 10, 10)            110       
_________________________________________________________________
max_pooling1d_1 (MaxPooling1 (None, 1, 10)             0         
_________________________________________________________________
flatten (Flatten)            (None, 10)                0         
_________________________________________________________________
dense (Dense)                (None, 1)                 11        
=================================================================
Total params: 141
Trainable params: 141
Non-trainable params: 0
_________________________________________________________________
Summary  None
Red
-0.011017562906528555
Typer KerasRegressor
Hello world
{'rate': 0.1, 'strides': 10, 'filters': 10, 'HP_NUM_HIDDEN_LAYERS': 2, 'HP_L1_REG': 0, 'pool': 1, 'kernel': 10, 'HP_L2_REG': 1e-05, 'kernel_initializer': 'glorot_uniform', 'network_shape': 'long_funnel', 'epochs': 50, 'HP_OPTIMIZER': 'Adamax', 'units': 100, 'batch_size': 128, 'learning_rate': 0.01, 'activation': 'relu'}
Blue
Model: "sequential"
_________________________________________________________________
Layer (type)                 Output Shape              Param #   
=================================================================
conv1d (Conv1D)              (None, 1000, 10)          110       
_________________________________________________________________
max_pooling1d (MaxPooling1D) (None, 100, 10)           0         
_________________________________________________________________
conv1d_1 (Conv1D)            (None, 10, 10)            1010      
_________________________________________________________________
max_pooling1d_1 (MaxPooling1 (None, 1, 10)             0         
_________________________________________________________________
flatten (Flatten)            (None, 10)                0         
_________________________________________________________________
dense (Dense)                (None, 1)                 11        
=================================================================
Total params: 1,131
Trainable params: 1,131
Non-trainable params: 0
_________________________________________________________________
Summary  None
Red
0.23125137423785336
Typer KerasRegressor
Hello world
{'rate': 0.1, 'strides': 1, 'filters': 10, 'HP_NUM_HIDDEN_LAYERS': 2, 'HP_L1_REG': 0.001, 'pool': 10, 'kernel': 10, 'HP_L2_REG': 1e-05, 'kernel_initializer': 'he_uniform', 'network_shape': 'long_funnel', 'epochs': 50, 'HP_OPTIMIZER': 'SGD', 'units': 100, 'batch_size': 128, 'learning_rate': 0.01, 'activation': 'tanh'}
Blue
Model: "sequential"
_________________________________________________________________
Layer (type)                 Output Shape              Param #   
=================================================================
conv1d (Conv1D)              (None, 10000, 10)         110       
_________________________________________________________________
max_pooling1d (MaxPooling1D) (None, 10000, 10)         0         
_________________________________________________________________
conv1d_1 (Conv1D)            (None, 10000, 10)         1010      
_________________________________________________________________
max_pooling1d_1 (MaxPooling1 (None, 10000, 10)         0         
_________________________________________________________________
flatten (Flatten)            (None, 100000)            0         
_________________________________________________________________
dense (Dense)                (None, 1)                 100001    
=================================================================
Total params: 101,121
Trainable params: 101,121
Non-trainable params: 0
_________________________________________________________________
Summary  None
Red
-23045.162330618186
Typer KerasRegressor
Hello world
{'rate': 0.1, 'strides': 1, 'filters': 1, 'HP_NUM_HIDDEN_LAYERS': 2, 'HP_L1_REG': 0, 'pool': 10, 'kernel': 1, 'HP_L2_REG': 1e-05, 'kernel_initializer': 'glorot_uniform', 'network_shape': 'funnel', 'epochs': 100, 'HP_OPTIMIZER': 'Adamax', 'units': 100, 'batch_size': 16, 'learning_rate': 0.01, 'activation': 'tanh'}
Blue
Model: "sequential"
_________________________________________________________________
Layer (type)                 Output Shape              Param #   
=================================================================
conv1d (Conv1D)              (None, 10000, 1)          2         
_________________________________________________________________
max_pooling1d (MaxPooling1D) (None, 10000, 1)          0         
_________________________________________________________________
conv1d_1 (Conv1D)            (None, 10000, 1)          2         
_________________________________________________________________
max_pooling1d_1 (MaxPooling1 (None, 10000, 1)          0         
_________________________________________________________________
flatten (Flatten)            (None, 10000)             0         
_________________________________________________________________
dense (Dense)                (None, 1)                 10001     
=================================================================
Total params: 10,005
Trainable params: 10,005
Non-trainable params: 0
_________________________________________________________________
Summary  None
Red
0.4323347064517915
Typer KerasRegressor
Hello world
{'rate': 0.5, 'strides': 10, 'filters': 1, 'HP_NUM_HIDDEN_LAYERS': 3, 'HP_L1_REG': 0, 'pool': 10, 'kernel': 10, 'HP_L2_REG': 1e-05, 'kernel_initializer': 'glorot_uniform', 'network_shape': 'brick', 'epochs': 100, 'HP_OPTIMIZER': 'Adagrad', 'units': 1000, 'batch_size': 16, 'learning_rate': 0.0001, 'activation': 'relu'}
Blue
Model: "sequential"
_________________________________________________________________
Layer (type)                 Output Shape              Param #   
=================================================================
conv1d (Conv1D)              (None, 1000, 1)           11        
_________________________________________________________________
max_pooling1d (MaxPooling1D) (None, 100, 1)            0         
_________________________________________________________________
conv1d_1 (Conv1D)            (None, 10, 1)             11        
_________________________________________________________________
max_pooling1d_1 (MaxPooling1 (None, 1, 1)              0         
_________________________________________________________________
conv1d_2 (Conv1D)            (None, 1, 1)              11        
_________________________________________________________________
max_pooling1d_2 (MaxPooling1 (None, 1, 1)              0         
_________________________________________________________________
flatten (Flatten)            (None, 1)                 0         
_________________________________________________________________
dense (Dense)                (None, 1)                 2         
=================================================================
Total params: 35
Trainable params: 35
Non-trainable params: 0
_________________________________________________________________
Summary  None
Red
-0.0034500040127847242
Typer KerasRegressor
Hello world
{'rate': 0.5, 'strides': 1, 'filters': 10, 'HP_NUM_HIDDEN_LAYERS': 2, 'HP_L1_REG': 0.0001, 'pool': 10, 'kernel': 10, 'HP_L2_REG': 0, 'kernel_initializer': 'glorot_normal', 'network_shape': 'funnel', 'epochs': 50, 'HP_OPTIMIZER': 'Adamax', 'units': 200, 'batch_size': 16, 'learning_rate': 0.001, 'activation': 'tanh'}
Blue
Model: "sequential"
_________________________________________________________________
Layer (type)                 Output Shape              Param #   
=================================================================
conv1d (Conv1D)              (None, 10000, 10)         110       
_________________________________________________________________
max_pooling1d (MaxPooling1D) (None, 10000, 10)         0         
_________________________________________________________________
conv1d_1 (Conv1D)            (None, 10000, 10)         1010      
_________________________________________________________________
max_pooling1d_1 (MaxPooling1 (None, 10000, 10)         0         
_________________________________________________________________
flatten (Flatten)            (None, 100000)            0         
_________________________________________________________________
dense (Dense)                (None, 1)                 100001    
=================================================================
Total params: 101,121
Trainable params: 101,121
Non-trainable params: 0
_________________________________________________________________
Summary  None
Red
0.44429803499535914
Typer KerasRegressor
Hello world
{'rate': 0.5, 'strides': 1, 'filters': 1, 'HP_NUM_HIDDEN_LAYERS': 2, 'HP_L1_REG': 0.0001, 'pool': 1, 'kernel': 1, 'HP_L2_REG': 0, 'kernel_initializer': 'glorot_normal', 'network_shape': 'funnel', 'epochs': 50, 'HP_OPTIMIZER': 'Adamax', 'units': 1000, 'batch_size': 64, 'learning_rate': 0.0001, 'activation': 'elu'}
Blue
Model: "sequential"
_________________________________________________________________
Layer (type)                 Output Shape              Param #   
=================================================================
conv1d (Conv1D)              (None, 10000, 1)          2         
_________________________________________________________________
max_pooling1d (MaxPooling1D) (None, 10000, 1)          0         
_________________________________________________________________
conv1d_1 (Conv1D)            (None, 10000, 1)          2         
_________________________________________________________________
max_pooling1d_1 (MaxPooling1 (None, 10000, 1)          0         
_________________________________________________________________
flatten (Flatten)            (None, 10000)             0         
_________________________________________________________________
dense (Dense)                (None, 1)                 10001     
=================================================================
Total params: 10,005
Trainable params: 10,005
Non-trainable params: 0
_________________________________________________________________
Summary  None
Red
0.08450700284401713
Typer KerasRegressor
Hello world
{'rate': 0.0, 'strides': 1, 'filters': 1, 'HP_NUM_HIDDEN_LAYERS': 2, 'HP_L1_REG': 0, 'pool': 1, 'kernel': 1, 'HP_L2_REG': 1e-05, 'kernel_initializer': 'he_uniform', 'network_shape': 'funnel', 'epochs': 50, 'HP_OPTIMIZER': 'Adamax', 'units': 200, 'batch_size': 128, 'learning_rate': 0.001, 'activation': 'elu'}
Blue
Model: "sequential"
_________________________________________________________________
Layer (type)                 Output Shape              Param #   
=================================================================
conv1d (Conv1D)              (None, 10000, 1)          2         
_________________________________________________________________
max_pooling1d (MaxPooling1D) (None, 10000, 1)          0         
_________________________________________________________________
conv1d_1 (Conv1D)            (None, 10000, 1)          2         
_________________________________________________________________
max_pooling1d_1 (MaxPooling1 (None, 10000, 1)          0         
_________________________________________________________________
flatten (Flatten)            (None, 10000)             0         
_________________________________________________________________
dense (Dense)                (None, 1)                 10001     
=================================================================
Total params: 10,005
Trainable params: 10,005
Non-trainable params: 0
_________________________________________________________________
Summary  None
Red
0.5545803968921788
Typer KerasRegressor
Hello world
{'rate': 0.1, 'strides': 10, 'filters': 1, 'HP_NUM_HIDDEN_LAYERS': 2, 'HP_L1_REG': 0.0001, 'pool': 10, 'kernel': 10, 'HP_L2_REG': 0, 'kernel_initializer': 'glorot_normal', 'network_shape': 'long_funnel', 'epochs': 50, 'HP_OPTIMIZER': 'SGD', 'units': 100, 'batch_size': 64, 'learning_rate': 0.001, 'activation': 'elu'}
Blue
Model: "sequential"
_________________________________________________________________
Layer (type)                 Output Shape              Param #   
=================================================================
conv1d (Conv1D)              (None, 1000, 1)           11        
_________________________________________________________________
max_pooling1d (MaxPooling1D) (None, 100, 1)            0         
_________________________________________________________________
conv1d_1 (Conv1D)            (None, 10, 1)             11        
_________________________________________________________________
max_pooling1d_1 (MaxPooling1 (None, 1, 1)              0         
_________________________________________________________________
flatten (Flatten)            (None, 1)                 0         
_________________________________________________________________
dense (Dense)                (None, 1)                 2         
=================================================================
Total params: 24
Trainable params: 24
Non-trainable params: 0
_________________________________________________________________
Summary  None
Red
-0.00032650114190313495
Typer KerasRegressor
Hello world
INNER COUNT NO.  4
/external_storage/ciaran/arabadopsis/FT16cv_new_10k/shuf
test_raw_plink_shuf_4_in_4_in.raw
…
organism: arabadopsis
Binary is False
{'rate': 0.1, 'strides': 1, 'filters': 1, 'HP_NUM_HIDDEN_LAYERS': 2, 'HP_L1_REG': 1e-05, 'pool': 1, 'kernel': 1, 'HP_L2_REG': 0.001, 'kernel_initializer': 'glorot_uniform', 'network_shape': 'long_funnel', 'epochs': 50, 'HP_OPTIMIZER': 'Adam', 'units': 100, 'batch_size': 16, 'learning_rate': 0.01, 'activation': 'elu'}
Blue
Model: "sequential"
_________________________________________________________________
Layer (type)                 Output Shape              Param #   
=================================================================
conv1d (Conv1D)              (None, 10000, 1)          2         
_________________________________________________________________
max_pooling1d (MaxPooling1D) (None, 10000, 1)          0         
_________________________________________________________________
conv1d_1 (Conv1D)            (None, 10000, 1)          2         
_________________________________________________________________
max_pooling1d_1 (MaxPooling1 (None, 10000, 1)          0         
_________________________________________________________________
flatten (Flatten)            (None, 10000)             0         
_________________________________________________________________
dense (Dense)                (None, 1)                 10001     
=================================================================
Total params: 10,005
Trainable params: 10,005
Non-trainable params: 0
_________________________________________________________________
Summary  None
Red
0.47378082200418825
Typer KerasRegressor
Hello world
{'rate': 0.0, 'strides': 10, 'filters': 1, 'HP_NUM_HIDDEN_LAYERS': 2, 'HP_L1_REG': 0.0001, 'pool': 10, 'kernel': 10, 'HP_L2_REG': 1e-05, 'kernel_initializer': 'he_uniform', 'network_shape': 'funnel', 'epochs': 100, 'HP_OPTIMIZER': 'RMSprop', 'units': 100, 'batch_size': 128, 'learning_rate': 0.001, 'activation': 'elu'}
Blue
Model: "sequential"
_________________________________________________________________
Layer (type)                 Output Shape              Param #   
=================================================================
conv1d (Conv1D)              (None, 1000, 1)           11        
_________________________________________________________________
max_pooling1d (MaxPooling1D) (None, 100, 1)            0         
_________________________________________________________________
conv1d_1 (Conv1D)            (None, 10, 1)             11        
_________________________________________________________________
max_pooling1d_1 (MaxPooling1 (None, 1, 1)              0         
_________________________________________________________________
flatten (Flatten)            (None, 1)                 0         
_________________________________________________________________
dense (Dense)                (None, 1)                 2         
=================================================================
Total params: 24
Trainable params: 24
Non-trainable params: 0
_________________________________________________________________
Summary  None
Red
-0.19844605417708538
Typer KerasRegressor
Hello world
{'rate': 0.1, 'strides': 10, 'filters': 1, 'HP_NUM_HIDDEN_LAYERS': 2, 'HP_L1_REG': 0.0001, 'pool': 1, 'kernel': 1, 'HP_L2_REG': 0, 'kernel_initializer': 'he_uniform', 'network_shape': 'brick', 'epochs': 50, 'HP_OPTIMIZER': 'Adagrad', 'units': 100, 'batch_size': 16, 'learning_rate': 0.01, 'activation': 'tanh'}
Blue
Model: "sequential"
_________________________________________________________________
Layer (type)                 Output Shape              Param #   
=================================================================
conv1d (Conv1D)              (None, 1000, 1)           2         
_________________________________________________________________
max_pooling1d (MaxPooling1D) (None, 100, 1)            0         
_________________________________________________________________
conv1d_1 (Conv1D)            (None, 10, 1)             2         
_________________________________________________________________
max_pooling1d_1 (MaxPooling1 (None, 1, 1)              0         
_________________________________________________________________
flatten (Flatten)            (None, 1)                 0         
_________________________________________________________________
dense (Dense)                (None, 1)                 2         
=================================================================
Total params: 6
Trainable params: 6
Non-trainable params: 0
_________________________________________________________________
Summary  None
Red
-0.10055493512459956
Typer KerasRegressor
Hello world
{'rate': 0.1, 'strides': 10, 'filters': 10, 'HP_NUM_HIDDEN_LAYERS': 2, 'HP_L1_REG': 0.0001, 'pool': 1, 'kernel': 10, 'HP_L2_REG': 0.001, 'kernel_initializer': 'he_uniform', 'network_shape': 'long_funnel', 'epochs': 100, 'HP_OPTIMIZER': 'SGD', 'units': 100, 'batch_size': 128, 'learning_rate': 0.0001, 'activation': 'elu'}
Blue
Model: "sequential"
_________________________________________________________________
Layer (type)                 Output Shape              Param #   
=================================================================
conv1d (Conv1D)              (None, 1000, 10)          110       
_________________________________________________________________
max_pooling1d (MaxPooling1D) (None, 100, 10)           0         
_________________________________________________________________
conv1d_1 (Conv1D)            (None, 10, 10)            1010      
_________________________________________________________________
max_pooling1d_1 (MaxPooling1 (None, 1, 10)             0         
_________________________________________________________________
flatten (Flatten)            (None, 10)                0         
_________________________________________________________________
dense (Dense)                (None, 1)                 11        
=================================================================
Total params: 1,131
Trainable params: 1,131
Non-trainable params: 0
_________________________________________________________________
Summary  None
Red
-0.25326098858374335
Typer KerasRegressor
Hello world
{'rate': 0.1, 'strides': 1, 'filters': 10, 'HP_NUM_HIDDEN_LAYERS': 2, 'HP_L1_REG': 1e-05, 'pool': 1, 'kernel': 10, 'HP_L2_REG': 0, 'kernel_initializer': 'he_normal', 'network_shape': 'funnel', 'epochs': 50, 'HP_OPTIMIZER': 'Adamax', 'units': 200, 'batch_size': 128, 'learning_rate': 0.001, 'activation': 'elu'}
Blue
Model: "sequential"
_________________________________________________________________
Layer (type)                 Output Shape              Param #   
=================================================================
conv1d (Conv1D)              (None, 10000, 10)         110       
_________________________________________________________________
max_pooling1d (MaxPooling1D) (None, 10000, 10)         0         
_________________________________________________________________
conv1d_1 (Conv1D)            (None, 10000, 10)         1010      
_________________________________________________________________
max_pooling1d_1 (MaxPooling1 (None, 10000, 10)         0         
_________________________________________________________________
flatten (Flatten)            (None, 100000)            0         
_________________________________________________________________
dense (Dense)                (None, 1)                 100001    
=================================================================
Total params: 101,121
Trainable params: 101,121
Non-trainable params: 0
_________________________________________________________________
Summary  None
Red
0.3854562279272533
Typer KerasRegressor
Hello world
{'rate': 0.1, 'strides': 10, 'filters': 10, 'HP_NUM_HIDDEN_LAYERS': 2, 'HP_L1_REG': 1e-05, 'pool': 1, 'kernel': 1, 'HP_L2_REG': 1e-05, 'kernel_initializer': 'glorot_uniform', 'network_shape': 'long_funnel', 'epochs': 100, 'HP_OPTIMIZER': 'Adam', 'units': 100, 'batch_size': 128, 'learning_rate': 0.001, 'activation': 'elu'}
Blue
Model: "sequential"
_________________________________________________________________
Layer (type)                 Output Shape              Param #   
=================================================================
conv1d (Conv1D)              (None, 1000, 10)          20        
_________________________________________________________________
max_pooling1d (MaxPooling1D) (None, 100, 10)           0         
_________________________________________________________________
conv1d_1 (Conv1D)            (None, 10, 10)            110       
_________________________________________________________________
max_pooling1d_1 (MaxPooling1 (None, 1, 10)             0         
_________________________________________________________________
flatten (Flatten)            (None, 10)                0         
_________________________________________________________________
dense (Dense)                (None, 1)                 11        
=================================================================
Total params: 141
Trainable params: 141
Non-trainable params: 0
_________________________________________________________________
Summary  None
Red
-0.02123595673169465
Typer KerasRegressor
Hello world
{'rate': 0.0, 'strides': 10, 'filters': 1, 'HP_NUM_HIDDEN_LAYERS': 3, 'HP_L1_REG': 0.0001, 'pool': 1, 'kernel': 10, 'HP_L2_REG': 0, 'kernel_initializer': 'he_uniform', 'network_shape': 'long_funnel', 'epochs': 50, 'HP_OPTIMIZER': 'Adamax', 'units': 100, 'batch_size': 16, 'learning_rate': 0.001, 'activation': 'tanh'}
Blue
Model: "sequential"
_________________________________________________________________
Layer (type)                 Output Shape              Param #   
=================================================================
conv1d (Conv1D)              (None, 1000, 1)           11        
_________________________________________________________________
max_pooling1d (MaxPooling1D) (None, 100, 1)            0         
_________________________________________________________________
conv1d_1 (Conv1D)            (None, 10, 1)             11        
_________________________________________________________________
max_pooling1d_1 (MaxPooling1 (None, 1, 1)              0         
_________________________________________________________________
conv1d_2 (Conv1D)            (None, 1, 1)              11        
_________________________________________________________________
max_pooling1d_2 (MaxPooling1 (None, 1, 1)              0         
_________________________________________________________________
flatten (Flatten)            (None, 1)                 0         
_________________________________________________________________
dense (Dense)                (None, 1)                 2         
=================================================================
Total params: 35
Trainable params: 35
Non-trainable params: 0
_________________________________________________________________
Summary  None
Red
-0.030047580122233963
Typer KerasRegressor
Hello world
{'rate': 0.1, 'strides': 10, 'filters': 10, 'HP_NUM_HIDDEN_LAYERS': 2, 'HP_L1_REG': 0.0001, 'pool': 10, 'kernel': 10, 'HP_L2_REG': 0.001, 'kernel_initializer': 'glorot_normal', 'network_shape': 'funnel', 'epochs': 50, 'HP_OPTIMIZER': 'Adagrad', 'units': 200, 'batch_size': 64, 'learning_rate': 0.0001, 'activation': 'tanh'}
Blue
Model: "sequential"
_________________________________________________________________
Layer (type)                 Output Shape              Param #   
=================================================================
conv1d (Conv1D)              (None, 1000, 10)          110       
_________________________________________________________________
max_pooling1d (MaxPooling1D) (None, 100, 10)           0         
_________________________________________________________________
conv1d_1 (Conv1D)            (None, 10, 10)            1010      
_________________________________________________________________
max_pooling1d_1 (MaxPooling1 (None, 1, 10)             0         
_________________________________________________________________
flatten (Flatten)            (None, 10)                0         
_________________________________________________________________
dense (Dense)                (None, 1)                 11        
=================================================================
Total params: 1,131
Trainable params: 1,131
Non-trainable params: 0
_________________________________________________________________
Summary  None
Red
-0.06628150196149973
Typer KerasRegressor
Hello world
{'rate': 0.1, 'strides': 10, 'filters': 10, 'HP_NUM_HIDDEN_LAYERS': 2, 'HP_L1_REG': 1e-05, 'pool': 10, 'kernel': 1, 'HP_L2_REG': 0.001, 'kernel_initializer': 'glorot_uniform', 'network_shape': 'funnel', 'epochs': 50, 'HP_OPTIMIZER': 'Adam', 'units': 100, 'batch_size': 64, 'learning_rate': 0.001, 'activation': 'tanh'}
Blue
Model: "sequential"
_________________________________________________________________
Layer (type)                 Output Shape              Param #   
=================================================================
conv1d (Conv1D)              (None, 1000, 10)          20        
_________________________________________________________________
max_pooling1d (MaxPooling1D) (None, 100, 10)           0         
_________________________________________________________________
conv1d_1 (Conv1D)            (None, 10, 10)            110       
_________________________________________________________________
max_pooling1d_1 (MaxPooling1 (None, 1, 10)             0         
_________________________________________________________________
flatten (Flatten)            (None, 10)                0         
_________________________________________________________________
dense (Dense)                (None, 1)                 11        
=================================================================
Total params: 141
Trainable params: 141
Non-trainable params: 0
_________________________________________________________________
Summary  None
Red
-0.04296871194857155
Typer KerasRegressor
Hello world
{'rate': 0.0, 'strides': 10, 'filters': 10, 'HP_NUM_HIDDEN_LAYERS': 2, 'HP_L1_REG': 0, 'pool': 1, 'kernel': 10, 'HP_L2_REG': 0, 'kernel_initializer': 'glorot_normal', 'network_shape': 'funnel', 'epochs': 50, 'HP_OPTIMIZER': 'Adam', 'units': 1000, 'batch_size': 16, 'learning_rate': 0.0001, 'activation': 'elu'}
Blue
Model: "sequential"
_________________________________________________________________
Layer (type)                 Output Shape              Param #   
=================================================================
conv1d (Conv1D)              (None, 1000, 10)          110       
_________________________________________________________________
max_pooling1d (MaxPooling1D) (None, 100, 10)           0         
_________________________________________________________________
conv1d_1 (Conv1D)            (None, 10, 10)            1010      
_________________________________________________________________
max_pooling1d_1 (MaxPooling1 (None, 1, 10)             0         
_________________________________________________________________
flatten (Flatten)            (None, 10)                0         
_________________________________________________________________
dense (Dense)                (None, 1)                 11        
=================================================================
Total params: 1,131
Trainable params: 1,131
Non-trainable params: 0
_________________________________________________________________
Summary  None
Red
-0.0036359617096293206
Typer KerasRegressor
Hello world
{'rate': 0.5, 'strides': 1, 'filters': 1, 'HP_NUM_HIDDEN_LAYERS': 3, 'HP_L1_REG': 0.0001, 'pool': 10, 'kernel': 10, 'HP_L2_REG': 1e-05, 'kernel_initializer': 'he_uniform', 'network_shape': 'long_funnel', 'epochs': 50, 'HP_OPTIMIZER': 'RMSprop', 'units': 1000, 'batch_size': 64, 'learning_rate': 0.0001, 'activation': 'elu'}
Blue
Model: "sequential"
_________________________________________________________________
Layer (type)                 Output Shape              Param #   
=================================================================
conv1d (Conv1D)              (None, 10000, 1)          11        
_________________________________________________________________
max_pooling1d (MaxPooling1D) (None, 10000, 1)          0         
_________________________________________________________________
conv1d_1 (Conv1D)            (None, 10000, 1)          11        
_________________________________________________________________
max_pooling1d_1 (MaxPooling1 (None, 10000, 1)          0         
_________________________________________________________________
conv1d_2 (Conv1D)            (None, 10000, 1)          11        
_________________________________________________________________
max_pooling1d_2 (MaxPooling1 (None, 10000, 1)          0         
_________________________________________________________________
flatten (Flatten)            (None, 10000)             0         
_________________________________________________________________
dense (Dense)                (None, 1)                 10001     
=================================================================
Total params: 10,034
Trainable params: 10,034
Non-trainable params: 0
_________________________________________________________________
Summary  None
Red
0.23303206372811647
Typer KerasRegressor
Hello world
{'rate': 0.1, 'strides': 1, 'filters': 10, 'HP_NUM_HIDDEN_LAYERS': 3, 'HP_L1_REG': 0, 'pool': 10, 'kernel': 10, 'HP_L2_REG': 0.001, 'kernel_initializer': 'he_normal', 'network_shape': 'long_funnel', 'epochs': 100, 'HP_OPTIMIZER': 'Adamax', 'units': 200, 'batch_size': 16, 'learning_rate': 0.001, 'activation': 'relu'}
Blue
Model: "sequential"
_________________________________________________________________
Layer (type)                 Output Shape              Param #   
=================================================================
conv1d (Conv1D)              (None, 10000, 10)         110       
_________________________________________________________________
max_pooling1d (MaxPooling1D) (None, 10000, 10)         0         
_________________________________________________________________
conv1d_1 (Conv1D)            (None, 10000, 10)         1010      
_________________________________________________________________
max_pooling1d_1 (MaxPooling1 (None, 10000, 10)         0         
_________________________________________________________________
conv1d_2 (Conv1D)            (None, 10000, 10)         1010      
_________________________________________________________________
max_pooling1d_2 (MaxPooling1 (None, 10000, 10)         0         
_________________________________________________________________
flatten (Flatten)            (None, 100000)            0         
_________________________________________________________________
dense (Dense)                (None, 1)                 100001    
=================================================================
Total params: 102,131
Trainable params: 102,131
Non-trainable params: 0
_________________________________________________________________
Summary  None
Red
0.22123808980050164
Typer KerasRegressor
Hello world
{'rate': 0.5, 'strides': 10, 'filters': 10, 'HP_NUM_HIDDEN_LAYERS': 3, 'HP_L1_REG': 1e-05, 'pool': 1, 'kernel': 1, 'HP_L2_REG': 0, 'kernel_initializer': 'glorot_normal', 'network_shape': 'brick', 'epochs': 100, 'HP_OPTIMIZER': 'RMSprop', 'units': 200, 'batch_size': 64, 'learning_rate': 0.01, 'activation': 'relu'}
Blue
Model: "sequential"
_________________________________________________________________
Layer (type)                 Output Shape              Param #   
=================================================================
conv1d (Conv1D)              (None, 1000, 10)          20        
_________________________________________________________________
max_pooling1d (MaxPooling1D) (None, 100, 10)           0         
_________________________________________________________________
conv1d_1 (Conv1D)            (None, 10, 10)            110       
_________________________________________________________________
max_pooling1d_1 (MaxPooling1 (None, 1, 10)             0         
_________________________________________________________________
conv1d_2 (Conv1D)            (None, 1, 10)             110       
_________________________________________________________________
max_pooling1d_2 (MaxPooling1 (None, 1, 10)             0         
_________________________________________________________________
flatten (Flatten)            (None, 10)                0         
_________________________________________________________________
dense (Dense)                (None, 1)                 11        
=================================================================
Total params: 251
Trainable params: 251
Non-trainable params: 0
_________________________________________________________________
Summary  None
Red
-0.020084154140147303
Typer KerasRegressor
Hello world
{'rate': 0.5, 'strides': 1, 'filters': 1, 'HP_NUM_HIDDEN_LAYERS': 2, 'HP_L1_REG': 0.0001, 'pool': 1, 'kernel': 10, 'HP_L2_REG': 1e-05, 'kernel_initializer': 'glorot_normal', 'network_shape': 'funnel', 'epochs': 100, 'HP_OPTIMIZER': 'SGD', 'units': 1000, 'batch_size': 64, 'learning_rate': 0.0001, 'activation': 'relu'}
Blue
Model: "sequential"
_________________________________________________________________
Layer (type)                 Output Shape              Param #   
=================================================================
conv1d (Conv1D)              (None, 10000, 1)          11        
_________________________________________________________________
max_pooling1d (MaxPooling1D) (None, 10000, 1)          0         
_________________________________________________________________
conv1d_1 (Conv1D)            (None, 10000, 1)          11        
_________________________________________________________________
max_pooling1d_1 (MaxPooling1 (None, 10000, 1)          0         
_________________________________________________________________
flatten (Flatten)            (None, 10000)             0         
_________________________________________________________________
dense (Dense)                (None, 1)                 10001     
=================================================================
Total params: 10,023
Trainable params: 10,023
Non-trainable params: 0
_________________________________________________________________
Summary  None
Red
-0.012162222875453432
Typer KerasRegressor
Hello world
{'rate': 0.0, 'strides': 1, 'filters': 1, 'HP_NUM_HIDDEN_LAYERS': 2, 'HP_L1_REG': 1e-05, 'pool': 10, 'kernel': 1, 'HP_L2_REG': 0.001, 'kernel_initializer': 'he_uniform', 'network_shape': 'long_funnel', 'epochs': 50, 'HP_OPTIMIZER': 'Adam', 'units': 100, 'batch_size': 128, 'learning_rate': 0.01, 'activation': 'elu'}
Blue
Model: "sequential"
_________________________________________________________________
Layer (type)                 Output Shape              Param #   
=================================================================
conv1d (Conv1D)              (None, 10000, 1)          2         
_________________________________________________________________
max_pooling1d (MaxPooling1D) (None, 10000, 1)          0         
_________________________________________________________________
conv1d_1 (Conv1D)            (None, 10000, 1)          2         
_________________________________________________________________
max_pooling1d_1 (MaxPooling1 (None, 10000, 1)          0         
_________________________________________________________________
flatten (Flatten)            (None, 10000)             0         
_________________________________________________________________
dense (Dense)                (None, 1)                 10001     
=================================================================
Total params: 10,005
Trainable params: 10,005
Non-trainable params: 0
_________________________________________________________________
Summary  None
Red
-0.14386380442103786
Typer KerasRegressor
Hello world
{'rate': 0.0, 'strides': 10, 'filters': 1, 'HP_NUM_HIDDEN_LAYERS': 2, 'HP_L1_REG': 0, 'pool': 1, 'kernel': 10, 'HP_L2_REG': 0, 'kernel_initializer': 'glorot_uniform', 'network_shape': 'long_funnel', 'epochs': 50, 'HP_OPTIMIZER': 'Adam', 'units': 1000, 'batch_size': 128, 'learning_rate': 0.01, 'activation': 'elu'}
Blue
Model: "sequential"
_________________________________________________________________
Layer (type)                 Output Shape              Param #   
=================================================================
conv1d (Conv1D)              (None, 1000, 1)           11        
_________________________________________________________________
max_pooling1d (MaxPooling1D) (None, 100, 1)            0         
_________________________________________________________________
conv1d_1 (Conv1D)            (None, 10, 1)             11        
_________________________________________________________________
max_pooling1d_1 (MaxPooling1 (None, 1, 1)              0         
_________________________________________________________________
flatten (Flatten)            (None, 1)                 0         
_________________________________________________________________
dense (Dense)                (None, 1)                 2         
=================================================================
Total params: 24
Trainable params: 24
Non-trainable params: 0
_________________________________________________________________
Summary  None
Red
-0.030315099395360923
Typer KerasRegressor
Hello world
{'rate': 0.0, 'strides': 10, 'filters': 1, 'HP_NUM_HIDDEN_LAYERS': 2, 'HP_L1_REG': 0, 'pool': 10, 'kernel': 1, 'HP_L2_REG': 1e-05, 'kernel_initializer': 'glorot_uniform', 'network_shape': 'long_funnel', 'epochs': 100, 'HP_OPTIMIZER': 'Adagrad', 'units': 100, 'batch_size': 64, 'learning_rate': 0.001, 'activation': 'relu'}
Blue
Model: "sequential"
_________________________________________________________________
Layer (type)                 Output Shape              Param #   
=================================================================
conv1d (Conv1D)              (None, 1000, 1)           2         
_________________________________________________________________
max_pooling1d (MaxPooling1D) (None, 100, 1)            0         
_________________________________________________________________
conv1d_1 (Conv1D)            (None, 10, 1)             2         
_________________________________________________________________
max_pooling1d_1 (MaxPooling1 (None, 1, 1)              0         
_________________________________________________________________
flatten (Flatten)            (None, 1)                 0         
_________________________________________________________________
dense (Dense)                (None, 1)                 2         
=================================================================
Total params: 6
Trainable params: 6
Non-trainable params: 0
_________________________________________________________________
Summary  None
Red
-0.0010119716594170214
Typer KerasRegressor
Hello world
{'rate': 0.5, 'strides': 1, 'filters': 10, 'HP_NUM_HIDDEN_LAYERS': 3, 'HP_L1_REG': 0, 'pool': 10, 'kernel': 10, 'HP_L2_REG': 1e-05, 'kernel_initializer': 'glorot_uniform', 'network_shape': 'funnel', 'epochs': 100, 'HP_OPTIMIZER': 'SGD', 'units': 100, 'batch_size': 64, 'learning_rate': 0.01, 'activation': 'elu'}
Blue
Model: "sequential"
_________________________________________________________________
Layer (type)                 Output Shape              Param #   
=================================================================
conv1d (Conv1D)              (None, 10000, 10)         110       
_________________________________________________________________
max_pooling1d (MaxPooling1D) (None, 10000, 10)         0         
_________________________________________________________________
conv1d_1 (Conv1D)            (None, 10000, 10)         1010      
_________________________________________________________________
max_pooling1d_1 (MaxPooling1 (None, 10000, 10)         0         
_________________________________________________________________
conv1d_2 (Conv1D)            (None, 10000, 10)         1010      
_________________________________________________________________
max_pooling1d_2 (MaxPooling1 (None, 10000, 10)         0         
_________________________________________________________________
flatten (Flatten)            (None, 100000)            0         
_________________________________________________________________
dense (Dense)                (None, 1)                 100001    
=================================================================
Total params: 102,131
Trainable params: 102,131
Non-trainable params: 0
_________________________________________________________________
Summary  None
Red
-441300578.9353786
Typer KerasRegressor
Hello world
{'rate': 0.5, 'strides': 10, 'filters': 1, 'HP_NUM_HIDDEN_LAYERS': 3, 'HP_L1_REG': 0.001, 'pool': 1, 'kernel': 10, 'HP_L2_REG': 0, 'kernel_initializer': 'glorot_uniform', 'network_shape': 'funnel', 'epochs': 50, 'HP_OPTIMIZER': 'Adagrad', 'units': 1000, 'batch_size': 64, 'learning_rate': 0.0001, 'activation': 'relu'}
Blue
Model: "sequential"
_________________________________________________________________
Layer (type)                 Output Shape              Param #   
=================================================================
conv1d (Conv1D)              (None, 1000, 1)           11        
_________________________________________________________________
max_pooling1d (MaxPooling1D) (None, 100, 1)            0         
_________________________________________________________________
conv1d_1 (Conv1D)            (None, 10, 1)             11        
_________________________________________________________________
max_pooling1d_1 (MaxPooling1 (None, 1, 1)              0         
_________________________________________________________________
conv1d_2 (Conv1D)            (None, 1, 1)              11        
_________________________________________________________________
max_pooling1d_2 (MaxPooling1 (None, 1, 1)              0         
_________________________________________________________________
flatten (Flatten)            (None, 1)                 0         
_________________________________________________________________
dense (Dense)                (None, 1)                 2         
=================================================================
Total params: 35
Trainable params: 35
Non-trainable params: 0
_________________________________________________________________
Summary  None
Red
-0.0007398456543910026
Typer KerasRegressor
Hello world
{'rate': 0.5, 'strides': 1, 'filters': 10, 'HP_NUM_HIDDEN_LAYERS': 2, 'HP_L1_REG': 0.001, 'pool': 10, 'kernel': 1, 'HP_L2_REG': 0, 'kernel_initializer': 'glorot_uniform', 'network_shape': 'funnel', 'epochs': 100, 'HP_OPTIMIZER': 'Adamax', 'units': 100, 'batch_size': 16, 'learning_rate': 0.001, 'activation': 'elu'}
Blue
Model: "sequential"
_________________________________________________________________
Layer (type)                 Output Shape              Param #   
=================================================================
conv1d (Conv1D)              (None, 10000, 10)         20        
_________________________________________________________________
max_pooling1d (MaxPooling1D) (None, 10000, 10)         0         
_________________________________________________________________
conv1d_1 (Conv1D)            (None, 10000, 10)         110       
_________________________________________________________________
max_pooling1d_1 (MaxPooling1 (None, 10000, 10)         0         
_________________________________________________________________
flatten (Flatten)            (None, 100000)            0         
_________________________________________________________________
dense (Dense)                (None, 1)                 100001    
=================================================================
Total params: 100,131
Trainable params: 100,131
Non-trainable params: 0
_________________________________________________________________
Summary  None
Red
0.3652368471869979
Typer KerasRegressor
Hello world
OUTER COUNT NO.  4
/external_storage/ciaran/arabadopsis/FT16cv_new_10k/shuf
test_raw_plink_shuf_4_in_4_out.raw
Set size set to 10000
organism: arabadopsis
Binary is False
Set size set to 10000
organism: arabadopsis
Binary is False
Model: "sequential"
_________________________________________________________________
Layer (type)                 Output Shape              Param #   
=================================================================
conv1d (Conv1D)              (None, 10000, 10)         20        
_________________________________________________________________
max_pooling1d (MaxPooling1D) (None, 10000, 10)         0         
_________________________________________________________________
conv1d_1 (Conv1D)            (None, 10000, 10)         110       
_________________________________________________________________
max_pooling1d_1 (MaxPooling1 (None, 10000, 10)         0         
_________________________________________________________________
flatten (Flatten)            (None, 100000)            0         
_________________________________________________________________
dense (Dense)                (None, 1)                 100001    
=================================================================
Total params: 100,131
Trainable params: 100,131
Non-trainable params: 0
_________________________________________________________________
Summary  None
0.5803944822584488
Best Params of CNN is {'rate': [0.0, 0.5, 0.1], 'learning_rate': [0.01, 0.001], 'filters': [10], 'HP_NUM_HIDDEN_LAYERS': [3, 2], 'HP_L1_REG': [0.0001,
…
