…
2021-12-03 15:31:11.904779: I tensorflow/core/platform/profile_utils/cpu_utils.cc:94] CPU Frequency: 2200045000 Hz
2021-12-03 15:31:11.909078: I tensorflow/compiler/xla/service/service.cc:168] XLA service 0x948adb0 executing computations on platform Host. Devices:
2021-12-03 15:31:11.909102: I tensorflow/compiler/xla/service/service.cc:175]   StreamExecutor device (0): <undefined>, <undefined>
Model: "sequential"
_________________________________________________________________
Layer (type)                 Output Shape              Param #   
=================================================================
dense (Dense)                (None, 1000)              9994000   
_________________________________________________________________
dense_1 (Dense)              (None, 1000)              1001000   
_________________________________________________________________
dense_2 (Dense)              (None, 1000)              1001000   
_________________________________________________________________
dense_3 (Dense)              (None, 1000)              1001000   
_________________________________________________________________
dense_4 (Dense)              (None, 1)                 1001      
=================================================================
Total params: 12,998,001
Trainable params: 12,998,001
Non-trainable params: 0
_________________________________________________________________
None
Traceback (most recent call last):
  File "cv_grid_all_ml.py", line 271, in <module>
    NN_NCV.fit(x_train, y_train.ravel(), name_list=name_list, phenfile=phenfile, set_size=set_size, snps=snps, model_name='NN')
…
2021-12-03 16:09:18.656738: I tensorflow/core/platform/profile_utils/cpu_utils.cc:94] CPU Frequency: 2200045000 Hz
2021-12-03 16:09:18.660341: I tensorflow/compiler/xla/service/service.cc:168] XLA service 0x82a2a30 executing computations on platform Host. Devices:
2021-12-03 16:09:18.660368: I tensorflow/compiler/xla/service/service.cc:175]   StreamExecutor device (0): <undefined>, <undefined>
Model: "sequential"
_________________________________________________________________
Layer (type)                 Output Shape              Param #   
=================================================================
dense (Dense)                (None, 1000)              10000000  
_________________________________________________________________
dropout (Dropout)            (None, 1000)              0         
_________________________________________________________________
dense_1 (Dense)              (None, 1000)              1001000   
_________________________________________________________________
dropout_1 (Dropout)          (None, 1000)              0         
_________________________________________________________________
dense_2 (Dense)              (None, 1000)              1001000   
_________________________________________________________________
dropout_2 (Dropout)          (None, 1000)              0         
_________________________________________________________________
dense_3 (Dense)              (None, 1000)              1001000   
_________________________________________________________________
dropout_3 (Dropout)          (None, 1000)              0         
_________________________________________________________________
dense_4 (Dense)              (None, 1)                 1001      
=================================================================
Total params: 13,004,001
Trainable params: 13,004,001
Non-trainable params: 0
_________________________________________________________________
None
Traceback (most recent call last):
  File "cv_grid_all_ml.py", line 271, in <module>
    NN_NCV.fit(x_train, y_train.ravel(), name_list=name_list, phenfile=phenfile, set_size=set_size, snps=snps, model_name='NN')
…
2021-12-03 16:11:07.179505: I tensorflow/core/platform/profile_utils/cpu_utils.cc:94] CPU Frequency: 2200045000 Hz
2021-12-03 16:11:07.183452: I tensorflow/compiler/xla/service/service.cc:168] XLA service 0xa2c8e00 executing computations on platform Host. Devices:
2021-12-03 16:11:07.183470: I tensorflow/compiler/xla/service/service.cc:175]   StreamExecutor device (0): <undefined>, <undefined>
Model: "sequential"
_________________________________________________________________
Layer (type)                 Output Shape              Param #   
=================================================================
dense (Dense)                (None, 1000)              10001000  
_________________________________________________________________
dense_1 (Dense)              (None, 1000)              1001000   
_________________________________________________________________
dense_2 (Dense)              (None, 1000)              1001000   
_________________________________________________________________
dense_3 (Dense)              (None, 1000)              1001000   
_________________________________________________________________
dense_4 (Dense)              (None, 1000)              1001000   
_________________________________________________________________
dense_5 (Dense)              (None, 1)                 1001      
=================================================================
Total params: 14,006,001
Trainable params: 14,006,001
Non-trainable params: 0
_________________________________________________________________
None
2021-12-03 16:11:08.908674: W tensorflow/compiler/jit/mark_for_compilation_pass.cc:1483] (One-time warning): Not using XLA:CPU for cluster because envvar TF_XLA_FLAGS=--tf
…
e flag, not via TF_XLA_FLAGS) or set the envvar XLA_FLAGS=--xla_hlo_profile.
Red
-0.015347727939891254
Typer KerasRegressor
Hello world
{'units': 200, 'rate': 0.1, 'HP_L2_REG': 0.2, 'HP_OPTIMIZER': 'SGD', 'kernel_initializer': 'glorot_uniform', 'HP_L1_REG': 0.1, 'learning_rate': 0.0001, 'activation': 'relu', 'HP_NUM_HIDDEN_LAYERS': 2}
Blue
Model: "sequential"
_________________________________________________________________
Layer (type)                 Output Shape              Param #   
=================================================================
dense (Dense)                (None, 200)               2000200   
_________________________________________________________________
dropout (Dropout)            (None, 200)               0         
_________________________________________________________________
dense_1 (Dense)              (None, 200)               40200     
_________________________________________________________________
dropout_1 (Dropout)          (None, 200)               0         
_________________________________________________________________
dense_2 (Dense)              (None, 1)                 201       
=================================================================
Total params: 2,040,601
Trainable params: 2,040,601
Non-trainable params: 0
_________________________________________________________________
None
Red
0.013207513280804606
Typer KerasRegressor
Hello world
{'units': 1000, 'rate': 0.5, 'HP_L2_REG': 0.2, 'HP_OPTIMIZER': 'Adagrad', 'kernel_initializer': 'glorot_uniform', 'HP_L1_REG': 0.001, 'learning_rate': 1e-05, 'activation': 'relu', 'HP_NUM_HIDDEN_LAYERS': 5}
Blue
Model: "sequential"
_________________________________________________________________
Layer (type)                 Output Shape              Param #   
=================================================================
dense (Dense)                (None, 1000)              10001000  
_________________________________________________________________
dropout (Dropout)            (None, 1000)              0         
_________________________________________________________________
dense_1 (Dense)              (None, 1000)              1001000   
_________________________________________________________________
dropout_1 (Dropout)          (None, 1000)              0         
_________________________________________________________________
dense_2 (Dense)              (None, 1000)              1001000   
_________________________________________________________________
dropout_2 (Dropout)          (None, 1000)              0         
_________________________________________________________________
dense_3 (Dense)              (None, 1000)              1001000   
_________________________________________________________________
dropout_3 (Dropout)          (None, 1000)              0         
_________________________________________________________________
dense_4 (Dense)              (None, 1000)              1001000   
_________________________________________________________________
dropout_4 (Dropout)          (None, 1000)              0         
_________________________________________________________________
dense_5 (Dense)              (None, 1)                 1001      
=================================================================
Total params: 14,006,001
Trainable params: 14,006,001
Non-trainable params: 0
_________________________________________________________________
None
Red
0.006385322482705735
Typer KerasRegressor
Hello world
{'units': 1000, 'rate': 0.1, 'HP_L2_REG': 0.2, 'HP_OPTIMIZER': 'Adam', 'kernel_initializer': 'glorot_uniform', 'HP_L1_REG': 0.01, 'learning_rate': 0.01, 'activation': 'relu', 'HP_NUM_HIDDEN_LAYERS': 5}
Blue
Model: "sequential"
_________________________________________________________________
Layer (type)                 Output Shape              Param #   
=================================================================
dense (Dense)                (None, 1000)              10001000  
_________________________________________________________________
dropout (Dropout)            (None, 1000)              0         
_________________________________________________________________
dense_1 (Dense)              (None, 1000)              1001000   
_________________________________________________________________
dropout_1 (Dropout)          (None, 1000)              0         
_________________________________________________________________
dense_2 (Dense)              (None, 1000)              1001000   
_________________________________________________________________
dropout_2 (Dropout)          (None, 1000)              0         
_________________________________________________________________
dense_3 (Dense)              (None, 1000)              1001000   
_________________________________________________________________
dropout_3 (Dropout)          (None, 1000)              0         
_________________________________________________________________
dense_4 (Dense)              (None, 1000)              1001000   
_________________________________________________________________
dropout_4 (Dropout)          (None, 1000)              0         
_________________________________________________________________
dense_5 (Dense)              (None, 1)                 1001      
=================================================================
Total params: 14,006,001
Trainable params: 14,006,001
Non-trainable params: 0
_________________________________________________________________
None
Red
-0.018783269632283384
Typer KerasRegressor
Hello world
{'units': 400, 'rate': 0.5, 'HP_L2_REG': 1e-08, 'HP_OPTIMIZER': 'Adam', 'kernel_initializer': 'glorot_uniform', 'HP_L1_REG': 0.1, 'learning_rate': 1e-05, 'activation': 'tanh', 'HP_NUM_HIDDEN_LAYERS': 2}
Blue
Model: "sequential"
_________________________________________________________________
Layer (type)                 Output Shape              Param #   
=================================================================
dense (Dense)                (None, 400)               4000400   
_________________________________________________________________
dropout (Dropout)            (None, 400)               0         
_________________________________________________________________
dense_1 (Dense)              (None, 400)               160400    
_________________________________________________________________
dropout_1 (Dropout)          (None, 400)               0         
_________________________________________________________________
dense_2 (Dense)              (None, 1)                 401       
=================================================================
Total params: 4,161,201
Trainable params: 4,161,201
Non-trainable params: 0
_________________________________________________________________
None
Red
-0.011027706102743506
Typer KerasRegressor
Hello world
{'units': 1000, 'rate': 0.2, 'HP_L2_REG': 1e-08, 'HP_OPTIMIZER': 'Adam', 'kernel_initializer': 'glorot_uniform', 'HP_L1_REG': 0.01, 'learning_rate': 0.001, 'activation': 'tanh', 'HP_NUM_HIDDEN_LAYERS': 5}
Blue
Model: "sequential"
_________________________________________________________________
Layer (type)                 Output Shape              Param #   
=================================================================
dense (Dense)                (None, 1000)              10001000  
_________________________________________________________________
dropout (Dropout)            (None, 1000)              0         
_________________________________________________________________
dense_1 (Dense)              (None, 1000)              1001000   
_________________________________________________________________
dropout_1 (Dropout)          (None, 1000)              0         
_________________________________________________________________
dense_2 (Dense)              (None, 1000)              1001000   
_________________________________________________________________
dropout_2 (Dropout)          (None, 1000)              0         
_________________________________________________________________
dense_3 (Dense)              (None, 1000)              1001000   
_________________________________________________________________
dropout_3 (Dropout)          (None, 1000)              0         
_________________________________________________________________
dense_4 (Dense)              (None, 1000)              1001000   
_________________________________________________________________
dropout_4 (Dropout)          (None, 1000)              0         
_________________________________________________________________
dense_5 (Dense)              (None, 1)                 1001      
=================================================================
Total params: 14,006,001
Trainable params: 14,006,001
Non-trainable params: 0
_________________________________________________________________
None
Red
-0.013716080386481089
Typer KerasRegressor
Hello world
{'units': 1000, 'rate': 0.1, 'HP_L2_REG': 0.0001, 'HP_OPTIMIZER': 'Adagrad', 'kernel_initializer': 'glorot_uniform', 'HP_L1_REG': 0.1, 'learning_rate': 0.0001, 'activation': 'tanh', 'HP_NUM_HIDDEN_LAYERS': 3}
Blue
Model: "sequential"
_________________________________________________________________
Layer (type)                 Output Shape              Param #   
=================================================================
dense (Dense)                (None, 1000)              10001000  
_________________________________________________________________
dropout (Dropout)            (None, 1000)              0         
_________________________________________________________________
dense_1 (Dense)              (None, 1000)              1001000   
_________________________________________________________________
dropout_1 (Dropout)          (None, 1000)              0         
_________________________________________________________________
dense_2 (Dense)              (None, 1000)              1001000   
_________________________________________________________________
dropout_2 (Dropout)          (None, 1000)              0         
_________________________________________________________________
dense_3 (Dense)              (None, 1)                 1001      
=================================================================
Total params: 12,004,001
Trainable params: 12,004,001
Non-trainable params: 0
_________________________________________________________________
None
Red
-0.00045263996399502737
Typer KerasRegressor
Hello world
{'units': 1000, 'rate': 0.2, 'HP_L2_REG': 1e-08, 'HP_OPTIMIZER': 'SGD', 'kernel_initializer': 'glorot_uniform', 'HP_L1_REG': 0.1, 'learning_rate': 0.0001, 'activation': 'tanh', 'HP_NUM_HIDDEN_LAYERS': 4}
Blue
Model: "sequential"
_________________________________________________________________
Layer (type)                 Output Shape              Param #   
=================================================================
dense (Dense)                (None, 1000)              10001000  
_________________________________________________________________
dropout (Dropout)            (None, 1000)              0         
_________________________________________________________________
dense_1 (Dense)              (None, 1000)              1001000   
_________________________________________________________________
dropout_1 (Dropout)          (None, 1000)              0         
_________________________________________________________________
dense_2 (Dense)              (None, 1000)              1001000   
_________________________________________________________________
dropout_2 (Dropout)          (None, 1000)              0         
_________________________________________________________________
dense_3 (Dense)              (None, 1000)              1001000   
_________________________________________________________________
dropout_3 (Dropout)          (None, 1000)              0         
_________________________________________________________________
dense_4 (Dense)              (None, 1)                 1001      
=================================================================
Total params: 13,005,001
Trainable params: 13,005,001
Non-trainable params: 0
_________________________________________________________________
None
Red
0.011723154446110606
Typer KerasRegressor
Hello world
{'units': 200, 'rate': 0.1, 'HP_L2_REG': 0.01, 'HP_OPTIMIZER': 'Adam', 'kernel_initializer': 'glorot_uniform', 'HP_L1_REG': 0.001, 'learning_rate': 0.0001, 'activation': 'relu', 'HP_NUM_HIDDEN_LAYERS': 3}
Blue
Model: "sequential"
_________________________________________________________________
Layer (type)                 Output Shape              Param #   
=================================================================
dense (Dense)                (None, 200)               2000200   
_________________________________________________________________
dropout (Dropout)            (None, 200)               0         
_________________________________________________________________
dense_1 (Dense)              (None, 200)               40200     
_________________________________________________________________
dropout_1 (Dropout)          (None, 200)               0         
_________________________________________________________________
dense_2 (Dense)              (None, 200)               40200     
_________________________________________________________________
dropout_2 (Dropout)          (None, 200)               0         
_________________________________________________________________
dense_3 (Dense)              (None, 1)                 201       
=================================================================
Total params: 2,080,801
Trainable params: 2,080,801
Non-trainable params: 0
_________________________________________________________________
None
Red
0.14086580037650576
Typer KerasRegressor
Hello world
{'units': 400, 'rate': 0.2, 'HP_L2_REG': 0.2, 'HP_OPTIMIZER': 'SGD', 'kernel_initializer': 'glorot_uniform', 'HP_L1_REG': 0.0001, 'learning_rate': 0.01, 'activation': 'relu', 'HP_NUM_HIDDEN_LAYERS': 2}
Blue
Model: "sequential"
_________________________________________________________________
Layer (type)                 Output Shape              Param #   
=================================================================
dense (Dense)                (None, 400)               4000400   
_________________________________________________________________
dropout (Dropout)            (None, 400)               0         
_________________________________________________________________
dense_1 (Dense)              (None, 400)               160400    
_________________________________________________________________
dropout_1 (Dropout)          (None, 400)               0         
_________________________________________________________________
dense_2 (Dense)              (None, 1)                 401       
=================================================================
Total params: 4,161,201
Trainable params: 4,161,201
Non-trainable params: 0
_________________________________________________________________
None
Red
0.29771853410308713
Typer KerasRegressor
Hello world
{'units': 200, 'rate': 0.1, 'HP_L2_REG': 0.2, 'HP_OPTIMIZER': 'Adagrad', 'kernel_initializer': 'glorot_uniform', 'HP_L1_REG': 0.0001, 'learning_rate': 0.001, 'activation': 'tanh', 'HP_NUM_HIDDEN_LAYERS': 2}
Blue
Model: "sequential"
_________________________________________________________________
Layer (type)                 Output Shape              Param #   
=================================================================
dense (Dense)                (None, 200)               2000200   
_________________________________________________________________
dropout (Dropout)            (None, 200)               0         
_________________________________________________________________
dense_1 (Dense)              (None, 200)               40200     
_________________________________________________________________
dropout_1 (Dropout)          (None, 200)               0         
_________________________________________________________________
dense_2 (Dense)              (None, 1)                 201       
=================================================================
Total params: 2,040,601
Trainable params: 2,040,601
Non-trainable params: 0
_________________________________________________________________
None
Red
0.3238092935782835
Typer KerasRegressor
Hello world
{'units': 400, 'rate': 0.2, 'HP_L2_REG': 0.2, 'HP_OPTIMIZER': 'Adagrad', 'kernel_initializer': 'glorot_uniform', 'HP_L1_REG': 0.0001, 'learning_rate': 0.001, 'activation': 'relu', 'HP_NUM_HIDDEN_LAYERS': 3}
Blue
Model: "sequential"
_________________________________________________________________
Layer (type)                 Output Shape              Param #   
=================================================================
dense (Dense)                (None, 400)               4000400   
_________________________________________________________________
dropout (Dropout)            (None, 400)               0         
_________________________________________________________________
dense_1 (Dense)              (None, 400)               160400    
_________________________________________________________________
dropout_1 (Dropout)          (None, 400)               0         
_________________________________________________________________
dense_2 (Dense)              (None, 400)               160400    
_________________________________________________________________
dropout_2 (Dropout)          (None, 400)               0         
_________________________________________________________________
dense_3 (Dense)              (None, 1)                 401       
=================================================================
Total params: 4,321,601
Trainable params: 4,321,601
Non-trainable params: 0
_________________________________________________________________
None
Red
0.3515377726871275
Typer KerasRegressor
Hello world
{'units': 1000, 'rate': 0.5, 'HP_L2_REG': 1e-08, 'HP_OPTIMIZER': 'Adagrad', 'kernel_initializer': 'glorot_uniform', 'HP_L1_REG': 0.0001, 'learning_rate': 0.0001, 'activation': 'tanh', 'HP_NUM_HIDDEN_LAYERS': 5}
Blue
Model: "sequential"
_________________________________________________________________
Layer (type)                 Output Shape              Param #   
=================================================================
dense (Dense)                (None, 1000)              10001000  
_________________________________________________________________
dropout (Dropout)            (None, 1000)              0         
_________________________________________________________________
dense_1 (Dense)              (None, 1000)              1001000   
_________________________________________________________________
dropout_1 (Dropout)          (None, 1000)              0         
_________________________________________________________________
dense_2 (Dense)              (None, 1000)              1001000   
_________________________________________________________________
dropout_2 (Dropout)          (None, 1000)              0         
_________________________________________________________________
dense_3 (Dense)              (None, 1000)              1001000   
_________________________________________________________________
dropout_3 (Dropout)          (None, 1000)              0         
_________________________________________________________________
dense_4 (Dense)              (None, 1000)              1001000   
_________________________________________________________________
dropout_4 (Dropout)          (None, 1000)              0         
_________________________________________________________________
dense_5 (Dense)              (None, 1)                 1001      
=================================================================
Total params: 14,006,001
Trainable params: 14,006,001
Non-trainable params: 0
_________________________________________________________________
None
Red
0.30603075177970684
Typer KerasRegressor
Hello world
{'units': 200, 'rate': 0.1, 'HP_L2_REG': 0.0001, 'HP_OPTIMIZER': 'SGD', 'kernel_initializer': 'glorot_uniform', 'HP_L1_REG': 0.01, 'learning_rate': 0.001, 'activation': 'relu', 'HP_NUM_HIDDEN_LAYERS': 2}
Blue
Model: "sequential"
_________________________________________________________________
Layer (type)                 Output Shape              Param #   
=================================================================
dense (Dense)                (None, 200)               2000200   
_________________________________________________________________
dropout (Dropout)            (None, 200)               0         
_________________________________________________________________
dense_1 (Dense)              (None, 200)               40200     
_________________________________________________________________
dropout_1 (Dropout)          (None, 200)               0         
_________________________________________________________________
dense_2 (Dense)              (None, 1)                 201       
=================================================================
Total params: 2,040,601
Trainable params: 2,040,601
Non-trainable params: 0
_________________________________________________________________
None
Red
0.32650036750530886
Typer KerasRegressor
Hello world
{'units': 1000, 'rate': 0.2, 'HP_L2_REG': 1e-08, 'HP_OPTIMIZER': 'Adagrad', 'kernel_initializer': 'glorot_uniform', 'HP_L1_REG': 0.01, 'learning_rate': 0.01, 'activation': 'tanh', 'HP_NUM_HIDDEN_LAYERS': 3}
Blue
Model: "sequential"
_________________________________________________________________
Layer (type)                 Output Shape              Param #   
=================================================================
dense (Dense)                (None, 1000)              10001000  
_________________________________________________________________
dropout (Dropout)            (None, 1000)              0         
_________________________________________________________________
dense_1 (Dense)              (None, 1000)              1001000   
_________________________________________________________________
dropout_1 (Dropout)          (None, 1000)              0         
_________________________________________________________________
dense_2 (Dense)              (None, 1000)              1001000   
_________________________________________________________________
dropout_2 (Dropout)          (None, 1000)              0         
_________________________________________________________________
dense_3 (Dense)              (None, 1)                 1001      
=================================================================
Total params: 12,004,001
Trainable params: 12,004,001
Non-trainable params: 0
_________________________________________________________________
None
Red
-0.01778498703324849
Typer KerasRegressor
Hello world
{'units': 400, 'rate': 0.2, 'HP_L2_REG': 0.0001, 'HP_OPTIMIZER': 'Adam', 'kernel_initializer': 'glorot_uniform', 'HP_L1_REG': 0.001, 'learning_rate': 0.0001, 'activation': 'tanh', 'HP_NUM_HIDDEN_LAYERS': 2}
Blue
Model: "sequential"
_________________________________________________________________
Layer (type)                 Output Shape              Param #   
=================================================================
dense (Dense)                (None, 400)               4000400   
_________________________________________________________________
dropout (Dropout)            (None, 400)               0         
_________________________________________________________________
dense_1 (Dense)              (None, 400)               160400    
_________________________________________________________________
dropout_1 (Dropout)          (None, 400)               0         
_________________________________________________________________
dense_2 (Dense)              (None, 1)                 401       
=================================================================
Total params: 4,161,201
Trainable params: 4,161,201
Non-trainable params: 0
_________________________________________________________________
None
Red
0.05467667484274075
Typer KerasRegressor
Hello world
{'units': 200, 'rate': 0.5, 'HP_L2_REG': 1e-08, 'HP_OPTIMIZER': 'Adagrad', 'kernel_initializer': 'glorot_uniform', 'HP_L1_REG': 0.01, 'learning_rate': 0.0001, 'activation': 'tanh', 'HP_NUM_HIDDEN_LAYERS': 5}
Blue
Model: "sequential"
_________________________________________________________________
Layer (type)                 Output Shape              Param #   
=================================================================
dense (Dense)                (None, 200)               2000200   
_________________________________________________________________
dropout (Dropout)            (None, 200)               0         
_________________________________________________________________
dense_1 (Dense)              (None, 200)               40200     
_________________________________________________________________
dropout_1 (Dropout)          (None, 200)               0         
_________________________________________________________________
dense_2 (Dense)              (None, 200)               40200     
_________________________________________________________________
dropout_2 (Dropout)          (None, 200)               0         
_________________________________________________________________
dense_3 (Dense)              (None, 200)               40200     
_________________________________________________________________
dropout_3 (Dropout)          (None, 200)               0         
_________________________________________________________________
dense_4 (Dense)              (None, 200)               40200     
_________________________________________________________________
dropout_4 (Dropout)          (None, 200)               0         
_________________________________________________________________
dense_5 (Dense)              (None, 1)                 201       
=================================================================
Total params: 2,161,201
Trainable params: 2,161,201
Non-trainable params: 0
_________________________________________________________________
None
Red
0.13566671860919866
Typer KerasRegressor
Hello world
{'units': 200, 'rate': 0.2, 'HP_L2_REG': 0.01, 'HP_OPTIMIZER': 'Adagrad', 'kernel_initializer': 'glorot_uniform', 'HP_L1_REG': 0.1, 'learning_rate': 0.0001, 'activation': 'tanh', 'HP_NUM_HIDDEN_LAYERS': 3}
Blue
Model: "sequential"
_________________________________________________________________
Layer (type)                 Output Shape              Param #   
=================================================================
dense (Dense)                (None, 200)               2000200   
_________________________________________________________________
dropout (Dropout)            (None, 200)               0         
_________________________________________________________________
dense_1 (Dense)              (None, 200)               40200     
_________________________________________________________________
dropout_1 (Dropout)          (None, 200)               0         
_________________________________________________________________
dense_2 (Dense)              (None, 200)               40200     
_________________________________________________________________
dropout_2 (Dropout)          (None, 200)               0         
_________________________________________________________________
dense_3 (Dense)              (None, 1)                 201       
=================================================================
Total params: 2,080,801
Trainable params: 2,080,801
Non-trainable params: 0
_________________________________________________________________
None
Red
-0.0051837025154588545
Typer KerasRegressor
Hello world
{'units': 1000, 'rate': 0.5, 'HP_L2_REG': 1e-08, 'HP_OPTIMIZER': 'Adam', 'kernel_initializer': 'glorot_uniform', 'HP_L1_REG': 0.001, 'learning_rate': 0.0001, 'activation': 'tanh', 'HP_NUM_HIDDEN_LAYERS': 5}
Blue
Model: "sequential"
_________________________________________________________________
Layer (type)                 Output Shape              Param #   
=================================================================
dense (Dense)                (None, 1000)              10001000  
_________________________________________________________________
dropout (Dropout)            (None, 1000)              0         
_________________________________________________________________
dense_1 (Dense)              (None, 1000)              1001000   
_________________________________________________________________
dropout_1 (Dropout)          (None, 1000)              0         
_________________________________________________________________
dense_2 (Dense)              (None, 1000)              1001000   
_________________________________________________________________
dropout_2 (Dropout)          (None, 1000)              0         
_________________________________________________________________
dense_3 (Dense)              (None, 1000)              1001000   
_________________________________________________________________
dropout_3 (Dropout)          (None, 1000)              0         
_________________________________________________________________
dense_4 (Dense)              (None, 1000)              1001000   
_________________________________________________________________
dropout_4 (Dropout)          (None, 1000)              0         
_________________________________________________________________
dense_5 (Dense)              (None, 1)                 1001      
=================================================================
Total params: 14,006,001
Trainable params: 14,006,001
Non-trainable params: 0
_________________________________________________________________
None
Red
0.16264504332076468
Typer KerasRegressor
Hello world
{'units': 400, 'rate': 0.5, 'HP_L2_REG': 0.0001, 'HP_OPTIMIZER': 'SGD', 'kernel_initializer': 'glorot_uniform', 'HP_L1_REG': 0.1, 'learning_rate': 0.01, 'activation': 'tanh', 'HP_NUM_HIDDEN_LAYERS': 5}
Blue
Model: "sequential"
_________________________________________________________________
Layer (type)                 Output Shape              Param #   
=================================================================
dense (Dense)                (None, 400)               4000400   
_________________________________________________________________
dropout (Dropout)            (None, 400)               0         
_________________________________________________________________
dense_1 (Dense)              (None, 400)               160400    
_________________________________________________________________
dropout_1 (Dropout)          (None, 400)               0         
_________________________________________________________________
dense_2 (Dense)              (None, 400)               160400    
_________________________________________________________________
dropout_2 (Dropout)          (None, 400)               0         
_________________________________________________________________
dense_3 (Dense)              (None, 400)               160400    
_________________________________________________________________
dropout_3 (Dropout)          (None, 400)               0         
_________________________________________________________________
dense_4 (Dense)              (None, 400)               160400    
_________________________________________________________________
dropout_4 (Dropout)          (None, 400)               0         
_________________________________________________________________
dense_5 (Dense)              (None, 1)                 401       
=================================================================
Total params: 4,642,401
Trainable params: 4,642,401
Non-trainable params: 0
_________________________________________________________________
None
Red
-0.016130508661828413
Typer KerasRegressor
Hello world
{'units': 200, 'rate': 0.1, 'HP_L2_REG': 0.2, 'HP_OPTIMIZER': 'Adam', 'kernel_initializer': 'glorot_uniform', 'HP_L1_REG': 0.1, 'learning_rate': 0.01, 'activation': 'tanh', 'HP_NUM_HIDDEN_LAYERS': 4}
Blue
Model: "sequential"
_________________________________________________________________
Layer (type)                 Output Shape              Param #   
=================================================================
dense (Dense)                (None, 200)               2000200   
_________________________________________________________________
dropout (Dropout)            (None, 200)               0         
_________________________________________________________________
dense_1 (Dense)              (None, 200)               40200     
_________________________________________________________________
dropout_1 (Dropout)          (None, 200)               0         
_________________________________________________________________
dense_2 (Dense)              (None, 200)               40200     
_________________________________________________________________
dropout_2 (Dropout)          (None, 200)               0         
_________________________________________________________________
dense_3 (Dense)              (None, 200)               40200     
_________________________________________________________________
dropout_3 (Dropout)          (None, 200)               0         
_________________________________________________________________
dense_4 (Dense)              (None, 1)                 201       
=================================================================
Total params: 2,121,001
Trainable params: 2,121,001
Non-trainable params: 0
_________________________________________________________________
None
Red
-0.011510707325220748
Typer KerasRegressor
Hello world
{'units': 1000, 'rate': 0.5, 'HP_L2_REG': 1e-08, 'HP_OPTIMIZER': 'SGD', 'kernel_initializer': 'glorot_uniform', 'HP_L1_REG': 0.01, 'learning_rate': 0.01, 'activation': 'tanh', 'HP_NUM_HIDDEN_LAYERS': 5}
Blue
Model: "sequential"
_________________________________________________________________
Layer (type)                 Output Shape              Param #   
=================================================================
dense (Dense)                (None, 1000)              10001000  
_________________________________________________________________
dropout (Dropout)            (None, 1000)              0         
_________________________________________________________________
dense_1 (Dense)              (None, 1000)              1001000   
_________________________________________________________________
dropout_1 (Dropout)          (None, 1000)              0         
_________________________________________________________________
dense_2 (Dense)              (None, 1000)              1001000   
_________________________________________________________________
dropout_2 (Dropout)          (None, 1000)              0         
_________________________________________________________________
dense_3 (Dense)              (None, 1000)              1001000   
_________________________________________________________________
dropout_3 (Dropout)          (None, 1000)              0         
_________________________________________________________________
dense_4 (Dense)              (None, 1000)              1001000   
_________________________________________________________________
dropout_4 (Dropout)          (None, 1000)              0         
_________________________________________________________________
dense_5 (Dense)              (None, 1)                 1001      
=================================================================
Total params: 14,006,001
Trainable params: 14,006,001
Non-trainable params: 0
_________________________________________________________________
None
Red
-0.016906837475496594
Typer KerasRegressor
Hello world
{'units': 200, 'rate': 0.1, 'HP_L2_REG': 0.0001, 'HP_OPTIMIZER': 'SGD', 'kernel_initializer': 'glorot_uniform', 'HP_L1_REG': 0.01, 'learning_rate': 0.001, 'activation': 'relu', 'HP_NUM_HIDDEN_LAYERS': 4}
Blue
Model: "sequential"
_________________________________________________________________
Layer (type)                 Output Shape              Param #   
=================================================================
dense (Dense)                (None, 200)               2000200   
_________________________________________________________________
dropout (Dropout)            (None, 200)               0         
_________________________________________________________________
dense_1 (Dense)              (None, 200)               40200     
_________________________________________________________________
dropout_1 (Dropout)          (None, 200)               0         
_________________________________________________________________
dense_2 (Dense)              (None, 200)               40200     
_________________________________________________________________
dropout_2 (Dropout)          (None, 200)               0         
_________________________________________________________________
dense_3 (Dense)              (None, 200)               40200     
_________________________________________________________________
dropout_3 (Dropout)          (None, 200)               0         
_________________________________________________________________
dense_4 (Dense)              (None, 1)                 201       
=================================================================
Total params: 2,121,001
Trainable params: 2,121,001
Non-trainable params: 0
_________________________________________________________________
None
Red
0.09469776368248661
Typer KerasRegressor
Hello world
{'units': 400, 'rate': 0.0, 'HP_L2_REG': 0.01, 'HP_OPTIMIZER': 'Adam', 'kernel_initializer': 'glorot_uniform', 'HP_L1_REG': 0.001, 'learning_rate': 1e-05, 'activation': 'relu', 'HP_NUM_HIDDEN_LAYERS': 4}
Blue
Model: "sequential"
_________________________________________________________________
Layer (type)                 Output Shape              Param #   
=================================================================
dense (Dense)                (None, 400)               4000400   
_________________________________________________________________
dense_1 (Dense)              (None, 400)               160400    
_________________________________________________________________
dense_2 (Dense)              (None, 400)               160400    
_________________________________________________________________
dense_3 (Dense)              (None, 400)               160400    
_________________________________________________________________
dense_4 (Dense)              (None, 1)                 401       
=================================================================
Total params: 4,482,001
Trainable params: 4,482,001
Non-trainable params: 0
_________________________________________________________________
None
Red
0.30848807549023294
Typer KerasRegressor
Hello world
{'units': 400, 'rate': 0.5, 'HP_L2_REG': 0.2, 'HP_OPTIMIZER': 'SGD', 'kernel_initializer': 'glorot_uniform', 'HP_L1_REG': 0.001, 'learning_rate': 0.0001, 'activation': 'tanh', 'HP_NUM_HIDDEN_LAYERS': 5}
Blue
Model: "sequential"
_________________________________________________________________
Layer (type)                 Output Shape              Param #   
=================================================================
dense (Dense)                (None, 400)               4000400   
_________________________________________________________________
dropout (Dropout)            (None, 400)               0         
_________________________________________________________________
dense_1 (Dense)              (None, 400)               160400    
_________________________________________________________________
dropout_1 (Dropout)          (None, 400)               0         
_________________________________________________________________
dense_2 (Dense)              (None, 400)               160400    
_________________________________________________________________
dropout_2 (Dropout)          (None, 400)               0         
_________________________________________________________________
dense_3 (Dense)              (None, 400)               160400    
_________________________________________________________________
dropout_3 (Dropout)          (None, 400)               0         
_________________________________________________________________
dense_4 (Dense)              (None, 400)               160400    
_________________________________________________________________
dropout_4 (Dropout)          (None, 400)               0         
_________________________________________________________________
dense_5 (Dense)              (None, 1)                 401       
=================================================================
Total params: 4,642,401
Trainable params: 4,642,401
Non-trainable params: 0
_________________________________________________________________
None
Red
0.0975700553975749
Typer KerasRegressor
Hello world
{'units': 400, 'rate': 0.1, 'HP_L2_REG': 1e-08, 'HP_OPTIMIZER': 'Adam', 'kernel_initializer': 'glorot_uniform', 'HP_L1_REG': 0.01, 'learning_rate': 0.01, 'activation': 'relu', 'HP_NUM_HIDDEN_LAYERS': 3}
Blue
Model: "sequential"
_________________________________________________________________
Layer (type)                 Output Shape              Param #   
=================================================================
dense (Dense)                (None, 400)               4000400   
_________________________________________________________________
dropout (Dropout)            (None, 400)               0         
_________________________________________________________________
dense_1 (Dense)              (None, 400)               160400    
_________________________________________________________________
dropout_1 (Dropout)          (None, 400)               0         
_________________________________________________________________
dense_2 (Dense)              (None, 400)               160400    
_________________________________________________________________
dropout_2 (Dropout)          (None, 400)               0         
_________________________________________________________________
dense_3 (Dense)              (None, 1)                 401       
=================================================================
Total params: 4,321,601
Trainable params: 4,321,601
Non-trainable params: 0
_________________________________________________________________
None
Red
-0.01341930261409141
Typer KerasRegressor
Hello world
{'units': 1000, 'rate': 0.5, 'HP_L2_REG': 0.2, 'HP_OPTIMIZER': 'Adagrad', 'kernel_initializer': 'glorot_uniform', 'HP_L1_REG': 0.01, 'learning_rate': 0.0001, 'activation': 'relu', 'HP_NUM_HIDDEN_LAYERS': 4}
Blue
Model: "sequential"
_________________________________________________________________
Layer (type)                 Output Shape              Param #   
=================================================================
dense (Dense)                (None, 1000)              10001000  
_________________________________________________________________
dropout (Dropout)            (None, 1000)              0         
_________________________________________________________________
dense_1 (Dense)              (None, 1000)              1001000   
_________________________________________________________________
dropout_1 (Dropout)          (None, 1000)              0         
_________________________________________________________________
dense_2 (Dense)              (None, 1000)              1001000   
_________________________________________________________________
dropout_2 (Dropout)          (None, 1000)              0         
_________________________________________________________________
dense_3 (Dense)              (None, 1000)              1001000   
_________________________________________________________________
dropout_3 (Dropout)          (None, 1000)              0         
_________________________________________________________________
dense_4 (Dense)              (None, 1)                 1001      
=================================================================
Total params: 13,005,001
Trainable params: 13,005,001
Non-trainable params: 0
_________________________________________________________________
None
Red
-0.004274604569912244
Typer KerasRegressor
Hello world
{'units': 400, 'rate': 0.0, 'HP_L2_REG': 0.2, 'HP_OPTIMIZER': 'Adam', 'kernel_initializer': 'glorot_uniform', 'HP_L1_REG': 0.0001, 'learning_rate': 0.01, 'activation': 'relu', 'HP_NUM_HIDDEN_LAYERS': 3}
Blue
Model: "sequential"
_________________________________________________________________
Layer (type)                 Output Shape              Param #   
=================================================================
dense (Dense)                (None, 400)               4000400   
_________________________________________________________________
dense_1 (Dense)              (None, 400)               160400    
_________________________________________________________________
dense_2 (Dense)              (None, 400)               160400    
_________________________________________________________________
dense_3 (Dense)              (None, 1)                 401       
=================================================================
Total params: 4,321,601
Trainable params: 4,321,601
Non-trainable params: 0
_________________________________________________________________
None
Red
-0.01573538995417878
Typer KerasRegressor
Hello world
{'units': 400, 'rate': 0.2, 'HP_L2_REG': 1e-08, 'HP_OPTIMIZER': 'Adagrad', 'kernel_initializer': 'glorot_uniform', 'HP_L1_REG': 0.001, 'learning_rate': 0.0001, 'activation': 'tanh', 'HP_NUM_HIDDEN_LAYERS': 5}
Blue
Model: "sequential"
_________________________________________________________________
Layer (type)                 Output Shape              Param #   
=================================================================
dense (Dense)                (None, 400)               4000400   
_________________________________________________________________
dropout (Dropout)            (None, 400)               0         
_________________________________________________________________
dense_1 (Dense)              (None, 400)               160400    
_________________________________________________________________
dropout_1 (Dropout)          (None, 400)               0         
_________________________________________________________________
dense_2 (Dense)              (None, 400)               160400    
_________________________________________________________________
dropout_2 (Dropout)          (None, 400)               0         
_________________________________________________________________
dense_3 (Dense)              (None, 400)               160400    
_________________________________________________________________
dropout_3 (Dropout)          (None, 400)               0         
_________________________________________________________________
dense_4 (Dense)              (None, 400)               160400    
_________________________________________________________________
dropout_4 (Dropout)          (None, 400)               0         
_________________________________________________________________
dense_5 (Dense)              (None, 1)                 401       
=================================================================
Total params: 4,642,401
Trainable params: 4,642,401
Non-trainable params: 0
_________________________________________________________________
None
Red
0.3940391304452766
Typer KerasRegressor
Hello world
{'units': 400, 'rate': 0.1, 'HP_L2_REG': 1e-08, 'HP_OPTIMIZER': 'Adagrad', 'kernel_initializer': 'glorot_uniform', 'HP_L1_REG': 0.01, 'learning_rate': 0.0001, 'activation': 'tanh', 'HP_NUM_HIDDEN_LAYERS': 5}
Blue
Model: "sequential"
_________________________________________________________________
Layer (type)                 Output Shape              Param #   
=================================================================
dense (Dense)                (None, 400)               4000400   
_________________________________________________________________
dropout (Dropout)            (None, 400)               0         
_________________________________________________________________
dense_1 (Dense)              (None, 400)               160400    
_________________________________________________________________
dropout_1 (Dropout)          (None, 400)               0         
_________________________________________________________________
dense_2 (Dense)              (None, 400)               160400    
_________________________________________________________________
dropout_2 (Dropout)          (None, 400)               0         
_________________________________________________________________
dense_3 (Dense)              (None, 400)               160400    
_________________________________________________________________
dropout_3 (Dropout)          (None, 400)               0         
_________________________________________________________________
dense_4 (Dense)              (None, 400)               160400    
_________________________________________________________________
dropout_4 (Dropout)          (None, 400)               0         
_________________________________________________________________
dense_5 (Dense)              (None, 1)                 401       
=================================================================
Total params: 4,642,401
Trainable params: 4,642,401
Non-trainable params: 0
_________________________________________________________________
None
Red
0.31942122979924625
Typer KerasRegressor
Hello world
{'units': 400, 'rate': 0.5, 'HP_L2_REG': 0.01, 'HP_OPTIMIZER': 'SGD', 'kernel_initializer': 'glorot_uniform', 'HP_L1_REG': 0.001, 'learning_rate': 1e-05, 'activation': 'tanh', 'HP_NUM_HIDDEN_LAYERS': 3}
Blue
Model: "sequential"
_________________________________________________________________
Layer (type)                 Output Shape              Param #   
=================================================================
dense (Dense)                (None, 400)               4000400   
_________________________________________________________________
dropout (Dropout)            (None, 400)               0         
_________________________________________________________________
dense_1 (Dense)              (None, 400)               160400    
_________________________________________________________________
dropout_1 (Dropout)          (None, 400)               0         
_________________________________________________________________
dense_2 (Dense)              (None, 400)               160400    
_________________________________________________________________
dropout_2 (Dropout)          (None, 400)               0         
_________________________________________________________________
dense_3 (Dense)              (None, 1)                 401       
=================================================================
Total params: 4,321,601
Trainable params: 4,321,601
Non-trainable params: 0
_________________________________________________________________
None
Red
0.03072057959690344
Typer KerasRegressor
Hello world
{'units': 1000, 'rate': 0.1, 'HP_L2_REG': 0.2, 'HP_OPTIMIZER': 'Adam', 'kernel_initializer': 'glorot_uniform', 'HP_L1_REG': 0.001, 'learning_rate': 1e-05, 'activation': 'tanh', 'HP_NUM_HIDDEN_LAYERS': 3}
Blue
Model: "sequential"
_________________________________________________________________
Layer (type)                 Output Shape              Param #   
=================================================================
dense (Dense)                (None, 1000)              10001000  
_________________________________________________________________
dropout (Dropout)            (None, 1000)              0         
_________________________________________________________________
dense_1 (Dense)              (None, 1000)              1001000   
_________________________________________________________________
dropout_1 (Dropout)          (None, 1000)              0         
_________________________________________________________________
dense_2 (Dense)              (None, 1000)              1001000   
_________________________________________________________________
dropout_2 (Dropout)          (None, 1000)              0         
_________________________________________________________________
dense_3 (Dense)              (None, 1)                 1001      
=================================================================
Total params: 12,004,001
Trainable params: 12,004,001
Non-trainable params: 0
_________________________________________________________________
None
Red
0.30529161275829253
Typer KerasRegressor
Hello world
{'units': 400, 'rate': 0.2, 'HP_L2_REG': 0.0001, 'HP_OPTIMIZER': 'Adagrad', 'kernel_initializer': 'glorot_uniform', 'HP_L1_REG': 0.0001, 'learning_rate': 0.01, 'activation': 'tanh', 'HP_NUM_HIDDEN_LAYERS': 4}
Blue
Model: "sequential"
_________________________________________________________________
Layer (type)                 Output Shape              Param #   
=================================================================
dense (Dense)                (None, 400)               4000400   
_________________________________________________________________
dropout (Dropout)            (None, 400)               0         
_________________________________________________________________
dense_1 (Dense)              (None, 400)               160400    
_________________________________________________________________
dropout_1 (Dropout)          (None, 400)               0         
_________________________________________________________________
dense_2 (Dense)              (None, 400)               160400    
_________________________________________________________________
dropout_2 (Dropout)          (None, 400)               0         
_________________________________________________________________
dense_3 (Dense)              (None, 400)               160400    
_________________________________________________________________
dropout_3 (Dropout)          (None, 400)               0         
_________________________________________________________________
dense_4 (Dense)              (None, 1)                 401       
=================================================================
Total params: 4,482,001
Trainable params: 4,482,001
Non-trainable params: 0
_________________________________________________________________
None
Red
0.18952554774253128
Typer KerasRegressor
Hello world
{'units': 1000, 'rate': 0.0, 'HP_L2_REG': 1e-08, 'HP_OPTIMIZER': 'SGD', 'kernel_initializer': 'glorot_uniform', 'HP_L1_REG': 0.001, 'learning_rate': 0.0001, 'activation': 'tanh', 'HP_NUM_HIDDEN_LAYERS': 4}
Blue
Model: "sequential"
_________________________________________________________________
Layer (type)                 Output Shape              Param #   
=================================================================
dense (Dense)                (None, 1000)              10001000  
_________________________________________________________________
dense_1 (Dense)              (None, 1000)              1001000   
_________________________________________________________________
dense_2 (Dense)              (None, 1000)              1001000   
_________________________________________________________________
dense_3 (Dense)              (None, 1000)              1001000   
_________________________________________________________________
dense_4 (Dense)              (None, 1)                 1001      
=================================================================
Total params: 13,005,001
Trainable params: 13,005,001
Non-trainable params: 0
_________________________________________________________________
None
Red
0.31913299649073656
Typer KerasRegressor
Hello world
{'units': 1000, 'rate': 0.1, 'HP_L2_REG': 0.0001, 'HP_OPTIMIZER': 'Adam', 'kernel_initializer': 'glorot_uniform', 'HP_L1_REG': 0.0001, 'learning_rate': 0.001, 'activation': 'relu', 'HP_NUM_HIDDEN_LAYERS': 3}
Blue
Model: "sequential"
_________________________________________________________________
Layer (type)                 Output Shape              Param #   
=================================================================
dense (Dense)                (None, 1000)              10001000  
_________________________________________________________________
dropout (Dropout)            (None, 1000)              0         
_________________________________________________________________
dense_1 (Dense)              (None, 1000)              1001000   
_________________________________________________________________
dropout_1 (Dropout)          (None, 1000)              0         
_________________________________________________________________
dense_2 (Dense)              (None, 1000)              1001000   
_________________________________________________________________
dropout_2 (Dropout)          (None, 1000)              0         
_________________________________________________________________
dense_3 (Dense)              (None, 1)                 1001      
=================================================================
Total params: 12,004,001
Trainable params: 12,004,001
Non-trainable params: 0
_________________________________________________________________
None
Red
0.26729207361922114
Typer KerasRegressor
Hello world
{'units': 1000, 'rate': 0.2, 'HP_L2_REG': 0.01, 'HP_OPTIMIZER': 'Adam', 'kernel_initializer': 'glorot_uniform', 'HP_L1_REG': 0.001, 'learning_rate': 1e-05, 'activation': 'relu', 'HP_NUM_HIDDEN_LAYERS': 4}
Blue
Model: "sequential"
_________________________________________________________________
Layer (type)                 Output Shape              Param #   
=================================================================
dense (Dense)                (None, 1000)              10001000  
_________________________________________________________________
dropout (Dropout)            (None, 1000)              0         
_________________________________________________________________
dense_1 (Dense)              (None, 1000)              1001000   
_________________________________________________________________
dropout_1 (Dropout)          (None, 1000)              0         
_________________________________________________________________
dense_2 (Dense)              (None, 1000)              1001000   
_________________________________________________________________
dropout_2 (Dropout)          (None, 1000)              0         
_________________________________________________________________
dense_3 (Dense)              (None, 1000)              1001000   
_________________________________________________________________
dropout_3 (Dropout)          (None, 1000)              0         
_________________________________________________________________
dense_4 (Dense)              (None, 1)                 1001      
=================================================================
Total params: 13,005,001
Trainable params: 13,005,001
Non-trainable params: 0
_________________________________________________________________
None
Red
0.31098235758218307
Typer KerasRegressor
Hello world
{'units': 400, 'rate': 0.0, 'HP_L2_REG': 0.01, 'HP_OPTIMIZER': 'Adagrad', 'kernel_initializer': 'glorot_uniform', 'HP_L1_REG': 0.01, 'learning_rate': 1e-05, 'activation': 'tanh', 'HP_NUM_HIDDEN_LAYERS': 5}
Blue
Model: "sequential"
_________________________________________________________________
Layer (type)                 Output Shape              Param #   
=================================================================
dense (Dense)                (None, 400)               4000400   
_________________________________________________________________
dense_1 (Dense)              (None, 400)               160400    
_________________________________________________________________
dense_2 (Dense)              (None, 400)               160400    
_________________________________________________________________
dense_3 (Dense)              (None, 400)               160400    
_________________________________________________________________
dense_4 (Dense)              (None, 400)               160400    
_________________________________________________________________
dense_5 (Dense)              (None, 1)                 401       
=================================================================
Total params: 4,642,401
Trainable params: 4,642,401
Non-trainable params: 0
_________________________________________________________________
None
Red
0.028187119786756143
Typer KerasRegressor
Hello world
{'units': 1000, 'rate': 0.5, 'HP_L2_REG': 0.01, 'HP_OPTIMIZER': 'Adam', 'kernel_initializer': 'glorot_uniform', 'HP_L1_REG': 0.01, 'learning_rate': 0.001, 'activation': 'tanh', 'HP_NUM_HIDDEN_LAYERS': 2}
Blue
Model: "sequential"
_________________________________________________________________
Layer (type)                 Output Shape              Param #   
=================================================================
dense (Dense)                (None, 1000)              10001000  
_________________________________________________________________
dropout (Dropout)            (None, 1000)              0         
_________________________________________________________________
dense_1 (Dense)              (None, 1000)              1001000   
_________________________________________________________________
dropout_1 (Dropout)          (None, 1000)              0         
_________________________________________________________________
dense_2 (Dense)              (None, 1)                 1001      
=================================================================
Total params: 11,003,001
Trainable params: 11,003,001
Non-trainable params: 0
_________________________________________________________________
None
Red
-0.018371853432326057
Typer KerasRegressor
Hello world
{'units': 400, 'rate': 0.2, 'HP_L2_REG': 1e-08, 'HP_OPTIMIZER': 'Adagrad', 'kernel_initializer': 'glorot_uniform', 'HP_L1_REG': 0.001, 'learning_rate': 0.0001, 'activation': 'relu', 'HP_NUM_HIDDEN_LAYERS': 4}
Blue
Model: "sequential"
_________________________________________________________________
Layer (type)                 Output Shape              Param #   
=================================================================
dense (Dense)                (None, 400)               4000400   
_________________________________________________________________
dropout (Dropout)            (None, 400)               0         
_________________________________________________________________
dense_1 (Dense)              (None, 400)               160400    
_________________________________________________________________
dropout_1 (Dropout)          (None, 400)               0         
_________________________________________________________________
dense_2 (Dense)              (None, 400)               160400    
_________________________________________________________________
dropout_2 (Dropout)          (None, 400)               0         
_________________________________________________________________
dense_3 (Dense)              (None, 400)               160400    
_________________________________________________________________
dropout_3 (Dropout)          (None, 400)               0         
_________________________________________________________________
dense_4 (Dense)              (None, 1)                 401       
=================================================================
Total params: 4,482,001
Trainable params: 4,482,001
Non-trainable params: 0
_________________________________________________________________
None
Red
0.026610001401018213
Typer KerasRegressor
Hello world
{'units': 200, 'rate': 0.1, 'HP_L2_REG': 0.0001, 'HP_OPTIMIZER': 'Adam', 'kernel_initializer': 'glorot_uniform', 'HP_L1_REG': 0.1, 'learning_rate': 0.001, 'activation': 'tanh', 'HP_NUM_HIDDEN_LAYERS': 3}
Blue
Model: "sequential"
_________________________________________________________________
Layer (type)                 Output Shape              Param #   
=================================================================
dense (Dense)                (None, 200)               2000200   
_________________________________________________________________
dropout (Dropout)            (None, 200)               0         
_________________________________________________________________
dense_1 (Dense)              (None, 200)               40200     
_________________________________________________________________
dropout_1 (Dropout)          (None, 200)               0         
_________________________________________________________________
dense_2 (Dense)              (None, 200)               40200     
_________________________________________________________________
dropout_2 (Dropout)          (None, 200)               0         
_________________________________________________________________
dense_3 (Dense)              (None, 1)                 201       
=================================================================
Total params: 2,080,801
Trainable params: 2,080,801
Non-trainable params: 0
_________________________________________________________________
None
Red
-0.018371028588318516
Typer KerasRegressor
Hello world
{'units': 400, 'rate': 0.0, 'HP_L2_REG': 0.2, 'HP_OPTIMIZER': 'SGD', 'kernel_initializer': 'glorot_uniform', 'HP_L1_REG': 0.0001, 'learning_rate': 0.01, 'activation': 'tanh', 'HP_NUM_HIDDEN_LAYERS': 3}
Blue
Model: "sequential"
_________________________________________________________________
Layer (type)                 Output Shape              Param #   
=================================================================
dense (Dense)                (None, 400)               4000400   
_________________________________________________________________
dense_1 (Dense)              (None, 400)               160400    
_________________________________________________________________
dense_2 (Dense)              (None, 400)               160400    
_________________________________________________________________
dense_3 (Dense)              (None, 1)                 401       
=================================================================
Total params: 4,321,601
Trainable params: 4,321,601
Non-trainable params: 0
_________________________________________________________________
None
Red
0.3041171122903268
Typer KerasRegressor
Hello world
{'units': 400, 'rate': 0.2, 'HP_L2_REG': 0.01, 'HP_OPTIMIZER': 'Adagrad', 'kernel_initializer': 'glorot_uniform', 'HP_L1_REG': 0.01, 'learning_rate': 0.0001, 'activation': 'tanh', 'HP_NUM_HIDDEN_LAYERS': 3}
Blue
Model: "sequential"
_________________________________________________________________
Layer (type)                 Output Shape              Param #   
=================================================================
dense (Dense)                (None, 400)               4000400   
_________________________________________________________________
dropout (Dropout)            (None, 400)               0         
_________________________________________________________________
dense_1 (Dense)              (None, 400)               160400    
_________________________________________________________________
dropout_1 (Dropout)          (None, 400)               0         
_________________________________________________________________
dense_2 (Dense)              (None, 400)               160400    
_________________________________________________________________
dropout_2 (Dropout)          (None, 400)               0         
_________________________________________________________________
dense_3 (Dense)              (None, 1)                 401       
=================================================================
Total params: 4,321,601
Trainable params: 4,321,601
Non-trainable params: 0
_________________________________________________________________
None
Red
0.2331327507555382
Typer KerasRegressor
Hello world
{'units': 1000, 'rate': 0.0, 'HP_L2_REG': 0.0001, 'HP_OPTIMIZER': 'Adam', 'kernel_initializer': 'glorot_uniform', 'HP_L1_REG': 0.0001, 'learning_rate': 0.001, 'activation': 'relu', 'HP_NUM_HIDDEN_LAYERS': 5}
Blue
Model: "sequential"
_________________________________________________________________
Layer (type)                 Output Shape              Param #   
=================================================================
dense (Dense)                (None, 1000)              10001000  
_________________________________________________________________
dense_1 (Dense)              (None, 1000)              1001000   
_________________________________________________________________
dense_2 (Dense)              (None, 1000)              1001000   
_________________________________________________________________
dense_3 (Dense)              (None, 1000)              1001000   
_________________________________________________________________
dense_4 (Dense)              (None, 1000)              1001000   
_________________________________________________________________
dense_5 (Dense)              (None, 1)                 1001      
=================================================================
Total params: 14,006,001
Trainable params: 14,006,001
Non-trainable params: 0
_________________________________________________________________
None
Red
0.28202659842090794
Typer KerasRegressor
Hello world
{'units': 200, 'rate': 0.1, 'HP_L2_REG': 0.2, 'HP_OPTIMIZER': 'SGD', 'kernel_initializer': 'glorot_uniform', 'HP_L1_REG': 0.01, 'learning_rate': 0.001, 'activation': 'tanh', 'HP_NUM_HIDDEN_LAYERS': 4}
Blue
Model: "sequential"
_________________________________________________________________
Layer (type)                 Output Shape              Param #   
=================================================================
dense (Dense)                (None, 200)               2000200   
_________________________________________________________________
dropout (Dropout)            (None, 200)               0         
_________________________________________________________________
dense_1 (Dense)              (None, 200)               40200     
_________________________________________________________________
dropout_1 (Dropout)          (None, 200)               0         
_________________________________________________________________
dense_2 (Dense)              (None, 200)               40200     
_________________________________________________________________
dropout_2 (Dropout)          (None, 200)               0         
_________________________________________________________________
dense_3 (Dense)              (None, 200)               40200     
_________________________________________________________________
dropout_3 (Dropout)          (None, 200)               0         
_________________________________________________________________
dense_4 (Dense)              (None, 1)                 201       
=================================================================
Total params: 2,121,001
Trainable params: 2,121,001
Non-trainable params: 0
_________________________________________________________________
None
Red
0.017619931246196208
Typer KerasRegressor
Hello world
{'units': 400, 'rate': 0.1, 'HP_L2_REG': 0.01, 'HP_OPTIMIZER': 'SGD', 'kernel_initializer': 'glorot_uniform', 'HP_L1_REG': 0.001, 'learning_rate': 0.001, 'activation': 'tanh', 'HP_NUM_HIDDEN_LAYERS': 5}
Blue
Model: "sequential"
_________________________________________________________________
Layer (type)                 Output Shape              Param #   
=================================================================
dense (Dense)                (None, 400)               4000400   
_________________________________________________________________
dropout (Dropout)            (None, 400)               0         
_________________________________________________________________
dense_1 (Dense)              (None, 400)               160400    
_________________________________________________________________
dropout_1 (Dropout)          (None, 400)               0         
_________________________________________________________________
dense_2 (Dense)              (None, 400)               160400    
_________________________________________________________________
dropout_2 (Dropout)          (None, 400)               0         
_________________________________________________________________
dense_3 (Dense)              (None, 400)               160400    
_________________________________________________________________
dropout_3 (Dropout)          (None, 400)               0         
_________________________________________________________________
dense_4 (Dense)              (None, 400)               160400    
_________________________________________________________________
dropout_4 (Dropout)          (None, 400)               0         
_________________________________________________________________
dense_5 (Dense)              (None, 1)                 401       
=================================================================
Total params: 4,642,401
Trainable params: 4,642,401
Non-trainable params: 0
_________________________________________________________________
None
Red
0.2172964603735419
Typer KerasRegressor
Hello world
{'units': 200, 'rate': 0.0, 'HP_L2_REG': 1e-08, 'HP_OPTIMIZER': 'Adagrad', 'kernel_initializer': 'glorot_uniform', 'HP_L1_REG': 0.0001, 'learning_rate': 0.01, 'activation': 'tanh', 'HP_NUM_HIDDEN_LAYERS': 3}
Blue
Model: "sequential"
_________________________________________________________________
Layer (type)                 Output Shape              Param #   
=================================================================
dense (Dense)                (None, 200)               2000200   
_________________________________________________________________
dense_1 (Dense)              (None, 200)               40200     
_________________________________________________________________
dense_2 (Dense)              (None, 200)               40200     
_________________________________________________________________
dense_3 (Dense)              (None, 1)                 201       
=================================================================
Total params: 2,080,801
Trainable params: 2,080,801
Non-trainable params: 0
_________________________________________________________________
None
Red
0.2716323817046846
Typer KerasRegressor
Hello world
{'units': 400, 'rate': 0.1, 'HP_L2_REG': 0.2, 'HP_OPTIMIZER': 'Adam', 'kernel_initializer': 'glorot_uniform', 'HP_L1_REG': 0.0001, 'learning_rate': 0.001, 'activation': 'relu', 'HP_NUM_HIDDEN_LAYERS': 4}
Blue
Model: "sequential"
_________________________________________________________________
Layer (type)                 Output Shape              Param #   
=================================================================
dense (Dense)                (None, 400)               4000400   
_________________________________________________________________
dropout (Dropout)            (None, 400)               0         
_________________________________________________________________
dense_1 (Dense)              (None, 400)               160400    
_________________________________________________________________
dropout_1 (Dropout)          (None, 400)               0         
_________________________________________________________________
dense_2 (Dense)              (None, 400)               160400    
_________________________________________________________________
dropout_2 (Dropout)          (None, 400)               0         
_________________________________________________________________
dense_3 (Dense)              (None, 400)               160400    
_________________________________________________________________
dropout_3 (Dropout)          (None, 400)               0         
_________________________________________________________________
dense_4 (Dense)              (None, 1)                 401       
=================================================================
Total params: 4,482,001
Trainable params: 4,482,001
Non-trainable params: 0
_________________________________________________________________
None
Red
-0.01150621758914716
Typer KerasRegressor
Hello world
{'units': 1000, 'rate': 0.2, 'HP_L2_REG': 0.2, 'HP_OPTIMIZER': 'Adam', 'kernel_initializer': 'glorot_uniform', 'HP_L1_REG': 0.01, 'learning_rate': 1e-05, 'activation': 'relu', 'HP_NUM_HIDDEN_LAYERS': 3}
Blue
Model: "sequential"
_________________________________________________________________
Layer (type)                 Output Shape              Param #   
=================================================================
dense (Dense)                (None, 1000)              10001000  
_________________________________________________________________
dropout (Dropout)            (None, 1000)              0         
_________________________________________________________________
dense_1 (Dense)              (None, 1000)              1001000   
_________________________________________________________________
dropout_1 (Dropout)          (None, 1000)              0         
_________________________________________________________________
dense_2 (Dense)              (None, 1000)              1001000   
_________________________________________________________________
dropout_2 (Dropout)          (None, 1000)              0         
_________________________________________________________________
dense_3 (Dense)              (None, 1)                 1001      
=================================================================
Total params: 12,004,001
Trainable params: 12,004,001
Non-trainable params: 0
_________________________________________________________________
None
Red
-0.006490207387138902
Typer KerasRegressor
Hello world
{'units': 200, 'rate': 0.2, 'HP_L2_REG': 0.01, 'HP_OPTIMIZER': 'Adagrad', 'kernel_initializer': 'glorot_uniform', 'HP_L1_REG': 0.01, 'learning_rate': 1e-05, 'activation': 'relu', 'HP_NUM_HIDDEN_LAYERS': 4}
Blue
Model: "sequential"
_________________________________________________________________
Layer (type)                 Output Shape              Param #   
=================================================================
dense (Dense)                (None, 200)               2000200   
_________________________________________________________________
dropout (Dropout)            (None, 200)               0         
_________________________________________________________________
dense_1 (Dense)              (None, 200)               40200     
_________________________________________________________________
dropout_1 (Dropout)          (None, 200)               0         
_________________________________________________________________
dense_2 (Dense)              (None, 200)               40200     
_________________________________________________________________
dropout_2 (Dropout)          (None, 200)               0         
_________________________________________________________________
dense_3 (Dense)              (None, 200)               40200     
_________________________________________________________________
dropout_3 (Dropout)          (None, 200)               0         
_________________________________________________________________
dense_4 (Dense)              (None, 1)                 201       
=================================================================
Total params: 2,121,001
Trainable params: 2,121,001
Non-trainable params: 0
_________________________________________________________________
None
Red
-0.0045840909530781015
Typer KerasRegressor
Hello world
{'units': 200, 'rate': 0.2, 'HP_L2_REG': 0.2, 'HP_OPTIMIZER': 'Adam', 'kernel_initializer': 'glorot_uniform', 'HP_L1_REG': 0.01, 'learning_rate': 1e-05, 'activation': 'relu', 'HP_NUM_HIDDEN_LAYERS': 2}
Blue
Model: "sequential"
_________________________________________________________________
Layer (type)                 Output Shape              Param #   
=================================================================
dense (Dense)                (None, 200)               2000200   
_________________________________________________________________
dropout (Dropout)            (None, 200)               0         
_________________________________________________________________
dense_1 (Dense)              (None, 200)               40200     
_________________________________________________________________
dropout_1 (Dropout)          (None, 200)               0         
_________________________________________________________________
dense_2 (Dense)              (None, 1)                 201       
=================================================================
Total params: 2,040,601
Trainable params: 2,040,601
Non-trainable params: 0
_________________________________________________________________
None
Red
0.08069712068212731
Typer KerasRegressor
Hello world
INNER COUNT NO.  2
/external_storage/ciaran/arabadopsis/FT10cv_new_10k/shuf
SETTING OFF CUSTOM BASH SCRIPT
1
…
92%93%94%95%96%97%98%99%done.
test_raw_plink_shuf_1_in_2_in.raw
Set size set to 10000
Set size set to 10000
{'units': 1000, 'rate': 0.0, 'HP_L2_REG': 0.2, 'HP_OPTIMIZER': 'Adagrad', 'kernel_initializer': 'glorot_uniform', 'HP_L1_REG': 0.1, 'learning_rate': 0.001, 'activation': 'relu', 'HP_NUM_HIDDEN_LAYERS': 5}
Blue
Model: "sequential"
_________________________________________________________________
Layer (type)                 Output Shape              Param #   
=================================================================
dense (Dense)                (None, 1000)              10001000  
_________________________________________________________________
dense_1 (Dense)              (None, 1000)              1001000   
_________________________________________________________________
dense_2 (Dense)              (None, 1000)              1001000   
_________________________________________________________________
dense_3 (Dense)              (None, 1000)              1001000   
_________________________________________________________________
dense_4 (Dense)              (None, 1000)              1001000   
_________________________________________________________________
dense_5 (Dense)              (None, 1)                 1001      
=================================================================
Total params: 14,006,001
Trainable params: 14,006,001
Non-trainable params: 0
_________________________________________________________________
None
Red
-0.018806850889318882
Typer KerasRegressor
Hello world
{'units': 1000, 'rate': 0.5, 'HP_L2_REG': 0.2, 'HP_OPTIMIZER': 'Adam', 'kernel_initializer': 'glorot_uniform', 'HP_L1_REG': 0.001, 'learning_rate': 0.001, 'activation': 'relu', 'HP_NUM_HIDDEN_LAYERS': 4}
Blue
Model: "sequential"
_________________________________________________________________
Layer (type)                 Output Shape              Param #   
=================================================================
dense (Dense)                (None, 1000)              10001000  
_________________________________________________________________
dropout (Dropout)            (None, 1000)              0         
_________________________________________________________________
dense_1 (Dense)              (None, 1000)              1001000   
_________________________________________________________________
dropout_1 (Dropout)          (None, 1000)              0         
_________________________________________________________________
dense_2 (Dense)              (None, 1000)              1001000   
_________________________________________________________________
dropout_2 (Dropout)          (None, 1000)              0         
_________________________________________________________________
dense_3 (Dense)              (None, 1000)              1001000   
_________________________________________________________________
dropout_3 (Dropout)          (None, 1000)              0         
_________________________________________________________________
dense_4 (Dense)              (None, 1)                 1001      
=================================================================
Total params: 13,005,001
Trainable params: 13,005,001
Non-trainable params: 0
_________________________________________________________________
None
^BdRed
-0.024882676328149556
Typer KerasRegressor
Hello world
{'units': 400, 'rate': 0.0, 'HP_L2_REG': 0.01, 'HP_OPTIMIZER': 'Adam', 'kernel_initializer': 'glorot_uniform', 'HP_L1_REG': 0.001, 'learning_rate': 1e-05, 'activation': 'relu', 'HP_NUM_HIDDEN_LAYERS': 3}
Blue
Model: "sequential"
_________________________________________________________________
Layer (type)                 Output Shape              Param #   
=================================================================
dense (Dense)                (None, 400)               4000400   
_________________________________________________________________
dense_1 (Dense)              (None, 400)               160400    
_________________________________________________________________
dense_2 (Dense)              (None, 400)               160400    
_________________________________________________________________
dense_3 (Dense)              (None, 1)                 401       
=================================================================
Total params: 4,321,601
Trainable params: 4,321,601
Non-trainable params: 0
_________________________________________________________________
None
Red
0.45122269130285797
Typer KerasRegressor
Hello world
{'units': 200, 'rate': 0.1, 'HP_L2_REG': 1e-08, 'HP_OPTIMIZER': 'SGD', 'kernel_initializer': 'glorot_uniform', 'HP_L1_REG': 0.001, 'learning_rate': 0.001, 'activation': 'tanh', 'HP_NUM_HIDDEN_LAYERS': 3}
Blue
Model: "sequential"
_________________________________________________________________
Layer (type)                 Output Shape              Param #   
=================================================================
dense (Dense)                (None, 200)               2000200   
_________________________________________________________________
dropout (Dropout)            (None, 200)               0         
_________________________________________________________________
dense_1 (Dense)              (None, 200)               40200     
_________________________________________________________________
dropout_1 (Dropout)          (None, 200)               0         
_________________________________________________________________
dense_2 (Dense)              (None, 200)               40200     
_________________________________________________________________
dropout_2 (Dropout)          (None, 200)               0         
_________________________________________________________________
dense_3 (Dense)              (None, 1)                 201       
=================================================================
Total params: 2,080,801
Trainable params: 2,080,801
Non-trainable params: 0
_________________________________________________________________
None
Red
0.3950137187324759
Typer KerasRegressor
Hello world
{'units': 1000, 'rate': 0.0, 'HP_L2_REG': 1e-08, 'HP_OPTIMIZER': 'Adagrad', 'kernel_initializer': 'glorot_uniform', 'HP_L1_REG': 0.0001, 'learning_rate': 0.01, 'activation': 'relu', 'HP_NUM_HIDDEN_LAYERS': 5}
Blue
Model: "sequential"
_________________________________________________________________
Layer (type)                 Output Shape              Param #   
=================================================================
dense (Dense)                (None, 1000)              10001000  
_________________________________________________________________
dense_1 (Dense)              (None, 1000)              1001000   
_________________________________________________________________
dense_2 (Dense)              (None, 1000)              1001000   
_________________________________________________________________
dense_3 (Dense)              (None, 1000)              1001000   
_________________________________________________________________
dense_4 (Dense)              (None, 1000)              1001000   
_________________________________________________________________
dense_5 (Dense)              (None, 1)                 1001      
=================================================================
Total params: 14,006,001
Trainable params: 14,006,001
Non-trainable params: 0
_________________________________________________________________
None
Red
0.4667754762707187
Typer KerasRegressor
Hello world
{'units': 1000, 'rate': 0.0, 'HP_L2_REG': 0.2, 'HP_OPTIMIZER': 'Adam', 'kernel_initializer': 'glorot_uniform', 'HP_L1_REG': 0.01, 'learning_rate': 1e-05, 'activation': 'relu', 'HP_NUM_HIDDEN_LAYERS': 3}
Blue
Model: "sequential"
_________________________________________________________________
Layer (type)                 Output Shape              Param #   
=================================================================
dense (Dense)                (None, 1000)              10001000  
_________________________________________________________________
dense_1 (Dense)              (None, 1000)              1001000   
_________________________________________________________________
dense_2 (Dense)              (None, 1000)              1001000   
_________________________________________________________________
dense_3 (Dense)              (None, 1)                 1001      
=================================================================
Total params: 12,004,001
Trainable params: 12,004,001
Non-trainable params: 0
_________________________________________________________________
None
Red
-0.005116822439384272
Typer KerasRegressor
Hello world
{'units': 200, 'rate': 0.1, 'HP_L2_REG': 1e-08, 'HP_OPTIMIZER': 'SGD', 'kernel_initializer': 'glorot_uniform', 'HP_L1_REG': 0.0001, 'learning_rate': 0.01, 'activation': 'relu', 'HP_NUM_HIDDEN_LAYERS': 5}
Blue
Model: "sequential"
_________________________________________________________________
Layer (type)                 Output Shape              Param #   
=================================================================
dense (Dense)                (None, 200)               2000200   
_________________________________________________________________
dropout (Dropout)            (None, 200)               0         
_________________________________________________________________
dense_1 (Dense)              (None, 200)               40200     
_________________________________________________________________
dropout_1 (Dropout)          (None, 200)               0         
_________________________________________________________________
dense_2 (Dense)              (None, 200)               40200     
_________________________________________________________________
dropout_2 (Dropout)          (None, 200)               0         
_________________________________________________________________
dense_3 (Dense)              (None, 200)               40200     
_________________________________________________________________
dropout_3 (Dropout)          (None, 200)               0         
_________________________________________________________________
dense_4 (Dense)              (None, 200)               40200     
_________________________________________________________________
dropout_4 (Dropout)          (None, 200)               0         
_________________________________________________________________
dense_5 (Dense)              (None, 1)                 201       
=================================================================
Total params: 2,161,201
Trainable params: 2,161,201
Non-trainable params: 0
_________________________________________________________________
None
Red
0.4518217436569255
Typer KerasRegressor
Hello world
{'units': 1000, 'rate': 0.1, 'HP_L2_REG': 0.2, 'HP_OPTIMIZER': 'Adagrad', 'kernel_initializer': 'glorot_uniform', 'HP_L1_REG': 0.01, 'learning_rate': 0.0001, 'activation': 'tanh', 'HP_NUM_HIDDEN_LAYERS': 2}
Blue
Model: "sequential"
_________________________________________________________________
Layer (type)                 Output Shape              Param #   
=================================================================
dense (Dense)                (None, 1000)              10001000  
_________________________________________________________________
dropout (Dropout)            (None, 1000)              0         
_________________________________________________________________
dense_1 (Dense)              (None, 1000)              1001000   
_________________________________________________________________
dropout_1 (Dropout)          (None, 1000)              0         
_________________________________________________________________
dense_2 (Dense)              (None, 1)                 1001      
=================================================================
Total params: 11,003,001
Trainable params: 11,003,001
Non-trainable params: 0
_________________________________________________________________
None
Red
0.25869078416292424
Typer KerasRegressor
Hello world
{'units': 400, 'rate': 0.1, 'HP_L2_REG': 0.2, 'HP_OPTIMIZER': 'Adagrad', 'kernel_initializer': 'glorot_uniform', 'HP_L1_REG': 0.1, 'learning_rate': 1e-05, 'activation': 'tanh', 'HP_NUM_HIDDEN_LAYERS': 3}
Blue
Model: "sequential"
_________________________________________________________________
Layer (type)                 Output Shape              Param #   
=================================================================
dense (Dense)                (None, 400)               4000400   
_________________________________________________________________
dropout (Dropout)            (None, 400)               0         
_________________________________________________________________
dense_1 (Dense)              (None, 400)               160400    
_________________________________________________________________
dropout_1 (Dropout)          (None, 400)               0         
_________________________________________________________________
dense_2 (Dense)              (None, 400)               160400    
_________________________________________________________________
dropout_2 (Dropout)          (None, 400)               0         
_________________________________________________________________
dense_3 (Dense)              (None, 1)                 401       
=================================================================
Total params: 4,321,601
Trainable params: 4,321,601
Non-trainable params: 0
_________________________________________________________________
None
Red
-0.1462472184478334
Typer KerasRegressor
Hello world
{'units': 200, 'rate': 0.2, 'HP_L2_REG': 0.01, 'HP_OPTIMIZER': 'Adagrad', 'kernel_initializer': 'glorot_uniform', 'HP_L1_REG': 0.01, 'learning_rate': 0.0001, 'activation': 'relu', 'HP_NUM_HIDDEN_LAYERS': 5}
Blue
Model: "sequential"
_________________________________________________________________
Layer (type)                 Output Shape              Param #   
=================================================================
dense (Dense)                (None, 200)               2000200   
_________________________________________________________________
dropout (Dropout)            (None, 200)               0         
_________________________________________________________________
dense_1 (Dense)              (None, 200)               40200     
_________________________________________________________________
dropout_1 (Dropout)          (None, 200)               0         
_________________________________________________________________
dense_2 (Dense)              (None, 200)               40200     
_________________________________________________________________
dropout_2 (Dropout)          (None, 200)               0         
_________________________________________________________________
dense_3 (Dense)              (None, 200)               40200     
_________________________________________________________________
dropout_3 (Dropout)          (None, 200)               0         
_________________________________________________________________
dense_4 (Dense)              (None, 200)               40200     
_________________________________________________________________
dropout_4 (Dropout)          (None, 200)               0         
_________________________________________________________________
dense_5 (Dense)              (None, 1)                 201       
=================================================================
Total params: 2,161,201
Trainable params: 2,161,201
Non-trainable params: 0
_________________________________________________________________
None
Red
0.0027069139087557703
Typer KerasRegressor
Hello world
{'units': 200, 'rate': 0.0, 'HP_L2_REG': 0.2, 'HP_OPTIMIZER': 'SGD', 'kernel_initializer': 'glorot_uniform', 'HP_L1_REG': 0.1, 'learning_rate': 0.001, 'activation': 'relu', 'HP_NUM_HIDDEN_LAYERS': 3}
Blue
Model: "sequential"
_________________________________________________________________
Layer (type)                 Output Shape              Param #   
=================================================================
dense (Dense)                (None, 200)               2000200   
_________________________________________________________________
dense_1 (Dense)              (None, 200)               40200     
_________________________________________________________________
dense_2 (Dense)              (None, 200)               40200     
_________________________________________________________________
dense_3 (Dense)              (None, 1)                 201       
=================================================================
Total params: 2,080,801
Trainable params: 2,080,801
Non-trainable params: 0
_________________________________________________________________
None
Red
-0.017995267805272164
Typer KerasRegressor
Hello world
{'units': 200, 'rate': 0.5, 'HP_L2_REG': 0.01, 'HP_OPTIMIZER': 'Adam', 'kernel_initializer': 'glorot_uniform', 'HP_L1_REG': 0.0001, 'learning_rate': 0.0001, 'activation': 'tanh', 'HP_NUM_HIDDEN_LAYERS': 2}
Blue
Model: "sequential"
_________________________________________________________________
Layer (type)                 Output Shape              Param #   
=================================================================
dense (Dense)                (None, 200)               2000200   
_________________________________________________________________
dropout (Dropout)            (None, 200)               0         
_________________________________________________________________
dense_1 (Dense)              (None, 200)               40200     
_________________________________________________________________
dropout_1 (Dropout)          (None, 200)               0         
_________________________________________________________________
dense_2 (Dense)              (None, 1)                 201       
=================================================================
Total params: 2,040,601
Trainable params: 2,040,601
Non-trainable params: 0
_________________________________________________________________
None
Red
0.45517135067125514
Typer KerasRegressor
Hello world
{'units': 400, 'rate': 0.5, 'HP_L2_REG': 0.2, 'HP_OPTIMIZER': 'Adam', 'kernel_initializer': 'glorot_uniform', 'HP_L1_REG': 0.001, 'learning_rate': 0.01, 'activation': 'relu', 'HP_NUM_HIDDEN_LAYERS': 3}
Blue
Model: "sequential"
_________________________________________________________________
Layer (type)                 Output Shape              Param #   
=================================================================
dense (Dense)                (None, 400)               4000400   
_________________________________________________________________
dropout (Dropout)            (None, 400)               0         
_________________________________________________________________
dense_1 (Dense)              (None, 400)               160400    
_________________________________________________________________
dropout_1 (Dropout)          (None, 400)               0         
_________________________________________________________________
dense_2 (Dense)              (None, 400)               160400    
_________________________________________________________________
dropout_2 (Dropout)          (None, 400)               0         
_________________________________________________________________
dense_3 (Dense)              (None, 1)                 401       
=================================================================
Total params: 4,321,601
Trainable params: 4,321,601
Non-trainable params: 0
_________________________________________________________________
None
Red
-0.023721115723723596
Typer KerasRegressor
Hello world
{'units': 1000, 'rate': 0.2, 'HP_L2_REG': 0.2, 'HP_OPTIMIZER': 'Adam', 'kernel_initializer': 'glorot_uniform', 'HP_L1_REG': 0.0001, 'learning_rate': 0.01, 'activation': 'relu', 'HP_NUM_HIDDEN_LAYERS': 4}
Blue
Model: "sequential"
_________________________________________________________________
Layer (type)                 Output Shape              Param #   
=================================================================
dense (Dense)                (None, 1000)              10001000  
_________________________________________________________________
dropout (Dropout)            (None, 1000)              0         
_________________________________________________________________
dense_1 (Dense)              (None, 1000)              1001000   
_________________________________________________________________
dropout_1 (Dropout)          (None, 1000)              0         
_________________________________________________________________
dense_2 (Dense)              (None, 1000)              1001000   
_________________________________________________________________
dropout_2 (Dropout)          (None, 1000)              0         
_________________________________________________________________
dense_3 (Dense)              (None, 1000)              1001000   
_________________________________________________________________
dropout_3 (Dropout)          (None, 1000)              0         
_________________________________________________________________
dense_4 (Dense)              (None, 1)                 1001      
=================================================================
Total params: 13,005,001
Trainable params: 13,005,001
Non-trainable params: 0
_________________________________________________________________
None
Red
-0.0228648425701119
Typer KerasRegressor
Hello world
{'units': 200, 'rate': 0.0, 'HP_L2_REG': 0.2, 'HP_OPTIMIZER': 'Adam', 'kernel_initializer': 'glorot_uniform', 'HP_L1_REG': 0.01, 'learning_rate': 0.01, 'activation': 'relu', 'HP_NUM_HIDDEN_LAYERS': 4}
Blue
Model: "sequential"
_________________________________________________________________
Layer (type)                 Output Shape              Param #   
=================================================================
dense (Dense)                (None, 200)               2000200   
_________________________________________________________________
dense_1 (Dense)              (None, 200)               40200     
_________________________________________________________________
dense_2 (Dense)              (None, 200)               40200     
_________________________________________________________________
dense_3 (Dense)              (None, 200)               40200     
_________________________________________________________________
dense_4 (Dense)              (None, 1)                 201       
=================================================================
Total params: 2,121,001
Trainable params: 2,121,001
Non-trainable params: 0
_________________________________________________________________
None
Red
-0.023416032691098154
Typer KerasRegressor
Hello world
{'units': 200, 'rate': 0.5, 'HP_L2_REG': 0.01, 'HP_OPTIMIZER': 'Adam', 'kernel_initializer': 'glorot_uniform', 'HP_L1_REG': 0.001, 'learning_rate': 0.0001, 'activation': 'relu', 'HP_NUM_HIDDEN_LAYERS': 3}
Blue
Model: "sequential"
_________________________________________________________________
Layer (type)                 Output Shape              Param #   
=================================================================
dense (Dense)                (None, 200)               2000200   
_________________________________________________________________
dropout (Dropout)            (None, 200)               0         
_________________________________________________________________
dense_1 (Dense)              (None, 200)               40200     
_________________________________________________________________
dropout_1 (Dropout)          (None, 200)               0         
_________________________________________________________________
dense_2 (Dense)              (None, 200)               40200     
_________________________________________________________________
dropout_2 (Dropout)          (None, 200)               0         
_________________________________________________________________
dense_3 (Dense)              (None, 1)                 201       
=================================================================
Total params: 2,080,801
Trainable params: 2,080,801
Non-trainable params: 0
_________________________________________________________________
None
Red
0.396531580710754
Typer KerasRegressor
Hello world
{'units': 400, 'rate': 0.5, 'HP_L2_REG': 0.01, 'HP_OPTIMIZER': 'Adam', 'kernel_initializer': 'glorot_uniform', 'HP_L1_REG': 0.001, 'learning_rate': 0.0001, 'activation': 'relu', 'HP_NUM_HIDDEN_LAYERS': 2}
Blue
Model: "sequential"
_________________________________________________________________
Layer (type)                 Output Shape              Param #   
=================================================================
dense (Dense)                (None, 400)               4000400   
_________________________________________________________________
dropout (Dropout)            (None, 400)               0         
_________________________________________________________________
dense_1 (Dense)              (None, 400)               160400    
_________________________________________________________________
dropout_1 (Dropout)          (None, 400)               0         
_________________________________________________________________
dense_2 (Dense)              (None, 1)                 401       
=================================================================
Total params: 4,161,201
Trainable params: 4,161,201
Non-trainable params: 0
_________________________________________________________________
None
Red
0.40467209319084174
Typer KerasRegressor
Hello world
{'units': 1000, 'rate': 0.2, 'HP_L2_REG': 0.01, 'HP_OPTIMIZER': 'Adagrad', 'kernel_initializer': 'glorot_uniform', 'HP_L1_REG': 0.01, 'learning_rate': 0.001, 'activation': 'relu', 'HP_NUM_HIDDEN_LAYERS': 5}
Blue
Model: "sequential"
_________________________________________________________________
Layer (type)                 Output Shape              Param #   
=================================================================
dense (Dense)                (None, 1000)              10001000  
_________________________________________________________________
dropout (Dropout)            (None, 1000)              0         
_________________________________________________________________
dense_1 (Dense)              (None, 1000)              1001000   
_________________________________________________________________
dropout_1 (Dropout)          (None, 1000)              0         
_________________________________________________________________
dense_2 (Dense)              (None, 1000)              1001000   
_________________________________________________________________
dropout_2 (Dropout)          (None, 1000)              0         
_________________________________________________________________
dense_3 (Dense)              (None, 1000)              1001000   
_________________________________________________________________
dropout_3 (Dropout)          (None, 1000)              0         
_________________________________________________________________
dense_4 (Dense)              (None, 1000)              1001000   
_________________________________________________________________
dropout_4 (Dropout)          (None, 1000)              0         
_________________________________________________________________
dense_5 (Dense)              (None, 1)                 1001      
=================================================================
Total params: 14,006,001
Trainable params: 14,006,001
Non-trainable params: 0
_________________________________________________________________
None
Red
-0.018005211762323725
Typer KerasRegressor
Hello world
{'units': 1000, 'rate': 0.5, 'HP_L2_REG': 1e-08, 'HP_OPTIMIZER': 'Adam', 'kernel_initializer': 'glorot_uniform', 'HP_L1_REG': 0.001, 'learning_rate': 0.0001, 'activation': 'relu', 'HP_NUM_HIDDEN_LAYERS': 2}
Blue
Model: "sequential"
_________________________________________________________________
Layer (type)                 Output Shape              Param #   
=================================================================
dense (Dense)                (None, 1000)              10001000  
_________________________________________________________________
dropout (Dropout)            (None, 1000)              0         
_________________________________________________________________
dense_1 (Dense)              (None, 1000)              1001000   
_________________________________________________________________
dropout_1 (Dropout)          (None, 1000)              0         
_________________________________________________________________
dense_2 (Dense)              (None, 1)                 1001      
=================================================================
Total params: 11,003,001
Trainable params: 11,003,001
Non-trainable params: 0
_________________________________________________________________
None
Red
0.4167098170971265
Typer KerasRegressor
Hello world
{'units': 1000, 'rate': 0.1, 'HP_L2_REG': 0.01, 'HP_OPTIMIZER': 'Adagrad', 'kernel_initializer': 'glorot_uniform', 'HP_L1_REG': 0.01, 'learning_rate': 1e-05, 'activation': 'relu', 'HP_NUM_HIDDEN_LAYERS': 2}
Blue
Model: "sequential"
_________________________________________________________________
Layer (type)                 Output Shape              Param #   
=================================================================
dense (Dense)                (None, 1000)              10001000  
_________________________________________________________________
dropout (Dropout)            (None, 1000)              0         
_________________________________________________________________
dense_1 (Dense)              (None, 1000)              1001000   
_________________________________________________________________
dropout_1 (Dropout)          (None, 1000)              0         
_________________________________________________________________
dense_2 (Dense)              (None, 1)                 1001      
=================================================================
Total params: 11,003,001
Trainable params: 11,003,001
Non-trainable params: 0
_________________________________________________________________
None
Red
-0.04059917373056532
Typer KerasRegressor
Hello world
{'units': 1000, 'rate': 0.2, 'HP_L2_REG': 0.01, 'HP_OPTIMIZER': 'SGD', 'kernel_initializer': 'glorot_uniform', 'HP_L1_REG': 0.001, 'learning_rate': 1e-05, 'activation': 'tanh', 'HP_NUM_HIDDEN_LAYERS': 5}
Blue
Model: "sequential"
_________________________________________________________________
Layer (type)                 Output Shape              Param #   
=================================================================
dense (Dense)                (None, 1000)              10001000  
_________________________________________________________________
dropout (Dropout)            (None, 1000)              0         
_________________________________________________________________
dense_1 (Dense)              (None, 1000)              1001000   
_________________________________________________________________
dropout_1 (Dropout)          (None, 1000)              0         
_________________________________________________________________
dense_2 (Dense)              (None, 1000)              1001000   
_________________________________________________________________
dropout_2 (Dropout)          (None, 1000)              0         
_________________________________________________________________
dense_3 (Dense)              (None, 1000)              1001000   
_________________________________________________________________
dropout_3 (Dropout)          (None, 1000)              0         
_________________________________________________________________
dense_4 (Dense)              (None, 1000)              1001000   
_________________________________________________________________
dropout_4 (Dropout)          (None, 1000)              0         
_________________________________________________________________
dense_5 (Dense)              (None, 1)                 1001      
=================================================================
Total params: 14,006,001
Trainable params: 14,006,001
Non-trainable params: 0
_________________________________________________________________
None
Red
-0.09226244203949285
Typer KerasRegressor
Hello world
{'units': 200, 'rate': 0.0, 'HP_L2_REG': 0.0001, 'HP_OPTIMIZER': 'Adam', 'kernel_initializer': 'glorot_uniform', 'HP_L1_REG': 0.0001, 'learning_rate': 1e-05, 'activation': 'tanh', 'HP_NUM_HIDDEN_LAYERS': 5}
Blue
Model: "sequential"
_________________________________________________________________
Layer (type)                 Output Shape              Param #   
=================================================================
dense (Dense)                (None, 200)               2000200   
_________________________________________________________________
dense_1 (Dense)              (None, 200)               40200     
_________________________________________________________________
dense_2 (Dense)              (None, 200)               40200     
_________________________________________________________________
dense_3 (Dense)              (None, 200)               40200     
_________________________________________________________________
dense_4 (Dense)              (None, 200)               40200     
_________________________________________________________________
dense_5 (Dense)              (None, 1)                 201       
=================================================================
Total params: 2,161,201
Trainable params: 2,161,201
Non-trainable params: 0
_________________________________________________________________
None
Red
0.4096295264046542
Typer KerasRegressor
Hello world
{'units': 200, 'rate': 0.5, 'HP_L2_REG': 0.2, 'HP_OPTIMIZER': 'SGD', 'kernel_initializer': 'glorot_uniform', 'HP_L1_REG': 0.1, 'learning_rate': 0.01, 'activation': 'relu', 'HP_NUM_HIDDEN_LAYERS': 2}
Blue
Model: "sequential"
_________________________________________________________________
Layer (type)                 Output Shape              Param #   
=================================================================
dense (Dense)                (None, 200)               2000200   
_________________________________________________________________
dropout (Dropout)            (None, 200)               0         
_________________________________________________________________
dense_1 (Dense)              (None, 200)               40200     
_________________________________________________________________
dropout_1 (Dropout)          (None, 200)               0         
_________________________________________________________________
dense_2 (Dense)              (None, 1)                 201       
=================================================================
Total params: 2,040,601
Trainable params: 2,040,601
Non-trainable params: 0
_________________________________________________________________
None
Red
-0.020190678743905233
Typer KerasRegressor
Hello world
{'units': 400, 'rate': 0.1, 'HP_L2_REG': 0.01, 'HP_OPTIMIZER': 'SGD', 'kernel_initializer': 'glorot_uniform', 'HP_L1_REG': 0.01, 'learning_rate': 1e-05, 'activation': 'tanh', 'HP_NUM_HIDDEN_LAYERS': 5}
Blue
Model: "sequential"
_________________________________________________________________
Layer (type)                 Output Shape              Param #   
=================================================================
dense (Dense)                (None, 400)               4000400   
_________________________________________________________________
dropout (Dropout)            (None, 400)               0         
_________________________________________________________________
dense_1 (Dense)              (None, 400)               160400    
_________________________________________________________________
dropout_1 (Dropout)          (None, 400)               0         
_________________________________________________________________
dense_2 (Dense)              (None, 400)               160400    
_________________________________________________________________
dropout_2 (Dropout)          (None, 400)               0         
_________________________________________________________________
dense_3 (Dense)              (None, 400)               160400    
_________________________________________________________________
dropout_3 (Dropout)          (None, 400)               0         
_________________________________________________________________
dense_4 (Dense)              (None, 400)               160400    
_________________________________________________________________
dropout_4 (Dropout)          (None, 400)               0         
_________________________________________________________________
dense_5 (Dense)              (None, 1)                 401       
=================================================================
Total params: 4,642,401
Trainable params: 4,642,401
Non-trainable params: 0
_________________________________________________________________
None
Red
-0.034750231467521875
Typer KerasRegressor
Hello world
{'units': 400, 'rate': 0.5, 'HP_L2_REG': 0.2, 'HP_OPTIMIZER': 'SGD', 'kernel_initializer': 'glorot_uniform', 'HP_L1_REG': 0.001, 'learning_rate': 0.0001, 'activation': 'tanh', 'HP_NUM_HIDDEN_LAYERS': 5}
Blue
Model: "sequential"
_________________________________________________________________
Layer (type)                 Output Shape              Param #   
=================================================================
dense (Dense)                (None, 400)               4000400   
_________________________________________________________________
dropout (Dropout)            (None, 400)               0         
_________________________________________________________________
dense_1 (Dense)              (None, 400)               160400    
_________________________________________________________________
dropout_1 (Dropout)          (None, 400)               0         
_________________________________________________________________
dense_2 (Dense)              (None, 400)               160400    
_________________________________________________________________
dropout_2 (Dropout)          (None, 400)               0         
_________________________________________________________________
dense_3 (Dense)              (None, 400)               160400    
_________________________________________________________________
dropout_3 (Dropout)          (None, 400)               0         
_________________________________________________________________
dense_4 (Dense)              (None, 400)               160400    
_________________________________________________________________
dropout_4 (Dropout)          (None, 400)               0         
_________________________________________________________________
dense_5 (Dense)              (None, 1)                 401       
=================================================================
Total params: 4,642,401
Trainable params: 4,642,401
Non-trainable params: 0
_________________________________________________________________
None
Red
0.13427287044276748
Typer KerasRegressor
Hello world
{'units': 200, 'rate': 0.2, 'HP_L2_REG': 0.2, 'HP_OPTIMIZER': 'SGD', 'kernel_initializer': 'glorot_uniform', 'HP_L1_REG': 0.1, 'learning_rate': 1e-05, 'activation': 'tanh', 'HP_NUM_HIDDEN_LAYERS': 4}
Blue
Model: "sequential"
_________________________________________________________________
Layer (type)                 Output Shape              Param #   
=================================================================
dense (Dense)                (None, 200)               2000200   
_________________________________________________________________
dropout (Dropout)            (None, 200)               0         
_________________________________________________________________
dense_1 (Dense)              (None, 200)               40200     
_________________________________________________________________
dropout_1 (Dropout)          (None, 200)               0         
_________________________________________________________________
dense_2 (Dense)              (None, 200)               40200     
_________________________________________________________________
dropout_2 (Dropout)          (None, 200)               0         
_________________________________________________________________
dense_3 (Dense)              (None, 200)               40200     
_________________________________________________________________
dropout_3 (Dropout)          (None, 200)               0         
_________________________________________________________________
dense_4 (Dense)              (None, 1)                 201       
=================================================================
Total params: 2,121,001
Trainable params: 2,121,001
Non-trainable params: 0
_________________________________________________________________
None
Red
0.008048921563277966
Typer KerasRegressor
Hello world
{'units': 1000, 'rate': 0.0, 'HP_L2_REG': 0.2, 'HP_OPTIMIZER': 'SGD', 'kernel_initializer': 'glorot_uniform', 'HP_L1_REG': 0.1, 'learning_rate': 0.01, 'activation': 'tanh', 'HP_NUM_HIDDEN_LAYERS': 5}
Blue
Model: "sequential"
_________________________________________________________________
Layer (type)                 Output Shape              Param #   
=================================================================
dense (Dense)                (None, 1000)              10001000  
_________________________________________________________________
dense_1 (Dense)              (None, 1000)              1001000   
_________________________________________________________________
dense_2 (Dense)              (None, 1000)              1001000   
_________________________________________________________________
dense_3 (Dense)              (None, 1000)              1001000   
_________________________________________________________________
dense_4 (Dense)              (None, 1000)              1001000   
_________________________________________________________________
dense_5 (Dense)              (None, 1)                 1001      
=================================================================
Total params: 14,006,001
Trainable params: 14,006,001
Non-trainable params: 0
_________________________________________________________________
None
Red
-0.02064290447362782
Typer KerasRegressor
Hello world
{'units': 400, 'rate': 0.1, 'HP_L2_REG': 0.0001, 'HP_OPTIMIZER': 'SGD', 'kernel_initializer': 'glorot_uniform', 'HP_L1_REG': 0.1, 'learning_rate': 0.0001, 'activation': 'tanh', 'HP_NUM_HIDDEN_LAYERS': 4}
Blue
Model: "sequential"
_________________________________________________________________
Layer (type)                 Output Shape              Param #   
=================================================================
dense (Dense)                (None, 400)               4000400   
_________________________________________________________________
dropout (Dropout)            (None, 400)               0         
_________________________________________________________________
dense_1 (Dense)              (None, 400)               160400    
_________________________________________________________________
dropout_1 (Dropout)          (None, 400)               0         
_________________________________________________________________
dense_2 (Dense)              (None, 400)               160400    
_________________________________________________________________
dropout_2 (Dropout)          (None, 400)               0         
_________________________________________________________________
dense_3 (Dense)              (None, 400)               160400    
_________________________________________________________________
dropout_3 (Dropout)          (None, 400)               0         
_________________________________________________________________
dense_4 (Dense)              (None, 1)                 401       
=================================================================
Total params: 4,482,001
Trainable params: 4,482,001
Non-trainable params: 0
_________________________________________________________________
None
Red
0.0351406214572324
Typer KerasRegressor
Hello world
{'units': 1000, 'rate': 0.1, 'HP_L2_REG': 1e-08, 'HP_OPTIMIZER': 'Adam', 'kernel_initializer': 'glorot_uniform', 'HP_L1_REG': 0.1, 'learning_rate': 0.001, 'activation': 'relu', 'HP_NUM_HIDDEN_LAYERS': 5}
Blue
Model: "sequential"
_________________________________________________________________
Layer (type)                 Output Shape              Param #   
=================================================================
dense (Dense)                (None, 1000)              10001000  
_________________________________________________________________
dropout (Dropout)            (None, 1000)              0         
_________________________________________________________________
dense_1 (Dense)              (None, 1000)              1001000   
_________________________________________________________________
dropout_1 (Dropout)          (None, 1000)              0         
_________________________________________________________________
dense_2 (Dense)              (None, 1000)              1001000   
_________________________________________________________________
dropout_2 (Dropout)          (None, 1000)              0         
_________________________________________________________________
dense_3 (Dense)              (None, 1000)              1001000   
_________________________________________________________________
dropout_3 (Dropout)          (None, 1000)              0         
_________________________________________________________________
dense_4 (Dense)              (None, 1000)              1001000   
_________________________________________________________________
dropout_4 (Dropout)          (None, 1000)              0         
_________________________________________________________________
dense_5 (Dense)              (None, 1)                 1001      
=================================================================
Total params: 14,006,001
Trainable params: 14,006,001
Non-trainable params: 0
_________________________________________________________________
None
Red
-0.021324778476029538
Typer KerasRegressor
Hello world
{'units': 400, 'rate': 0.1, 'HP_L2_REG': 1e-08, 'HP_OPTIMIZER': 'Adagrad', 'kernel_initializer': 'glorot_uniform', 'HP_L1_REG': 0.1, 'learning_rate': 0.001, 'activation': 'relu', 'HP_NUM_HIDDEN_LAYERS': 2}
Blue
Model: "sequential"
_________________________________________________________________
Layer (type)                 Output Shape              Param #   
=================================================================
dense (Dense)                (None, 400)               4000400   
_________________________________________________________________
dropout (Dropout)            (None, 400)               0         
_________________________________________________________________
dense_1 (Dense)              (None, 400)               160400    
_________________________________________________________________
dropout_1 (Dropout)          (None, 400)               0         
_________________________________________________________________
dense_2 (Dense)              (None, 1)                 401       
=================================================================
Total params: 4,161,201
Trainable params: 4,161,201
Non-trainable params: 0
_________________________________________________________________
None
Red
-0.018432388991390436
Typer KerasRegressor
Hello world
{'units': 1000, 'rate': 0.0, 'HP_L2_REG': 1e-08, 'HP_OPTIMIZER': 'Adam', 'kernel_initializer': 'glorot_uniform', 'HP_L1_REG': 0.1, 'learning_rate': 1e-05, 'activation': 'tanh', 'HP_NUM_HIDDEN_LAYERS': 5}
Blue
Model: "sequential"
_________________________________________________________________
Layer (type)                 Output Shape              Param #   
=================================================================
dense (Dense)                (None, 1000)              10001000  
_________________________________________________________________
dense_1 (Dense)              (None, 1000)              1001000   
_________________________________________________________________
dense_2 (Dense)              (None, 1000)              1001000   
_________________________________________________________________
dense_3 (Dense)              (None, 1000)              1001000   
_________________________________________________________________
dense_4 (Dense)              (None, 1000)              1001000   
_________________________________________________________________
dense_5 (Dense)              (None, 1)                 1001      
=================================================================
Total params: 14,006,001
Trainable params: 14,006,001
Non-trainable params: 0
_________________________________________________________________
None
Red
-0.022328245293475213
Typer KerasRegressor
Hello world
{'units': 400, 'rate': 0.2, 'HP_L2_REG': 0.2, 'HP_OPTIMIZER': 'Adam', 'kernel_initializer': 'glorot_uniform', 'HP_L1_REG': 0.1, 'learning_rate': 0.0001, 'activation': 'relu', 'HP_NUM_HIDDEN_LAYERS': 5}
Blue
Model: "sequential"
_________________________________________________________________
Layer (type)                 Output Shape              Param #   
=================================================================
dense (Dense)                (None, 400)               4000400   
_________________________________________________________________
dropout (Dropout)            (None, 400)               0         
_________________________________________________________________
dense_1 (Dense)              (None, 400)               160400    
_________________________________________________________________
dropout_1 (Dropout)          (None, 400)               0         
_________________________________________________________________
dense_2 (Dense)              (None, 400)               160400    
_________________________________________________________________
dropout_2 (Dropout)          (None, 400)               0         
_________________________________________________________________
dense_3 (Dense)              (None, 400)               160400    
_________________________________________________________________
dropout_3 (Dropout)          (None, 400)               0         
_________________________________________________________________
dense_4 (Dense)              (None, 400)               160400    
_________________________________________________________________
dropout_4 (Dropout)          (None, 400)               0         
_________________________________________________________________
dense_5 (Dense)              (None, 1)                 401       
=================================================================
Total params: 4,642,401
Trainable params: 4,642,401
Non-trainable params: 0
_________________________________________________________________
None
Red
-0.0198908434887477
Typer KerasRegressor
Hello world
{'units': 200, 'rate': 0.0, 'HP_L2_REG': 0.2, 'HP_OPTIMIZER': 'Adagrad', 'kernel_initializer': 'glorot_uniform', 'HP_L1_REG': 0.0001, 'learning_rate': 1e-05, 'activation': 'tanh', 'HP_NUM_HIDDEN_LAYERS': 4}
Blue
Model: "sequential"
_________________________________________________________________
Layer (type)                 Output Shape              Param #   
=================================================================
dense (Dense)                (None, 200)               2000200   
_________________________________________________________________
dense_1 (Dense)              (None, 200)               40200     
_________________________________________________________________
dense_2 (Dense)              (None, 200)               40200     
_________________________________________________________________
dense_3 (Dense)              (None, 200)               40200     
_________________________________________________________________
dense_4 (Dense)              (None, 1)                 201       
=================================================================
Total params: 2,121,001
Trainable params: 2,121,001
Non-trainable params: 0
_________________________________________________________________
None
Red
0.024595834778860515
Typer KerasRegressor
Hello world
{'units': 400, 'rate': 0.5, 'HP_L2_REG': 0.01, 'HP_OPTIMIZER': 'Adagrad', 'kernel_initializer': 'glorot_uniform', 'HP_L1_REG': 0.001, 'learning_rate': 0.001, 'activation': 'relu', 'HP_NUM_HIDDEN_LAYERS': 3}
Blue
Model: "sequential"
_________________________________________________________________
Layer (type)                 Output Shape              Param #   
=================================================================
dense (Dense)                (None, 400)               4000400   
_________________________________________________________________
dropout (Dropout)            (None, 400)               0         
_________________________________________________________________
dense_1 (Dense)              (None, 400)               160400    
_________________________________________________________________
dropout_1 (Dropout)          (None, 400)               0         
_________________________________________________________________
dense_2 (Dense)              (None, 400)               160400    
_________________________________________________________________
dropout_2 (Dropout)          (None, 400)               0         
_________________________________________________________________
dense_3 (Dense)              (None, 1)                 401       
=================================================================
Total params: 4,321,601
Trainable params: 4,321,601
Non-trainable params: 0
_________________________________________________________________
None
Red
0.4636248392793898
Typer KerasRegressor
Hello world
{'units': 200, 'rate': 0.5, 'HP_L2_REG': 0.2, 'HP_OPTIMIZER': 'Adam', 'kernel_initializer': 'glorot_uniform', 'HP_L1_REG': 0.1, 'learning_rate': 0.0001, 'activation': 'tanh', 'HP_NUM_HIDDEN_LAYERS': 3}
Blue
Model: "sequential"
_________________________________________________________________
Layer (type)                 Output Shape              Param #   
=================================================================
dense (Dense)                (None, 200)               2000200   
_________________________________________________________________
dropout (Dropout)            (None, 200)               0         
_________________________________________________________________
dense_1 (Dense)              (None, 200)               40200     
_________________________________________________________________
dropout_1 (Dropout)          (None, 200)               0         
_________________________________________________________________
dense_2 (Dense)              (None, 200)               40200     
_________________________________________________________________
dropout_2 (Dropout)          (None, 200)               0         
_________________________________________________________________
dense_3 (Dense)              (None, 1)                 201       
=================================================================
Total params: 2,080,801
Trainable params: 2,080,801
Non-trainable params: 0
_________________________________________________________________
None
Red
-0.020771066870686417
Typer KerasRegressor
Hello world
{'units': 200, 'rate': 0.1, 'HP_L2_REG': 0.0001, 'HP_OPTIMIZER': 'Adam', 'kernel_initializer': 'glorot_uniform', 'HP_L1_REG': 0.001, 'learning_rate': 0.01, 'activation': 'relu', 'HP_NUM_HIDDEN_LAYERS': 3}
Blue
Model: "sequential"
_________________________________________________________________
Layer (type)                 Output Shape              Param #   
=================================================================
dense (Dense)                (None, 200)               2000200   
_________________________________________________________________
dropout (Dropout)            (None, 200)               0         
_________________________________________________________________
dense_1 (Dense)              (None, 200)               40200     
_________________________________________________________________
dropout_1 (Dropout)          (None, 200)               0         
_________________________________________________________________
dense_2 (Dense)              (None, 200)               40200     
_________________________________________________________________
dropout_2 (Dropout)          (None, 200)               0         
_________________________________________________________________
dense_3 (Dense)              (None, 1)                 201       
=================================================================
Total params: 2,080,801
Trainable params: 2,080,801
Non-trainable params: 0
_________________________________________________________________
None
Red
0.33027538463255735
Typer KerasRegressor
Hello world
{'units': 400, 'rate': 0.5, 'HP_L2_REG': 0.01, 'HP_OPTIMIZER': 'Adam', 'kernel_initializer': 'glorot_uniform', 'HP_L1_REG': 0.001, 'learning_rate': 1e-05, 'activation': 'relu', 'HP_NUM_HIDDEN_LAYERS': 4}
Blue
Model: "sequential"
_________________________________________________________________
Layer (type)                 Output Shape              Param #   
=================================================================
dense (Dense)                (None, 400)               4000400   
_________________________________________________________________
dropout (Dropout)            (None, 400)               0         
_________________________________________________________________
dense_1 (Dense)              (None, 400)               160400    
_________________________________________________________________
dropout_1 (Dropout)          (None, 400)               0         
_________________________________________________________________
dense_2 (Dense)              (None, 400)               160400    
_________________________________________________________________
dropout_2 (Dropout)          (None, 400)               0         
_________________________________________________________________
dense_3 (Dense)              (None, 400)               160400    
_________________________________________________________________
dropout_3 (Dropout)          (None, 400)               0         
_________________________________________________________________
dense_4 (Dense)              (None, 1)                 401       
=================================================================
Total params: 4,482,001
Trainable params: 4,482,001
Non-trainable params: 0
_________________________________________________________________
None
Red
0.18715991241992436
Typer KerasRegressor
Hello world
{'units': 400, 'rate': 0.0, 'HP_L2_REG': 0.2, 'HP_OPTIMIZER': 'Adagrad', 'kernel_initializer': 'glorot_uniform', 'HP_L1_REG': 0.0001, 'learning_rate': 1e-05, 'activation': 'relu', 'HP_NUM_HIDDEN_LAYERS': 5}
Blue
Model: "sequential"
_________________________________________________________________
Layer (type)                 Output Shape              Param #   
=================================================================
dense (Dense)                (None, 400)               4000400   
_________________________________________________________________
dense_1 (Dense)              (None, 400)               160400    
_________________________________________________________________
dense_2 (Dense)              (None, 400)               160400    
_________________________________________________________________
dense_3 (Dense)              (None, 400)               160400    
_________________________________________________________________
dense_4 (Dense)              (None, 400)               160400    
_________________________________________________________________
dense_5 (Dense)              (None, 1)                 401       
=================================================================
Total params: 4,642,401
…
=================================================================
dense (Dense)                (None, 200)               2000200   
_________________________________________________________________
dropout (Dropout)            (None, 200)               0         
_________________________________________________________________
dense_1 (Dense)              (None, 200)               40200     
_________________________________________________________________
dropout_1 (Dropout)          (None, 200)               0         
_________________________________________________________________
dense_2 (Dense)              (None, 200)               40200     
_________________________________________________________________
dropout_2 (Dropout)          (None, 200)               0         
_________________________________________________________________
dense_3 (Dense)              (None, 200)               40200     
_________________________________________________________________
dropout_3 (Dropout)          (None, 200)               0         
_________________________________________________________________
dense_4 (Dense)              (None, 200)               40200     
_________________________________________________________________
dropout_4 (Dropout)          (None, 200)               0         
_________________________________________________________________
dense_5 (Dense)              (None, 1)                 201       
=================================================================
Total params: 2,161,201
Trainable params: 2,161,201
Non-trainable params: 0
_________________________________________________________________
None
Red
-0.018729768442519834
Typer KerasRegressor
Hello world
{'units': 400, 'rate': 0.0, 'HP_L2_REG': 1e-08, 'HP_OPTIMIZER': 'SGD', 'kernel_initializer': 'glorot_uniform', 'HP_L1_REG': 0.001, 'learning_rate': 0.0001, 'activation': 'tanh', 'HP_NUM_HIDDEN_LAYERS': 5}
Blue
Model: "sequential"
_________________________________________________________________
Layer (type)                 Output Shape              Param #   
=================================================================
dense (Dense)                (None, 400)               4000400   
_________________________________________________________________
dense_1 (Dense)              (None, 400)               160400    
_________________________________________________________________
dense_2 (Dense)              (None, 400)               160400    
_________________________________________________________________
dense_3 (Dense)              (None, 400)               160400    
_________________________________________________________________
dense_4 (Dense)              (None, 400)               160400    
_________________________________________________________________
dense_5 (Dense)              (None, 1)                 401       
=================================================================
Total params: 4,642,401
Trainable params: 4,642,401
Non-trainable params: 0
_________________________________________________________________
None
Red
0.2539960409985269
Typer KerasRegressor
Hello world
{'units': 200, 'rate': 0.1, 'HP_L2_REG': 1e-08, 'HP_OPTIMIZER': 'Adagrad', 'kernel_initializer': 'glorot_uniform', 'HP_L1_REG': 0.0001, 'learning_rate': 0.0001, 'activation': 'tanh', 'HP_NUM_HIDDEN_LAYERS': 2}
Blue
Model: "sequential"
_________________________________________________________________
Layer (type)                 Output Shape              Param #   
=================================================================
dense (Dense)                (None, 200)               2000200   
_________________________________________________________________
dropout (Dropout)            (None, 200)               0         
_________________________________________________________________
dense_1 (Dense)              (None, 200)               40200     
_________________________________________________________________
dropout_1 (Dropout)          (None, 200)               0         
_________________________________________________________________
dense_2 (Dense)              (None, 1)                 201       
=================================================================
Total params: 2,040,601
Trainable params: 2,040,601
Non-trainable params: 0
_________________________________________________________________
None
Red
0.36636443985030476
Typer KerasRegressor
Hello world
{'units': 400, 'rate': 0.1, 'HP_L2_REG': 0.0001, 'HP_OPTIMIZER': 'SGD', 'kernel_initializer': 'glorot_uniform', 'HP_L1_REG': 0.01, 'learning_rate': 0.001, 'activation': 'relu', 'HP_NUM_HIDDEN_LAYERS': 4}
Blue
Model: "sequential"
_________________________________________________________________
Layer (type)                 Output Shape              Param #   
=================================================================
dense (Dense)                (None, 400)               4000400   
_________________________________________________________________
dropout (Dropout)            (None, 400)               0         
_________________________________________________________________
dense_1 (Dense)              (None, 400)               160400    
_________________________________________________________________
dropout_1 (Dropout)          (None, 400)               0         
_________________________________________________________________
dense_2 (Dense)              (None, 400)               160400    
_________________________________________________________________
dropout_2 (Dropout)          (None, 400)               0         
_________________________________________________________________
dense_3 (Dense)              (None, 400)               160400    
_________________________________________________________________
dropout_3 (Dropout)          (None, 400)               0         
_________________________________________________________________
dense_4 (Dense)              (None, 1)                 401       
=================================================================
Total params: 4,482,001
Trainable params: 4,482,001
Non-trainable params: 0
_________________________________________________________________
None
Red
0.002794150680010321
Typer KerasRegressor
Hello world
{'units': 1000, 'rate': 0.0, 'HP_L2_REG': 0.0001, 'HP_OPTIMIZER': 'Adam', 'kernel_initializer': 'glorot_uniform', 'HP_L1_REG': 0.1, 'learning_rate': 1e-05, 'activation': 'tanh', 'HP_NUM_HIDDEN_LAYERS': 5}
Blue
Model: "sequential"
_________________________________________________________________
Layer (type)                 Output Shape              Param #   
=================================================================
dense (Dense)                (None, 1000)              10001000  
_________________________________________________________________
dense_1 (Dense)              (None, 1000)              1001000   
_________________________________________________________________
dense_2 (Dense)              (None, 1000)              1001000   
_________________________________________________________________
dense_3 (Dense)              (None, 1000)              1001000   
_________________________________________________________________
dense_4 (Dense)              (None, 1000)              1001000   
_________________________________________________________________
dense_5 (Dense)              (None, 1)                 1001      
=================================================================
Total params: 14,006,001
Trainable params: 14,006,001
Non-trainable params: 0
_________________________________________________________________
None
Red
-0.06103867807489527
Typer KerasRegressor
Hello world
{'units': 200, 'rate': 0.2, 'HP_L2_REG': 0.01, 'HP_OPTIMIZER': 'Adam', 'kernel_initializer': 'glorot_uniform', 'HP_L1_REG': 0.01, 'learning_rate': 0.001, 'activation': 'tanh', 'HP_NUM_HIDDEN_LAYERS': 2}
Blue
Model: "sequential"
_________________________________________________________________
Layer (type)                 Output Shape              Param #   
=================================================================
dense (Dense)                (None, 200)               2000200   
_________________________________________________________________
dropout (Dropout)            (None, 200)               0         
_________________________________________________________________
dense_1 (Dense)              (None, 200)               40200     
_________________________________________________________________
dropout_1 (Dropout)          (None, 200)               0         
_________________________________________________________________
dense_2 (Dense)              (None, 1)                 201       
=================================================================
Total params: 2,040,601
Trainable params: 2,040,601
Non-trainable params: 0
_________________________________________________________________
None
Red
0.28005527771793626
Typer KerasRegressor
Hello world
{'units': 1000, 'rate': 0.1, 'HP_L2_REG': 1e-08, 'HP_OPTIMIZER': 'Adagrad', 'kernel_initializer': 'glorot_uniform', 'HP_L1_REG': 0.001, 'learning_rate': 0.001, 'activation': 'relu', 'HP_NUM_HIDDEN_LAYERS': 3}
Blue
Model: "sequential"
_________________________________________________________________
Layer (type)                 Output Shape              Param #   
=================================================================
dense (Dense)                (None, 1000)              10001000  
_________________________________________________________________
dropout (Dropout)            (None, 1000)              0         
_________________________________________________________________
dense_1 (Dense)              (None, 1000)              1001000   
_________________________________________________________________
dropout_1 (Dropout)          (None, 1000)              0         
_________________________________________________________________
dense_2 (Dense)              (None, 1000)              1001000   
_________________________________________________________________
dropout_2 (Dropout)          (None, 1000)              0         
_________________________________________________________________
dense_3 (Dense)              (None, 1)                 1001      
=================================================================
Total params: 12,004,001
Trainable params: 12,004,001
Non-trainable params: 0
_________________________________________________________________
None
Red
0.45554379362793596
Typer KerasRegressor
Hello world
{'units': 400, 'rate': 0.0, 'HP_L2_REG': 0.2, 'HP_OPTIMIZER': 'Adagrad', 'kernel_initializer': 'glorot_uniform', 'HP_L1_REG': 0.01, 'learning_rate': 0.0001, 'activation': 'tanh', 'HP_NUM_HIDDEN_LAYERS': 4}
Blue
Model: "sequential"
_________________________________________________________________
Layer (type)                 Output Shape              Param #   
=================================================================
dense (Dense)                (None, 400)               4000400   
_________________________________________________________________
dense_1 (Dense)              (None, 400)               160400    
_________________________________________________________________
dense_2 (Dense)              (None, 400)               160400    
_________________________________________________________________
dense_3 (Dense)              (None, 400)               160400    
_________________________________________________________________
dense_4 (Dense)              (None, 1)                 401       
=================================================================
Total params: 4,482,001
Trainable params: 4,482,001
Non-trainable params: 0
_________________________________________________________________
None
Red
0.11675211630556614
Typer KerasRegressor
Hello world
{'units': 1000, 'rate': 0.2, 'HP_L2_REG': 1e-08, 'HP_OPTIMIZER': 'SGD', 'kernel_initializer': 'glorot_uniform', 'HP_L1_REG': 0.1, 'learning_rate': 0.001, 'activation': 'relu', 'HP_NUM_HIDDEN_LAYERS': 5}
Blue
Model: "sequential"
_________________________________________________________________
Layer (type)                 Output Shape              Param #   
=================================================================
dense (Dense)                (None, 1000)              10001000  
_________________________________________________________________
dropout (Dropout)            (None, 1000)              0         
_________________________________________________________________
dense_1 (Dense)              (None, 1000)              1001000   
_________________________________________________________________
dropout_1 (Dropout)          (None, 1000)              0         
_________________________________________________________________
dense_2 (Dense)              (None, 1000)              1001000   
_________________________________________________________________
dropout_2 (Dropout)          (None, 1000)              0         
_________________________________________________________________
dense_3 (Dense)              (None, 1000)              1001000   
_________________________________________________________________
dropout_3 (Dropout)          (None, 1000)              0         
_________________________________________________________________
dense_4 (Dense)              (None, 1000)              1001000   
_________________________________________________________________
dropout_4 (Dropout)          (None, 1000)              0         
_________________________________________________________________
dense_5 (Dense)              (None, 1)                 1001      
=================================================================
Total params: 14,006,001
Trainable params: 14,006,001
Non-trainable params: 0
_________________________________________________________________
None
Red
-0.05651592988730969
Typer KerasRegressor
Hello world
{'units': 1000, 'rate': 0.0, 'HP_L2_REG': 1e-08, 'HP_OPTIMIZER': 'Adagrad', 'kernel_initializer': 'glorot_uniform', 'HP_L1_REG': 0.01, 'learning_rate': 1e-05, 'activation': 'tanh', 'HP_NUM_HIDDEN_LAYERS': 4}
Blue
Model: "sequential"
_________________________________________________________________
Layer (type)                 Output Shape              Param #   
=================================================================
dense (Dense)                (None, 1000)              10001000  
_________________________________________________________________
dense_1 (Dense)              (None, 1000)              1001000   
_________________________________________________________________
dense_2 (Dense)              (None, 1000)              1001000   
_________________________________________________________________
dense_3 (Dense)              (None, 1000)              1001000   
_________________________________________________________________
dense_4 (Dense)              (None, 1)                 1001      
=================================================================
Total params: 13,005,001
Trainable params: 13,005,001
Non-trainable params: 0
_________________________________________________________________
None
Red
0.02190036514112581
Typer KerasRegressor
Hello world
{'units': 400, 'rate': 0.0, 'HP_L2_REG': 0.0001, 'HP_OPTIMIZER': 'Adam', 'kernel_initializer': 'glorot_uniform', 'HP_L1_REG': 0.01, 'learning_rate': 1e-05, 'activation': 'tanh', 'HP_NUM_HIDDEN_LAYERS': 5}
Blue
Model: "sequential"
_________________________________________________________________
Layer (type)                 Output Shape              Param #   
=================================================================
dense (Dense)                (None, 400)               4000400   
_________________________________________________________________
dense_1 (Dense)              (None, 400)               160400    
_________________________________________________________________
dense_2 (Dense)              (None, 400)               160400    
_________________________________________________________________
dense_3 (Dense)              (None, 400)               160400    
_________________________________________________________________
dense_4 (Dense)              (None, 400)               160400    
_________________________________________________________________
dense_5 (Dense)              (None, 1)                 401       
=================================================================
Total params: 4,642,401
Trainable params: 4,642,401
Non-trainable params: 0
_________________________________________________________________
None
Red
0.1560126115540552
Typer KerasRegressor
Hello world
{'units': 200, 'rate': 0.5, 'HP_L2_REG': 1e-08, 'HP_OPTIMIZER': 'Adam', 'kernel_initializer': 'glorot_uniform', 'HP_L1_REG': 0.0001, 'learning_rate': 1e-05, 'activation': 'relu', 'HP_NUM_HIDDEN_LAYERS': 2}
Blue
Model: "sequential"
_________________________________________________________________
Layer (type)                 Output Shape              Param #   
=================================================================
dense (Dense)                (None, 200)               2000200   
_________________________________________________________________
dropout (Dropout)            (None, 200)               0         
_________________________________________________________________
dense_1 (Dense)              (None, 200)               40200     
_________________________________________________________________
dropout_1 (Dropout)          (None, 200)               0         
_________________________________________________________________
dense_2 (Dense)              (None, 1)                 201       
=================================================================
Total params: 2,040,601
Trainable params: 2,040,601
Non-trainable params: 0
_________________________________________________________________
None
Red
0.42138580236593604
Typer KerasRegressor
Hello world
{'units': 1000, 'rate': 0.1, 'HP_L2_REG': 0.2, 'HP_OPTIMIZER': 'Adagrad', 'kernel_initializer': 'glorot_uniform', 'HP_L1_REG': 0.01, 'learning_rate': 1e-05, 'activation': 'tanh', 'HP_NUM_HIDDEN_LAYERS': 4}
Blue
Model: "sequential"
_________________________________________________________________
Layer (type)                 Output Shape              Param #   
=================================================================
dense (Dense)                (None, 1000)              10001000  
_________________________________________________________________
dropout (Dropout)            (None, 1000)              0         
_________________________________________________________________
dense_1 (Dense)              (None, 1000)              1001000   
_________________________________________________________________
dropout_1 (Dropout)          (None, 1000)              0         
_________________________________________________________________
dense_2 (Dense)              (None, 1000)              1001000   
_________________________________________________________________
dropout_2 (Dropout)          (None, 1000)              0         
_________________________________________________________________
dense_3 (Dense)              (None, 1000)              1001000   
_________________________________________________________________
dropout_3 (Dropout)          (None, 1000)              0         
_________________________________________________________________
dense_4 (Dense)              (None, 1)                 1001      
=================================================================
Total params: 13,005,001
Trainable params: 13,005,001
Non-trainable params: 0
_________________________________________________________________
None
Red
-0.026388527036023124
Typer KerasRegressor
Hello world
{'units': 200, 'rate': 0.0, 'HP_L2_REG': 0.0001, 'HP_OPTIMIZER': 'SGD', 'kernel_initializer': 'glorot_uniform', 'HP_L1_REG': 0.1, 'learning_rate': 0.001, 'activation': 'tanh', 'HP_NUM_HIDDEN_LAYERS': 5}
Blue
Model: "sequential"
_________________________________________________________________
Layer (type)                 Output Shape              Param #   
=================================================================
dense (Dense)                (None, 200)               2000200   
_________________________________________________________________
dense_1 (Dense)              (None, 200)               40200     
_________________________________________________________________
dense_2 (Dense)              (None, 200)               40200     
_________________________________________________________________
dense_3 (Dense)              (None, 200)               40200     
_________________________________________________________________
dense_4 (Dense)              (None, 200)               40200     
_________________________________________________________________
dense_5 (Dense)              (None, 1)                 201       
=================================================================
Total params: 2,161,201
Trainable params: 2,161,201
Non-trainable params: 0
_________________________________________________________________
None
Red
-0.05772879217896043
Typer KerasRegressor
Hello world
{'units': 200, 'rate': 0.5, 'HP_L2_REG': 1e-08, 'HP_OPTIMIZER': 'Adam', 'kernel_initializer': 'glorot_uniform', 'HP_L1_REG': 0.01, 'learning_rate': 0.01, 'activation': 'tanh', 'HP_NUM_HIDDEN_LAYERS': 4}
Blue
Model: "sequential"
_________________________________________________________________
Layer (type)                 Output Shape              Param #   
=================================================================
dense (Dense)                (None, 200)               2000200   
_________________________________________________________________
dropout (Dropout)            (None, 200)               0         
_________________________________________________________________
dense_1 (Dense)              (None, 200)               40200     
_________________________________________________________________
dropout_1 (Dropout)          (None, 200)               0         
_________________________________________________________________
dense_2 (Dense)              (None, 200)               40200     
_________________________________________________________________
dropout_2 (Dropout)          (None, 200)               0         
_________________________________________________________________
dense_3 (Dense)              (None, 200)               40200     
_________________________________________________________________
dropout_3 (Dropout)          (None, 200)               0         
_________________________________________________________________
dense_4 (Dense)              (None, 1)                 201       
=================================================================
Total params: 2,121,001
Trainable params: 2,121,001
Non-trainable params: 0
_________________________________________________________________
None
Red
-0.057993333769591704
Typer KerasRegressor
Hello world
{'units': 1000, 'rate': 0.1, 'HP_L2_REG': 1e-08, 'HP_OPTIMIZER': 'Adam', 'kernel_initializer': 'glorot_uniform', 'HP_L1_REG': 0.0001, 'learning_rate': 0.01, 'activation': 'relu', 'HP_NUM_HIDDEN_LAYERS': 3}
Blue
Model: "sequential"
_________________________________________________________________
Layer (type)                 Output Shape              Param #   
=================================================================
dense (Dense)                (None, 1000)              10001000  
_________________________________________________________________
dropout (Dropout)            (None, 1000)              0         
_________________________________________________________________
dense_1 (Dense)              (None, 1000)              1001000   
_________________________________________________________________
dropout_1 (Dropout)          (None, 1000)              0         
_________________________________________________________________
dense_2 (Dense)              (None, 1000)              1001000   
_________________________________________________________________
dropout_2 (Dropout)          (None, 1000)              0         
_________________________________________________________________
dense_3 (Dense)              (None, 1)                 1001      
=================================================================
Total params: 12,004,001
Trainable params: 12,004,001
Non-trainable params: 0
_________________________________________________________________
None
Red
0.474733537907295
Typer KerasRegressor
Hello world
{'units': 1000, 'rate': 0.5, 'HP_L2_REG': 0.01, 'HP_OPTIMIZER': 'SGD', 'kernel_initializer': 'glorot_uniform', 'HP_L1_REG': 0.001, 'learning_rate': 1e-05, 'activation': 'relu', 'HP_NUM_HIDDEN_LAYERS': 4}
Blue
Model: "sequential"
_________________________________________________________________
Layer (type)                 Output Shape              Param #   
=================================================================
dense (Dense)                (None, 1000)              10001000  
_________________________________________________________________
dropout (Dropout)            (None, 1000)              0         
_________________________________________________________________
dense_1 (Dense)              (None, 1000)              1001000   
_________________________________________________________________
dropout_1 (Dropout)          (None, 1000)              0         
_________________________________________________________________
dense_2 (Dense)              (None, 1000)              1001000   
_________________________________________________________________
dropout_2 (Dropout)          (None, 1000)              0         
_________________________________________________________________
dense_3 (Dense)              (None, 1000)              1001000   
_________________________________________________________________
dropout_3 (Dropout)          (None, 1000)              0         
_________________________________________________________________
dense_4 (Dense)              (None, 1)                 1001      
=================================================================
Total params: 13,005,001
Trainable params: 13,005,001
Non-trainable params: 0
_________________________________________________________________
None
Red
0.0005287460018943424
Typer KerasRegressor
Hello world
{'units': 200, 'rate': 0.2, 'HP_L2_REG': 0.01, 'HP_OPTIMIZER': 'SGD', 'kernel_initializer': 'glorot_uniform', 'HP_L1_REG': 0.1, 'learning_rate': 0.01, 'activation': 'relu', 'HP_NUM_HIDDEN_LAYERS': 5}
Blue
Model: "sequential"
_________________________________________________________________
Layer (type)                 Output Shape              Param #   
=================================================================
dense (Dense)                (None, 200)               2000200   
_________________________________________________________________
dropout (Dropout)            (None, 200)               0         
_________________________________________________________________
dense_1 (Dense)              (None, 200)               40200     
_________________________________________________________________
dropout_1 (Dropout)          (None, 200)               0         
_________________________________________________________________
dense_2 (Dense)              (None, 200)               40200     
_________________________________________________________________
dropout_2 (Dropout)          (None, 200)               0         
_________________________________________________________________
dense_3 (Dense)              (None, 200)               40200     
_________________________________________________________________
dropout_3 (Dropout)          (None, 200)               0         
_________________________________________________________________
dense_4 (Dense)              (None, 200)               40200     
_________________________________________________________________
dropout_4 (Dropout)          (None, 200)               0         
_________________________________________________________________
dense_5 (Dense)              (None, 1)                 201       
=================================================================
Total params: 2,161,201
Trainable params: 2,161,201
Non-trainable params: 0
_________________________________________________________________
None
Red
-0.06083586069768465
Typer KerasRegressor
Hello world
{'units': 400, 'rate': 0.0, 'HP_L2_REG': 0.01, 'HP_OPTIMIZER': 'Adagrad', 'kernel_initializer': 'glorot_uniform', 'HP_L1_REG': 0.1, 'learning_rate': 1e-05, 'activation': 'tanh', 'HP_NUM_HIDDEN_LAYERS': 4}
Blue
Model: "sequential"
_________________________________________________________________
Layer (type)                 Output Shape              Param #   
=================================================================
dense (Dense)                (None, 400)               4000400   
_________________________________________________________________
dense_1 (Dense)              (None, 400)               160400    
_________________________________________________________________
dense_2 (Dense)              (None, 400)               160400    
_________________________________________________________________
dense_3 (Dense)              (None, 400)               160400    
_________________________________________________________________
dense_4 (Dense)              (None, 1)                 401       
=================================================================
Total params: 4,482,001
Trainable params: 4,482,001
Non-trainable params: 0
_________________________________________________________________
None
Red
-0.05821027721709959
Typer KerasRegressor
Hello world
{'units': 1000, 'rate': 0.2, 'HP_L2_REG': 0.2, 'HP_OPTIMIZER': 'Adagrad', 'kernel_initializer': 'glorot_uniform', 'HP_L1_REG': 0.1, 'learning_rate': 0.0001, 'activation': 'tanh', 'HP_NUM_HIDDEN_LAYERS': 4}
Blue
Model: "sequential"
_________________________________________________________________
Layer (type)                 Output Shape              Param #   
=================================================================
dense (Dense)                (None, 1000)              10001000  
_________________________________________________________________
dropout (Dropout)            (None, 1000)              0         
_________________________________________________________________
dense_1 (Dense)              (None, 1000)              1001000   
_________________________________________________________________
dropout_1 (Dropout)          (None, 1000)              0         
_________________________________________________________________
dense_2 (Dense)              (None, 1000)              1001000   
_________________________________________________________________
dropout_2 (Dropout)          (None, 1000)              0         
_________________________________________________________________
dense_3 (Dense)              (None, 1000)              1001000   
_________________________________________________________________
dropout_3 (Dropout)          (None, 1000)              0         
_________________________________________________________________
dense_4 (Dense)              (None, 1)                 1001      
=================================================================
Total params: 13,005,001
Trainable params: 13,005,001
Non-trainable params: 0
_________________________________________________________________
None
Red
-0.04872209562690655
Typer KerasRegressor
Hello world
{'units': 1000, 'rate': 0.1, 'HP_L2_REG': 0.2, 'HP_OPTIMIZER': 'Adam', 'kernel_initializer': 'glorot_uniform', 'HP_L1_REG': 0.01, 'learning_rate': 0.01, 'activation': 'tanh', 'HP_NUM_HIDDEN_LAYERS': 3}
Blue
Model: "sequential"
_________________________________________________________________
Layer (type)                 Output Shape              Param #   
=================================================================
dense (Dense)                (None, 1000)              10001000  
_________________________________________________________________
dropout (Dropout)            (None, 1000)              0         
_________________________________________________________________
dense_1 (Dense)              (None, 1000)              1001000   
_________________________________________________________________
dropout_1 (Dropout)          (None, 1000)              0         
_________________________________________________________________
dense_2 (Dense)              (None, 1000)              1001000   
_________________________________________________________________
dropout_2 (Dropout)          (None, 1000)              0         
_________________________________________________________________
dense_3 (Dense)              (None, 1)                 1001      
=================================================================
Total params: 12,004,001
Trainable params: 12,004,001
Non-trainable params: 0
_________________________________________________________________
None
Red
-0.058154922557608124
Typer KerasRegressor
Hello world
{'units': 1000, 'rate': 0.0, 'HP_L2_REG': 0.0001, 'HP_OPTIMIZER': 'Adagrad', 'kernel_initializer': 'glorot_uniform', 'HP_L1_REG': 0.0001, 'learning_rate': 0.001, 'activation': 'tanh', 'HP_NUM_HIDDEN_LAYERS': 2}
Blue
Model: "sequential"
_________________________________________________________________
Layer (type)                 Output Shape              Param #   
=================================================================
dense (Dense)                (None, 1000)              10001000  
_________________________________________________________________
dense_1 (Dense)              (None, 1000)              1001000   
_________________________________________________________________
dense_2 (Dense)              (None, 1)                 1001      
=================================================================
Total params: 11,003,001
Trainable params: 11,003,001
Non-trainable params: 0
_________________________________________________________________
None
Red
0.4596589839753876
Typer KerasRegressor
Hello world
{'units': 1000, 'rate': 0.2, 'HP_L2_REG': 0.2, 'HP_OPTIMIZER': 'Adam', 'kernel_initializer': 'glorot_uniform', 'HP_L1_REG': 0.0001, 'learning_rate': 1e-05, 'activation': 'relu', 'HP_NUM_HIDDEN_LAYERS': 2}
Blue
Model: "sequential"
_________________________________________________________________
Layer (type)                 Output Shape              Param #   
=================================================================
dense (Dense)                (None, 1000)              10001000  
_________________________________________________________________
dropout (Dropout)            (None, 1000)              0         
_________________________________________________________________
dense_1 (Dense)              (None, 1000)              1001000   
_________________________________________________________________
dropout_1 (Dropout)          (None, 1000)              0         
_________________________________________________________________
dense_2 (Dense)              (None, 1)                 1001      
=================================================================
Total params: 11,003,001
Trainable params: 11,003,001
Non-trainable params: 0
_________________________________________________________________
None
Red
0.3956228016003073
Typer KerasRegressor
Hello world
{'units': 1000, 'rate': 0.2, 'HP_L2_REG': 1e-08, 'HP_OPTIMIZER': 'Adam', 'kernel_initializer': 'glorot_uniform', 'HP_L1_REG': 0.01, 'learning_rate': 1e-05, 'activation': 'relu', 'HP_NUM_HIDDEN_LAYERS': 3}
Blue
Model: "sequential"
_________________________________________________________________
Layer (type)                 Output Shape              Param #   
=================================================================
dense (Dense)                (None, 1000)              10001000  
_________________________________________________________________
dropout (Dropout)            (None, 1000)              0         
_________________________________________________________________
dense_1 (Dense)              (None, 1000)              1001000   
_________________________________________________________________
dropout_1 (Dropout)          (None, 1000)              0         
_________________________________________________________________
dense_2 (Dense)              (None, 1000)              1001000   
_________________________________________________________________
dropout_2 (Dropout)          (None, 1000)              0         
_________________________________________________________________
dense_3 (Dense)              (None, 1)                 1001      
=================================================================
Total params: 12,004,001
Trainable params: 12,004,001
Non-trainable params: 0
_________________________________________________________________
None
Red
-0.03730726985702626
Typer KerasRegressor
Hello world
{'units': 200, 'rate': 0.0, 'HP_L2_REG': 0.2, 'HP_OPTIMIZER': 'SGD', 'kernel_initializer': 'glorot_uniform', 'HP_L1_REG': 0.0001, 'learning_rate': 0.01, 'activation': 'tanh', 'HP_NUM_HIDDEN_LAYERS': 5}
Blue
Model: "sequential"
_________________________________________________________________
Layer (type)                 Output Shape              Param #   
=================================================================
dense (Dense)                (None, 200)               2000200   
_________________________________________________________________
dense_1 (Dense)              (None, 200)               40200     
_________________________________________________________________
dense_2 (Dense)              (None, 200)               40200     
_________________________________________________________________
dense_3 (Dense)              (None, 200)               40200     
_________________________________________________________________
dense_4 (Dense)              (None, 200)               40200     
_________________________________________________________________
dense_5 (Dense)              (None, 1)                 201       
=================================================================
Total params: 2,161,201
Trainable params: 2,161,201
Non-trainable params: 0
_________________________________________________________________
None
Red
0.4082877119664178
Typer KerasRegressor
Hello world
{'units': 200, 'rate': 0.1, 'HP_L2_REG': 0.01, 'HP_OPTIMIZER': 'Adam', 'kernel_initializer': 'glorot_uniform', 'HP_L1_REG': 0.0001, 'learning_rate': 0.001, 'activation': 'tanh', 'HP_NUM_HIDDEN_LAYERS': 3}
Blue
Model: "sequential"
_________________________________________________________________
Layer (type)                 Output Shape              Param #   
=================================================================
dense (Dense)                (None, 200)               2000200   
_________________________________________________________________
dropout (Dropout)            (None, 200)               0         
_________________________________________________________________
dense_1 (Dense)              (None, 200)               40200     
_________________________________________________________________
dropout_1 (Dropout)          (None, 200)               0         
_________________________________________________________________
dense_2 (Dense)              (None, 200)               40200     
_________________________________________________________________
dropout_2 (Dropout)          (None, 200)               0         
_________________________________________________________________
dense_3 (Dense)              (None, 1)                 201       
=================================================================
Total params: 2,080,801
Trainable params: 2,080,801
Non-trainable params: 0
_________________________________________________________________
None
Red
0.4931641411248866
Typer KerasRegressor
Hello world
{'units': 1000, 'rate': 0.1, 'HP_L2_REG': 1e-08, 'HP_OPTIMIZER': 'Adagrad', 'kernel_initializer': 'glorot_uniform', 'HP_L1_REG': 0.001, 'learning_rate': 0.001, 'activation': 'tanh', 'HP_NUM_HIDDEN_LAYERS': 4}
Blue
Model: "sequential"
_________________________________________________________________
Layer (type)                 Output Shape              Param #   
=================================================================
dense (Dense)                (None, 1000)              10001000  
_________________________________________________________________
dropout (Dropout)            (None, 1000)              0         
_________________________________________________________________
dense_1 (Dense)              (None, 1000)              1001000   
_________________________________________________________________
dropout_1 (Dropout)          (None, 1000)              0         
_________________________________________________________________
dense_2 (Dense)              (None, 1000)              1001000   
_________________________________________________________________
dropout_2 (Dropout)          (None, 1000)              0         
_________________________________________________________________
dense_3 (Dense)              (None, 1000)              1001000   
_________________________________________________________________
dropout_3 (Dropout)          (None, 1000)              0         
_________________________________________________________________
dense_4 (Dense)              (None, 1)                 1001      
=================================================================
Total params: 13,005,001
Trainable params: 13,005,001
Non-trainable params: 0
_________________________________________________________________
None
Red
0.4361088366562542
Typer KerasRegressor
Hello world
{'units': 1000, 'rate': 0.1, 'HP_L2_REG': 0.2, 'HP_OPTIMIZER': 'Adam', 'kernel_initializer': 'glorot_uniform', 'HP_L1_REG': 0.001, 'learning_rate': 0.001, 'activation': 'relu', 'HP_NUM_HIDDEN_LAYERS': 2}
Blue
Model: "sequential"
_________________________________________________________________
Layer (type)                 Output Shape              Param #   
=================================================================
dense (Dense)                (None, 1000)              10001000  
_________________________________________________________________
dropout (Dropout)            (None, 1000)              0         
_________________________________________________________________
dense_1 (Dense)              (None, 1000)              1001000   
_________________________________________________________________
dropout_1 (Dropout)          (None, 1000)              0         
_________________________________________________________________
dense_2 (Dense)              (None, 1)                 1001      
=================================================================
Total params: 11,003,001
Trainable params: 11,003,001
Non-trainable params: 0
_________________________________________________________________
None
Red
0.46371352306614744
Typer KerasRegressor
Hello world
{'units': 1000, 'rate': 0.1, 'HP_L2_REG': 1e-08, 'HP_OPTIMIZER': 'SGD', 'kernel_initializer': 'glorot_uniform', 'HP_L1_REG': 0.0001, 'learning_rate': 0.01, 'activation': 'relu', 'HP_NUM_HIDDEN_LAYERS': 5}
Blue
Model: "sequential"
_________________________________________________________________
Layer (type)                 Output Shape              Param #   
=================================================================
dense (Dense)                (None, 1000)              10001000  
_________________________________________________________________
dropout (Dropout)            (None, 1000)              0         
_________________________________________________________________
dense_1 (Dense)              (None, 1000)              1001000   
_________________________________________________________________
dropout_1 (Dropout)          (None, 1000)              0         
_________________________________________________________________
dense_2 (Dense)              (None, 1000)              1001000   
_________________________________________________________________
dropout_2 (Dropout)          (None, 1000)              0         
_________________________________________________________________
dense_3 (Dense)              (None, 1000)              1001000   
_________________________________________________________________
dropout_3 (Dropout)          (None, 1000)              0         
_________________________________________________________________
dense_4 (Dense)              (None, 1000)              1001000   
_________________________________________________________________
dropout_4 (Dropout)          (None, 1000)              0         
_________________________________________________________________
dense_5 (Dense)              (None, 1)                 1001      
=================================================================
Total params: 14,006,001
Trainable params: 14,006,001
Non-trainable params: 0
_________________________________________________________________
None
Red
0.5225880145878623
Typer KerasRegressor
Hello world
{'units': 1000, 'rate': 0.2, 'HP_L2_REG': 0.0001, 'HP_OPTIMIZER': 'Adam', 'kernel_initializer': 'glorot_uniform', 'HP_L1_REG': 0.1, 'learning_rate': 0.001, 'activation': 'relu', 'HP_NUM_HIDDEN_LAYERS': 5}
Blue
Model: "sequential"
_________________________________________________________________
Layer (type)                 Output Shape              Param #   
=================================================================
dense (Dense)                (None, 1000)              10001000  
_________________________________________________________________
dropout (Dropout)            (None, 1000)              0         
_________________________________________________________________
dense_1 (Dense)              (None, 1000)              1001000   
_________________________________________________________________
dropout_1 (Dropout)          (None, 1000)              0         
_________________________________________________________________
dense_2 (Dense)              (None, 1000)              1001000   
_________________________________________________________________
dropout_2 (Dropout)          (None, 1000)              0         
_________________________________________________________________
dense_3 (Dense)              (None, 1000)              1001000   
_________________________________________________________________
dropout_3 (Dropout)          (None, 1000)              0         
_________________________________________________________________
dense_4 (Dense)              (None, 1000)              1001000   
_________________________________________________________________
dropout_4 (Dropout)          (None, 1000)              0         
_________________________________________________________________
dense_5 (Dense)              (None, 1)                 1001      
=================================================================
Total params: 14,006,001
Trainable params: 14,006,001
Non-trainable params: 0
_________________________________________________________________
None
Red
-0.05578058840872124
Typer KerasRegressor
Hello world
{'units': 1000, 'rate': 0.0, 'HP_L2_REG': 1e-08, 'HP_OPTIMIZER': 'Adagrad', 'kernel_initializer': 'glorot_uniform', 'HP_L1_REG': 0.001, 'learning_rate': 0.0001, 'activation': 'relu', 'HP_NUM_HIDDEN_LAYERS': 4}
Blue
Model: "sequential"
_________________________________________________________________
Layer (type)                 Output Shape              Param #   
=================================================================
dense (Dense)                (None, 1000)              10001000  
_________________________________________________________________
dense_1 (Dense)              (None, 1000)              1001000   
_________________________________________________________________
dense_2 (Dense)              (None, 1000)              1001000   
_________________________________________________________________
dense_3 (Dense)              (None, 1000)              1001000   
_________________________________________________________________
dense_4 (Dense)              (None, 1)                 1001      
=================================================================
Total params: 13,005,001
Trainable params: 13,005,001
Non-trainable params: 0
_________________________________________________________________
None
Red
0.029359310792054893
Typer KerasRegressor
Hello world
{'units': 1000, 'rate': 0.5, 'HP_L2_REG': 0.01, 'HP_OPTIMIZER': 'Adam', 'kernel_initializer': 'glorot_uniform', 'HP_L1_REG': 0.01, 'learning_rate': 0.001, 'activation': 'relu', 'HP_NUM_HIDDEN_LAYERS': 4}
Blue
Model: "sequential"
_________________________________________________________________
Layer (type)                 Output Shape              Param #   
=================================================================
dense (Dense)                (None, 1000)              10001000  
______________________________________________