…
2021-11-06 06:28:09.334683: I tensorflow/core/platform/profile_utils/cpu_utils.cc:94] CPU Frequency: 2200045000 Hz
2021-11-06 06:28:09.338289: I tensorflow/compiler/xla/service/service.cc:168] XLA service 0x126d5240 executing computations on platform Host. Devices:
2021-11-06 06:28:09.338319: I tensorflow/compiler/xla/service/service.cc:175]   StreamExecutor device (0): <undefined>, <undefined>
Model: "sequential"
_________________________________________________________________
Layer (type)                 Output Shape              Param #   
=================================================================
dense (Dense)                (None, 1000)              10001000  
_________________________________________________________________
dense_1 (Dense)              (None, 1000)              1001000   
_________________________________________________________________
dense_2 (Dense)              (None, 1000)              1001000   
_________________________________________________________________
dense_3 (Dense)              (None, 1000)              1001000   
_________________________________________________________________
dense_4 (Dense)              (None, 1000)              1001000   
_________________________________________________________________
dense_5 (Dense)              (None, 1)                 1001      
=================================================================
Total params: 14,006,001
Trainable params: 14,006,001
Non-trainable params: 0
_________________________________________________________________
None
2021-11-06 06:28:10.817304: W tensorflow/compiler/jit/mark_for_compilation_pass.cc:1483] (One-time warning): Not using XLA:CPU for cluster because envvar TF_XLA_FLAGS=--tf
…
flag, not via TF_XLA_FLAGS) or set the envvar XLA_FLAGS=--xla_hlo_profile.
Red
0.43789419814912933
Typer KerasRegressor
Hello world
{'HP_NUM_HIDDEN_LAYERS': 5, 'HP_L1_REG': 0.001, 'kernel_initializer': 'glorot_uniform', 'HP_L2_REG': 0.01, 'rate': 0.5, 'HP_OPTIMIZER': 'Adam', 'units': 1000, 'learning_rate': 1e-05, 'activation': 'tanh'}
Blue
Model: "sequential"
_________________________________________________________________
Layer (type)                 Output Shape              Param #   
=================================================================
dense (Dense)                (None, 1000)              10001000  
_________________________________________________________________
dropout (Dropout)            (None, 1000)              0         
_________________________________________________________________
dense_1 (Dense)              (None, 1000)              1001000   
_________________________________________________________________
dropout_1 (Dropout)          (None, 1000)              0         
_________________________________________________________________
dense_2 (Dense)              (None, 1000)              1001000   
_________________________________________________________________
dropout_2 (Dropout)          (None, 1000)              0         
_________________________________________________________________
dense_3 (Dense)              (None, 1000)              1001000   
_________________________________________________________________
dropout_3 (Dropout)          (None, 1000)              0         
_________________________________________________________________
dense_4 (Dense)              (None, 1000)              1001000   
_________________________________________________________________
dropout_4 (Dropout)          (None, 1000)              0         
_________________________________________________________________
dense_5 (Dense)              (None, 1)                 1001      
=================================================================
Total params: 14,006,001
Trainable params: 14,006,001
Non-trainable params: 0
_________________________________________________________________
None
Red
-0.5111681095761171
Typer KerasRegressor
Hello world
{'HP_NUM_HIDDEN_LAYERS': 5, 'HP_L1_REG': 0.1, 'kernel_initializer': 'glorot_uniform', 'HP_L2_REG': 0.0001, 'rate': 0.1, 'HP_OPTIMIZER': 'Adam', 'units': 200, 'learning_rate': 0.0001, 'activation': 'tanh'}
Blue
Model: "sequential"
_________________________________________________________________
Layer (type)                 Output Shape              Param #   
=================================================================
dense (Dense)                (None, 200)               2000200   
_________________________________________________________________
dropout (Dropout)            (None, 200)               0         
_________________________________________________________________
dense_1 (Dense)              (None, 200)               40200     
_________________________________________________________________
dropout_1 (Dropout)          (None, 200)               0         
_________________________________________________________________
dense_2 (Dense)              (None, 200)               40200     
_________________________________________________________________
dropout_2 (Dropout)          (None, 200)               0         
_________________________________________________________________
dense_3 (Dense)              (None, 200)               40200     
_________________________________________________________________
dropout_3 (Dropout)          (None, 200)               0         
_________________________________________________________________
dense_4 (Dense)              (None, 200)               40200     
_________________________________________________________________
dropout_4 (Dropout)          (None, 200)               0         
_________________________________________________________________
dense_5 (Dense)              (None, 1)                 201       
=================================================================
Total params: 2,161,201
Trainable params: 2,161,201
Non-trainable params: 0
_________________________________________________________________
None
Red
-5.702827302686144
Typer KerasRegressor
Hello world
{'HP_NUM_HIDDEN_LAYERS': 3, 'HP_L1_REG': 0.001, 'kernel_initializer': 'glorot_uniform', 'HP_L2_REG': 1e-08, 'rate': 0.5, 'HP_OPTIMIZER': 'Adagrad', 'units': 1000, 'learning_rate': 0.001, 'activation': 'relu'}
Blue
Model: "sequential"
_________________________________________________________________
Layer (type)                 Output Shape              Param #   
=================================================================
dense (Dense)                (None, 1000)              10001000  
_________________________________________________________________
dropout (Dropout)            (None, 1000)              0         
_________________________________________________________________
dense_1 (Dense)              (None, 1000)              1001000   
_________________________________________________________________
dropout_1 (Dropout)          (None, 1000)              0         
_________________________________________________________________
dense_2 (Dense)              (None, 1000)              1001000   
_________________________________________________________________
dropout_2 (Dropout)          (None, 1000)              0         
_________________________________________________________________
dense_3 (Dense)              (None, 1)                 1001      
=================================================================
Total params: 12,004,001
Trainable params: 12,004,001
Non-trainable params: 0
_________________________________________________________________
None
Red
0.5317119038822864
Typer KerasRegressor
Hello world
{'HP_NUM_HIDDEN_LAYERS': 2, 'HP_L1_REG': 0.0001, 'kernel_initializer': 'glorot_uniform', 'HP_L2_REG': 0.2, 'rate': 0.2, 'HP_OPTIMIZER': 'Adam', 'units': 1000, 'learning_rate': 0.01, 'activation': 'relu'}
Blue
Model: "sequential"
_________________________________________________________________
Layer (type)                 Output Shape              Param #   
=================================================================
dense (Dense)                (None, 1000)              10001000  
_________________________________________________________________
dropout (Dropout)            (None, 1000)              0         
_________________________________________________________________
dense_1 (Dense)              (None, 1000)              1001000   
_________________________________________________________________
dropout_1 (Dropout)          (None, 1000)              0         
_________________________________________________________________
dense_2 (Dense)              (None, 1)                 1001      
=================================================================
Total params: 11,003,001
Trainable params: 11,003,001
Non-trainable params: 0
_________________________________________________________________
None
Red
0.4763687108189467
Typer KerasRegressor
Hello world
{'HP_NUM_HIDDEN_LAYERS': 2, 'HP_L1_REG': 0.001, 'kernel_initializer': 'glorot_uniform', 'HP_L2_REG': 0.2, 'rate': 0.2, 'HP_OPTIMIZER': 'SGD', 'units': 200, 'learning_rate': 0.0001, 'activation': 'relu'}
Blue
Model: "sequential"
_________________________________________________________________
Layer (type)                 Output Shape              Param #   
=================================================================
dense (Dense)                (None, 200)               2000200   
_________________________________________________________________
dropout (Dropout)            (None, 200)               0         
_________________________________________________________________
dense_1 (Dense)              (None, 200)               40200     
_________________________________________________________________
dropout_1 (Dropout)          (None, 200)               0         
_________________________________________________________________
dense_2 (Dense)              (None, 1)                 201       
=================================================================
Total params: 2,040,601
Trainable params: 2,040,601
Non-trainable params: 0
_________________________________________________________________
None
Red
-1.1894633667189907
Typer KerasRegressor
Hello world
{'HP_NUM_HIDDEN_LAYERS': 4, 'HP_L1_REG': 0.1, 'kernel_initializer': 'glorot_uniform', 'HP_L2_REG': 1e-08, 'rate': 0.0, 'HP_OPTIMIZER': 'Adam', 'units': 1000, 'learning_rate': 0.01, 'activation': 'tanh'}
Blue
Model: "sequential"
_________________________________________________________________
Layer (type)                 Output Shape              Param #   
=================================================================
dense (Dense)                (None, 1000)              10001000  
_________________________________________________________________
dense_1 (Dense)              (None, 1000)              1001000   
_________________________________________________________________
dense_2 (Dense)              (None, 1000)              1001000   
_________________________________________________________________
dense_3 (Dense)              (None, 1000)              1001000   
_________________________________________________________________
dense_4 (Dense)              (None, 1)                 1001      
=================================================================
Total params: 13,005,001
Trainable params: 13,005,001
Non-trainable params: 0
_________________________________________________________________
None
Red
-0.013118917230828586
Typer KerasRegressor
Hello world
{'HP_NUM_HIDDEN_LAYERS': 2, 'HP_L1_REG': 0.01, 'kernel_initializer': 'glorot_uniform', 'HP_L2_REG': 1e-08, 'rate': 0.5, 'HP_OPTIMIZER': 'Adagrad', 'units': 200, 'learning_rate': 0.01, 'activation': 'tanh'}
Blue
Model: "sequential"
_________________________________________________________________
Layer (type)                 Output Shape              Param #   
=================================================================
dense (Dense)                (None, 200)               2000200   
_________________________________________________________________
dropout (Dropout)            (None, 200)               0         
_________________________________________________________________
dense_1 (Dense)              (None, 200)               40200     
_________________________________________________________________
dropout_1 (Dropout)          (None, 200)               0         
_________________________________________________________________
dense_2 (Dense)              (None, 1)                 201       
=================================================================
Total params: 2,040,601
Trainable params: 2,040,601
Non-trainable params: 0
_________________________________________________________________
None
Red
0.34983451945667376
Typer KerasRegressor
Hello world
{'HP_NUM_HIDDEN_LAYERS': 3, 'HP_L1_REG': 0.001, 'kernel_initializer': 'glorot_uniform', 'HP_L2_REG': 0.2, 'rate': 0.0, 'HP_OPTIMIZER': 'SGD', 'units': 200, 'learning_rate': 0.0001, 'activation': 'relu'}
Blue
Model: "sequential"
_________________________________________________________________
Layer (type)                 Output Shape              Param #   
=================================================================
dense (Dense)                (None, 200)               2000200   
_________________________________________________________________
dense_1 (Dense)              (None, 200)               40200     
_________________________________________________________________
dense_2 (Dense)              (None, 200)               40200     
_________________________________________________________________
dense_3 (Dense)              (None, 1)                 201       
=================================================================
Total params: 2,080,801
Trainable params: 2,080,801
Non-trainable params: 0
_________________________________________________________________
None
Red
-3.2181458111205936
Typer KerasRegressor
Hello world
{'HP_NUM_HIDDEN_LAYERS': 3, 'HP_L1_REG': 0.1, 'kernel_initializer': 'glorot_uniform', 'HP_L2_REG': 0.0001, 'rate': 0.0, 'HP_OPTIMIZER': 'Adagrad', 'units': 1000, 'learning_rate': 1e-05, 'activation': 'tanh'}
Blue
Model: "sequential"
_________________________________________________________________
Layer (type)                 Output Shape              Param #   
=================================================================
dense (Dense)                (None, 1000)              10001000  
_________________________________________________________________
dense_1 (Dense)              (None, 1000)              1001000   
_________________________________________________________________
dense_2 (Dense)              (None, 1000)              1001000   
_________________________________________________________________
dense_3 (Dense)              (None, 1)                 1001      
=================================================================
Total params: 12,004,001
Trainable params: 12,004,001
Non-trainable params: 0
_________________________________________________________________
None
Red
-8.400748306316428
Typer KerasRegressor
Hello world
{'HP_NUM_HIDDEN_LAYERS': 4, 'HP_L1_REG': 0.001, 'kernel_initializer': 'glorot_uniform', 'HP_L2_REG': 0.2, 'rate': 0.0, 'HP_OPTIMIZER': 'Adam', 'units': 200, 'learning_rate': 0.01, 'activation': 'relu'}
Blue
Model: "sequential"
_________________________________________________________________
Layer (type)                 Output Shape              Param #   
=================================================================
dense (Dense)                (None, 200)               2000200   
_________________________________________________________________
dense_1 (Dense)              (None, 200)               40200     
_________________________________________________________________
dense_2 (Dense)              (None, 200)               40200     
_________________________________________________________________
dense_3 (Dense)              (None, 200)               40200     
_________________________________________________________________
dense_4 (Dense)              (None, 1)                 201       
=================================================================
Total params: 2,121,001
Trainable params: 2,121,001
Non-trainable params: 0
_________________________________________________________________
None
Red
0.5310847637447498
Typer KerasRegressor
Hello world
{'HP_NUM_HIDDEN_LAYERS': 3, 'HP_L1_REG': 0.001, 'kernel_initializer': 'glorot_uniform', 'HP_L2_REG': 0.01, 'rate': 0.1, 'HP_OPTIMIZER': 'Adam', 'units': 400, 'learning_rate': 0.001, 'activation': 'relu'}
Blue
Model: "sequential"
_________________________________________________________________
Layer (type)                 Output Shape              Param #   
=================================================================
dense (Dense)                (None, 400)               4000400   
_________________________________________________________________
dropout (Dropout)            (None, 400)               0         
_________________________________________________________________
dense_1 (Dense)              (None, 400)               160400    
_________________________________________________________________
dropout_1 (Dropout)          (None, 400)               0         
_________________________________________________________________
dense_2 (Dense)              (None, 400)               160400    
_________________________________________________________________
dropout_2 (Dropout)          (None, 400)               0         
_________________________________________________________________
dense_3 (Dense)              (None, 1)                 401       
=================================================================
Total params: 4,321,601
Trainable params: 4,321,601
Non-trainable params: 0
_________________________________________________________________
None
Red
0.4947342679133204
Typer KerasRegressor
Hello world
{'HP_NUM_HIDDEN_LAYERS': 5, 'HP_L1_REG': 0.1, 'kernel_initializer': 'glorot_uniform', 'HP_L2_REG': 0.2, 'rate': 0.1, 'HP_OPTIMIZER': 'Adagrad', 'units': 400, 'learning_rate': 0.001, 'activation': 'tanh'}
Blue
Model: "sequential"
_________________________________________________________________
Layer (type)                 Output Shape              Param #   
=================================================================
dense (Dense)                (None, 400)               4000400   
_________________________________________________________________
dropout (Dropout)            (None, 400)               0         
_________________________________________________________________
dense_1 (Dense)              (None, 400)               160400    
_________________________________________________________________
dropout_1 (Dropout)          (None, 400)               0         
_________________________________________________________________
dense_2 (Dense)              (None, 400)               160400    
_________________________________________________________________
dropout_2 (Dropout)          (None, 400)               0         
_________________________________________________________________
dense_3 (Dense)              (None, 400)               160400    
_________________________________________________________________
dropout_3 (Dropout)          (None, 400)               0         
_________________________________________________________________
dense_4 (Dense)              (None, 400)               160400    
_________________________________________________________________
dropout_4 (Dropout)          (None, 400)               0         
_________________________________________________________________
dense_5 (Dense)              (None, 1)                 401       
=================================================================
Total params: 4,642,401
Trainable params: 4,642,401
Non-trainable params: 0
_________________________________________________________________
None
Red
-7.471997245789305
Typer KerasRegressor
Hello world
{'HP_NUM_HIDDEN_LAYERS': 4, 'HP_L1_REG': 0.1, 'kernel_initializer': 'glorot_uniform', 'HP_L2_REG': 0.2, 'rate': 0.5, 'HP_OPTIMIZER': 'Adagrad', 'units': 200, 'learning_rate': 0.0001, 'activation': 'relu'}
Blue
Model: "sequential"
_________________________________________________________________
Layer (type)                 Output Shape              Param #   
=================================================================
dense (Dense)                (None, 200)               2000200   
_________________________________________________________________
dropout (Dropout)            (None, 200)               0         
_________________________________________________________________
dense_1 (Dense)              (None, 200)               40200     
_________________________________________________________________
dropout_1 (Dropout)          (None, 200)               0         
_________________________________________________________________
dense_2 (Dense)              (None, 200)               40200     
_________________________________________________________________
dropout_2 (Dropout)          (None, 200)               0         
_________________________________________________________________
dense_3 (Dense)              (None, 200)               40200     
_________________________________________________________________
dropout_3 (Dropout)          (None, 200)               0         
_________________________________________________________________
dense_4 (Dense)              (None, 1)                 201       
=================================================================
Total params: 2,121,001
Trainable params: 2,121,001
Non-trainable params: 0
_________________________________________________________________
None
Red
-8.405489187280928
Typer KerasRegressor
Hello world
{'HP_NUM_HIDDEN_LAYERS': 2, 'HP_L1_REG': 0.0001, 'kernel_initializer': 'glorot_uniform', 'HP_L2_REG': 0.2, 'rate': 0.1, 'HP_OPTIMIZER': 'Adagrad', 'units': 200, 'learning_rate': 1e-05, 'activation': 'tanh'}
Blue
Model: "sequential"
_________________________________________________________________
Layer (type)                 Output Shape              Param #   
=================================================================
dense (Dense)                (None, 200)               2000200   
_________________________________________________________________
dropout (Dropout)            (None, 200)               0         
_________________________________________________________________
dense_1 (Dense)              (None, 200)               40200     
_________________________________________________________________
dropout_1 (Dropout)          (None, 200)               0         
_________________________________________________________________
dense_2 (Dense)              (None, 1)                 201       
=================================================================
Total params: 2,040,601
Trainable params: 2,040,601
Non-trainable params: 0
_________________________________________________________________
None
Red
-8.03554888087455
Typer KerasRegressor
Hello world
{'HP_NUM_HIDDEN_LAYERS': 3, 'HP_L1_REG': 0.0001, 'kernel_initializer': 'glorot_uniform', 'HP_L2_REG': 0.0001, 'rate': 0.0, 'HP_OPTIMIZER': 'Adam', 'units': 400, 'learning_rate': 0.01, 'activation': 'relu'}
Blue
Model: "sequential"
_________________________________________________________________
Layer (type)                 Output Shape              Param #   
=================================================================
dense (Dense)                (None, 400)               4000400   
_________________________________________________________________
dense_1 (Dense)              (None, 400)               160400    
_________________________________________________________________
dense_2 (Dense)              (None, 400)               160400    
_________________________________________________________________
dense_3 (Dense)              (None, 1)                 401       
=================================================================
Total params: 4,321,601
Trainable params: 4,321,601
Non-trainable params: 0
_________________________________________________________________
None
Red
0.5147177375905827
Typer KerasRegressor
Hello world
{'HP_NUM_HIDDEN_LAYERS': 2, 'HP_L1_REG': 0.001, 'kernel_initializer': 'glorot_uniform', 'HP_L2_REG': 0.0001, 'rate': 0.2, 'HP_OPTIMIZER': 'Adam', 'units': 200, 'learning_rate': 0.0001, 'activation': 'tanh'}
Blue
Model: "sequential"
_________________________________________________________________
Layer (type)                 Output Shape              Param #   
=================================================================
dense (Dense)                (None, 200)               2000200   
_________________________________________________________________
dropout (Dropout)            (None, 200)               0         
_________________________________________________________________
dense_1 (Dense)              (None, 200)               40200     
_________________________________________________________________
dropout_1 (Dropout)          (None, 200)               0         
_________________________________________________________________
dense_2 (Dense)              (None, 1)                 201       
=================================================================
Total params: 2,040,601
Trainable params: 2,040,601
Non-trainable params: 0
_________________________________________________________________
None
Red
-0.7933198547580991
Typer KerasRegressor
Hello world
{'HP_NUM_HIDDEN_LAYERS': 4, 'HP_L1_REG': 0.001, 'kernel_initializer': 'glorot_uniform', 'HP_L2_REG': 0.01, 'rate': 0.1, 'HP_OPTIMIZER': 'Adam', 'units': 200, 'learning_rate': 1e-05, 'activation': 'tanh'}
Blue
Model: "sequential"
_________________________________________________________________
Layer (type)                 Output Shape              Param #   
=================================================================
dense (Dense)                (None, 200)               2000200   
_________________________________________________________________
dropout (Dropout)            (None, 200)               0         
_________________________________________________________________
dense_1 (Dense)              (None, 200)               40200     
_________________________________________________________________
dropout_1 (Dropout)          (None, 200)               0         
_________________________________________________________________
dense_2 (Dense)              (None, 200)               40200     
_________________________________________________________________
dropout_2 (Dropout)          (None, 200)               0         
_________________________________________________________________
dense_3 (Dense)              (None, 200)               40200     
_________________________________________________________________
dropout_3 (Dropout)          (None, 200)               0         
_________________________________________________________________
dense_4 (Dense)              (None, 1)                 201       
=================================================================
Total params: 2,121,001
Trainable params: 2,121,001
Non-trainable params: 0
_________________________________________________________________
None
Red
-4.370897177082488
Typer KerasRegressor
Hello world
{'HP_NUM_HIDDEN_LAYERS': 5, 'HP_L1_REG': 0.1, 'kernel_initializer': 'glorot_uniform', 'HP_L2_REG': 0.2, 'rate': 0.1, 'HP_OPTIMIZER': 'SGD', 'units': 400, 'learning_rate': 0.0001, 'activation': 'tanh'}
Blue
Model: "sequential"
_________________________________________________________________
Layer (type)                 Output Shape              Param #   
=================================================================
dense (Dense)                (None, 400)               4000400   
_________________________________________________________________
dropout (Dropout)            (None, 400)               0         
_________________________________________________________________
dense_1 (Dense)              (None, 400)               160400    
_________________________________________________________________
dropout_1 (Dropout)          (None, 400)               0         
_________________________________________________________________
dense_2 (Dense)              (None, 400)               160400    
_________________________________________________________________
dropout_2 (Dropout)          (None, 400)               0         
_________________________________________________________________
dense_3 (Dense)              (None, 400)               160400    
_________________________________________________________________
dropout_3 (Dropout)          (None, 400)               0         
_________________________________________________________________
dense_4 (Dense)              (None, 400)               160400    
_________________________________________________________________
dropout_4 (Dropout)          (None, 400)               0         
_________________________________________________________________
dense_5 (Dense)              (None, 1)                 401       
=================================================================
Total params: 4,642,401
Trainable params: 4,642,401
Non-trainable params: 0
_________________________________________________________________
None
Red
-2.6287830445393534
Typer KerasRegressor
Hello world
{'HP_NUM_HIDDEN_LAYERS': 5, 'HP_L1_REG': 0.1, 'kernel_initializer': 'glorot_uniform', 'HP_L2_REG': 1e-08, 'rate': 0.2, 'HP_OPTIMIZER': 'Adagrad', 'units': 400, 'learning_rate': 0.01, 'activation': 'relu'}
Blue
Model: "sequential"
_________________________________________________________________
Layer (type)                 Output Shape              Param #   
=================================================================
dense (Dense)                (None, 400)               4000400   
_________________________________________________________________
dropout (Dropout)            (None, 400)               0         
_________________________________________________________________
dense_1 (Dense)              (None, 400)               160400    
_________________________________________________________________
dropout_1 (Dropout)          (None, 400)               0         
_________________________________________________________________
dense_2 (Dense)              (None, 400)               160400    
_________________________________________________________________
dropout_2 (Dropout)          (None, 400)               0         
_________________________________________________________________
dense_3 (Dense)              (None, 400)               160400    
_________________________________________________________________
dropout_3 (Dropout)          (None, 400)               0         
_________________________________________________________________
dense_4 (Dense)              (None, 400)               160400    
_________________________________________________________________
dropout_4 (Dropout)          (None, 400)               0         
_________________________________________________________________
dense_5 (Dense)              (None, 1)                 401       
=================================================================
Total params: 4,642,401
Trainable params: 4,642,401
Non-trainable params: 0
_________________________________________________________________
None
Red
-0.0172096314318273
Typer KerasRegressor
Hello world
{'HP_NUM_HIDDEN_LAYERS': 5, 'HP_L1_REG': 0.01, 'kernel_initializer': 'glorot_uniform', 'HP_L2_REG': 1e-08, 'rate': 0.5, 'HP_OPTIMIZER': 'Adam', 'units': 1000, 'learning_rate': 0.01, 'activation': 'tanh'}
Blue
Model: "sequential"
_________________________________________________________________
Layer (type)                 Output Shape              Param #   
=================================================================
dense (Dense)                (None, 1000)              10001000  
_________________________________________________________________
dropout (Dropout)            (None, 1000)              0         
_________________________________________________________________
dense_1 (Dense)              (None, 1000)              1001000   
_________________________________________________________________
dropout_1 (Dropout)          (None, 1000)              0         
_________________________________________________________________
dense_2 (Dense)              (None, 1000)              1001000   
_________________________________________________________________
dropout_2 (Dropout)          (None, 1000)              0         
_________________________________________________________________
dense_3 (Dense)              (None, 1000)              1001000   
_________________________________________________________________
dropout_3 (Dropout)          (None, 1000)              0         
_________________________________________________________________
dense_4 (Dense)              (None, 1000)              1001000   
_________________________________________________________________
dropout_4 (Dropout)          (None, 1000)              0         
_________________________________________________________________
dense_5 (Dense)              (None, 1)                 1001      
=================================================================
Total params: 14,006,001
Trainable params: 14,006,001
Non-trainable params: 0
_________________________________________________________________
None
Red
-0.060305879834123166
Typer KerasRegressor
Hello world
{'HP_NUM_HIDDEN_LAYERS': 2, 'HP_L1_REG': 0.0001, 'kernel_initializer': 'glorot_uniform', 'HP_L2_REG': 0.0001, 'rate': 0.2, 'HP_OPTIMIZER': 'SGD', 'units': 400, 'learning_rate': 0.001, 'activation': 'relu'}
Blue
Model: "sequential"
_________________________________________________________________
Layer (type)                 Output Shape              Param #   
=================================================================
dense (Dense)                (None, 400)               4000400   
_________________________________________________________________
dropout (Dropout)            (None, 400)               0         
_________________________________________________________________
dense_1 (Dense)              (None, 400)               160400    
_________________________________________________________________
dropout_1 (Dropout)          (None, 400)               0         
_________________________________________________________________
dense_2 (Dense)              (None, 1)                 401       
=================================================================
Total params: 4,161,201
Trainable params: 4,161,201
Non-trainable params: 0
_________________________________________________________________
None
Red
0.5255930653034346
Typer KerasRegressor
Hello world
{'HP_NUM_HIDDEN_LAYERS': 5, 'HP_L1_REG': 0.001, 'kernel_initializer': 'glorot_uniform', 'HP_L2_REG': 0.0001, 'rate': 0.5, 'HP_OPTIMIZER': 'Adam', 'units': 1000, 'learning_rate': 0.0001, 'activation': 'tanh'}
Blue
Model: "sequential"
_________________________________________________________________
Layer (type)                 Output Shape              Param #   
=================================================================
dense (Dense)                (None, 1000)              10001000  
_________________________________________________________________
dropout (Dropout)            (None, 1000)              0         
_________________________________________________________________
dense_1 (Dense)              (None, 1000)              1001000   
_________________________________________________________________
dropout_1 (Dropout)          (None, 1000)              0         
_________________________________________________________________
dense_2 (Dense)              (None, 1000)              1001000   
_________________________________________________________________
dropout_2 (Dropout)          (None, 1000)              0         
_________________________________________________________________
dense_3 (Dense)              (None, 1000)              1001000   
_________________________________________________________________
dropout_3 (Dropout)          (None, 1000)              0         
_________________________________________________________________
dense_4 (Dense)              (None, 1000)              1001000   
_________________________________________________________________
dropout_4 (Dropout)          (None, 1000)              0         
_________________________________________________________________
dense_5 (Dense)              (None, 1)                 1001      
=================================================================
Total params: 14,006,001
Trainable params: 14,006,001
Non-trainable params: 0
_________________________________________________________________
None
Red
0.4354832033060011
Typer KerasRegressor
Hello world
{'HP_NUM_HIDDEN_LAYERS': 2, 'HP_L1_REG': 0.1, 'kernel_initializer': 'glorot_uniform', 'HP_L2_REG': 1e-08, 'rate': 0.2, 'HP_OPTIMIZER': 'Adam', 'units': 1000, 'learning_rate': 0.001, 'activation': 'relu'}
Blue
Model: "sequential"
_________________________________________________________________
Layer (type)                 Output Shape              Param #   
=================================================================
dense (Dense)                (None, 1000)              10001000  
_________________________________________________________________
dropout (Dropout)            (None, 1000)              0         
_________________________________________________________________
dense_1 (Dense)              (None, 1000)              1001000   
_________________________________________________________________
dropout_1 (Dropout)          (None, 1000)              0         
_________________________________________________________________
dense_2 (Dense)              (None, 1)                 1001      
=================================================================
Total params: 11,003,001
Trainable params: 11,003,001
Non-trainable params: 0
_________________________________________________________________
None
Red
-0.021047723134174356
Typer KerasRegressor
Hello world
{'HP_NUM_HIDDEN_LAYERS': 2, 'HP_L1_REG': 0.0001, 'kernel_initializer': 'glorot_uniform', 'HP_L2_REG': 0.2, 'rate': 0.0, 'HP_OPTIMIZER': 'Adagrad', 'units': 200, 'learning_rate': 0.01, 'activation': 'relu'}
Blue
Model: "sequential"
_________________________________________________________________
Layer (type)                 Output Shape              Param #   
=================================================================
dense (Dense)                (None, 200)               2000200   
_________________________________________________________________
dense_1 (Dense)              (None, 200)               40200     
_________________________________________________________________
dense_2 (Dense)              (None, 1)                 201       
=================================================================
Total params: 2,040,601
Trainable params: 2,040,601
Non-trainable params: 0
_________________________________________________________________
None
Red
0.5093261839908823
Typer KerasRegressor
Hello world
{'HP_NUM_HIDDEN_LAYERS': 4, 'HP_L1_REG': 0.0001, 'kernel_initializer': 'glorot_uniform', 'HP_L2_REG': 1e-08, 'rate': 0.0, 'HP_OPTIMIZER': 'Adam', 'units': 200, 'learning_rate': 0.0001, 'activation': 'tanh'}
Blue
Model: "sequential"
_________________________________________________________________
Layer (type)                 Output Shape              Param #   
=================================================================
dense (Dense)                (None, 200)               2000200   
_________________________________________________________________
dense_1 (Dense)              (None, 200)               40200     
_________________________________________________________________
dense_2 (Dense)              (None, 200)               40200     
_________________________________________________________________
dense_3 (Dense)              (None, 200)               40200     
_________________________________________________________________
dense_4 (Dense)              (None, 1)                 201       
=================================================================
Total params: 2,121,001
Trainable params: 2,121,001
Non-trainable params: 0
_________________________________________________________________
None
Red
-0.7431322190867466
Typer KerasRegressor
Hello world
{'HP_NUM_HIDDEN_LAYERS': 2, 'HP_L1_REG': 0.0001, 'kernel_initializer': 'glorot_uniform', 'HP_L2_REG': 0.01, 'rate': 0.2, 'HP_OPTIMIZER': 'SGD', 'units': 1000, 'learning_rate': 0.001, 'activation': 'tanh'}
Blue
Model: "sequential"
_________________________________________________________________
Layer (type)                 Output Shape              Param #   
=================================================================
dense (Dense)                (None, 1000)              10001000  
_________________________________________________________________
dropout (Dropout)            (None, 1000)              0         
_________________________________________________________________
dense_1 (Dense)              (None, 1000)              1001000   
_________________________________________________________________
dropout_1 (Dropout)          (None, 1000)              0         
_________________________________________________________________
dense_2 (Dense)              (None, 1)                 1001      
=================================================================
Total params: 11,003,001
Trainable params: 11,003,001
Non-trainable params: 0
_________________________________________________________________
None
Red
0.5088978124167152
Typer KerasRegressor
Hello world
{'HP_NUM_HIDDEN_LAYERS': 5, 'HP_L1_REG': 0.0001, 'kernel_initializer': 'glorot_uniform', 'HP_L2_REG': 0.0001, 'rate': 0.2, 'HP_OPTIMIZER': 'Adagrad', 'units': 1000, 'learning_rate': 0.01, 'activation': 'relu'}
Blue
Model: "sequential"
_________________________________________________________________
Layer (type)                 Output Shape              Param #   
=================================================================
dense (Dense)                (None, 1000)              10001000  
_________________________________________________________________
dropout (Dropout)            (None, 1000)              0         
_________________________________________________________________
dense_1 (Dense)              (None, 1000)              1001000   
_________________________________________________________________
dropout_1 (Dropout)          (None, 1000)              0         
_________________________________________________________________
dense_2 (Dense)              (None, 1000)              1001000   
_________________________________________________________________
dropout_2 (Dropout)          (None, 1000)              0         
_________________________________________________________________
dense_3 (Dense)              (None, 1000)              1001000   
_________________________________________________________________
dropout_3 (Dropout)          (None, 1000)              0         
_________________________________________________________________
dense_4 (Dense)              (None, 1000)              1001000   
_________________________________________________________________
dropout_4 (Dropout)          (None, 1000)              0         
_________________________________________________________________
dense_5 (Dense)              (None, 1)                 1001      
=================================================================
Total params: 14,006,001
Trainable params: 14,006,001
Non-trainable params: 0
_________________________________________________________________
None
Red
0.3745618682448081
Typer KerasRegressor
Hello world
{'HP_NUM_HIDDEN_LAYERS': 5, 'HP_L1_REG': 0.01, 'kernel_initializer': 'glorot_uniform', 'HP_L2_REG': 0.01, 'rate': 0.1, 'HP_OPTIMIZER': 'SGD', 'units': 1000, 'learning_rate': 0.0001, 'activation': 'relu'}
Blue
Model: "sequential"
_________________________________________________________________
Layer (type)                 Output Shape              Param #   
=================================================================
dense (Dense)                (None, 1000)              10001000  
_________________________________________________________________
dropout (Dropout)            (None, 1000)              0         
_________________________________________________________________
dense_1 (Dense)              (None, 1000)              1001000   
_________________________________________________________________
dropout_1 (Dropout)          (None, 1000)              0         
_________________________________________________________________
dense_2 (Dense)              (None, 1000)              1001000   
_________________________________________________________________
dropout_2 (Dropout)          (None, 1000)              0         
_________________________________________________________________
dense_3 (Dense)              (None, 1000)              1001000   
_________________________________________________________________
dropout_3 (Dropout)          (None, 1000)              0         
_________________________________________________________________
dense_4 (Dense)              (None, 1000)              1001000   
_________________________________________________________________
dropout_4 (Dropout)          (None, 1000)              0         
_________________________________________________________________
dense_5 (Dense)              (None, 1)                 1001      
=================================================================
Total params: 14,006,001
Trainable params: 14,006,001
Non-trainable params: 0
_________________________________________________________________
None
Red
-5.650130807227754
Typer KerasRegressor
Hello world
{'HP_NUM_HIDDEN_LAYERS': 5, 'HP_L1_REG': 0.01, 'kernel_initializer': 'glorot_uniform', 'HP_L2_REG': 0.01, 'rate': 0.0, 'HP_OPTIMIZER': 'Adam', 'units': 200, 'learning_rate': 0.01, 'activation': 'tanh'}
Blue
Model: "sequential"
_________________________________________________________________
Layer (type)                 Output Shape              Param #   
=================================================================
dense (Dense)                (None, 200)               2000200   
_________________________________________________________________
dense_1 (Dense)              (None, 200)               40200     
_________________________________________________________________
dense_2 (Dense)              (None, 200)               40200     
_________________________________________________________________
dense_3 (Dense)              (None, 200)               40200     
_________________________________________________________________
dense_4 (Dense)              (None, 200)               40200     
_________________________________________________________________
dense_5 (Dense)              (None, 1)                 201       
=================================================================
Total params: 2,161,201
Trainable params: 2,161,201
Non-trainable params: 0
_________________________________________________________________
None
Red
-0.006359657161917109
Typer KerasRegressor
Hello world
{'HP_NUM_HIDDEN_LAYERS': 4, 'HP_L1_REG': 0.0001, 'kernel_initializer': 'glorot_uniform', 'HP_L2_REG': 0.0001, 'rate': 0.5, 'HP_OPTIMIZER': 'Adagrad', 'units': 400, 'learning_rate': 0.0001, 'activation': 'tanh'}
Blue
Model: "sequential"
_________________________________________________________________
Layer (type)                 Output Shape              Param #   
=================================================================
dense (Dense)                (None, 400)               4000400   
_________________________________________________________________
dropout (Dropout)            (None, 400)               0         
_________________________________________________________________
dense_1 (Dense)              (None, 400)               160400    
_________________________________________________________________
dropout_1 (Dropout)          (None, 400)               0         
_________________________________________________________________
dense_2 (Dense)              (None, 400)               160400    
_________________________________________________________________
dropout_2 (Dropout)          (None, 400)               0         
_________________________________________________________________
dense_3 (Dense)              (None, 400)               160400    
_________________________________________________________________
dropout_3 (Dropout)          (None, 400)               0         
_________________________________________________________________
dense_4 (Dense)              (None, 1)                 401       
=================================================================
Total params: 4,482,001
Trainable params: 4,482,001
Non-trainable params: 0
_________________________________________________________________
None
Red
-3.640641954477812
Typer KerasRegressor
Hello world
{'HP_NUM_HIDDEN_LAYERS': 4, 'HP_L1_REG': 0.001, 'kernel_initializer': 'glorot_uniform', 'HP_L2_REG': 0.0001, 'rate': 0.1, 'HP_OPTIMIZER': 'SGD', 'units': 400, 'learning_rate': 0.01, 'activation': 'relu'}
Blue
Model: "sequential"
_________________________________________________________________
Layer (type)                 Output Shape              Param #   
=================================================================
dense (Dense)                (None, 400)               4000400   
_________________________________________________________________
dropout (Dropout)            (None, 400)               0         
_________________________________________________________________
dense_1 (Dense)              (None, 400)               160400    
_________________________________________________________________
dropout_1 (Dropout)          (None, 400)               0         
_________________________________________________________________
dense_2 (Dense)              (None, 400)               160400    
_________________________________________________________________
dropout_2 (Dropout)          (None, 400)               0         
_________________________________________________________________
dense_3 (Dense)              (None, 400)               160400    
_________________________________________________________________
dropout_3 (Dropout)          (None, 400)               0         
_________________________________________________________________
dense_4 (Dense)              (None, 1)                 401       
=================================================================
Total params: 4,482,001
Trainable params: 4,482,001
Non-trainable params: 0
_________________________________________________________________
None
Red
0.37887585745577046
Typer KerasRegressor
Hello world
{'HP_NUM_HIDDEN_LAYERS': 2, 'HP_L1_REG': 0.001, 'kernel_initializer': 'glorot_uniform', 'HP_L2_REG': 0.0001, 'rate': 0.2, 'HP_OPTIMIZER': 'Adam', 'units': 400, 'learning_rate': 0.001, 'activation': 'tanh'}
Blue
Model: "sequential"
_________________________________________________________________
Layer (type)                 Output Shape              Param #   
=================================================================
dense (Dense)                (None, 400)               4000400   
_________________________________________________________________
dropout (Dropout)            (None, 400)               0         
_________________________________________________________________
dense_1 (Dense)              (None, 400)               160400    
_________________________________________________________________
dropout_1 (Dropout)          (None, 400)               0         
_________________________________________________________________
dense_2 (Dense)              (None, 1)                 401       
=================================================================
Total params: 4,161,201
Trainable params: 4,161,201
Non-trainable params: 0
_________________________________________________________________
None
Red
0.5146318633330349
Typer KerasRegressor
Hello world
{'HP_NUM_HIDDEN_LAYERS': 4, 'HP_L1_REG': 0.01, 'kernel_initializer': 'glorot_uniform', 'HP_L2_REG': 0.01, 'rate': 0.5, 'HP_OPTIMIZER': 'Adam', 'units': 200, 'learning_rate': 1e-05, 'activation': 'tanh'}
Blue
Model: "sequential"
_________________________________________________________________
Layer (type)                 Output Shape              Param #   
=================================================================
dense (Dense)                (None, 200)               2000200   
_________________________________________________________________
dropout (Dropout)            (None, 200)               0         
_________________________________________________________________
dense_1 (Dense)              (None, 200)               40200     
_________________________________________________________________
dropout_1 (Dropout)          (None, 200)               0         
_________________________________________________________________
dense_2 (Dense)              (None, 200)               40200     
_________________________________________________________________
dropout_2 (Dropout)          (None, 200)               0         
_________________________________________________________________
dense_3 (Dense)              (None, 200)               40200     
_________________________________________________________________
dropout_3 (Dropout)          (None, 200)               0         
_________________________________________________________________
dense_4 (Dense)              (None, 1)                 201       
=================================================================
Total params: 2,121,001
Trainable params: 2,121,001
Non-trainable params: 0
_________________________________________________________________
None
Red
-4.404335569412053
Typer KerasRegressor
Hello world
{'HP_NUM_HIDDEN_LAYERS': 2, 'HP_L1_REG': 0.001, 'kernel_initializer': 'glorot_uniform', 'HP_L2_REG': 0.0001, 'rate': 0.5, 'HP_OPTIMIZER': 'Adagrad', 'units': 1000, 'learning_rate': 0.001, 'activation': 'relu'}
Blue
Model: "sequential"
_________________________________________________________________
Layer (type)                 Output Shape              Param #   
=================================================================
dense (Dense)                (None, 1000)              10001000  
_________________________________________________________________
dropout (Dropout)            (None, 1000)              0         
_________________________________________________________________
dense_1 (Dense)              (None, 1000)              1001000   
_________________________________________________________________
dropout_1 (Dropout)          (None, 1000)              0         
_________________________________________________________________
dense_2 (Dense)              (None, 1)                 1001      
=================================================================
Total params: 11,003,001
Trainable params: 11,003,001
Non-trainable params: 0
_________________________________________________________________
None
Red
0.5535636113091094
Typer KerasRegressor
Hello world
{'HP_NUM_HIDDEN_LAYERS': 5, 'HP_L1_REG': 0.0001, 'kernel_initializer': 'glorot_uniform', 'HP_L2_REG': 0.2, 'rate': 0.2, 'HP_OPTIMIZER': 'Adam', 'units': 200, 'learning_rate': 0.0001, 'activation': 'tanh'}
Blue
Model: "sequential"
_________________________________________________________________
Layer (type)                 Output Shape              Param #   
=================================================================
dense (Dense)                (None, 200)               2000200   
_________________________________________________________________
dropout (Dropout)            (None, 200)               0         
_________________________________________________________________
dense_1 (Dense)              (None, 200)               40200     
_________________________________________________________________
dropout_1 (Dropout)          (None, 200)               0         
_________________________________________________________________
dense_2 (Dense)              (None, 200)               40200     
_________________________________________________________________
dropout_2 (Dropout)          (None, 200)               0         
_________________________________________________________________
dense_3 (Dense)              (None, 200)               40200     
_________________________________________________________________
dropout_3 (Dropout)          (None, 200)               0         
_________________________________________________________________
dense_4 (Dense)              (None, 200)               40200     
_________________________________________________________________
dropout_4 (Dropout)          (None, 200)               0         
_________________________________________________________________
dense_5 (Dense)              (None, 1)                 201       
=================================================================
Total params: 2,161,201
Trainable params: 2,161,201
Non-trainable params: 0
_________________________________________________________________
None
Red
-0.7620161225952913
Typer KerasRegressor
Hello world
{'HP_NUM_HIDDEN_LAYERS': 2, 'HP_L1_REG': 0.001, 'kernel_initializer': 'glorot_uniform', 'HP_L2_REG': 0.01, 'rate': 0.5, 'HP_OPTIMIZER': 'Adam', 'units': 200, 'learning_rate': 0.01, 'activation': 'relu'}
Blue
Model: "sequential"
_________________________________________________________________
Layer (type)                 Output Shape              Param #   
=================================================================
dense (Dense)                (None, 200)               2000200   
_________________________________________________________________
dropout (Dropout)            (None, 200)               0         
_________________________________________________________________
dense_1 (Dense)              (None, 200)               40200     
_________________________________________________________________
dropout_1 (Dropout)          (None, 200)               0         
_________________________________________________________________
dense_2 (Dense)              (None, 1)                 201       
=================================================================
Total params: 2,040,601
Trainable params: 2,040,601
Non-trainable params: 0
_________________________________________________________________
None
Red
0.40041134809650436
Typer KerasRegressor
Hello world
{'HP_NUM_HIDDEN_LAYERS': 3, 'HP_L1_REG': 0.001, 'kernel_initializer': 'glorot_uniform', 'HP_L2_REG': 0.0001, 'rate': 0.5, 'HP_OPTIMIZER': 'Adam', 'units': 1000, 'learning_rate': 0.01, 'activation': 'relu'}
Blue
Model: "sequential"
_________________________________________________________________
Layer (type)                 Output Shape              Param #   
=================================================================
dense (Dense)                (None, 1000)              10001000  
_________________________________________________________________
dropout (Dropout)            (None, 1000)              0         
_________________________________________________________________
dense_1 (Dense)              (None, 1000)              1001000   
_________________________________________________________________
dropout_1 (Dropout)          (None, 1000)              0         
_________________________________________________________________
dense_2 (Dense)              (None, 1000)              1001000   
_________________________________________________________________
dropout_2 (Dropout)          (None, 1000)              0         
_________________________________________________________________
dense_3 (Dense)              (None, 1)                 1001      
=================================================================
Total params: 12,004,001
Trainable params: 12,004,001
Non-trainable params: 0
_________________________________________________________________
None
Red
0.14891414098310152
Typer KerasRegressor
Hello world
{'HP_NUM_HIDDEN_LAYERS': 3, 'HP_L1_REG': 0.001, 'kernel_initializer': 'glorot_uniform', 'HP_L2_REG': 0.2, 'rate': 0.0, 'HP_OPTIMIZER': 'Adam', 'units': 1000, 'learning_rate': 0.001, 'activation': 'relu'}
Blue
Model: "sequential"
_________________________________________________________________
Layer (type)                 Output Shape              Param #   
=================================================================
dense (Dense)                (None, 1000)              10001000  
_________________________________________________________________
dense_1 (Dense)              (None, 1000)              1001000   
_________________________________________________________________
dense_2 (Dense)              (None, 1000)              1001000   
_________________________________________________________________
dense_3 (Dense)              (None, 1)                 1001      
=================================================================
Total params: 12,004,001
Trainable params: 12,004,001
Non-trainable params: 0
_________________________________________________________________
None
Red
0.5009697654579365
Typer KerasRegressor
Hello world
{'HP_NUM_HIDDEN_LAYERS': 4, 'HP_L1_REG': 0.001, 'kernel_initializer': 'glorot_uniform', 'HP_L2_REG': 1e-08, 'rate': 0.5, 'HP_OPTIMIZER': 'SGD', 'units': 1000, 'learning_rate': 0.01, 'activation': 'relu'}
Blue
Model: "sequential"
_________________________________________________________________
Layer (type)                 Output Shape              Param #   
=================================================================
dense (Dense)                (None, 1000)              10001000  
_________________________________________________________________
dropout (Dropout)            (None, 1000)              0         
_________________________________________________________________
dense_1 (Dense)              (None, 1000)              1001000   
_________________________________________________________________
dropout_1 (Dropout)          (None, 1000)              0         
_________________________________________________________________
dense_2 (Dense)              (None, 1000)              1001000   
_________________________________________________________________
dropout_2 (Dropout)          (None, 1000)              0         
_________________________________________________________________
dense_3 (Dense)              (None, 1000)              1001000   
_________________________________________________________________
dropout_3 (Dropout)          (None, 1000)              0         
_________________________________________________________________
dense_4 (Dense)              (None, 1)                 1001      
=================================================================
Total params: 13,005,001
Trainable params: 13,005,001
Non-trainable params: 0
_________________________________________________________________
None
Red
-0.3423609633242568
Typer KerasRegressor
Hello world
{'HP_NUM_HIDDEN_LAYERS': 3, 'HP_L1_REG': 0.0001, 'kernel_initializer': 'glorot_uniform', 'HP_L2_REG': 0.01, 'rate': 0.5, 'HP_OPTIMIZER': 'Adam', 'units': 400, 'learning_rate': 0.0001, 'activation': 'relu'}
Blue
Model: "sequential"
_________________________________________________________________
Layer (type)                 Output Shape              Param #   
=================================================================
dense (Dense)                (None, 400)               4000400   
_________________________________________________________________
dropout (Dropout)            (None, 400)               0         
_________________________________________________________________
dense_1 (Dense)              (None, 400)               160400    
_________________________________________________________________
dropout_1 (Dropout)          (None, 400)               0         
_________________________________________________________________
dense_2 (Dense)              (None, 400)               160400    
_________________________________________________________________
dropout_2 (Dropout)          (None, 400)               0         
_________________________________________________________________
dense_3 (Dense)              (None, 1)                 401       
=================================================================
Total params: 4,321,601
Trainable params: 4,321,601
Non-trainable params: 0
_________________________________________________________________
None
Red
0.5224183371773627
Typer KerasRegressor
Hello world
{'HP_NUM_HIDDEN_LAYERS': 3, 'HP_L1_REG': 0.1, 'kernel_initializer': 'glorot_uniform', 'HP_L2_REG': 0.0001, 'rate': 0.1, 'HP_OPTIMIZER': 'Adam', 'units': 400, 'learning_rate': 0.001, 'activation': 'relu'}
Blue
Model: "sequential"
_________________________________________________________________
Layer (type)                 Output Shape              Param #   
=================================================================
dense (Dense)                (None, 400)               4000400   
_________________________________________________________________
dropout (Dropout)            (None, 400)               0         
_________________________________________________________________
dense_1 (Dense)              (None, 400)               160400    
_________________________________________________________________
dropout_1 (Dropout)          (None, 400)               0         
_________________________________________________________________
dense_2 (Dense)              (None, 400)               160400    
_________________________________________________________________
dropout_2 (Dropout)          (None, 400)               0         
_________________________________________________________________
dense_3 (Dense)              (None, 1)                 401       
=================================================================
Total params: 4,321,601
Trainable params: 4,321,601
Non-trainable params: 0
_________________________________________________________________
None
Red
-0.014549340775249942
Typer KerasRegressor
Hello world
{'HP_NUM_HIDDEN_LAYERS': 2, 'HP_L1_REG': 0.0001, 'kernel_initializer': 'glorot_uniform', 'HP_L2_REG': 0.0001, 'rate': 0.1, 'HP_OPTIMIZER': 'Adam', 'units': 400, 'learning_rate': 0.01, 'activation': 'relu'}
Blue
Model: "sequential"
_________________________________________________________________
Layer (type)                 Output Shape              Param #   
=================================================================
dense (Dense)                (None, 400)               4000400   
_________________________________________________________________
dropout (Dropout)            (None, 400)               0         
_________________________________________________________________
dense_1 (Dense)              (None, 400)               160400    
_________________________________________________________________
dropout_1 (Dropout)          (None, 400)               0         
_________________________________________________________________
dense_2 (Dense)              (None, 1)                 401       
=================================================================
Total params: 4,161,201
Trainable params: 4,161,201
Non-trainable params: 0
_________________________________________________________________
None
Red
0.5008431229741928
Typer KerasRegressor
Hello world
{'HP_NUM_HIDDEN_LAYERS': 2, 'HP_L1_REG': 0.01, 'kernel_initializer': 'glorot_uniform', 'HP_L2_REG': 0.0001, 'rate': 0.1, 'HP_OPTIMIZER': 'Adam', 'units': 1000, 'learning_rate': 0.001, 'activation': 'tanh'}
Blue
Model: "sequential"
_________________________________________________________________
Layer (type)                 Output Shape              Param #   
=================================================================
dense (Dense)                (None, 1000)              10001000  
_________________________________________________________________
dropout (Dropout)            (None, 1000)              0         
_________________________________________________________________
dense_1 (Dense)              (None, 1000)              1001000   
_________________________________________________________________
dropout_1 (Dropout)          (None, 1000)              0         
_________________________________________________________________
dense_2 (Dense)              (None, 1)                 1001      
=================================================================
Total params: 11,003,001
Trainable params: 11,003,001
Non-trainable params: 0
_________________________________________________________________
None
Red
0.4695346677803074
Typer KerasRegressor
Hello world
{'HP_NUM_HIDDEN_LAYERS': 2, 'HP_L1_REG': 0.0001, 'kernel_initializer': 'glorot_uniform', 'HP_L2_REG': 0.01, 'rate': 0.0, 'HP_OPTIMIZER': 'Adam', 'units': 400, 'learning_rate': 1e-05, 'activation': 'relu'}
Blue
Model: "sequential"
_________________________________________________________________
Layer (type)                 Output Shape              Param #   
=================================================================
dense (Dense)                (None, 400)               4000400   
_________________________________________________________________
dense_1 (Dense)              (None, 400)               160400    
_________________________________________________________________
dense_2 (Dense)              (None, 1)                 401       
=================================================================
Total params: 4,161,201
Trainable params: 4,161,201
Non-trainable params: 0
_________________________________________________________________
None
Red
0.37811645021156637
Typer KerasRegressor
Hello world
{'HP_NUM_HIDDEN_LAYERS': 4, 'HP_L1_REG': 0.1, 'kernel_initializer': 'glorot_uniform', 'HP_L2_REG': 0.2, 'rate': 0.5, 'HP_OPTIMIZER': 'Adam', 'units': 200, 'learning_rate': 0.001, 'activation': 'relu'}
Blue
Model: "sequential"
_________________________________________________________________
Layer (type)                 Output Shape              Param #   
=================================================================
dense (Dense)                (None, 200)               2000200   
_________________________________________________________________
dropout (Dropout)            (None, 200)               0         
_________________________________________________________________
dense_1 (Dense)              (None, 200)               40200     
_________________________________________________________________
dropout_1 (Dropout)          (None, 200)               0         
_________________________________________________________________
dense_2 (Dense)              (None, 200)               40200     
_________________________________________________________________
dropout_2 (Dropout)          (None, 200)               0         
_________________________________________________________________
dense_3 (Dense)              (None, 200)               40200     
_________________________________________________________________
dropout_3 (Dropout)          (None, 200)               0         
_________________________________________________________________
dense_4 (Dense)              (None, 1)                 201       
=================================================================
Total params: 2,121,001
Trainable params: 2,121,001
Non-trainable params: 0
_________________________________________________________________
None
Red
-0.01740544202192429
Typer KerasRegressor
Hello world
{'HP_NUM_HIDDEN_LAYERS': 5, 'HP_L1_REG': 0.01, 'kernel_initializer': 'glorot_uniform', 'HP_L2_REG': 0.0001, 'rate': 0.0, 'HP_OPTIMIZER': 'SGD', 'units': 400, 'learning_rate': 0.0001, 'activation': 'relu'}
Blue
Model: "sequential"
_________________________________________________________________
Layer (type)                 Output Shape              Param #   
=================================================================
dense (Dense)                (None, 400)               4000400   
_________________________________________________________________
dense_1 (Dense)              (None, 400)               160400    
_________________________________________________________________
dense_2 (Dense)              (None, 400)               160400    
_________________________________________________________________
dense_3 (Dense)              (None, 400)               160400    
_________________________________________________________________
dense_4 (Dense)              (None, 400)               160400    
_________________________________________________________________
dense_5 (Dense)              (None, 1)                 401       
=================================================================
Total params: 4,642,401
Trainable params: 4,642,401
Non-trainable params: 0
_________________________________________________________________
None
Red
-6.295818007101419
Typer KerasRegressor
Hello world
{'HP_NUM_HIDDEN_LAYERS': 2, 'HP_L1_REG': 0.01, 'kernel_initializer': 'glorot_uniform', 'HP_L2_REG': 0.01, 'rate': 0.0, 'HP_OPTIMIZER': 'Adam', 'units': 400, 'learning_rate': 1e-05, 'activation': 'tanh'}
Blue
Model: "sequential"
_________________________________________________________________
Layer (type)                 Output Shape              Param #   
=================================================================
dense (Dense)                (None, 400)               4000400   
_________________________________________________________________
dense_1 (Dense)              (None, 400)               160400    
_________________________________________________________________
dense_2 (Dense)              (None, 1)                 401       
=================================================================
Total params: 4,161,201
Trainable params: 4,161,201
Non-trainable params: 0
_________________________________________________________________
None
Red
-2.847518818209271
Typer KerasRegressor
Hello world
{'HP_NUM_HIDDEN_LAYERS': 2, 'HP_L1_REG': 0.001, 'kernel_initializer': 'glorot_uniform', 'HP_L2_REG': 0.0001, 'rate': 0.0, 'HP_OPTIMIZER': 'Adagrad', 'units': 1000, 'learning_rate': 1e-05, 'activation': 'relu'}
Blue
Model: "sequential"
_________________________________________________________________
Layer (type)                 Output Shape              Param #   
=================================================================
dense (Dense)                (None, 1000)              10001000  
_________________________________________________________________
dense_1 (Dense)              (None, 1000)              1001000   
_________________________________________________________________
dense_2 (Dense)              (None, 1)                 1001      
=================================================================
Total params: 11,003,001
Trainable params: 11,003,001
Non-trainable params: 0
_________________________________________________________________
None
Red
-8.203144175318618
Typer KerasRegressor
Hello world
{'HP_NUM_HIDDEN_LAYERS': 3, 'HP_L1_REG': 0.01, 'kernel_initializer': 'glorot_uniform', 'HP_L2_REG': 0.2, 'rate': 0.1, 'HP_OPTIMIZER': 'Adam', 'units': 400, 'learning_rate': 0.001, 'activation': 'relu'}
Blue
Model: "sequential"
_________________________________________________________________
Layer (type)                 Output Shape              Param #   
=================================================================
dense (Dense)                (None, 400)               4000400   
_________________________________________________________________
dropout (Dropout)            (None, 400)               0         
_________________________________________________________________
dense_1 (Dense)              (None, 400)               160400    
_________________________________________________________________
dropout_1 (Dropout)          (None, 400)               0         
_________________________________________________________________
dense_2 (Dense)              (None, 400)               160400    
_________________________________________________________________
dropout_2 (Dropout)          (None, 400)               0         
_________________________________________________________________
dense_3 (Dense)              (None, 1)                 401       
=================================================================
Total params: 4,321,601
Trainable params: 4,321,601
Non-trainable params: 0
_________________________________________________________________
None
Red
0.4957581773070384
Typer KerasRegressor
Hello world
INNER COUNT NO.  2
champ
(574, 10000)
(574, 10000)
Tusa
(574, 1)
{'HP_NUM_HIDDEN_LAYERS': 3, 'HP_L1_REG': 0.0001, 'kernel_initializer': 'glorot_uniform', 'HP_L2_REG': 0.2, 'rate': 0.1, 'HP_OPTIMIZER': 'SGD', 'units': 1000, 'learning_rate': 1e-05, 'activation': 'relu'}
Blue
Model: "sequential"
_________________________________________________________________
Layer (type)                 Output Shape              Param #   
=================================================================
dense (Dense)                (None, 1000)              10001000  
_________________________________________________________________
dropout (Dropout)            (None, 1000)              0         
_________________________________________________________________
dense_1 (Dense)              (None, 1000)              1001000   
_________________________________________________________________
dropout_1 (Dropout)          (None, 1000)              0         
_________________________________________________________________
dense_2 (Dense)              (None, 1000)              1001000   
_________________________________________________________________
dropout_2 (Dropout)          (None, 1000)              0         
_________________________________________________________________
dense_3 (Dense)              (None, 1)                 1001      
=================================================================
Total params: 12,004,001
Trainable params: 12,004,001
Non-trainable params: 0
_________________________________________________________________
None
Red
-7.948454002727376
Typer KerasRegressor
Hello world
{'HP_NUM_HIDDEN_LAYERS': 5, 'HP_L1_REG': 0.001, 'kernel_initializer': 'glorot_uniform', 'HP_L2_REG': 0.0001, 'rate': 0.2, 'HP_OPTIMIZER': 'Adam', 'units': 1000, 'learning_rate': 0.0001, 'activation': 'tanh'}
Blue
Model: "sequential"
_________________________________________________________________
Layer (type)                 Output Shape              Param #   
=================================================================
dense (Dense)                (None, 1000)              10001000  
_________________________________________________________________
dropout (Dropout)            (None, 1000)              0         
_________________________________________________________________
dense_1 (Dense)              (None, 1000)              1001000   
_________________________________________________________________
dropout_1 (Dropout)          (None, 1000)              0         
_________________________________________________________________
dense_2 (Dense)              (None, 1000)              1001000   
_________________________________________________________________
dropout_2 (Dropout)          (None, 1000)              0         
_________________________________________________________________
dense_3 (Dense)              (None, 1000)              1001000   
_________________________________________________________________
dropout_3 (Dropout)          (None, 1000)              0         
_________________________________________________________________
dense_4 (Dense)              (None, 1000)              1001000   
_________________________________________________________________
dropout_4 (Dropout)          (None, 1000)              0         
_________________________________________________________________
dense_5 (Dense)              (None, 1)                 1001      
=================================================================
Total params: 14,006,001
Trainable params: 14,006,001
Non-trainable params: 0
_________________________________________________________________
None
Red
0.4324285506351736
Typer KerasRegressor
Hello world
{'HP_NUM_HIDDEN_LAYERS': 5, 'HP_L1_REG': 0.001, 'kernel_initializer': 'glorot_uniform', 'HP_L2_REG': 1e-08, 'rate': 0.5, 'HP_OPTIMIZER': 'Adagrad', 'units': 400, 'learning_rate': 0.01, 'activation': 'relu'}
Blue
Model: "sequential"
_________________________________________________________________
Layer (type)                 Output Shape              Param #   
=================================================================
dense (Dense)                (None, 400)               4000400   
_________________________________________________________________
dropout (Dropout)            (None, 400)               0         
_________________________________________________________________
dense_1 (Dense)              (None, 400)               160400    
_________________________________________________________________
dropout_1 (Dropout)          (None, 400)               0         
_________________________________________________________________
dense_2 (Dense)              (None, 400)               160400    
_________________________________________________________________
dropout_2 (Dropout)          (None, 400)               0         
_________________________________________________________________
dense_3 (Dense)              (None, 400)               160400    
_________________________________________________________________
dropout_3 (Dropout)          (None, 400)               0         
_________________________________________________________________
dense_4 (Dense)              (None, 400)               160400    
_________________________________________________________________
dropout_4 (Dropout)          (None, 400)               0         
_________________________________________________________________
dense_5 (Dense)              (None, 1)                 401       
=================================================================
Total params: 4,642,401
Trainable params: 4,642,401
Non-trainable params: 0
_________________________________________________________________
None
Red
-0.278777376169949
Typer KerasRegressor
Hello world
{'HP_NUM_HIDDEN_LAYERS': 5, 'HP_L1_REG': 0.1, 'kernel_initializer': 'glorot_uniform', 'HP_L2_REG': 1e-08, 'rate': 0.5, 'HP_OPTIMIZER': 'SGD', 'units': 200, 'learning_rate': 0.001, 'activation': 'relu'}
Blue
Model: "sequential"
_________________________________________________________________
Layer (type)                 Output Shape              Param #   
=================================================================
dense (Dense)                (None, 200)               2000200   
_________________________________________________________________
dropout (Dropout)            (None, 200)               0         
_________________________________________________________________
dense_1 (Dense)              (None, 200)               40200     
_________________________________________________________________
dropout_1 (Dropout)          (None, 200)               0         
_________________________________________________________________
dense_2 (Dense)              (None, 200)               40200     
_________________________________________________________________
dropout_2 (Dropout)          (None, 200)               0         
_________________________________________________________________
dense_3 (Dense)              (None, 200)               40200     
_________________________________________________________________
dropout_3 (Dropout)          (None, 200)               0         
_________________________________________________________________
dense_4 (Dense)              (None, 200)               40200     
_________________________________________________________________
dropout_4 (Dropout)          (None, 200)               0         
_________________________________________________________________
dense_5 (Dense)              (None, 1)                 201       
=================================================================
Total params: 2,161,201
Trainable params: 2,161,201
Non-trainable params: 0
_________________________________________________________________
None
Red
-6.065127354010288
Typer KerasRegressor
Hello world
{'HP_NUM_HIDDEN_LAYERS': 2, 'HP_L1_REG': 0.001, 'kernel_initializer': 'glorot_uniform', 'HP_L2_REG': 0.0001, 'rate': 0.2, 'HP_OPTIMIZER': 'Adam', 'units': 200, 'learning_rate': 0.01, 'activation': 'tanh'}
Blue
Model: "sequential"
_________________________________________________________________
Layer (type)                 Output Shape              Param #   
=================================================================
dense (Dense)                (None, 200)               2000200   
_________________________________________________________________
dropout (Dropout)            (None, 200)               0         
_________________________________________________________________
dense_1 (Dense)              (None, 200)               40200     
_________________________________________________________________
dropout_1 (Dropout)          (None, 200)               0         
_________________________________________________________________
dense_2 (Dense)              (None, 1)                 201       
=================================================================
Total params: 2,040,601
Trainable params: 2,040,601
Non-trainable params: 0
_________________________________________________________________
None
Red
0.3873909106660486
Typer KerasRegressor
Hello world
{'HP_NUM_HIDDEN_LAYERS': 4, 'HP_L1_REG': 0.0001, 'kernel_initializer': 'glorot_uniform', 'HP_L2_REG': 0.2, 'rate': 0.0, 'HP_OPTIMIZER': 'Adam', 'units': 200, 'learning_rate': 0.01, 'activation': 'relu'}
Blue
Model: "sequential"
_________________________________________________________________
Layer (type)                 Output Shape              Param #   
=================================================================
dense (Dense)                (None, 200)               2000200   
_________________________________________________________________
dense_1 (Dense)              (None, 200)               40200     
_________________________________________________________________
dense_2 (Dense)              (None, 200)               40200     
_________________________________________________________________
dense_3 (Dense)              (None, 200)               40200     
_________________________________________________________________
dense_4 (Dense)              (None, 1)                 201       
=================================================================
Total params: 2,121,001
Trainable params: 2,121,001
Non-trainable params: 0
_________________________________________________________________
None
Red
0.40689143775847814
Typer KerasRegressor
Hello world
{'HP_NUM_HIDDEN_LAYERS': 5, 'HP_L1_REG': 0.01, 'kernel_initializer': 'glorot_uniform', 'HP_L2_REG': 1e-08, 'rate': 0.0, 'HP_OPTIMIZER': 'SGD', 'units': 400, 'learning_rate': 0.0001, 'activation': 'tanh'}
Blue
Model: "sequential"
_________________________________________________________________
Layer (type)                 Output Shape              Param #   
=================================================================
dense (Dense)                (None, 400)               4000400   
_________________________________________________________________
dense_1 (Dense)              (None, 400)               160400    
_________________________________________________________________
dense_2 (Dense)              (None, 400)               160400    
_________________________________________________________________
dense_3 (Dense)              (None, 400)               160400    
_________________________________________________________________
dense_4 (Dense)              (None, 400)               160400    
_________________________________________________________________
dense_5 (Dense)              (None, 1)                 401       
=================================================================
Total params: 4,642,401
Trainable params: 4,642,401
Non-trainable params: 0
_________________________________________________________________
None
Red
-1.0009580257514443
Typer KerasRegressor
Hello world
{'HP_NUM_HIDDEN_LAYERS': 4, 'HP_L1_REG': 0.01, 'kernel_initializer': 'glorot_uniform', 'HP_L2_REG': 1e-08, 'rate': 0.5, 'HP_OPTIMIZER': 'Adam', 'units': 200, 'learning_rate': 0.01, 'activation': 'tanh'}
Blue
Model: "sequential"
_________________________________________________________________
Layer (type)                 Output Shape              Param #   
=================================================================
dense (Dense)                (None, 200)               2000200   
_________________________________________________________________
dropout (Dropout)            (None, 200)               0         
_________________________________________________________________
dense_1 (Dense)              (None, 200)               40200     
_________________________________________________________________
dropout_1 (Dropout)          (None, 200)               0         
_________________________________________________________________
dense_2 (Dense)              (None, 200)               40200     
_________________________________________________________________
dropout_2 (Dropout)          (None, 200)               0         
_________________________________________________________________
dense_3 (Dense)              (None, 200)               40200     
_________________________________________________________________
dropout_3 (Dropout)          (None, 200)               0         
_________________________________________________________________
dense_4 (Dense)              (None, 1)                 201       
=================================================================
Total params: 2,121,001
Trainable params: 2,121,001
Non-trainable params: 0
_________________________________________________________________
None
Red
-0.03527516430306732
Typer KerasRegressor
Hello world
{'HP_NUM_HIDDEN_LAYERS': 2, 'HP_L1_REG': 0.001, 'kernel_initializer': 'glorot_uniform', 'HP_L2_REG': 0.01, 'rate': 0.1, 'HP_OPTIMIZER': 'SGD', 'units': 200, 'learning_rate': 0.01, 'activation': 'relu'}
Blue
Model: "sequential"
_________________________________________________________________
Layer (type)                 Output Shape              Param #   
=================================================================
dense (Dense)                (None, 200)               2000200   
_________________________________________________________________
dropout (Dropout)            (None, 200)               0         
_________________________________________________________________
dense_1 (Dense)              (None, 200)               40200     
_________________________________________________________________
dropout_1 (Dropout)          (None, 200)               0         
_________________________________________________________________
dense_2 (Dense)              (None, 1)                 201       
=================================================================
Total params: 2,040,601
Trainable params: 2,040,601
Non-trainable params: 0
_________________________________________________________________
None
Red
0.20901130885138874
Typer KerasRegressor
Hello world
{'HP_NUM_HIDDEN_LAYERS': 3, 'HP_L1_REG': 0.0001, 'kernel_initializer': 'glorot_uniform', 'HP_L2_REG': 0.2, 'rate': 0.1, 'HP_OPTIMIZER': 'Adam', 'units': 1000, 'learning_rate': 0.01, 'activation': 'relu'}
Blue
Model: "sequential"
_________________________________________________________________
Layer (type)                 Output Shape              Param #   
=================================================================
dense (Dense)                (None, 1000)              10001000  
_________________________________________________________________
dropout (Dropout)            (None, 1000)              0         
_________________________________________________________________
dense_1 (Dense)              (None, 1000)              1001000   
_________________________________________________________________
dropout_1 (Dropout)          (None, 1000)              0         
_________________________________________________________________
dense_2 (Dense)              (None, 1000)              1001000   
_________________________________________________________________
dropout_2 (Dropout)          (None, 1000)              0         
_________________________________________________________________
dense_3 (Dense)              (None, 1)                 1001      
=================================================================
Total params: 12,004,001
Trainable params: 12,004,001
Non-trainable params: 0
_________________________________________________________________
None
Red
0.38996696043027657
Typer KerasRegressor
Hello world
{'HP_NUM_HIDDEN_LAYERS': 3, 'HP_L1_REG': 0.0001, 'kernel_initializer': 'glorot_uniform', 'HP_L2_REG': 0.2, 'rate': 0.0, 'HP_OPTIMIZER': 'Adagrad', 'units': 1000, 'learning_rate': 0.0001, 'activation': 'tanh'}
Blue
Model: "sequential"
_________________________________________________________________
Layer (type)                 Output Shape              Param #   
=================================================================
dense (Dense)                (None, 1000)              10001000  
_________________________________________________________________
dense_1 (Dense)              (None, 1000)              1001000   
_________________________________________________________________
dense_2 (Dense)              (None, 1000)              1001000   
_________________________________________________________________
dense_3 (Dense)              (None, 1)                 1001      
=================================================================
Total params: 12,004,001
Trainable params: 12,004,001
Non-trainable params: 0
_________________________________________________________________
None
Red
-1.4959040492922413
Typer KerasRegressor
Hello world
{'HP_NUM_HIDDEN_LAYERS': 3, 'HP_L1_REG': 0.01, 'kernel_initializer': 'glorot_uniform', 'HP_L2_REG': 1e-08, 'rate': 0.1, 'HP_OPTIMIZER': 'Adam', 'units': 200, 'learning_rate': 1e-05, 'activation': 'tanh'}
Blue
Model: "sequential"
_________________________________________________________________
Layer (type)                 Output Shape              Param #   
=================================================================
dense (Dense)                (None, 200)               2000200   
_________________________________________________________________
dropout (Dropout)            (None, 200)               0         
_________________________________________________________________
dense_1 (Dense)              (None, 200)               40200     
_________________________________________________________________
dropout_1 (Dropout)          (None, 200)               0         
_________________________________________________________________
dense_2 (Dense)              (None, 200)               40200     
_________________________________________________________________
dropout_2 (Dropout)          (None, 200)               0         
_________________________________________________________________
dense_3 (Dense)              (None, 1)                 201       
=================================================================
Total params: 2,080,801
Trainable params: 2,080,801
Non-trainable params: 0
_________________________________________________________________
None
Red
-4.271245363693873
Typer KerasRegressor
Hello world
{'HP_NUM_HIDDEN_LAYERS': 5, 'HP_L1_REG': 0.0001, 'kernel_initializer': 'glorot_uniform', 'HP_L2_REG': 0.01, 'rate': 0.1, 'HP_OPTIMIZER': 'Adam', 'units': 1000, 'learning_rate': 0.0001, 'activation': 'relu'}
Blue
Model: "sequential"
_________________________________________________________________
Layer (type)                 Output Shape              Param #   
=================================================================
dense (Dense)                (None, 1000)              10001000  
_________________________________________________________________
dropout (Dropout)            (None, 1000)              0         
_________________________________________________________________
dense_1 (Dense)              (None, 1000)              1001000   
_________________________________________________________________
dropout_1 (Dropout)          (None, 1000)              0         
_________________________________________________________________
dense_2 (Dense)              (None, 1000)              1001000   
_________________________________________________________________
dropout_2 (Dropout)          (None, 1000)              0         
_________________________________________________________________
dense_3 (Dense)              (None, 1000)              1001000   
_________________________________________________________________
dropout_3 (Dropout)          (None, 1000)              0         
_________________________________________________________________
dense_4 (Dense)              (None, 1000)              1001000   
_________________________________________________________________
dropout_4 (Dropout)          (None, 1000)              0         
_________________________________________________________________
dense_5 (Dense)              (None, 1)                 1001      
=================================================================
Total params: 14,006,001
Trainable params: 14,006,001
Non-trainable params: 0
_________________________________________________________________
None
Red
0.45358445589503726
Typer KerasRegressor
Hello world
{'HP_NUM_HIDDEN_LAYERS': 3, 'HP_L1_REG': 0.0001, 'kernel_initializer': 'glorot_uniform', 'HP_L2_REG': 0.0001, 'rate': 0.0, 'HP_OPTIMIZER': 'SGD', 'units': 1000, 'learning_rate': 1e-05, 'activation': 'tanh'}
Blue
Model: "sequential"
_________________________________________________________________
Layer (type)                 Output Shape              Param #   
=================================================================
dense (Dense)                (None, 1000)              10001000  
_________________________________________________________________
dense_1 (Dense)              (None, 1000)              1001000   
_________________________________________________________________
dense_2 (Dense)              (None, 1000)              1001000   
_________________________________________________________________
dense_3 (Dense)              (None, 1)                 1001      
=================================================================
Total params: 12,004,001
Trainable params: 12,004,001
Non-trainable params: 0
_________________________________________________________________
None
Red
-7.2176048813167135
Typer KerasRegressor
Hello world
{'HP_NUM_HIDDEN_LAYERS': 2, 'HP_L1_REG': 0.0001, 'kernel_initializer': 'glorot_uniform', 'HP_L2_REG': 0.2, 'rate': 0.1, 'HP_OPTIMIZER': 'SGD', 'units': 1000, 'learning_rate': 1e-05, 'activation': 'tanh'}
Blue
Model: "sequential"
_________________________________________________________________
Layer (type)                 Output Shape              Param #   
=================================================================
dense (Dense)                (None, 1000)              10001000  
_________________________________________________________________
dropout (Dropout)            (None, 1000)              0         
_________________________________________________________________
dense_1 (Dense)              (None, 1000)              1001000   
_________________________________________________________________
dropout_1 (Dropout)          (None, 1000)              0         
_________________________________________________________________
dense_2 (Dense)              (None, 1)                 1001      
=================================================================
Total params: 11,003,001
Trainable params: 11,003,001
Non-trainable params: 0
_________________________________________________________________
None
Red
-7.451851172932393
Typer KerasRegressor
Hello world
{'HP_NUM_HIDDEN_LAYERS': 3, 'HP_L1_REG': 0.1, 'kernel_initializer': 'glorot_uniform', 'HP_L2_REG': 0.2, 'rate': 0.5, 'HP_OPTIMIZER': 'SGD', 'units': 400, 'learning_rate': 0.01, 'activation': 'relu'}
Blue
Model: "sequential"
_________________________________________________________________
Layer (type)                 Output Shape              Param #   
=================================================================
dense (Dense)                (None, 400)               4000400   
_________________________________________________________________
dropout (Dropout)            (None, 400)               0         
_________________________________________________________________
dense_1 (Dense)              (None, 400)               160400    
_________________________________________________________________
dropout_1 (Dropout)          (None, 400)               0         
_________________________________________________________________
dense_2 (Dense)              (None, 400)               160400    
_________________________________________________________________
dropout_2 (Dropout)          (None, 400)               0         
_________________________________________________________________
dense_3 (Dense)              (None, 1)                 401       
=================================================================
Total params: 4,321,601
Trainable params: 4,321,601
Non-trainable params: 0
_________________________________________________________________
None
Red
-0.042919141350800105
Typer KerasRegressor
Hello world
{'HP_NUM_HIDDEN_LAYERS': 2, 'HP_L1_REG': 0.01, 'kernel_initializer': 'glorot_uniform', 'HP_L2_REG': 0.0001, 'rate': 0.1, 'HP_OPTIMIZER': 'Adam', 'units': 1000, 'learning_rate': 1e-05, 'activation': 'relu'}
Blue
Model: "sequential"
_________________________________________________________________
Layer (type)                 Output Shape              Param #   
=================================================================
dense (Dense)                (None, 1000)              10001000  
_________________________________________________________________
dropout (Dropout)            (None, 1000)              0         
_________________________________________________________________
dense_1 (Dense)              (None, 1000)              1001000   
_________________________________________________________________
dropout_1 (Dropout)          (None, 1000)              0         
_________________________________________________________________
dense_2 (Dense)              (None, 1)                 1001      
=================================================================
Total params: 11,003,001
Trainable params: 11,003,001
Non-trainable params: 0
_________________________________________________________________
None
Red
-0.008577041404524754
Typer KerasRegressor
Hello world
{'HP_NUM_HIDDEN_LAYERS': 4, 'HP_L1_REG': 0.1, 'kernel_initializer': 'glorot_uniform', 'HP_L2_REG': 1e-08, 'rate': 0.5, 'HP_OPTIMIZER': 'Adagrad', 'units': 200, 'learning_rate': 1e-05, 'activation': 'tanh'}
Blue
Model: "sequential"
_________________________________________________________________
Layer (type)                 Output Shape              Param #   
=================================================================
dense (Dense)                (None, 200)               2000200   
_________________________________________________________________
dropout (Dropout)            (None, 200)               0         
_________________________________________________________________
dense_1 (Dense)              (None, 200)               40200     
_________________________________________________________________
dropout_1 (Dropout)          (None, 200)               0         
_________________________________________________________________
dense_2 (Dense)              (None, 200)               40200     
_________________________________________________________________
dropout_2 (Dropout)          (None, 200)               0         
_________________________________________________________________
dense_3 (Dense)              (None, 200)               40200     
_________________________________________________________________
dropout_3 (Dropout)          (None, 200)               0         
_________________________________________________________________
dense_4 (Dense)              (None, 1)                 201       
=================================================================
Total params: 2,121,001
Trainable params: 2,121,001
Non-trainable params: 0
_________________________________________________________________
None
Red
-7.946025984849438
Typer KerasRegressor
Hello world
{'HP_NUM_HIDDEN_LAYERS': 5, 'HP_L1_REG': 0.01, 'kernel_initializer': 'glorot_uniform', 'HP_L2_REG': 0.2, 'rate': 0.5, 'HP_OPTIMIZER': 'Adam', 'units': 200, 'learning_rate': 0.001, 'activation': 'relu'}
Blue
Model: "sequential"
_________________________________________________________________
Layer (type)                 Output Shape              Param #   
=================================================================
dense (Dense)                (None, 200)               2000200   
_________________________________________________________________
dropout (Dropout)            (None, 200)               0         
_________________________________________________________________
dense_1 (Dense)              (None, 200)               40200     
_________________________________________________________________
dropout_1 (Dropout)          (None, 200)               0         
_________________________________________________________________
dense_2 (Dense)              (None, 200)               40200     
_________________________________________________________________
dropout_2 (Dropout)          (None, 200)               0         
_________________________________________________________________
dense_3 (Dense)              (None, 200)               40200     
_________________________________________________________________
dropout_3 (Dropout)          (None, 200)               0         
_________________________________________________________________
dense_4 (Dense)              (None, 200)               40200     
_________________________________________________________________
dropout_4 (Dropout)          (None, 200)               0         
_________________________________________________________________
dense_5 (Dense)              (None, 1)                 201       
=================================================================
Total params: 2,161,201
Trainable params: 2,161,201
Non-trainable params: 0
_________________________________________________________________
None
Red
0.35377567005377364
Typer KerasRegressor
Hello world
{'HP_NUM_HIDDEN_LAYERS': 3, 'HP_L1_REG': 0.001, 'kernel_initializer': 'glorot_uniform', 'HP_L2_REG': 0.01, 'rate': 0.1, 'HP_OPTIMIZER': 'Adam', 'units': 200, 'learning_rate': 0.01, 'activation': 'tanh'}
Blue
Model: "sequential"
_________________________________________________________________
Layer (type)                 Output Shape              Param #   
=================================================================
dense (Dense)                (None, 200)               2000200   
_________________________________________________________________
dropout (Dropout)            (None, 200)               0         
_________________________________________________________________
dense_1 (Dense)              (None, 200)               40200     
_________________________________________________________________
dropout_1 (Dropout)          (None, 200)               0         
_________________________________________________________________
dense_2 (Dense)              (None, 200)               40200     
_________________________________________________________________
dropout_2 (Dropout)          (None, 200)               0         
_________________________________________________________________
dense_3 (Dense)              (None, 1)                 201       
=================================================================
Total params: 2,080,801
Trainable params: 2,080,801
Non-trainable params: 0
_________________________________________________________________
None
Red
0.405994647814511
Typer KerasRegressor
Hello world
{'HP_NUM_HIDDEN_LAYERS': 5, 'HP_L1_REG': 0.01, 'kernel_initializer': 'glorot_uniform', 'HP_L2_REG': 1e-08, 'rate': 0.5, 'HP_OPTIMIZER': 'Adam', 'units': 400, 'learning_rate': 1e-05, 'activation': 'relu'}
Blue
Model: "sequential"
_________________________________________________________________
Layer (type)                 Output Shape              Param #   
=================================================================
dense (Dense)                (None, 400)               4000400   
_________________________________________________________________
dropout (Dropout)            (None, 400)               0         
_________________________________________________________________
dense_1 (Dense)              (None, 400)               160400    
_________________________________________________________________
dropout_1 (Dropout)          (None, 400)               0         
_________________________________________________________________
dense_2 (Dense)              (None, 400)               160400    
_________________________________________________________________
dropout_2 (Dropout)          (None, 400)               0         
_________________________________________________________________
dense_3 (Dense)              (None, 400)               160400    
_________________________________________________________________
dropout_3 (Dropout)          (None, 400)               0         
_________________________________________________________________
dense_4 (Dense)              (None, 400)               160400    
_________________________________________________________________
dropout_4 (Dropout)          (None, 400)               0         
_________________________________________________________________
dense_5 (Dense)              (None, 1)                 401       
=================================================================
Total params: 4,642,401
Trainable params: 4,642,401
Non-trainable params: 0
_________________________________________________________________
None
Red
0.105668545729655
Typer KerasRegressor
Hello world
{'HP_NUM_HIDDEN_LAYERS': 2, 'HP_L1_REG': 0.1, 'kernel_initializer': 'glorot_uniform', 'HP_L2_REG': 1e-08, 'rate': 0.1, 'HP_OPTIMIZER': 'Adam', 'units': 1000, 'learning_rate': 0.01, 'activation': 'relu'}
Blue
Model: "sequential"
_________________________________________________________________
Layer (type)                 Output Shape              Param #   
=================================================================
dense (Dense)                (None, 1000)              10001000  
_________________________________________________________________
dropout (Dropout)            (None, 1000)              0         
_________________________________________________________________
dense_1 (Dense)              (None, 1000)              1001000   
_________________________________________________________________
dropout_1 (Dropout)          (None, 1000)              0         
_________________________________________________________________
dense_2 (Dense)              (None, 1)                 1001      
=================================================================
Total params: 11,003,001
Trainable params: 11,003,001
Non-trainable params: 0
_________________________________________________________________
None
Red
0.19869041942517407
Typer KerasRegressor
Hello world
{'HP_NUM_HIDDEN_LAYERS': 5, 'HP_L1_REG': 0.001, 'kernel_initializer': 'glorot_uniform', 'HP_L2_REG': 0.2, 'rate': 0.0, 'HP_OPTIMIZER': 'Adagrad', 'units': 200, 'learning_rate': 0.001, 'activation': 'relu'}
Blue
Model: "sequential"
_________________________________________________________________
Layer (type)                 Output Shape              Param #   
=================================================================
dense (Dense)                (None, 200)               2000200   
_________________________________________________________________
dense_1 (Dense)              (None, 200)               40200     
_________________________________________________________________
dense_2 (Dense)              (None, 200)               40200     
_________________________________________________________________
dense_3 (Dense)              (None, 200)               40200     
_________________________________________________________________
dense_4 (Dense)              (None, 200)               40200     
_________________________________________________________________
dense_5 (Dense)              (None, 1)                 201       
=================================================================
Total params: 2,161,201
Trainable params: 2,161,201
Non-trainable params: 0
_________________________________________________________________
None
Red
0.41332986979782016
Typer KerasRegressor
Hello world
{'HP_NUM_HIDDEN_LAYERS': 3, 'HP_L1_REG': 0.1, 'kernel_initializer': 'glorot_uniform', 'HP_L2_REG': 0.01, 'rate': 0.0, 'HP_OPTIMIZER': 'Adagrad', 'units': 200, 'learning_rate': 1e-05, 'activation': 'relu'}
Blue
Model: "sequential"
_________________________________________________________________
Layer (type)                 Output Shape              Param #   
=================================================================
dense (Dense)                (None, 200)               2000200   
_________________________________________________________________
dense_1 (Dense)              (None, 200)               40200     
_________________________________________________________________
dense_2 (Dense)              (None, 200)               40200     
_________________________________________________________________
dense_3 (Dense)              (None, 1)                 201       
=================================================================
Total params: 2,080,801
Trainable params: 2,080,801
Non-trainable params: 0
_________________________________________________________________
None
Red
-8.029500218552545
Typer KerasRegressor
Hello world
{'HP_NUM_HIDDEN_LAYERS': 3, 'HP_L1_REG': 0.0001, 'kernel_initializer': 'glorot_uniform', 'HP_L2_REG': 1e-08, 'rate': 0.2, 'HP_OPTIMIZER': 'Adam', 'units': 200, 'learning_rate': 1e-05, 'activation': 'relu'}
Blue
Model: "sequential"
_________________________________________________________________
Layer (type)                 Output Shape              Param #   
=================================================================
dense (Dense)                (None, 200)               2000200   
_________________________________________________________________
dropout (Dropout)            (None, 200)               0         
_________________________________________________________________
dense_1 (Dense)              (None, 200)               40200     
_________________________________________________________________
dropout_1 (Dropout)          (None, 200)               0         
_________________________________________________________________
dense_2 (Dense)              (None, 200)               40200     
_________________________________________________________________
dropout_2 (Dropout)          (None, 200)               0         
_________________________________________________________________
dense_3 (Dense)              (None, 1)                 201       
=================================================================
Total params: 2,080,801
Trainable params: 2,080,801
Non-trainable params: 0
_________________________________________________________________
None
Red
0.26433850669879977
Typer KerasRegressor
Hello world
{'HP_NUM_HIDDEN_LAYERS': 4, 'HP_L1_REG': 0.001, 'kernel_initializer': 'glorot_uniform', 'HP_L2_REG': 0.2, 'rate': 0.2, 'HP_OPTIMIZER': 'Adam', 'units': 200, 'learning_rate': 0.01, 'activation': 'relu'}
Blue
Model: "sequential"
_________________________________________________________________
Layer (type)                 Output Shape              Param #   
=================================================================
dense (Dense)                (None, 200)               2000200   
_________________________________________________________________
dropout (Dropout)            (None, 200)               0         
_________________________________________________________________
dense_1 (Dense)              (None, 200)               40200     
_________________________________________________________________
dropout_1 (Dropout)          (None, 200)               0         
_________________________________________________________________
dense_2 (Dense)              (None, 200)               40200     
_________________________________________________________________
dropout_2 (Dropout)          (None, 200)               0         
_________________________________________________________________
dense_3 (Dense)              (None, 200)               40200     
_________________________________________________________________
dropout_3 (Dropout)          (None, 200)               0         
_________________________________________________________________
dense_4 (Dense)              (None, 1)                 201       
=================================================================
Total params: 2,121,001
Trainable params: 2,121,001
Non-trainable params: 0
_________________________________________________________________
None
Red
0.24274938768159937
Typer KerasRegressor
Hello world
{'HP_NUM_HIDDEN_LAYERS': 4, 'HP_L1_REG': 0.001, 'kernel_initializer': 'glorot_uniform', 'HP_L2_REG': 1e-08, 'rate': 0.5, 'HP_OPTIMIZER': 'Adagrad', 'units': 1000, 'learning_rate': 0.001, 'activation': 'tanh'}
Blue
Model: "sequential"
_________________________________________________________________
Layer (type)                 Output Shape              Param #   
=================================================================
dense (Dense)                (None, 1000)              10001000  
_________________________________________________________________
dropout (Dropout)            (None, 1000)              0         
_________________________________________________________________
dense_1 (Dense)              (None, 1000)              1001000   
_________________________________________________________________
dropout_1 (Dropout)          (None, 1000)              0         
_________________________________________________________________
dense_2 (Dense)              (None, 1000)              1001000   
_________________________________________________________________
dropout_2 (Dropout)          (None, 1000)              0         
_________________________________________________________________
dense_3 (Dense)              (None, 1000)              1001000   
_________________________________________________________________
dropout_3 (Dropout)          (None, 1000)              0         
_________________________________________________________________
dense_4 (Dense)              (None, 1)                 1001      
=================================================================
Total params: 13,005,001
Trainable params: 13,005,001
Non-trainable params: 0
_________________________________________________________________
None
Red
-0.02642096245105474
Typer KerasRegressor
Hello world
{'HP_NUM_HIDDEN_LAYERS': 5, 'HP_L1_REG': 0.0001, 'kernel_initializer': 'glorot_uniform', 'HP_L2_REG': 0.0001, 'rate': 0.2, 'HP_OPTIMIZER': 'Adam', 'units': 1000, 'learning_rate': 0.0001, 'activation': 'relu'}
Blue
Model: "sequential"
_________________________________________________________________
Layer (type)                 Output Shape              Param #   
=================================================================
dense (Dense)                (None, 1000)              10001000  
_________________________________________________________________
dropout (Dropout)            (None, 1000)              0         
_________________________________________________________________
dense_1 (Dense)              (None, 1000)              1001000   
_________________________________________________________________
dropout_1 (Dropout)          (None, 1000)              0         
_________________________________________________________________
dense_2 (Dense)              (None, 1000)              1001000   
_________________________________________________________________
dropout_2 (Dropout)          (None, 1000)              0         
_________________________________________________________________
dense_3 (Dense)              (None, 1000)              1001000   
_________________________________________________________________
dropout_3 (Dropout)          (None, 1000)              0         
_________________________________________________________________
dense_4 (Dense)              (None, 1000)              1001000   
_________________________________________________________________
dropout_4 (Dropout)          (None, 1000)              0         
_________________________________________________________________
dense_5 (Dense)              (None, 1)                 1001      
=================================================================
Total params: 14,006,001
Trainable params: 14,006,001
Non-trainable params: 0
_________________________________________________________________
None
Red
0.45099650313052586
Typer KerasRegressor
Hello world
{'HP_NUM_HIDDEN_LAYERS': 4, 'HP_L1_REG': 0.001, 'kernel_initializer': 'glorot_uniform', 'HP_L2_REG': 0.0001, 'rate': 0.1, 'HP_OPTIMIZER': 'Adagrad', 'units': 400, 'learning_rate': 1e-05, 'activation': 'tanh'}
Blue
Model: "sequential"
_________________________________________________________________
Layer (type)                 Output Shape              Param #   
=================================================================
dense (Dense)                (None, 400)               4000400   
_________________________________________________________________
dropout (Dropout)            (None, 400)               0         
_________________________________________________________________
dense_1 (Dense)              (None, 400)               160400    
_________________________________________________________________
dropout_1 (Dropout)          (None, 400)               0         
_________________________________________________________________
dense_2 (Dense)              (None, 400)               160400    
_________________________________________________________________
dropout_2 (Dropout)          (None, 400)               0         
_________________________________________________________________
dense_3 (Dense)              (None, 400)               160400    
_________________________________________________________________
dropout_3 (Dropout)          (None, 400)               0         
_________________________________________________________________
dense_4 (Dense)              (None, 1)                 401       
=================================================================
Total params: 4,482,001
Trainable params: 4,482,001
Non-trainable params: 0
_________________________________________________________________
None
Red
-7.358683183822647
Typer KerasRegressor
Hello world
{'HP_NUM_HIDDEN_LAYERS': 2, 'HP_L1_REG': 0.1, 'kernel_initializer': 'glorot_uniform', 'HP_L2_REG': 0.0001, 'rate': 0.5, 'HP_OPTIMIZER': 'Adagrad', 'units': 1000, 'learning_rate': 0.0001, 'activation': 'relu'}
Blue
Model: "sequential"
_________________________________________________________________
Layer (type)                 Output Shape              Param #   
=================================================================
dense (Dense)                (None, 1000)              10001000  
_________________________________________________________________
dropout (Dropout)            (None, 1000)              0         
_________________________________________________________________
dense_1 (Dense)              (None, 1000)              1001000   
_________________________________________________________________
dropout_1 (Dropout)          (None, 1000)              0         
_________________________________________________________________
dense_2 (Dense)              (None, 1)                 1001      
=================================================================
Total params: 11,003,001
Trainable params: 11,003,001
Non-trainable params: 0
_________________________________________________________________
None
Red
-7.98613444228498
Typer KerasRegressor
Hello world
{'HP_NUM_HIDDEN_LAYERS': 5, 'HP_L1_REG': 0.01, 'kernel_initializer': 'glorot_uniform', 'HP_L2_REG': 0.0001, 'rate': 0.5, 'HP_OPTIMIZER': 'Adam', 'units': 200, 'learning_rate': 1e-05, 'activation': 'relu'}
Blue
Model: "sequential"
_________________________________________________________________
Layer (type)                 Output Shape              Param #   
=================================================================
dense (Dense)                (None, 200)               2000200   
_________________________________________________________________
dropout (Dropout)            (None, 200)               0         
_________________________________________________________________
dense_1 (Dense)              (None, 200)               40200     
_________________________________________________________________
dropout_1 (Dropout)          (None, 200)               0         
_________________________________________________________________
dense_2 (Dense)              (None, 200)               40200     
_________________________________________________________________
dropout_2 (Dropout)          (None, 200)               0         
_________________________________________________________________
dense_3 (Dense)              (None, 200)               40200     
_________________________________________________________________
dropout_3 (Dropout)          (None, 200)               0         
_________________________________________________________________
dense_4 (Dense)              (None, 200)               40200     
_________________________________________________________________
dropout_4 (Dropout)          (None, 200)               0         
_________________________________________________________________
dense_5 (Dense)              (None, 1)                 201       
=================================================================
Total params: 2,161,201
Trainable params: 2,161,201
Non-trainable params: 0
_________________________________________________________________
None
Red
-0.2689435301006682
Typer KerasRegressor
Hello world
{'HP_NUM_HIDDEN_LAYERS': 4, 'HP_L1_REG': 0.01, 'kernel_initializer': 'glorot_uniform', 'HP_L2_REG': 0.2, 'rate': 0.0, 'HP_OPTIMIZER': 'Adam', 'units': 1000, 'learning_rate': 0.01, 'activation': 'tanh'}
Blue
Model: "sequential"
_________________________________________________________________
Layer (type)                 Output Shape              Param #   
=================================================================
dense (Dense)                (None, 1000)              10001000  
_________________________________________________________________
dense_1 (Dense)              (None, 1000)              1001000   
_________________________________________________________________
dense_2 (Dense)              (None, 1000)              1001000   
_________________________________________________________________
dense_3 (Dense)              (None, 1000)              1001000   
_________________________________________________________________
dense_4 (Dense)              (None, 1)                 1001      
=================================================================
Total params: 13,005,001
Trainable params: 13,005,001
Non-trainable params: 0
_________________________________________________________________
None
Red
-0.02917539157352178
Typer KerasRegressor
Hello world
{'HP_NUM_HIDDEN_LAYERS': 5, 'HP_L1_REG': 0.001, 'kernel_initializer': 'glorot_uniform', 'HP_L2_REG': 1e-08, 'rate': 0.2, 'HP_OPTIMIZER': 'Adam', 'units': 200, 'learning_rate': 0.001, 'activation': 'relu'}
Blue
Model: "sequential"
_________________________________________________________________
Layer (type)                 Output Shape              Param #   
=================================================================
dense (Dense)                (None, 200)               2000200   
_________________________________________________________________
dropout (Dropout)            (None, 200)               0         
_________________________________________________________________
dense_1 (Dense)              (None, 200)               40200     
_________________________________________________________________
dropout_1 (Dropout)          (None, 200)               0         
_________________________________________________________________
dense_2 (Dense)              (None, 200)               40200     
_________________________________________________________________
dropout_2 (Dropout)          (None, 200)               0         
_________________________________________________________________
dense_3 (Dense)              (None, 200)               40200     
_________________________________________________________________
dropout_3 (Dropout)          (None, 200)               0         
_________________________________________________________________
dense_4 (Dense)              (None, 200)               40200     
_________________________________________________________________
dropout_4 (Dropout)          (None, 200)               0         
_________________________________________________________________
dense_5 (Dense)              (None, 1)                 201       
=================================================================
Total params: 2,161,201
Trainable params: 2,161,201
Non-trainable params: 0
_________________________________________________________________
None
Red
0.4191820573174071
Typer KerasRegressor
Hello world
{'HP_NUM_HIDDEN_LAYERS': 3, 'HP_L1_REG': 0.0001, 'kernel_initializer': 'glorot_uniform', 'HP_L2_REG': 0.0001, 'rate': 0.2, 'HP_OPTIMIZER': 'Adam', 'units': 200, 'learning_rate': 0.01, 'activation': 'tanh'}
Blue
Model: "sequential"
_________________________________________________________________
Layer (type)                 Output Shape              Param #   
=================================================================
dense (Dense)                (None, 200)               2000200   
_________________________________________________________________
dropout (Dropout)            (None, 200)               0         
_________________________________________________________________
dense_1 (Dense)              (None, 200)               40200     
_________________________________________________________________
dropout_1 (Dropout)          (None, 200)               0         
_________________________________________________________________
dense_2 (Dense)              (None, 200)               40200     
_________________________________________________________________
dropout_2 (Dropout)          (None, 200)               0         
_________________________________________________________________
dense_3 (Dense)              (None, 1)                 201       
=================================================================
Total params: 2,080,801
Trainable params: 2,080,801
Non-trainable params: 0
_________________________________________________________________
None
Red
-0.028536011175603004
Typer KerasRegressor
Hello world
{'HP_NUM_HIDDEN_LAYERS': 5, 'HP_L1_REG': 0.1, 'kernel_initializer': 'glorot_uniform', 'HP_L2_REG': 0.01, 'rate': 0.0, 'HP_OPTIMIZER': 'SGD', 'units': 400, 'learning_rate': 0.0001, 'activation': 'relu'}
Blue
Model: "sequential"
_________________________________________________________________
Layer (type)                 Output Shape              Param #   
=================================================================
dense (Dense)                (None, 400)               4000400   
_________________________________________________________________
dense_1 (Dense)              (None, 400)               160400    
_________________________________________________________________
dense_2 (Dense)              (None, 400)               160400    
_________________________________________________________________
dense_3 (Dense)              (None, 400)               160400    
_________________________________________________________________
dense_4 (Dense)              (None, 400)               160400    
_________________________________________________________________
dense_5 (Dense)              (None, 1)                 401       
=================================================================
Total params: 4,642,401
Trainable params: 4,642,401
Non-trainable params: 0
_________________________________________________________________
None
Red
-7.976436557796596
Typer KerasRegressor
Hello world
{'HP_NUM_HIDDEN_LAYERS': 2, 'HP_L1_REG': 0.1, 'kernel_initializer': 'glorot_uniform', 'HP_L2_REG': 0.01, 'rate': 0.5, 'HP_OPTIMIZER': 'SGD', 'units': 200, 'learning_rate': 0.0001, 'activation': 'relu'}
Blue
Model: "sequential"
_________________________________________________________________
Layer (type)                 Output Shape              Param #   
=================================================================
dense (Dense)                (None, 200)               2000200   
_________________________________________________________________
dropout (Dropout)            (None, 200)               0         
_________________________________________________________________
dense_1 (Dense)              (None, 200)               40200     
_________________________________________________________________
dropout_1 (Dropout)          (None, 200)               0         
_________________________________________________________________
dense_2 (Dense)              (None, 1)                 201       
=================================================================
Total params: 2,040,601
Trainable params: 2,040,601
Non-trainable params: 0
_________________________________________________________________
None
Red
-7.05058950258077
Typer KerasRegressor
Hello world
{'HP_NUM_HIDDEN_LAYERS': 4, 'HP_L1_REG': 0.001, 'kernel_initializer': 'glorot_uniform', 'HP_L2_REG': 0.01, 'rate': 0.5, 'HP_OPTIMIZER': 'Adagrad', 'units': 400, 'learning_rate': 0.0001, 'activation': 'tanh'}
Blue
Model: "sequential"
_________________________________________________________________
Layer (type)                 Output Shape              Param #   
=================================================================
dense (Dense)                (None, 400)               4000400   
_________________________________________________________________
dropout (Dropout)            (None, 400)               0         
_________________________________________________________________
dense_1 (Dense)              (None, 400)               160400    
_________________________________________________________________
dropout_1 (Dropout)          (None, 400)               0         
_________________________________________________________________
dense_2 (Dense)              (None, 400)               160400    
_________________________________________________________________
dropout_2 (Dropout)          (None, 400)               0         
_________________________________________________________________
dense_3 (Dense)              (None, 400)               160400    
_________________________________________________________________
dropout_3 (Dropout)          (None, 400)               0         
_________________________________________________________________
dense_4 (Dense)              (None, 1)                 401       
=================================================================
Total params: 4,482,001
Trainable params: 4,482,001
Non-trainable params: 0
_________________________________________________________________
None
Red
-3.660946426322081
Typer KerasRegressor
Hello world
{'HP_NUM_HIDDEN_LAYERS': 2, 'HP_L1_REG': 0.0001, 'kernel_initializer': 'glorot_uniform', 'HP_L2_REG': 1e-08, 'rate': 0.5, 'HP_OPTIMIZER': 'Adam', 'units': 1000, 'learning_rate': 1e-05, 'activation': 'relu'}
Blue
Model: "sequential"
_________________________________________________________________
Layer (type)                 Output Shape              Param #   
=================================================================
dense (Dense)                (None, 1000)              10001000  
_________________________________________________________________
dropout (Dropout)            (None, 1000)              0         
_________________________________________________________________
dense_1 (Dense)              (None, 1000)              1001000   
_________________________________________________________________
dropout_1 (Dropout)          (None, 1000)              0         
_________________________________________________________________
dense_2 (Dense)              (None, 1)                 1001      
=================================================================
Total params: 11,003,001
Trainable params: 11,003,001
Non-trainable params: 0
_________________________________________________________________
None
Red
0.4661823079417998
Typer KerasRegressor
Hello world
{'HP_NUM_HIDDEN_LAYERS': 3, 'HP_L1_REG': 0.0001, 'kernel_initializer': 'glorot_uniform', 'HP_L2_REG': 1e-08, 'rate': 0.5, 'HP_OPTIMIZER': 'Adam', 'units': 1000, 'learning_rate': 0.01, 'activation': 'relu'}
Blue
Model: "sequential"
_________________________________________________________________
Layer (type)                 Output Shape              Param #   
=================================================================
dense (Dense)                (None, 1000)              10001000  
_________________________________________________________________
dropout (Dropout)            (None, 1000)              0         
_________________________________________________________________
dense_1 (Dense)              (None, 1000)              1001000   
_________________________________________________________________
dropout_1 (Dropout)          (None, 1000)              0         
_________________________________________________________________
dense_2 (Dense)              (None, 1000)              1001000   
_________________________________________________________________
dropout_2 (Dropout)          (None, 1000)              0         
_________________________________________________________________
dense_3 (Dense)              (None, 1)                 1001      
=================================================================
Total params: 12,004,001
Trainable params: 12,004,001
Non-trainable params: 0
_________________________________________________________________
None
Red
-1.4024293145306421
Typer KerasRegressor
Hello world
{'HP_NUM_HIDDEN_LAYERS': 3, 'HP_L1_REG': 0.0001, 'kernel_initializer': 'glorot_uniform', 'HP_L2_REG': 0.01, 'rate': 0.0, 'HP_OPTIMIZER': 'Adagrad', 'units': 400, 'learning_rate': 0.0001, 'activation': 'tanh'}
Blue
Model: "sequential"
_________________________________________________________________
Layer (type)                 Output Shape              Param #   
=================================================================
dense (Dense)                (None, 400)               4000400   
_________________________________________________________________
dense_1 (Dense)              (None, 400)               160400    
_________________________________________________________________
dense_2 (Dense)              (None, 400)               160400    
_________________________________________________________________
dense_3 (Dense)              (None, 1)                 401       
=================================================================
Total params: 4,321,601
Trainable params: 4,321,601
Non-trainable params: 0
_________________________________________________________________
None
Red
-3.4421734113606233
Typer KerasRegressor
Hello world
{'HP_NUM_HIDDEN_LAYERS': 3, 'HP_L1_REG': 0.001, 'kernel_initializer': 'glorot_uniform', 'HP_L2_REG': 0.0001, 'rate': 0.0, 'HP_OPTIMIZER': 'SGD', 'units': 400, 'learning_rate': 0.01, 'activation': 'tanh'}
Blue
Model: "sequential"
_________________________________________________________________
Layer (type)                 Output Shape              Param #   
=================================================================
dense (Dense)                (None, 400)               4000400   
_________________________________________________________________
dense_1 (Dense)              (None, 400)               160400    
_________________________________________________________________
dense_2 (Dense)              (None, 400)               160400    
_________________________________________________________________
dense_3 (Dense)              (None, 1)                 401       
=================================================================
Total params: 4,321,601
Trainable params: 4,321,601
Non-trainable params: 0
_________________________________________________________________
None
Red
0.3650808887692325
Typer KerasRegressor
Hello world
{'HP_NUM_HIDDEN_LAYERS': 5, 'HP_L1_REG': 0.0001, 'kernel_initializer': 'glorot_uniform', 'HP_L2_REG': 0.01, 'rate': 0.0, 'HP_OPTIMIZER': 'SGD', 'units': 200, 'learning_rate': 0.0001, 'activation': 'tanh'}
Blue
Model: "sequential"
_________________________________________________________________
Layer (type)                 Output Shape              Param #   
=================================================================
dense (Dense)                (None, 200)               2000200   
_________________________________________________________________
dense_1 (Dense)              (None, 200)               40200     
_________________________________________________________________
dense_2 (Dense)              (None, 200)               40200     
_________________________________________________________________
dense_3 (Dense)              (None, 200)               40200     
_________________________________________________________________
dense_4 (Dense)              (None, 200)               40200     
_________________________________________________________________
dense_5 (Dense)              (None, 1)                 201       
=================================================================
Total params: 2,161,201
Trainable params: 2,161,201
Non-trainable params: 0
_________________________________________________________________
None
Red
-3.097693977299242
Typer KerasRegressor
Hello world
{'HP_NUM_HIDDEN_LAYERS': 5, 'HP_L1_REG': 0.001, 'kernel_initializer': 'glorot_uniform', 'HP_L2_REG': 0.0001, 'rate': 0.5, 'HP_OPTIMIZER': 'SGD', 'units': 200, 'learning_rate': 0.001, 'activation': 'relu'}
Blue
Model: "sequential"
_________________________________________________________________
Layer (type)                 Output Shape              Param #   
=================================================================
dense (Dense)                (None, 200)               2000200   
_________________________________________________________________
dropout (Dropout)            (None, 200)               0         
_________________________________________________________________
dense_1 (Dense)              (None, 200)               40200     
_________________________________________________________________
dropout_1 (Dropout)          (None, 200)               0         
_________________________________________________________________
dense_2 (Dense)              (None, 200)               40200     
_________________________________________________________________
dropout_2 (Dropout)          (None, 200)               0         
_________________________________________________________________
dense_3 (Dense)              (None, 200)               40200     
_________________________________________________________________
dropout_3 (Dropout)          (None, 200)               0         
_________________________________________________________________
dense_4 (Dense)              (None, 200)               40200     
_________________________________________________________________
dropout_4 (Dropout)          (None, 200)               0         
_________________________________________________________________
dense_5 (Dense)              (None, 1)                 201       
=================================================================
Total params: 2,161,201
Trainable params: 2,161,201
Non-trainable params: 0
_________________________________________________________________
None
Red
-0.5403539204029781
Typer KerasRegressor
Hello world
{'HP_NUM_HIDDEN_LAYERS': 3, 'HP_L1_REG': 0.01, 'kernel_initializer': 'glorot_uniform', 'HP_L2_REG': 1e-08, 'rate': 0.2, 'HP_OPTIMIZER': 'Adam', 'units': 1000, 'learning_rate': 0.001, 'activation': 'tanh'}
Blue
Model: "sequential"
_________________________________________________________________
Layer (type)                 Output Shape              Param #   
=================================================================
dense (Dense)                (None, 1000)              10001000  
_________________________________________________________________
dropout (Dropout)            (None, 1000)              0         
_________________________________________________________________
dense_1 (Dense)              (None, 1000)              1001000   
_________________________________________________________________
dropout_1 (Dropout)          (None, 1000)              0         
_________________________________________________________________
dense_2 (Dense)              (None, 1000)              1001000   
_________________________________________________________________
dropout_2 (Dropout)          (None, 1000)              0         
_________________________________________________________________
dense_3 (Dense)              (None, 1)                 1001      
=================================================================
Total params: 12,004,001
Trainable params: 12,004,001
Non-trainable params: 0
…
{'pool': 2, 'HP_L1_REG': 0.1, 'kernel': 2, 'rate': 0.0, 'activation': 'tanh', 'epochs': 100, 'kernel_initializer': 'glorot_uniform', 'HP_L2_REG': 0.2, 'filters': 1, 'HP_OPTIMIZER': 'SGD', 'units': 200, 'strides': 1, 'HP_NUM_HIDDEN_LAYERS': 3, 'learning_rate': 0.01}
Blue
Model: "sequential"
_________________________________________________________________
Layer (type)                 Output Shape              Param #   
=================================================================
conv1d (Conv1D)              (None, 9999, 1)           3         
_________________________________________________________________
max_pooling1d (MaxPooling1D) (None, 9998, 1)           0         
_________________________________________________________________
conv1d_1 (Conv1D)            (None, 9997, 1)           3         
_________________________________________________________________
max_pooling1d_1 (MaxPooling1 (None, 9996, 1)           0         
_________________________________________________________________
flatten (Flatten)            (None, 9996)              0         
_________________________________________________________________
dense (Dense)                (None, 1)                 9997      
=================================================================
Total params: 10,003
Trainable params: 10,003
Non-trainable params: 0
_________________________________________________________________
Summary  None
Red
-0.6673360585789188
Typer KerasRegressor
Hello world
{'pool': 1, 'HP_L1_REG': 0.1, 'kernel': 1, 'rate': 0.0, 'activation': 'tanh', 'epochs': 200, 'kernel_initializer': 'glorot_uniform', 'HP_L2_REG': 0.2, 'filters': 1, 'HP_OPTIMIZER': 'SGD', 'units': 200, 'strides': 2, 'HP_NUM_HIDDEN_LAYERS': 3, 'learning_rate': 0.01}
Blue
Model: "sequential"
_________________________________________________________________
Layer (type)                 Output Shape              Param #   
=================================================================
conv1d (Conv1D)              (None, 5000, 1)           2         
_________________________________________________________________
max_pooling1d (MaxPooling1D) (None, 2500, 1)           0         
_________________________________________________________________
conv1d_1 (Conv1D)            (None, 1250, 1)           2         
_________________________________________________________________
max_pooling1d_1 (MaxPooling1 (None, 625, 1)            0         
_________________________________________________________________
flatten (Flatten)            (None, 625)               0         
_________________________________________________________________
dense (Dense)                (None, 1)                 626       
=================================================================
Total params: 630
Trainable params: 630
Non-trainable params: 0
_________________________________________________________________
Summary  None
Red
-0.053309093264483964
Typer KerasRegressor
Hello world
{'pool': 1, 'HP_L1_REG': 0.1, 'kernel': 2, 'rate': 0.0, 'activation': 'tanh', 'epochs': 100, 'kernel_initializer': 'glorot_uniform', 'HP_L2_REG': 0.2, 'filters': 1, 'HP_OPTIMIZER': 'SGD', 'units': 200, 'strides': 2, 'HP_NUM_HIDDEN_LAYERS': 3, 'learning_rate': 0.001}
Blue
Model: "sequential"
_________________________________________________________________
Layer (type)                 Output Shape              Param #   
=================================================================
conv1d (Conv1D)              (None, 5000, 1)           3         
_________________________________________________________________
max_pooling1d (MaxPooling1D) (None, 2500, 1)           0         
_________________________________________________________________
conv1d_1 (Conv1D)            (None, 1250, 1)           3         
_________________________________________________________________
max_pooling1d_1 (MaxPooling1 (None, 625, 1)            0         
_________________________________________________________________
flatten (Flatten)            (None, 625)               0         
_________________________________________________________________
dense (Dense)                (None, 1)                 626       
=================================================================
Total params: 632
Trainable params: 632
Non-trainable params: 0
_________________________________________________________________
Summary  None
Red
-0.04348411643808592
Typer KerasRegressor
Hello world
{'pool': 1, 'HP_L1_REG': 0.1, 'kernel': 2, 'rate': 0.0, 'activation': 'tanh', 'epochs': 200, 'kernel_initializer': 'glorot_uniform', 'HP_L2_REG': 0.2, 'filters': 1, 'HP_OPTIMIZER': 'SGD', 'units': 200, 'strides': 2, 'HP_NUM_HIDDEN_LAYERS': 3, 'learning_rate': 0.01}
Blue
Model: "sequential"
_________________________________________________________________
Layer (type)                 Output Shape              Param #   
=================================================================
conv1d (Conv1D)              (None, 5000, 1)           3         
_________________________________________________________________
max_pooling1d (MaxPooling1D) (None, 2500, 1)           0         
_________________________________________________________________
conv1d_1 (Conv1D)            (None, 1250, 1)           3         
_________________________________________________________________
max_pooling1d_1 (MaxPooling1 (None, 625, 1)            0         
_________________________________________________________________
flatten (Flatten)            (None, 625)               0         
_________________________________________________________________
dense (Dense)                (None, 1)                 626       
=================================================================
Total params: 632
Trainable params: 632
Non-trainable params: 0
_________________________________________________________________
Summary  None
Red
-0.04820405267446337
Typer KerasRegressor
Hello world
{'pool': 2, 'HP_L1_REG': 0.1, 'kernel': 1, 'rate': 0.0, 'activation': 'tanh', 'epochs': 100, 'kernel_initializer': 'glorot_uniform', 'HP_L2_REG': 0.2, 'filters': 1, 'HP_OPTIMIZER': 'SGD', 'units': 200, 'strides': 1, 'HP_NUM_HIDDEN_LAYERS': 3, 'learning_rate': 0.001}
Blue
Model: "sequential"
_________________________________________________________________
Layer (type)                 Output Shape              Param #   
=================================================================
conv1d (Conv1D)              (None, 10000, 1)          2         
_________________________________________________________________
max_pooling1d (MaxPooling1D) (None, 9999, 1)           0         
_________________________________________________________________
conv1d_1 (Conv1D)            (None, 9999, 1)           2         
_________________________________________________________________
max_pooling1d_1 (MaxPooling1 (None, 9998, 1)           0         
_________________________________________________________________
flatten (Flatten)            (None, 9998)              0         
_________________________________________________________________
dense (Dense)                (None, 1)                 9999      
=================================================================
Total params: 10,003
Trainable params: 10,003
Non-trainable params: 0
_________________________________________________________________
Summary  None
Red
-0.03666385169581776
Typer KerasRegressor
Hello world
{'pool': 2, 'HP_L1_REG': 0.1, 'kernel': 2, 'rate': 0.0, 'activation': 'tanh', 'epochs': 200, 'kernel_initializer': 'glorot_uniform', 'HP_L2_REG': 0.2, 'filters': 1, 'HP_OPTIMIZER': 'SGD', 'units': 200, 'strides': 2, 'HP_NUM_HIDDEN_LAYERS': 3, 'learning_rate': 0.001}
Blue
Model: "sequential"
_________________________________________________________________
Layer (type)                 Output Shape              Param #   
=================================================================
conv1d (Conv1D)              (None, 5000, 1)           3         
_________________________________________________________________
max_pooling1d (MaxPooling1D) (None, 2500, 1)           0         
_________________________________________________________________
conv1d_1 (Conv1D)            (None, 1250, 1)           3         
_________________________________________________________________
max_pooling1d_1 (MaxPooling1 (None, 625, 1)            0         
_________________________________________________________________
flatten (Flatten)            (None, 625)               0         
_________________________________________________________________
dense (Dense)                (None, 1)                 626       
=================================================================
Total params: 632
Trainable params: 632
Non-trainable params: 0
_________________________________________________________________
Summary  None
Red
-0.043355038353876774
Typer KerasRegressor
Hello world
{'pool': 2, 'HP_L1_REG': 0.1, 'kernel': 1, 'rate': 0.0, 'activation': 'tanh', 'epochs': 100, 'kernel_initializer': 'glorot_uniform', 'HP_L2_REG': 0.2, 'filters': 2, 'HP_OPTIMIZER': 'SGD', 'units': 200, 'strides': 2, 'HP_NUM_HIDDEN_LAYERS': 3, 'learning_rate': 0.001}
Blue
Model: "sequential"
_________________________________________________________________
Layer (type)                 Output Shape              Param #   
=================================================================
conv1d (Conv1D)              (None, 5000, 2)           4         
_________________________________________________________________
max_pooling1d (MaxPooling1D) (None, 2500, 2)           0         
_________________________________________________________________
conv1d_1 (Conv1D)            (None, 1250, 2)           6         
_________________________________________________________________
max_pooling1d_1 (MaxPooling1 (None, 625, 2)            0         
_________________________________________________________________
flatten (Flatten)            (None, 1250)              0         
_________________________________________________________________
dense (Dense)                (None, 1)                 1251      
=================================================================
Total params: 1,261
Trainable params: 1,261
Non-trainable params: 0
_________________________________________________________________
Summary  None
Red
-0.045971055302099995
Typer KerasRegressor
Hello world
{'pool': 1, 'HP_L1_REG': 0.1, 'kernel': 1, 'rate': 0.0, 'activation': 'tanh', 'epochs': 100, 'kernel_initializer': 'glorot_uniform', 'HP_L2_REG': 0.2, 'filters': 1, 'HP_OPTIMIZER': 'SGD', 'units': 200, 'strides': 1, 'HP_NUM_HIDDEN_LAYERS': 3, 'learning_rate': 0.001}
Blue
Model: "sequential"
_________________________________________________________________
Layer (type)                 Output Shape              Param #   
=================================================================
conv1d (Conv1D)              (None, 10000, 1)          2         
_________________________________________________________________
max_pooling1d (MaxPooling1D) (None, 10000, 1)          0         
_________________________________________________________________
conv1d_1 (Conv1D)            (None, 10000, 1)          2         
_________________________________________________________________
max_pooling1d_1 (MaxPooling1 (None, 10000, 1)          0         
_________________________________________________________________
flatten (Flatten)            (None, 10000)             0         
_________________________________________________________________
dense (Dense)                (None, 1)                 10001     
=================================================================
Total params: 10,005
Trainable params: 10,005
Non-trainable params: 0
_________________________________________________________________
Summary  None
Red
-0.03073195936987716
Typer KerasRegressor
Hello world
{'pool': 1, 'HP_L1_REG': 0.1, 'kernel': 2, 'rate': 0.0, 'activation': 'tanh', 'epochs': 100, 'kernel_initializer': 'glorot_uniform', 'HP_L2_REG': 0.2, 'filters': 2, 'HP_OPTIMIZER': 'SGD', 'units': 200, 'strides': 2, 'HP_NUM_HIDDEN_LAYERS': 3, 'learning_rate': 0.001}
Blue
Model: "sequential"
_________________________________________________________________
Layer (type)                 Output Shape              Param #   
=================================================================
conv1d (Conv1D)              (None, 5000, 2)           6         
_________________________________________________________________
max_pooling1d (MaxPooling1D) (None, 2500, 2)           0         
_________________________________________________________________
conv1d_1 (Conv1D)            (None, 1250, 2)           10        
_________________________________________________________________
max_pooling1d_1 (MaxPooling1 (None, 625, 2)            0         
_________________________________________________________________
flatten (Flatten)            (None, 1250)              0         
_________________________________________________________________
dense (Dense)                (None, 1)                 1251      
=================================================================
Total params: 1,267
Trainable params: 1,267
Non-trainable params: 0
_________________________________________________________________
Summary  None
Red
-0.04899264746425214
Typer KerasRegressor
Hello world
{'pool': 1, 'HP_L1_REG': 0.1, 'kernel': 1, 'rate': 0.0, 'activation': 'tanh', 'epochs': 200, 'kernel_initializer': 'glorot_uniform', 'HP_L2_REG': 0.2, 'filters': 2, 'HP_OPTIMIZER': 'SGD', 'units': 200, 'strides': 1, 'HP_NUM_HIDDEN_LAYERS': 3, 'learning_rate': 0.001}
Blue
Model: "sequential"
_________________________________________________________________
Layer (type)                 Output Shape              Param #   
=================================================================
conv1d (Conv1D)              (None, 10000, 2)          4         
_________________________________________________________________
max_pooling1d (MaxPooling1D) (None, 10000, 2)          0         
_________________________________________________________________
conv1d_1 (Conv1D)            (None, 10000, 2)          6         
_________________________________________________________________
max_pooling1d_1 (MaxPooling1 (None, 10000, 2)          0         
_________________________________________________________________
flatten (Flatten)            (None, 20000)             0         
_________________________________________________________________
dense (Dense)                (None, 1)                 20001     
=================================================================
Total params: 20,011
Trainable params: 20,011
Non-trainable params: 0
_________________________________________________________________
Summary  None
Red
-0.02577082210081727
Typer KerasRegressor
Hello world
{'pool': 2, 'HP_L1_REG': 0.1, 'kernel': 1, 'rate': 0.0, 'activation': 'tanh', 'epochs': 100, 'kernel_initializer': 'glorot_uniform', 'HP_L2_REG': 0.2, 'filters': 2, 'HP_OPTIMIZER': 'SGD', 'units': 200, 'strides': 1, 'HP_NUM_HIDDEN_LAYERS': 3, 'learning_rate': 0.001}
Blue
Model: "sequential"
_________________________________________________________________
Layer (type)                 Output Shape              Param #   
=================================================================
conv1d (Conv1D)              (None, 10000, 2)          4         
_________________________________________________________________
max_pooling1d (MaxPooling1D) (None, 9999, 2)           0         
_________________________________________________________________
conv1d_1 (Conv1D)            (None, 9999, 2)           6         
_________________________________________________________________
max_pooling1d_1 (MaxPooling1 (None, 9998, 2)           0         
_________________________________________________________________
flatten (Flatten)            (None, 19996)             0         
_________________________________________________________________
dense (Dense)                (None, 1)                 19997     
=================================================================
Total params: 20,007
Trainable params: 20,007
Non-trainable params: 0
_________________________________________________________________
Summary  None
Red
-0.048215010068375364
Typer KerasRegressor
Hello world
{'pool': 1, 'HP_L1_REG': 0.1, 'kernel': 2, 'rate': 0.0, 'activation': 'tanh', 'epochs': 100, 'kernel_initializer': 'glorot_uniform', 'HP_L2_REG': 0.2, 'filters': 1, 'HP_OPTIMIZER': 'SGD', 'units': 200, 'strides': 2, 'HP_NUM_HIDDEN_LAYERS': 3, 'learning_rate': 0.01}
Blue
Model: "sequential"
_________________________________________________________________
Layer (type)                 Output Shape              Param #   
=================================================================
conv1d (Conv1D)              (None, 5000, 1)           3         
_________________________________________________________________
max_pooling1d (MaxPooling1D) (None, 2500, 1)           0         
_________________________________________________________________
conv1d_1 (Conv1D)            (None, 1250, 1)           3         
_________________________________________________________________
max_pooling1d_1 (MaxPooling1 (None, 625, 1)            0         
_________________________________________________________________
flatten (Flatten)            (None, 625)               0         
_________________________________________________________________
dense (Dense)                (None, 1)                 626       
=================================================================
Total params: 632
Trainable params: 632
Non-trainable params: 0
_________________________________________________________________
Summary  None
Red
-0.06621815837804479
Typer KerasRegressor
Hello world
{'pool': 2, 'HP_L1_REG': 0.1, 'kernel': 2, 'rate': 0.0, 'activation': 'tanh', 'epochs': 100, 'kernel_initializer': 'glorot_uniform', 'HP_L2_REG': 0.2, 'filters': 2, 'HP_OPTIMIZER': 'SGD', 'units': 200, 'strides': 2, 'HP_NUM_HIDDEN_LAYERS': 3, 'learning_rate': 0.01}
Blue
Model: "sequential"
_________________________________________________________________
Layer (type)                 Output Shape              Param #   
=================================================================
conv1d (Conv1D)              (None, 5000, 2)           6         
_________________________________________________________________
max_pooling1d (MaxPooling1D) (None, 2500, 2)           0         
_________________________________________________________________
conv1d_1 (Conv1D)            (None, 1250, 2)           10        
_________________________________________________________________
max_pooling1d_1 (MaxPooling1 (None, 625, 2)            0         
_________________________________________________________________
flatten (Flatten)            (None, 1250)              0         
_________________________________________________________________
dense (Dense)                (None, 1)                 1251      
=================================================================
Total params: 1,267
Trainable params: 1,267
Non-trainable params: 0
_________________________________________________________________
Summary  None
Red
-0.03301344074679413
Typer KerasRegressor
Hello world
{'pool': 2, 'HP_L1_REG': 0.1, 'kernel': 1, 'rate': 0.0, 'activation': 'tanh', 'epochs': 100, 'kernel_initializer': 'glorot_uniform', 'HP_L2_REG': 0.2, 'filters': 2, 'HP_OPTIMIZER': 'SGD', 'units': 200, 'strides': 2, 'HP_NUM_HIDDEN_LAYERS': 3, 'learning_rate': 0.01}
Blue
Model: "sequential"
_________________________________________________________________
Layer (type)                 Output Shape              Param #   
=================================================================
conv1d (Conv1D)              (None, 5000, 2)           4         
_________________________________________________________________
max_pooling1d (MaxPooling1D) (None, 2500, 2)           0         
_________________________________________________________________
conv1d_1 (Conv1D)            (None, 1250, 2)           6         
_________________________________________________________________
max_pooling1d_1 (MaxPooling1 (None, 625, 2)            0         
_________________________________________________________________
flatten (Flatten)            (None, 1250)              0         
_________________________________________________________________
dense (Dense)                (None, 1)                 1251      
=================================================================
Total params: 1,261
Trainable params: 1,261
Non-trainable params: 0
_________________________________________________________________
Summary  None
Red
-0.011914098579393073
Typer KerasRegressor
Hello world
{'pool': 1, 'HP_L1_REG': 0.1, 'kernel': 1, 'rate': 0.0, 'activation': 'tanh', 'epochs': 100, 'kernel_initializer': 'glorot_uniform', 'HP_L2_REG': 0.2, 'filters': 2, 'HP_OPTIMIZER': 'SGD', 'units': 200, 'strides': 1, 'HP_NUM_HIDDEN_LAYERS': 3, 'learning_rate': 0.001}
Blue
Model: "sequential"
_________________________________________________________________
Layer (type)                 Output Shape              Param #   
=================================================================
conv1d (Conv1D)              (None, 10000, 2)          4         
_________________________________________________________________
max_pooling1d (MaxPooling1D) (None, 10000, 2)          0         
_________________________________________________________________
conv1d_1 (Conv1D)            (None, 10000, 2)          6         
_________________________________________________________________
max_pooling1d_1 (MaxPooling1 (None, 10000, 2)          0         
_________________________________________________________________
flatten (Flatten)            (None, 20000)             0         
_________________________________________________________________
dense (Dense)                (None, 1)                 20001     
=================================================================
Total params: 20,011
Trainable params: 20,011
Non-trainable params: 0
_________________________________________________________________
Summary  None
Red
-0.039162003527297484
Typer KerasRegressor
Hello world
{'pool': 1, 'HP_L1_REG': 0.1, 'kernel': 1, 'rate': 0.0, 'activation': 'tanh', 'epochs': 200, 'kernel_initializer': 'glorot_uniform', 'HP_L2_REG': 0.2, 'filters': 2, 'HP_OPTIMIZER': 'SGD', 'units': 200, 'strides': 2, 'HP_NUM_HIDDEN_LAYERS': 3, 'learning_rate': 0.001}
Blue
Model: "sequential"
_________________________________________________________________
Layer (type)                 Output Shape              Param #   
=================================================================
conv1d (Conv1D)              (None, 5000, 2)           4         
_________________________________________________________________
max_pooling1d (MaxPooling1D) (None, 2500, 2)           0         
_________________________________________________________________
conv1d_1 (Conv1D)            (None, 1250, 2)           6         
_________________________________________________________________
max_pooling1d_1 (MaxPooling1 (None, 625, 2)            0         
_________________________________________________________________
flatten (Flatten)            (None, 1250)              0         
_________________________________________________________________
dense (Dense)                (None, 1)                 1251      
=================================================================
Total params: 1,261
Trainable params: 1,261
Non-trainable params: 0
_________________________________________________________________
Summary  None
Red
-0.04014979782772321
Typer KerasRegressor
Hello world
{'pool': 1, 'HP_L1_REG': 0.1, 'kernel': 2, 'rate': 0.0, 'activation': 'tanh', 'epochs': 200, 'kernel_initializer': 'glorot_uniform', 'HP_L2_REG': 0.2, 'filters': 2, 'HP_OPTIMIZER': 'SGD', 'units': 200, 'strides': 2, 'HP_NUM_HIDDEN_LAYERS': 3, 'learning_rate': 0.01}
Blue
Model: "sequential"
_________________________________________________________________
Layer (type)                 Output Shape              Param #   
=================================================================
conv1d (Conv1D)              (None, 5000, 2)           6         
_________________________________________________________________
max_pooling1d (MaxPooling1D) (None, 2500, 2)           0         
_________________________________________________________________
conv1d_1 (Conv1D)            (None, 1250, 2)           10        
_________________________________________________________________
max_pooling1d_1 (MaxPooling1 (None, 625, 2)            0         
_________________________________________________________________
flatten (Flatten)            (None, 1250)              0         
_________________________________________________________________
dense (Dense)                (None, 1)                 1251      
=================================================================
Total params: 1,267
Trainable params: 1,267
Non-trainable params: 0
_________________________________________________________________
Summary  None
Red
-0.0803587265932928
Typer KerasRegressor
Hello world
{'pool': 1, 'HP_L1_REG': 0.1, 'kernel': 1, 'rate': 0.0, 'activation': 'tanh', 'epochs': 100, 'kernel_initializer': 'glorot_uniform', 'HP_L2_REG': 0.2, 'filters': 2, 'HP_OPTIMIZER': 'SGD', 'units': 200, 'strides': 2, 'HP_NUM_HIDDEN_LAYERS': 3, 'learning_rate': 0.001}
Blue
Model: "sequential"
_________________________________________________________________
Layer (type)                 Output Shape              Param #   
=================================================================
conv1d (Conv1D)              (None, 5000, 2)           4         
_________________________________________________________________
max_pooling1d (MaxPooling1D) (None, 2500, 2)           0         
_________________________________________________________________
conv1d_1 (Conv1D)            (None, 1250, 2)           6         
_________________________________________________________________
max_pooling1d_1 (MaxPooling1 (None, 625, 2)            0         
_________________________________________________________________
flatten (Flatten)            (None, 1250)              0         
_________________________________________________________________
dense (Dense)                (None, 1)                 1251      
=================================================================
Total params: 1,261
Trainable params: 1,261
Non-trainable params: 0
_________________________________________________________________
Summary  None
Red
-0.04211221512752905
Typer KerasRegressor
Hello world
{'pool': 2, 'HP_L1_REG': 0.1, 'kernel': 1, 'rate': 0.0, 'activation': 'tanh', 'epochs': 200, 'kernel_initializer': 'glorot_uniform', 'HP_L2_REG': 0.2, 'filters': 2, 'HP_OPTIMIZER': 'SGD', 'units': 200, 'strides': 2, 'HP_NUM_HIDDEN_LAYERS': 3, 'learning_rate': 0.01}
Blue
Model: "sequential"
_________________________________________________________________
Layer (type)                 Output Shape              Param #   
=================================================================
conv1d (Conv1D)              (None, 5000, 2)           4         
_________________________________________________________________
max_pooling1d (MaxPooling1D) (None, 2500, 2)           0         
_________________________________________________________________
conv1d_1 (Conv1D)            (None, 1250, 2)           6         
_________________________________________________________________
max_pooling1d_1 (MaxPooling1 (None, 625, 2)            0         
_________________________________________________________________
flatten (Flatten)            (None, 1250)              0         
_________________________________________________________________
dense (Dense)                (None, 1)                 1251      
=================================================================
Total params: 1,261
Trainable params: 1,261
Non-trainable params: 0
_________________________________________________________________
Summary  None
Red
-0.03490162482390424
Typer KerasRegressor
Hello world
{'pool': 2, 'HP_L1_REG': 0.1, 'kernel': 2, 'rate': 0.0, 'activation': 'tanh', 'epochs': 200, 'kernel_initializer': 'glorot_uniform', 'HP_L2_REG': 0.2, 'filters': 2, 'HP_OPTIMIZER': 'SGD', 'units': 200, 'strides': 1, 'HP_NUM_HIDDEN_LAYERS': 3, 'learning_rate': 0.001}
Blue
Model: "sequential"
_________________________________________________________________
Layer (type)                 Output Shape              Param #   
=================================================================
conv1d (Conv1D)              (None, 9999, 2)           6         
_________________________________________________________________
max_pooling1d (MaxPooling1D) (None, 9998, 2)           0         
_________________________________________________________________
conv1d_1 (Conv1D)            (None, 9997, 2)           10        
_________________________________________________________________
max_pooling1d_1 (MaxPooling1 (None, 9996, 2)           0         
_________________________________________________________________
flatten (Flatten)            (None, 19992)             0         
_________________________________________________________________
dense (Dense)                (None, 1)                 19993     
=================================================================
Total params: 20,009
Trainable params: 20,009
Non-trainable params: 0
_________________________________________________________________
Summary  None
Red
-0.07643733036746991
Typer KerasRegressor
Hello world
{'pool': 1, 'HP_L1_REG': 0.1, 'kernel': 2, 'rate': 0.0, 'activation': 'tanh', 'epochs': 200, 'kernel_initializer': 'glorot_uniform', 'HP_L2_REG': 0.2, 'filters': 2, 'HP_OPTIMIZER': 'SGD', 'units': 200, 'strides': 1, 'HP_NUM_HIDDEN_LAYERS': 3, 'learning_rate': 0.01}
Blue
Model: "sequential"
_________________________________________________________________
Layer (type)                 Output Shape              Param #   
=================================================================
conv1d (Conv1D)              (None, 9999, 2)           6         
_________________________________________________________________
max_pooling1d (MaxPooling1D) (None, 9999, 2)           0         
_________________________________________________________________
conv1d_1 (Conv1D)            (None, 9998, 2)           10        
_________________________________________________________________
max_pooling1d_1 (MaxPooling1 (None, 9998, 2)           0         
_________________________________________________________________
flatten (Flatten)            (None, 19996)             0         
_________________________________________________________________
dense (Dense)                (None, 1)                 19997     
=================================================================
Total params: 20,013
Trainable params: 20,013
Non-trainable params: 0
_________________________________________________________________
Summary  None
Red
0.35177975926563354
Typer KerasRegressor
Hello world
{'pool': 1, 'HP_L1_REG': 0.1, 'kernel': 2, 'rate': 0.0, 'activation': 'tanh', 'epochs': 200, 'kernel_initializer': 'glorot_uniform', 'HP_L2_REG': 0.2, 'filters': 2, 'HP_OPTIMIZER': 'SGD', 'units': 200, 'strides': 1, 'HP_NUM_HIDDEN_LAYERS': 3, 'learning_rate': 0.001}
Blue
Model: "sequential"
_________________________________________________________________
Layer (type)                 Output Shape              Param #   
=================================================================
conv1d (Conv1D)              (None, 9999, 2)           6         
_________________________________________________________________
max_pooling1d (MaxPooling1D) (None, 9999, 2)           0         
_________________________________________________________________
conv1d_1 (Conv1D)            (None, 9998, 2)           10        
_________________________________________________________________
max_pooling1d_1 (MaxPooling1 (None, 9998, 2)           0         
_________________________________________________________________
flatten (Flatten)            (None, 19996)             0         
_________________________________________________________________
dense (Dense)                (None, 1)                 19997     
=================================================================
Total params: 20,013
Trainable params: 20,013
Non-trainable params: 0
_________________________________________________________________
Summary  None
Red
0.11285357120190509
Typer KerasRegressor
Hello world
{'pool': 1, 'HP_L1_REG': 0.1, 'kernel': 1, 'rate': 0.0, 'activation': 'tanh', 'epochs': 200, 'kernel_initializer': 'glorot_uniform', 'HP_L2_REG': 0.2, 'filters': 2, 'HP_OPTIMIZER': 'SGD', 'units': 200, 'strides': 2, 'HP_NUM_HIDDEN_LAYERS': 3, 'learning_rate': 0.01}
Blue
Model: "sequential"
_________________________________________________________________
Layer (type)                 Output Shape              Param #   
=================================================================
conv1d (Conv1D)              (None, 5000, 2)           4         
_________________________________________________________________
max_pooling1d (MaxPooling1D) (None, 2500, 2)           0         
_________________________________________________________________
conv1d_1 (Conv1D)            (None, 1250, 2)           6         
_________________________________________________________________
max_pooling1d_1 (MaxPooling1 (None, 625, 2)            0         
_________________________________________________________________
flatten (Flatten)            (None, 1250)              0         
_________________________________________________________________
dense (Dense)                (None, 1)                 1251      
=================================================================
Total params: 1,261
Trainable params: 1,261
Non-trainable params: 0
_________________________________________________________________
Summary  None
Red
-0.10624033130191757
Typer KerasRegressor
Hello world
{'pool': 2, 'HP_L1_REG': 0.1, 'kernel': 2, 'rate': 0.0, 'activation': 'tanh', 'epochs': 100, 'kernel_initializer': 'glorot_uniform', 'HP_L2_REG': 0.2, 'filters': 2, 'HP_OPTIMIZER': 'SGD', 'units': 200, 'strides': 1, 'HP_NUM_HIDDEN_LAYERS': 3, 'learning_rate': 0.001}
Blue
Model: "sequential"
_________________________________________________________________
Layer (type)                 Output Shape              Param #   
=================================================================
conv1d (Conv1D)              (None, 9999, 2)           6         
_________________________________________________________________
max_pooling1d (MaxPooling1D) (None, 9998, 2)           0         
_________________________________________________________________
conv1d_1 (Conv1D)            (None, 9997, 2)           10        
_________________________________________________________________
max_pooling1d_1 (MaxPooling1 (None, 9996, 2)           0         
_________________________________________________________________
flatten (Flatten)            (None, 19992)             0         
_________________________________________________________________
dense (Dense)                (None, 1)                 19993     
=================================================================
Total params: 20,009
Trainable params: 20,009
Non-trainable params: 0
_________________________________________________________________
Summary  None
Red
-0.006453442680847132
Typer KerasRegressor
Hello world
{'pool': 1, 'HP_L1_REG': 0.1, 'kernel': 1, 'rate': 0.0, 'activation': 'tanh', 'epochs': 200, 'kernel_initializer': 'glorot_uniform', 'HP_L2_REG': 0.2, 'filters': 1, 'HP_OPTIMIZER': 'SGD', 'units': 200, 'strides': 1, 'HP_NUM_HIDDEN_LAYERS': 3, 'learning_rate': 0.01}
Blue
Model: "sequential"
_________________________________________________________________
Layer (type)                 Output Shape              Param #   
=================================================================
conv1d (Conv1D)              (None, 10000, 1)          2         
_________________________________________________________________
max_pooling1d (MaxPooling1D) (None, 10000, 1)          0         
_________________________________________________________________
conv1d_1 (Conv1D)            (None, 10000, 1)          2         
_________________________________________________________________
max_pooling1d_1 (MaxPooling1 (None, 10000, 1)          0         
_________________________________________________________________
flatten (Flatten)            (None, 10000)             0         
_________________________________________________________________
dense (Dense)                (None, 1)                 10001     
=================================================================
Total params: 10,005
Trainable params: 10,005
Non-trainable params: 0
_________________________________________________________________
Summary  None
Red
-0.20696159805356906
Typer KerasRegressor
Hello world
{'pool': 1, 'HP_L1_REG': 0.1, 'kernel': 1, 'rate': 0.0, 'activation': 'tanh', 'epochs': 100, 'kernel_initializer': 'glorot_uniform', 'HP_L2_REG': 0.2, 'filters': 1, 'HP_OPTIMIZER': 'SGD', 'units': 200, 'strides': 2, 'HP_NUM_HIDDEN_LAYERS': 3, 'learning_rate': 0.01}
Blue
Model: "sequential"
_________________________________________________________________
Layer (type)                 Output Shape              Param #   
=================================================================
conv1d (Conv1D)              (None, 5000, 1)           2         
_________________________________________________________________
max_pooling1d (MaxPooling1D) (None, 2500, 1)           0         
_________________________________________________________________
conv1d_1 (Conv1D)            (None, 1250, 1)           2         
_________________________________________________________________
max_pooling1d_1 (MaxPooling1 (None, 625, 1)            0         
_________________________________________________________________
flatten (Flatten)            (None, 625)               0         
_________________________________________________________________
dense (Dense)                (None, 1)                 626       
=================================================================
Total params: 630
Trainable params: 630
Non-trainable params: 0
_________________________________________________________________
Summary  None
Red
-0.035260888432467885
Typer KerasRegressor
Hello world
{'pool': 2, 'HP_L1_REG': 0.1, 'kernel': 1, 'rate': 0.0, 'activation': 'tanh', 'epochs': 100, 'kernel_initializer': 'glorot_uniform', 'HP_L2_REG': 0.2, 'filters': 1, 'HP_OPTIMIZER': 'SGD', 'units': 200, 'strides': 1, 'HP_NUM_HIDDEN_LAYERS': 3, 'learning_rate': 0.01}
Blue
Model: "sequential"
_________________________________________________________________
Layer (type)                 Output Shape              Param #   
=================================================================
conv1d (Conv1D)              (None, 10000, 1)          2         
_________________________________________________________________
max_pooling1d (MaxPooling1D) (None, 9999, 1)           0         
_________________________________________________________________
conv1d_1 (Conv1D)            (None, 9999, 1)           2         
_________________________________________________________________
max_pooling1d_1 (MaxPooling1 (None, 9998, 1)           0         
_________________________________________________________________
flatten (Flatten)            (None, 9998)              0         
_________________________________________________________________
dense (Dense)                (None, 1)                 9999      
=================================================================
Total params: 10,003
Trainable params: 10,003
Non-trainable params: 0
_________________________________________________________________
Summary  None
Red
-0.0024564843768382083
Typer KerasRegressor
Hello world
{'pool': 2, 'HP_L1_REG': 0.1, 'kernel': 2, 'rate': 0.0, 'activation': 'tanh', 'epochs': 200, 'kernel_initializer': 'glorot_uniform', 'HP_L2_REG': 0.2, 'filters': 1, 'HP_OPTIMIZER': 'SGD', 'units': 200, 'strides': 2, 'HP_NUM_HIDDEN_LAYERS': 3, 'learning_rate': 0.01}
Blue
Model: "sequential"
_________________________________________________________________
Layer (type)                 Output Shape              Param #   
=================================================================
conv1d (Conv1D)              (None, 5000, 1)           3         
_________________________________________________________________
max_pooling1d (MaxPooling1D) (None, 2500, 1)           0         
_________________________________________________________________
conv1d_1 (Conv1D)            (None, 1250, 1)           3         
_________________________________________________________________
max_pooling1d_1 (MaxPooling1 (None, 625, 1)            0         
_________________________________________________________________
flatten (Flatten)            (None, 625)               0         
_________________________________________________________________
dense (Dense)                (None, 1)                 626       
=================================================================
Total params: 632
Trainable params: 632
Non-trainable params: 0
_________________________________________________________________
Summary  None
Red
-0.009909156423548504
Typer KerasRegressor
Hello world
{'pool': 2, 'HP_L1_REG': 0.1, 'kernel': 2, 'rate': 0.0, 'activation': 'tanh', 'epochs': 200, 'kernel_initializer': 'glorot_uniform', 'HP_L2_REG': 0.2, 'filters': 2, 'HP_OPTIMIZER': 'SGD', 'units': 200, 'strides': 2, 'HP_NUM_HIDDEN_LAYERS': 3, 'learning_rate': 0.001}
Blue
Model: "sequential"
_________________________________________________________________
Layer (type)                 Output Shape              Param #   
=================================================================
conv1d (Conv1D)              (None, 5000, 2)           6         
_________________________________________________________________
max_pooling1d (MaxPooling1D) (None, 2500, 2)           0         
_________________________________________________________________
conv1d_1 (Conv1D)            (None, 1250, 2)           10        
_________________________________________________________________
max_pooling1d_1 (MaxPooling1 (None, 625, 2)            0         
_________________________________________________________________
flatten (Flatten)            (None, 1250)              0         
_________________________________________________________________
dense (Dense)                (None, 1)                 1251      
=================================================================
Total params: 1,267
Trainable params: 1,267
Non-trainable params: 0
_________________________________________________________________
Summary  None
Red
-0.0444487499529147
Typer KerasRegressor
Hello world
{'pool': 2, 'HP_L1_REG': 0.1, 'kernel': 2, 'rate': 0.0, 'activation': 'tanh', 'epochs': 200, 'kernel_initializer': 'glorot_uniform', 'HP_L2_REG': 0.2, 'filters': 1, 'HP_OPTIMIZER': 'SGD', 'units': 200, 'strides': 1, 'HP_NUM_HIDDEN_LAYERS': 3, 'learning_rate': 0.01}
Blue
Model: "sequential"
_________________________________________________________________
Layer (type)                 Output Shape              Param #   
=================================================================
conv1d (Conv1D)              (None, 9999, 1)           3         
_________________________________________________________________
max_pooling1d (MaxPooling1D) (None, 9998, 1)           0         
_________________________________________________________________
conv1d_1 (Conv1D)            (None, 9997, 1)           3         
_________________________________________________________________
max_pooling1d_1 (MaxPooling1 (None, 9996, 1)           0         
_________________________________________________________________
flatten (Flatten)            (None, 9996)              0         
_________________________________________________________________
dense (Dense)                (None, 1)                 9997      
=================================================================
Total params: 10,003
Trainable params: 10,003
Non-trainable params: 0
_________________________________________________________________
Summary  None
Red
-0.06234076652271803
Typer KerasRegressor
Hello world
{'pool': 2, 'HP_L1_REG': 0.1, 'kernel': 2, 'rate': 0.0, 'activation': 'tanh', 'epochs': 100, 'kernel_initializer': 'glorot_uniform', 'HP_L2_REG': 0.2, 'filters': 2, 'HP_OPTIMIZER': 'SGD', 'units': 200, 'strides': 2, 'HP_NUM_HIDDEN_LAYERS': 3, 'learning_rate': 0.001}
Blue
Model: "sequential"
_________________________________________________________________
Layer (type)                 Output Shape              Param #   
=================================================================
conv1d (Conv1D)              (None, 5000, 2)           6         
_________________________________________________________________
max_pooling1d (MaxPooling1D) (None, 2500, 2)           0         
_________________________________________________________________
conv1d_1 (Conv1D)            (None, 1250, 2)           10        
_________________________________________________________________
max_pooling1d_1 (MaxPooling1 (None, 625, 2)            0         
_________________________________________________________________
flatten (Flatten)            (None, 1250)              0         
_________________________________________________________________
dense (Dense)                (None, 1)                 1251      
=================================================================
Total params: 1,267
Trainable params: 1,267
Non-trainable params: 0
_________________________________________________________________
Summary  None
Red
-0.04193885227518712
Typer KerasRegressor
Hello world
{'pool': 2, 'HP_L1_REG': 0.1, 'kernel': 1, 'rate': 0.0, 'activation': 'tanh', 'epochs': 100, 'kernel_initializer': 'glorot_uniform', 'HP_L2_REG': 0.2, 'filters': 1, 'HP_OPTIMIZER': 'SGD', 'units': 200, 'strides': 2, 'HP_NUM_HIDDEN_LAYERS': 3, 'learning_rate': 0.01}
Blue
Model: "sequential"
_________________________________________________________________
Layer (type)                 Output Shape              Param #   
=================================================================
conv1d (Conv1D)              (None, 5000, 1)           2         
_________________________________________________________________
max_pooling1d (MaxPooling1D) (None, 2500, 1)           0         
_________________________________________________________________
conv1d_1 (Conv1D)            (None, 1250, 1)           2         
_________________________________________________________________
max_pooling1d_1 (MaxPooling1 (None, 625, 1)            0         
_________________________________________________________________
flatten (Flatten)            (None, 625)               0         
_________________________________________________________________
dense (Dense)                (None, 1)                 626       
=================================================================
Total params: 630
Trainable params: 630
Non-trainable params: 0
_________________________________________________________________
Summary  None
Red
-0.033701504904684265
Typer KerasRegressor
Hello world
OUTER COUNT NO.  4
champ
(766, 10000)
Model: "sequential"
_________________________________________________________________
Layer (type)                 Output Shape              Param #   
=================================================================
conv1d (Conv1D)              (None, 9999, 2)           6         
_________________________________________________________________
max_pooling1d (MaxPooling1D) (None, 9998, 2)           0         
_________________________________________________________________
conv1d_1 (Conv1D)            (None, 9997, 2)           10        
_________________________________________________________________
max_pooling1d_1 (MaxPooling1 (None, 9996, 2)           0         
_________________________________________________________________
flatten (Flatten)            (None, 19992)             0         
_________________________________________________________________
dense (Dense)                (None, 1)                 19993     
=================================================================
Total params: 20,009
Trainable params: 20,009
Non-trainable params: 0
_________________________________________________________________
Summary  None
-0.021763581859840286
Best Params of CNN is {'pool': [1, 2], 'learning_rate': [0.01, 0.001], 'kernel': [2], 'rate': [0.0], 'units': [200], 'HP_OPTIMIZER': ['SGD'], 'epochs': [100, 200], 'kernel_initializer': ['glorot_uniform'], 'HP_L2_REG': [0.2], 'filters': [2], 'HP_L1_REG': [0.1], 'activation': ['tanh'], 'HP_NUM_HIDDEN_LAYERS': [3], 'strides': [1]} 
…
