…
2021-11-04 12:39:40.487323: I tensorflow/core/platform/profile_utils/cpu_utils.cc:94] CPU Frequency: 2200045000 Hz
2021-11-04 12:39:40.491188: I tensorflow/compiler/xla/service/service.cc:168] XLA service 0x165b3910 executing computations on platform Host. Devices:
2021-11-04 12:39:40.491231: I tensorflow/compiler/xla/service/service.cc:175]   StreamExecutor device (0): <undefined>, <undefined>
Model: "sequential"
_________________________________________________________________
Layer (type)                 Output Shape              Param #   
=================================================================
dense (Dense)                (None, 400)               4000000   
_________________________________________________________________
dropout (Dropout)            (None, 400)               0         
_________________________________________________________________
dense_1 (Dense)              (None, 400)               160400    
_________________________________________________________________
dropout_1 (Dropout)          (None, 400)               0         
_________________________________________________________________
dense_2 (Dense)              (None, 400)               160400    
_________________________________________________________________
dropout_2 (Dropout)          (None, 400)               0         
_________________________________________________________________
dense_3 (Dense)              (None, 400)               160400    
_________________________________________________________________
dropout_3 (Dropout)          (None, 400)               0         
_________________________________________________________________
dense_4 (Dense)              (None, 400)               160400    
_________________________________________________________________
dropout_4 (Dropout)          (None, 400)               0         
_________________________________________________________________
dense_5 (Dense)              (None, 1)                 401       
=================================================================
Total params: 4,642,001
Trainable params: 4,642,001
Non-trainable params: 0
_________________________________________________________________
None
2021-11-04 12:39:42.556923: W tensorflow/compiler/jit/mark_for_compilation_pass.cc:1483] (One-time warning): Not using XLA:CPU for cluster because envvar TF_XLA_FLAGS=--tf_xla_cpu_global_jit was not set.  If you want XLA:CPU, either set that envvar, or use experimental_jit_scope to enable XLA:CPU.  To confirm that XLA is active, pass --vmodule=xla_compilation_cache=1 (as a proper command-line flag, not via TF_XLA_FLAGS) or set the envvar XLA_FLAGS=--xla_hlo_profile.
Red
-13.492962999011512
Typer KerasRegressor
Hello world
{'HP_L2_REG': 0.01, 'learning_rate': 1e-05, 'HP_NUM_HIDDEN_LAYERS': 4, 'units': 1000, 'kernel_initializer': 'glorot_uniform', 'rate': 0.5, 'HP_L1_REG': 0.1, 'activation': 'tanh', 'HP_OPTIMIZER': 'Adagrad'}
Blue
Model: "sequential"
_________________________________________________________________
Layer (type)                 Output Shape              Param #   
=================================================================
dense (Dense)                (None, 1000)              10000000  
_________________________________________________________________
dropout (Dropout)            (None, 1000)              0         
_________________________________________________________________
dense_1 (Dense)              (None, 1000)              1001000   
_________________________________________________________________
dropout_1 (Dropout)          (None, 1000)              0         
_________________________________________________________________
dense_2 (Dense)              (None, 1000)              1001000   
_________________________________________________________________
dropout_2 (Dropout)          (None, 1000)              0         
_________________________________________________________________
dense_3 (Dense)              (None, 1000)              1001000   
_________________________________________________________________
dropout_3 (Dropout)          (None, 1000)              0         
_________________________________________________________________
dense_4 (Dense)              (None, 1)                 1001      
=================================================================
Total params: 13,004,001
Trainable params: 13,004,001
Non-trainable params: 0
_________________________________________________________________
None
Red
-27.350538912287163
Typer KerasRegressor
Hello world
{'HP_L2_REG': 1e-08, 'learning_rate': 0.01, 'HP_NUM_HIDDEN_LAYERS': 3, 'units': 200, 'kernel_initializer': 'glorot_uniform', 'rate': 0.0, 'HP_L1_REG': 0.0001, 'activation': 'relu', 'HP_OPTIMIZER': 'SGD'}
Blue
Model: "sequential"
_________________________________________________________________
Layer (type)                 Output Shape              Param #   
=================================================================
dense (Dense)                (None, 200)               2000000   
_________________________________________________________________
dense_1 (Dense)              (None, 200)               40200     
_________________________________________________________________
dense_2 (Dense)              (None, 200)               40200     
_________________________________________________________________
dense_3 (Dense)              (None, 1)                 201       
=================================================================
Total params: 2,080,601
Trainable params: 2,080,601
Non-trainable params: 0
_________________________________________________________________
None
Red
-3.567922156197085
Typer KerasRegressor
Hello world
{'HP_L2_REG': 0.01, 'learning_rate': 0.01, 'HP_NUM_HIDDEN_LAYERS': 2, 'units': 200, 'kernel_initializer': 'glorot_uniform', 'rate': 0.1, 'HP_L1_REG': 0.1, 'activation': 'relu', 'HP_OPTIMIZER': 'Adagrad'}
Blue
Model: "sequential"
_________________________________________________________________
Layer (type)                 Output Shape              Param #   
=================================================================
dense (Dense)                (None, 200)               2000000   
_________________________________________________________________
dropout (Dropout)            (None, 200)               0         
_________________________________________________________________
dense_1 (Dense)              (None, 200)               40200     
_________________________________________________________________
dropout_1 (Dropout)          (None, 200)               0         
_________________________________________________________________
dense_2 (Dense)              (None, 1)                 201       
=================================================================
Total params: 2,040,401
Trainable params: 2,040,401
Non-trainable params: 0
_________________________________________________________________
None
Red
0.31532968640944525
Typer KerasRegressor
Hello world
{'HP_L2_REG': 0.2, 'learning_rate': 0.01, 'HP_NUM_HIDDEN_LAYERS': 5, 'units': 200, 'kernel_initializer': 'glorot_uniform', 'rate': 0.5, 'HP_L1_REG': 0.01, 'activation': 'tanh', 'HP_OPTIMIZER': 'Adagrad'}
Blue
Model: "sequential"
_________________________________________________________________
Layer (type)                 Output Shape              Param #   
=================================================================
dense (Dense)                (None, 200)               2000000   
_________________________________________________________________
dropout (Dropout)            (None, 200)               0         
_________________________________________________________________
dense_1 (Dense)              (None, 200)               40200     
_________________________________________________________________
dropout_1 (Dropout)          (None, 200)               0         
_________________________________________________________________
dense_2 (Dense)              (None, 200)               40200     
_________________________________________________________________
dropout_2 (Dropout)          (None, 200)               0         
_________________________________________________________________
dense_3 (Dense)              (None, 200)               40200     
_________________________________________________________________
dropout_3 (Dropout)          (None, 200)               0         
_________________________________________________________________
dense_4 (Dense)              (None, 200)               40200     
_________________________________________________________________
dropout_4 (Dropout)          (None, 200)               0         
_________________________________________________________________
dense_5 (Dense)              (None, 1)                 201       
=================================================================
Total params: 2,161,001
Trainable params: 2,161,001
Non-trainable params: 0
_________________________________________________________________
None
Red
0.29914770100178023
Typer KerasRegressor
Hello world
{'HP_L2_REG': 0.2, 'learning_rate': 0.0001, 'HP_NUM_HIDDEN_LAYERS': 2, 'units': 1000, 'kernel_initializer': 'glorot_uniform', 'rate': 0.5, 'HP_L1_REG': 0.01, 'activation': 'relu', 'HP_OPTIMIZER': 'Adam'}
Blue
Model: "sequential"
_________________________________________________________________
Layer (type)                 Output Shape              Param #   
=================================================================
dense (Dense)                (None, 1000)              10000000  
_________________________________________________________________
dropout (Dropout)            (None, 1000)              0         
_________________________________________________________________
dense_1 (Dense)              (None, 1000)              1001000   
_________________________________________________________________
dropout_1 (Dropout)          (None, 1000)              0         
_________________________________________________________________
dense_2 (Dense)              (None, 1)                 1001      
=================================================================
Total params: 11,002,001
Trainable params: 11,002,001
Non-trainable params: 0
_________________________________________________________________
None
Red
0.5241563756248588
Typer KerasRegressor
Hello world
{'HP_L2_REG': 1e-08, 'learning_rate': 0.01, 'HP_NUM_HIDDEN_LAYERS': 3, 'units': 200, 'kernel_initializer': 'glorot_uniform', 'rate': 0.0, 'HP_L1_REG': 0.0001, 'activation': 'tanh', 'HP_OPTIMIZER': 'Adam'}
Blue
Model: "sequential"
_________________________________________________________________
Layer (type)                 Output Shape              Param #   
=================================================================
dense (Dense)                (None, 200)               2000000   
_________________________________________________________________
dense_1 (Dense)              (None, 200)               40200     
_________________________________________________________________
dense_2 (Dense)              (None, 200)               40200     
_________________________________________________________________
dense_3 (Dense)              (None, 1)                 201       
=================================================================
Total params: 2,080,601
Trainable params: 2,080,601
Non-trainable params: 0
_________________________________________________________________
None
Red
0.3062791851010592
Typer KerasRegressor
Hello world
{'HP_L2_REG': 1e-08, 'learning_rate': 0.01, 'HP_NUM_HIDDEN_LAYERS': 5, 'units': 1000, 'kernel_initializer': 'glorot_uniform', 'rate': 0.2, 'HP_L1_REG': 0.01, 'activation': 'tanh', 'HP_OPTIMIZER': 'Adagrad'}
Blue
Model: "sequential"
_________________________________________________________________
Layer (type)                 Output Shape              Param #   
=================================================================
dense (Dense)                (None, 1000)              10000000  
_________________________________________________________________
dropout (Dropout)            (None, 1000)              0         
_________________________________________________________________
dense_1 (Dense)              (None, 1000)              1001000   
_________________________________________________________________
dropout_1 (Dropout)          (None, 1000)              0         
_________________________________________________________________
dense_2 (Dense)              (None, 1000)              1001000   
_________________________________________________________________
dropout_2 (Dropout)          (None, 1000)              0         
_________________________________________________________________
dense_3 (Dense)              (None, 1000)              1001000   
_________________________________________________________________
dropout_3 (Dropout)          (None, 1000)              0         
_________________________________________________________________
dense_4 (Dense)              (None, 1000)              1001000   
_________________________________________________________________
dropout_4 (Dropout)          (None, 1000)              0         
_________________________________________________________________
dense_5 (Dense)              (None, 1)                 1001      
=================================================================
Total params: 14,005,001
Trainable params: 14,005,001
Non-trainable params: 0
_________________________________________________________________
None
Red
0.43176518489514903
Typer KerasRegressor
Hello world
{'HP_L2_REG': 0.01, 'learning_rate': 0.001, 'HP_NUM_HIDDEN_LAYERS': 2, 'units': 400, 'kernel_initializer': 'glorot_uniform', 'rate': 0.2, 'HP_L1_REG': 0.01, 'activation': 'tanh', 'HP_OPTIMIZER': 'Adam'}
Blue
Model: "sequential"
_________________________________________________________________
Layer (type)                 Output Shape              Param #   
=================================================================
dense (Dense)                (None, 400)               4000000   
_________________________________________________________________
dropout (Dropout)            (None, 400)               0         
_________________________________________________________________
dense_1 (Dense)              (None, 400)               160400    
_________________________________________________________________
dropout_1 (Dropout)          (None, 400)               0         
_________________________________________________________________
dense_2 (Dense)              (None, 1)                 401       
=================================================================
Total params: 4,160,801
Trainable params: 4,160,801
Non-trainable params: 0
_________________________________________________________________
None
Red
0.602622912827745
Typer KerasRegressor
Hello world
{'HP_L2_REG': 0.01, 'learning_rate': 0.01, 'HP_NUM_HIDDEN_LAYERS': 3, 'units': 400, 'kernel_initializer': 'glorot_uniform', 'rate': 0.0, 'HP_L1_REG': 0.0001, 'activation': 'tanh', 'HP_OPTIMIZER': 'Adagrad'}
Blue
Model: "sequential"
_________________________________________________________________
Layer (type)                 Output Shape              Param #   
=================================================================
dense (Dense)                (None, 400)               4000000   
_________________________________________________________________
dense_1 (Dense)              (None, 400)               160400    
_________________________________________________________________
dense_2 (Dense)              (None, 400)               160400    
_________________________________________________________________
dense_3 (Dense)              (None, 1)                 401       
=================================================================
Total params: 4,321,201
Trainable params: 4,321,201
Non-trainable params: 0
_________________________________________________________________
None
Red
0.606249393895057
Typer KerasRegressor
Hello world
{'HP_L2_REG': 0.0001, 'learning_rate': 1e-05, 'HP_NUM_HIDDEN_LAYERS': 2, 'units': 1000, 'kernel_initializer': 'glorot_uniform', 'rate': 0.5, 'HP_L1_REG': 0.0001, 'activation': 'relu', 'HP_OPTIMIZER': 'SGD'}
Blue
Model: "sequential"
_________________________________________________________________
Layer (type)                 Output Shape              Param #   
=================================================================
dense (Dense)                (None, 1000)              10000000  
_________________________________________________________________
dropout (Dropout)            (None, 1000)              0         
_________________________________________________________________
dense_1 (Dense)              (None, 1000)              1001000   
_________________________________________________________________
dropout_1 (Dropout)          (None, 1000)              0         
_________________________________________________________________
dense_2 (Dense)              (None, 1)                 1001      
=================================================================
Total params: 11,002,001
Trainable params: 11,002,001
Non-trainable params: 0
_________________________________________________________________
None
Red
-25.07935748875919
Typer KerasRegressor
Hello world
{'HP_L2_REG': 0.0001, 'learning_rate': 0.01, 'HP_NUM_HIDDEN_LAYERS': 4, 'units': 200, 'kernel_initializer': 'glorot_uniform', 'rate': 0.5, 'HP_L1_REG': 0.001, 'activation': 'tanh', 'HP_OPTIMIZER': 'Adam'}
Blue
Model: "sequential"
_________________________________________________________________
Layer (type)                 Output Shape              Param #   
=================================================================
dense (Dense)                (None, 200)               2000000   
_________________________________________________________________
dropout (Dropout)            (None, 200)               0         
_________________________________________________________________
dense_1 (Dense)              (None, 200)               40200     
_________________________________________________________________
dropout_1 (Dropout)          (None, 200)               0         
_________________________________________________________________
dense_2 (Dense)              (None, 200)               40200     
_________________________________________________________________
dropout_2 (Dropout)          (None, 200)               0         
_________________________________________________________________
dense_3 (Dense)              (None, 200)               40200     
_________________________________________________________________
dropout_3 (Dropout)          (None, 200)               0         
_________________________________________________________________
dense_4 (Dense)              (None, 1)                 201       
=================================================================
Total params: 2,120,801
Trainable params: 2,120,801
Non-trainable params: 0
_________________________________________________________________
None
Red
0.35303887044085935
Typer KerasRegressor
Hello world
{'HP_L2_REG': 1e-08, 'learning_rate': 1e-05, 'HP_NUM_HIDDEN_LAYERS': 4, 'units': 400, 'kernel_initializer': 'glorot_uniform', 'rate': 0.0, 'HP_L1_REG': 0.001, 'activation': 'tanh', 'HP_OPTIMIZER': 'Adagrad'}
Blue
Model: "sequential"
_________________________________________________________________
Layer (type)                 Output Shape              Param #   
=================================================================
dense (Dense)                (None, 400)               4000000   
_________________________________________________________________
dense_1 (Dense)              (None, 400)               160400    
_________________________________________________________________
dense_2 (Dense)              (None, 400)               160400    
_________________________________________________________________
dense_3 (Dense)              (None, 400)               160400    
_________________________________________________________________
dense_4 (Dense)              (None, 1)                 401       
=================================================================
Total params: 4,481,601
Trainable params: 4,481,601
Non-trainable params: 0
_________________________________________________________________
None
Red
-22.739976555369953
Typer KerasRegressor
Hello world
{'HP_L2_REG': 0.01, 'learning_rate': 0.001, 'HP_NUM_HIDDEN_LAYERS': 5, 'units': 200, 'kernel_initializer': 'glorot_uniform', 'rate': 0.2, 'HP_L1_REG': 0.1, 'activation': 'relu', 'HP_OPTIMIZER': 'Adagrad'}
Blue
Model: "sequential"
_________________________________________________________________
Layer (type)                 Output Shape              Param #   
=================================================================
dense (Dense)                (None, 200)               2000000   
_________________________________________________________________
dropout (Dropout)            (None, 200)               0         
_________________________________________________________________
dense_1 (Dense)              (None, 200)               40200     
_________________________________________________________________
dropout_1 (Dropout)          (None, 200)               0         
_________________________________________________________________
dense_2 (Dense)              (None, 200)               40200     
_________________________________________________________________
dropout_2 (Dropout)          (None, 200)               0         
_________________________________________________________________
dense_3 (Dense)              (None, 200)               40200     
_________________________________________________________________
dropout_3 (Dropout)          (None, 200)               0         
_________________________________________________________________
dense_4 (Dense)              (None, 200)               40200     
_________________________________________________________________
dropout_4 (Dropout)          (None, 200)               0         
_________________________________________________________________
dense_5 (Dense)              (None, 1)                 201       
=================================================================
Total params: 2,161,001
Trainable params: 2,161,001
Non-trainable params: 0
_________________________________________________________________
None
Red
-26.836133480938607
Typer KerasRegressor
Hello world
{'HP_L2_REG': 0.0001, 'learning_rate': 0.0001, 'HP_NUM_HIDDEN_LAYERS': 5, 'units': 400, 'kernel_initializer': 'glorot_uniform', 'rate': 0.1, 'HP_L1_REG': 0.1, 'activation': 'tanh', 'HP_OPTIMIZER': 'SGD'}
Blue
Model: "sequential"
_________________________________________________________________
Layer (type)                 Output Shape              Param #   
=================================================================
dense (Dense)                (None, 400)               4000000   
_________________________________________________________________
dropout (Dropout)            (None, 400)               0         
_________________________________________________________________
dense_1 (Dense)              (None, 400)               160400    
_________________________________________________________________
dropout_1 (Dropout)          (None, 400)               0         
_________________________________________________________________
dense_2 (Dense)              (None, 400)               160400    
_________________________________________________________________
dropout_2 (Dropout)          (None, 400)               0         
_________________________________________________________________
dense_3 (Dense)              (None, 400)               160400    
_________________________________________________________________
dropout_3 (Dropout)          (None, 400)               0         
_________________________________________________________________
dense_4 (Dense)              (None, 400)               160400    
_________________________________________________________________
dropout_4 (Dropout)          (None, 400)               0         
_________________________________________________________________
dense_5 (Dense)              (None, 1)                 401       
=================================================================
Total params: 4,642,001
Trainable params: 4,642,001
Non-trainable params: 0
_________________________________________________________________
None
Red
-3.788954537540265
Typer KerasRegressor
Hello world
{'HP_L2_REG': 1e-08, 'learning_rate': 0.001, 'HP_NUM_HIDDEN_LAYERS': 4, 'units': 200, 'kernel_initializer': 'glorot_uniform', 'rate': 0.2, 'HP_L1_REG': 0.0001, 'activation': 'relu', 'HP_OPTIMIZER': 'Adagrad'}
Blue
Model: "sequential"
_________________________________________________________________
Layer (type)                 Output Shape              Param #   
=================================================================
dense (Dense)                (None, 200)               2000000   
_________________________________________________________________
dropout (Dropout)            (None, 200)               0         
_________________________________________________________________
dense_1 (Dense)              (None, 200)               40200     
_________________________________________________________________
dropout_1 (Dropout)          (None, 200)               0         
_________________________________________________________________
dense_2 (Dense)              (None, 200)               40200     
_________________________________________________________________
dropout_2 (Dropout)          (None, 200)               0         
_________________________________________________________________
dense_3 (Dense)              (None, 200)               40200     
_________________________________________________________________
dropout_3 (Dropout)          (None, 200)               0         
_________________________________________________________________
dense_4 (Dense)              (None, 1)                 201       
=================================================================
Total params: 2,120,801
Trainable params: 2,120,801
Non-trainable params: 0
_________________________________________________________________
None
Red
0.36340707994176835
Typer KerasRegressor
Hello world
{'HP_L2_REG': 0.2, 'learning_rate': 0.001, 'HP_NUM_HIDDEN_LAYERS': 4, 'units': 200, 'kernel_initializer': 'glorot_uniform', 'rate': 0.5, 'HP_L1_REG': 0.1, 'activation': 'relu', 'HP_OPTIMIZER': 'SGD'}
Blue
Model: "sequential"
_________________________________________________________________
Layer (type)                 Output Shape              Param #   
=================================================================
dense (Dense)                (None, 200)               2000000   
_________________________________________________________________
dropout (Dropout)            (None, 200)               0         
_________________________________________________________________
dense_1 (Dense)              (None, 200)               40200     
_________________________________________________________________
dropout_1 (Dropout)          (None, 200)               0         
_________________________________________________________________
dense_2 (Dense)              (None, 200)               40200     
_________________________________________________________________
dropout_2 (Dropout)          (None, 200)               0         
_________________________________________________________________
dense_3 (Dense)              (None, 200)               40200     
_________________________________________________________________
dropout_3 (Dropout)          (None, 200)               0         
_________________________________________________________________
dense_4 (Dense)              (None, 1)                 201       
=================================================================
Total params: 2,120,801
Trainable params: 2,120,801
Non-trainable params: 0
_________________________________________________________________
None
Red
-0.531677726310477
Typer KerasRegressor
Hello world
{'HP_L2_REG': 1e-08, 'learning_rate': 0.01, 'HP_NUM_HIDDEN_LAYERS': 2, 'units': 1000, 'kernel_initializer': 'glorot_uniform', 'rate': 0.0, 'HP_L1_REG': 0.01, 'activation': 'relu', 'HP_OPTIMIZER': 'SGD'}
Blue
Model: "sequential"
_________________________________________________________________
Layer (type)                 Output Shape              Param #   
=================================================================
dense (Dense)                (None, 1000)              10000000  
_________________________________________________________________
dense_1 (Dense)              (None, 1000)              1001000   
_________________________________________________________________
dense_2 (Dense)              (None, 1)                 1001      
=================================================================
Total params: 11,002,001
Trainable params: 11,002,001
Non-trainable params: 0
_________________________________________________________________
None
Red
-9.250722274569567
Typer KerasRegressor
Hello world
{'HP_L2_REG': 0.0001, 'learning_rate': 0.01, 'HP_NUM_HIDDEN_LAYERS': 3, 'units': 200, 'kernel_initializer': 'glorot_uniform', 'rate': 0.2, 'HP_L1_REG': 0.0001, 'activation': 'relu', 'HP_OPTIMIZER': 'Adagrad'}
Blue
Model: "sequential"
_________________________________________________________________
Layer (type)                 Output Shape              Param #   
=================================================================
dense (Dense)                (None, 200)               2000000   
_________________________________________________________________
dropout (Dropout)            (None, 200)               0         
_________________________________________________________________
dense_1 (Dense)              (None, 200)               40200     
_________________________________________________________________
dropout_1 (Dropout)          (None, 200)               0         
_________________________________________________________________
dense_2 (Dense)              (None, 200)               40200     
_________________________________________________________________
dropout_2 (Dropout)          (None, 200)               0         
_________________________________________________________________
dense_3 (Dense)              (None, 1)                 201       
=================================================================
Total params: 2,080,601
Trainable params: 2,080,601
Non-trainable params: 0
_________________________________________________________________
None
Red
-2.3646474807473714
Typer KerasRegressor
Hello world
{'HP_L2_REG': 0.0001, 'learning_rate': 1e-05, 'HP_NUM_HIDDEN_LAYERS': 3, 'units': 200, 'kernel_initializer': 'glorot_uniform', 'rate': 0.1, 'HP_L1_REG': 0.0001, 'activation': 'relu', 'HP_OPTIMIZER': 'Adam'}
Blue
Model: "sequential"
_________________________________________________________________
Layer (type)                 Output Shape              Param #   
=================================================================
dense (Dense)                (None, 200)               2000000   
_________________________________________________________________
dropout (Dropout)            (None, 200)               0         
_________________________________________________________________
dense_1 (Dense)              (None, 200)               40200     
_________________________________________________________________
dropout_1 (Dropout)          (None, 200)               0         
_________________________________________________________________
dense_2 (Dense)              (None, 200)               40200     
_________________________________________________________________
dropout_2 (Dropout)          (None, 200)               0         
_________________________________________________________________
dense_3 (Dense)              (None, 1)                 201       
=================================================================
Total params: 2,080,601
Trainable params: 2,080,601
Non-trainable params: 0
_________________________________________________________________
None
Red
0.5663782101960316
Typer KerasRegressor
Hello world
{'HP_L2_REG': 0.01, 'learning_rate': 0.001, 'HP_NUM_HIDDEN_LAYERS': 5, 'units': 200, 'kernel_initializer': 'glorot_uniform', 'rate': 0.0, 'HP_L1_REG': 0.01, 'activation': 'tanh', 'HP_OPTIMIZER': 'Adagrad'}
Blue
Model: "sequential"
_________________________________________________________________
Layer (type)                 Output Shape              Param #   
=================================================================
dense (Dense)                (None, 200)               2000000   
_________________________________________________________________
dense_1 (Dense)              (None, 200)               40200     
_________________________________________________________________
dense_2 (Dense)              (None, 200)               40200     
_________________________________________________________________
dense_3 (Dense)              (None, 200)               40200     
_________________________________________________________________
dense_4 (Dense)              (None, 200)               40200     
_________________________________________________________________
dense_5 (Dense)              (None, 1)                 201       
=================================================================
Total params: 2,161,001
Trainable params: 2,161,001
Non-trainable params: 0
_________________________________________________________________
None
Red
-9.754590591702618
Typer KerasRegressor
Hello world
{'HP_L2_REG': 0.2, 'learning_rate': 0.0001, 'HP_NUM_HIDDEN_LAYERS': 3, 'units': 1000, 'kernel_initializer': 'glorot_uniform', 'rate': 0.1, 'HP_L1_REG': 0.1, 'activation': 'relu', 'HP_OPTIMIZER': 'SGD'}
Blue
Model: "sequential"
_________________________________________________________________
Layer (type)                 Output Shape              Param #   
=================================================================
dense (Dense)                (None, 1000)              10000000  
_________________________________________________________________
dropout (Dropout)            (None, 1000)              0         
_________________________________________________________________
dense_1 (Dense)              (None, 1000)              1001000   
_________________________________________________________________
dropout_1 (Dropout)          (None, 1000)              0         
_________________________________________________________________
dense_2 (Dense)              (None, 1000)              1001000   
_________________________________________________________________
dropout_2 (Dropout)          (None, 1000)              0         
_________________________________________________________________
dense_3 (Dense)              (None, 1)                 1001      
=================================================================
Total params: 12,003,001
Trainable params: 12,003,001
Non-trainable params: 0
_________________________________________________________________
None
Red
0.35835263897851366
Typer KerasRegressor
Hello world
{'HP_L2_REG': 0.01, 'learning_rate': 0.0001, 'HP_NUM_HIDDEN_LAYERS': 2, 'units': 1000, 'kernel_initializer': 'glorot_uniform', 'rate': 0.5, 'HP_L1_REG': 0.1, 'activation': 'relu', 'HP_OPTIMIZER': 'Adagrad'}
Blue
Model: "sequential"
_________________________________________________________________
Layer (type)                 Output Shape              Param #   
=================================================================
dense (Dense)                (None, 1000)              10000000  
_________________________________________________________________
dropout (Dropout)            (None, 1000)              0         
_________________________________________________________________
dense_1 (Dense)              (None, 1000)              1001000   
_________________________________________________________________
dropout_1 (Dropout)          (None, 1000)              0         
_________________________________________________________________
dense_2 (Dense)              (None, 1)                 1001      
=================================================================
Total params: 11,002,001
Trainable params: 11,002,001
Non-trainable params: 0
_________________________________________________________________
None
Red
-27.319235444211444
Typer KerasRegressor
Hello world
{'HP_L2_REG': 1e-08, 'learning_rate': 0.01, 'HP_NUM_HIDDEN_LAYERS': 5, 'units': 200, 'kernel_initializer': 'glorot_uniform', 'rate': 0.5, 'HP_L1_REG': 0.1, 'activation': 'relu', 'HP_OPTIMIZER': 'Adam'}
Blue
Model: "sequential"
_________________________________________________________________
Layer (type)                 Output Shape              Param #   
=================================================================
dense (Dense)                (None, 200)               2000000   
_________________________________________________________________
dropout (Dropout)            (None, 200)               0         
_________________________________________________________________
dense_1 (Dense)              (None, 200)               40200     
_________________________________________________________________
dropout_1 (Dropout)          (None, 200)               0         
_________________________________________________________________
dense_2 (Dense)              (None, 200)               40200     
_________________________________________________________________
dropout_2 (Dropout)          (None, 200)               0         
_________________________________________________________________
dense_3 (Dense)              (None, 200)               40200     
_________________________________________________________________
dropout_3 (Dropout)          (None, 200)               0         
_________________________________________________________________
dense_4 (Dense)              (None, 200)               40200     
_________________________________________________________________
dropout_4 (Dropout)          (None, 200)               0         
_________________________________________________________________
dense_5 (Dense)              (None, 1)                 201       
=================================================================
Total params: 2,161,001
Trainable params: 2,161,001
Non-trainable params: 0
_________________________________________________________________
None
Red
-0.013347596493899383
Typer KerasRegressor
Hello world
{'HP_L2_REG': 0.01, 'learning_rate': 0.001, 'HP_NUM_HIDDEN_LAYERS': 4, 'units': 200, 'kernel_initializer': 'glorot_uniform', 'rate': 0.0, 'HP_L1_REG': 0.01, 'activation': 'tanh', 'HP_OPTIMIZER': 'Adam'}
Blue
Model: "sequential"
_________________________________________________________________
Layer (type)                 Output Shape              Param #   
=================================================================
dense (Dense)                (None, 200)               2000000   
_________________________________________________________________
dense_1 (Dense)              (None, 200)               40200     
_________________________________________________________________
dense_2 (Dense)              (None, 200)               40200     
_________________________________________________________________
dense_3 (Dense)              (None, 200)               40200     
_________________________________________________________________
dense_4 (Dense)              (None, 1)                 201       
=================================================================
Total params: 2,120,801
Trainable params: 2,120,801
Non-trainable params: 0
_________________________________________________________________
None
Red
0.5839809566216353
Typer KerasRegressor
Hello world
{'HP_L2_REG': 0.2, 'learning_rate': 0.01, 'HP_NUM_HIDDEN_LAYERS': 4, 'units': 200, 'kernel_initializer': 'glorot_uniform', 'rate': 0.5, 'HP_L1_REG': 0.001, 'activation': 'relu', 'HP_OPTIMIZER': 'Adam'}
Blue
Model: "sequential"
_________________________________________________________________
Layer (type)                 Output Shape              Param #   
=================================================================
dense (Dense)                (None, 200)               2000000   
_________________________________________________________________
dropout (Dropout)            (None, 200)               0         
_________________________________________________________________
dense_1 (Dense)              (None, 200)               40200     
_________________________________________________________________
dropout_1 (Dropout)          (None, 200)               0         
_________________________________________________________________
dense_2 (Dense)              (None, 200)               40200     
_________________________________________________________________
dropout_2 (Dropout)          (None, 200)               0         
_________________________________________________________________
dense_3 (Dense)              (None, 200)               40200     
_________________________________________________________________
dropout_3 (Dropout)          (None, 200)               0         
_________________________________________________________________
dense_4 (Dense)              (None, 1)                 201       
=================================================================
Total params: 2,120,801
Trainable params: 2,120,801
Non-trainable params: 0
_________________________________________________________________
None
Red
0.48264905321793217
Typer KerasRegressor
Hello world
{'HP_L2_REG': 1e-08, 'learning_rate': 0.001, 'HP_NUM_HIDDEN_LAYERS': 4, 'units': 200, 'kernel_initializer': 'glorot_uniform', 'rate': 0.1, 'HP_L1_REG': 0.001, 'activation': 'relu', 'HP_OPTIMIZER': 'Adagrad'}
Blue
Model: "sequential"
_________________________________________________________________
Layer (type)                 Output Shape              Param #   
=================================================================
dense (Dense)                (None, 200)               2000000   
_________________________________________________________________
dropout (Dropout)            (None, 200)               0         
_________________________________________________________________
dense_1 (Dense)              (None, 200)               40200     
_________________________________________________________________
dropout_1 (Dropout)          (None, 200)               0         
_________________________________________________________________
dense_2 (Dense)              (None, 200)               40200     
_________________________________________________________________
dropout_2 (Dropout)          (None, 200)               0         
_________________________________________________________________
dense_3 (Dense)              (None, 200)               40200     
_________________________________________________________________
dropout_3 (Dropout)          (None, 200)               0         
_________________________________________________________________
dense_4 (Dense)              (None, 1)                 201       
=================================================================
Total params: 2,120,801
Trainable params: 2,120,801
Non-trainable params: 0
_________________________________________________________________
None
Red
0.5233070319263269
Typer KerasRegressor
Hello world
{'HP_L2_REG': 1e-08, 'learning_rate': 0.001, 'HP_NUM_HIDDEN_LAYERS': 2, 'units': 200, 'kernel_initializer': 'glorot_uniform', 'rate': 0.2, 'HP_L1_REG': 0.0001, 'activation': 'tanh', 'HP_OPTIMIZER': 'Adagrad'}
Blue
Model: "sequential"
_________________________________________________________________
Layer (type)                 Output Shape              Param #   
=================================================================
dense (Dense)                (None, 200)               2000000   
_________________________________________________________________
dropout (Dropout)            (None, 200)               0         
_________________________________________________________________
dense_1 (Dense)              (None, 200)               40200     
_________________________________________________________________
dropout_1 (Dropout)          (None, 200)               0         
_________________________________________________________________
dense_2 (Dense)              (None, 1)                 201       
=================================================================
Total params: 2,040,401
Trainable params: 2,040,401
Non-trainable params: 0
_________________________________________________________________
None
Red
-9.619369916544246
Typer KerasRegressor
Hello world
{'HP_L2_REG': 1e-08, 'learning_rate': 1e-05, 'HP_NUM_HIDDEN_LAYERS': 5, 'units': 200, 'kernel_initializer': 'glorot_uniform', 'rate': 0.5, 'HP_L1_REG': 0.01, 'activation': 'relu', 'HP_OPTIMIZER': 'SGD'}
Blue
Model: "sequential"
_________________________________________________________________
Layer (type)                 Output Shape              Param #   
=================================================================
dense (Dense)                (None, 200)               2000000   
_________________________________________________________________
dropout (Dropout)            (None, 200)               0         
_________________________________________________________________
dense_1 (Dense)              (None, 200)               40200     
_________________________________________________________________
dropout_1 (Dropout)          (None, 200)               0         
_________________________________________________________________
dense_2 (Dense)              (None, 200)               40200     
_________________________________________________________________
dropout_2 (Dropout)          (None, 200)               0         
_________________________________________________________________
dense_3 (Dense)              (None, 200)               40200     
_________________________________________________________________
dropout_3 (Dropout)          (None, 200)               0         
_________________________________________________________________
dense_4 (Dense)              (None, 200)               40200     
_________________________________________________________________
dropout_4 (Dropout)          (None, 200)               0         
_________________________________________________________________
dense_5 (Dense)              (None, 1)                 201       
=================================================================
Total params: 2,161,001
Trainable params: 2,161,001
Non-trainable params: 0
_________________________________________________________________
None
Red
-27.823737349178607
Typer KerasRegressor
Hello world
{'HP_L2_REG': 0.01, 'learning_rate': 0.001, 'HP_NUM_HIDDEN_LAYERS': 3, 'units': 200, 'kernel_initializer': 'glorot_uniform', 'rate': 0.5, 'HP_L1_REG': 0.1, 'activation': 'relu', 'HP_OPTIMIZER': 'Adagrad'}
Blue
Model: "sequential"
_________________________________________________________________
Layer (type)                 Output Shape              Param #   
=================================================================
dense (Dense)                (None, 200)               2000000   
_________________________________________________________________
dropout (Dropout)            (None, 200)               0         
_________________________________________________________________
dense_1 (Dense)              (None, 200)               40200     
_________________________________________________________________
dropout_1 (Dropout)          (None, 200)               0         
_________________________________________________________________
dense_2 (Dense)              (None, 200)               40200     
_________________________________________________________________
dropout_2 (Dropout)          (None, 200)               0         
_________________________________________________________________
dense_3 (Dense)              (None, 1)                 201       
=================================================================
Total params: 2,080,601
Trainable params: 2,080,601
Non-trainable params: 0
_________________________________________________________________
None
Red
0.04538392959434878
Typer KerasRegressor
Hello world
{'HP_L2_REG': 1e-08, 'learning_rate': 0.001, 'HP_NUM_HIDDEN_LAYERS': 4, 'units': 200, 'kernel_initializer': 'glorot_uniform', 'rate': 0.1, 'HP_L1_REG': 0.1, 'activation': 'relu', 'HP_OPTIMIZER': 'SGD'}
Blue
Model: "sequential"
_________________________________________________________________
Layer (type)                 Output Shape              Param #   
=================================================================
dense (Dense)                (None, 200)               2000000   
_________________________________________________________________
dropout (Dropout)            (None, 200)               0         
_________________________________________________________________
dense_1 (Dense)              (None, 200)               40200     
_________________________________________________________________
dropout_1 (Dropout)          (None, 200)               0         
_________________________________________________________________
dense_2 (Dense)              (None, 200)               40200     
_________________________________________________________________
dropout_2 (Dropout)          (None, 200)               0         
_________________________________________________________________
dense_3 (Dense)              (None, 200)               40200     
_________________________________________________________________
dropout_3 (Dropout)          (None, 200)               0         
_________________________________________________________________
dense_4 (Dense)              (None, 1)                 201       
=================================================================
Total params: 2,120,801
Trainable params: 2,120,801
Non-trainable params: 0
_________________________________________________________________
None
Red
-0.16247965633822226
Typer KerasRegressor
Hello world
{'HP_L2_REG': 0.0001, 'learning_rate': 0.01, 'HP_NUM_HIDDEN_LAYERS': 4, 'units': 400, 'kernel_initializer': 'glorot_uniform', 'rate': 0.2, 'HP_L1_REG': 0.0001, 'activation': 'relu', 'HP_OPTIMIZER': 'Adam'}
Blue
Model: "sequential"
_________________________________________________________________
Layer (type)                 Output Shape              Param #   
=================================================================
dense (Dense)                (None, 400)               4000000   
_________________________________________________________________
dropout (Dropout)            (None, 400)               0         
_________________________________________________________________
dense_1 (Dense)              (None, 400)               160400    
_________________________________________________________________
dropout_1 (Dropout)          (None, 400)               0         
_________________________________________________________________
dense_2 (Dense)              (None, 400)               160400    
_________________________________________________________________
dropout_2 (Dropout)          (None, 400)               0         
_________________________________________________________________
dense_3 (Dense)              (None, 400)               160400    
_________________________________________________________________
dropout_3 (Dropout)          (None, 400)               0         
_________________________________________________________________
dense_4 (Dense)              (None, 1)                 401       
=================================================================
Total params: 4,481,601
Trainable params: 4,481,601
Non-trainable params: 0
_________________________________________________________________
None
Red
0.002104114567225701
Typer KerasRegressor
Hello world
{'HP_L2_REG': 1e-08, 'learning_rate': 1e-05, 'HP_NUM_HIDDEN_LAYERS': 4, 'units': 400, 'kernel_initializer': 'glorot_uniform', 'rate': 0.5, 'HP_L1_REG': 0.01, 'activation': 'relu', 'HP_OPTIMIZER': 'SGD'}
Blue
Model: "sequential"
_________________________________________________________________
Layer (type)                 Output Shape              Param #   
=================================================================
dense (Dense)                (None, 400)               4000000   
_________________________________________________________________
dropout (Dropout)            (None, 400)               0         
_________________________________________________________________
dense_1 (Dense)              (None, 400)               160400    
_________________________________________________________________
dropout_1 (Dropout)          (None, 400)               0         
_________________________________________________________________
dense_2 (Dense)              (None, 400)               160400    
_________________________________________________________________
dropout_2 (Dropout)          (None, 400)               0         
_________________________________________________________________
dense_3 (Dense)              (None, 400)               160400    
_________________________________________________________________
dropout_3 (Dropout)          (None, 400)               0         
_________________________________________________________________
dense_4 (Dense)              (None, 1)                 401       
=================================================================
Total params: 4,481,601
Trainable params: 4,481,601
Non-trainable params: 0
_________________________________________________________________
None
Red
-27.224316135308143
Typer KerasRegressor
Hello world
{'HP_L2_REG': 0.01, 'learning_rate': 0.001, 'HP_NUM_HIDDEN_LAYERS': 4, 'units': 200, 'kernel_initializer': 'glorot_uniform', 'rate': 0.0, 'HP_L1_REG': 0.1, 'activation': 'tanh', 'HP_OPTIMIZER': 'Adam'}
Blue
Model: "sequential"
_________________________________________________________________
Layer (type)                 Output Shape              Param #   
=================================================================
dense (Dense)                (None, 200)               2000000   
_________________________________________________________________
dense_1 (Dense)              (None, 200)               40200     
_________________________________________________________________
dense_2 (Dense)              (None, 200)               40200     
_________________________________________________________________
dense_3 (Dense)              (None, 200)               40200     
_________________________________________________________________
dense_4 (Dense)              (None, 1)                 201       
=================================================================
Total params: 2,120,801
Trainable params: 2,120,801
Non-trainable params: 0
_________________________________________________________________
None
Red
-0.013918431318569846
Typer KerasRegressor
Hello world
{'HP_L2_REG': 1e-08, 'learning_rate': 0.01, 'HP_NUM_HIDDEN_LAYERS': 2, 'units': 400, 'kernel_initializer': 'glorot_uniform', 'rate': 0.5, 'HP_L1_REG': 0.1, 'activation': 'relu', 'HP_OPTIMIZER': 'SGD'}
Blue
Model: "sequential"
_________________________________________________________________
Layer (type)                 Output Shape              Param #   
=================================================================
dense (Dense)                (None, 400)               4000000   
_________________________________________________________________
dropout (Dropout)            (None, 400)               0         
_________________________________________________________________
dense_1 (Dense)              (None, 400)               160400    
_________________________________________________________________
dropout_1 (Dropout)          (None, 400)               0         
_________________________________________________________________
dense_2 (Dense)              (None, 1)                 401       
=================================================================
Total params: 4,160,801
Trainable params: 4,160,801
Non-trainable params: 0
_________________________________________________________________
None
Red
-0.0032557126118848423
Typer KerasRegressor
Hello world
{'HP_L2_REG': 0.2, 'learning_rate': 0.0001, 'HP_NUM_HIDDEN_LAYERS': 3, 'units': 200, 'kernel_initializer': 'glorot_uniform', 'rate': 0.2, 'HP_L1_REG': 0.0001, 'activation': 'relu', 'HP_OPTIMIZER': 'Adam'}
Blue
Model: "sequential"
_________________________________________________________________
Layer (type)                 Output Shape              Param #   
=================================================================
dense (Dense)                (None, 200)               2000000   
_________________________________________________________________
dropout (Dropout)            (None, 200)               0         
_________________________________________________________________
dense_1 (Dense)              (None, 200)               40200     
_________________________________________________________________
dropout_1 (Dropout)          (None, 200)               0         
_________________________________________________________________
dense_2 (Dense)              (None, 200)               40200     
_________________________________________________________________
dropout_2 (Dropout)          (None, 200)               0         
_________________________________________________________________
dense_3 (Dense)              (None, 1)                 201       
=================================================================
Total params: 2,080,601
Trainable params: 2,080,601
Non-trainable params: 0
_________________________________________________________________
None
Red
0.54805281426321
Typer KerasRegressor
Hello world
{'HP_L2_REG': 0.0001, 'learning_rate': 1e-05, 'HP_NUM_HIDDEN_LAYERS': 5, 'units': 1000, 'kernel_initializer': 'glorot_uniform', 'rate': 0.5, 'HP_L1_REG': 0.0001, 'activation': 'relu', 'HP_OPTIMIZER': 'Adagrad'}
Blue
Model: "sequential"
_________________________________________________________________
Layer (type)                 Output Shape              Param #   
=================================================================
dense (Dense)                (None, 1000)              10000000  
_________________________________________________________________
dropout (Dropout)            (None, 1000)              0         
_________________________________________________________________
dense_1 (Dense)              (None, 1000)              1001000   
_________________________________________________________________
dropout_1 (Dropout)          (None, 1000)              0         
_________________________________________________________________
dense_2 (Dense)              (None, 1000)              1001000   
_________________________________________________________________
dropout_2 (Dropout)          (None, 1000)              0         
_________________________________________________________________
dense_3 (Dense)              (None, 1000)              1001000   
_________________________________________________________________
dropout_3 (Dropout)          (None, 1000)              0         
_________________________________________________________________
dense_4 (Dense)              (None, 1000)              1001000   
_________________________________________________________________
dropout_4 (Dropout)          (None, 1000)              0         
_________________________________________________________________
dense_5 (Dense)              (None, 1)                 1001      
=================================================================
Total params: 14,005,001
Trainable params: 14,005,001
Non-trainable params: 0
_________________________________________________________________
None
Red
-26.20191083404249
Typer KerasRegressor
Hello world
{'HP_L2_REG': 1e-08, 'learning_rate': 0.01, 'HP_NUM_HIDDEN_LAYERS': 2, 'units': 400, 'kernel_initializer': 'glorot_uniform', 'rate': 0.2, 'HP_L1_REG': 0.001, 'activation': 'relu', 'HP_OPTIMIZER': 'Adam'}
Blue
Model: "sequential"
_________________________________________________________________
Layer (type)                 Output Shape              Param #   
=================================================================
dense (Dense)                (None, 400)               4000000   
_________________________________________________________________
dropout (Dropout)            (None, 400)               0         
_________________________________________________________________
dense_1 (Dense)              (None, 400)               160400    
_________________________________________________________________
dropout_1 (Dropout)          (None, 400)               0         
_________________________________________________________________
dense_2 (Dense)              (None, 1)                 401       
=================================================================
Total params: 4,160,801
Trainable params: 4,160,801
Non-trainable params: 0
_________________________________________________________________
None
Red
0.5267920999113845
Typer KerasRegressor
Hello world
{'HP_L2_REG': 0.2, 'learning_rate': 0.01, 'HP_NUM_HIDDEN_LAYERS': 2, 'units': 200, 'kernel_initializer': 'glorot_uniform', 'rate': 0.2, 'HP_L1_REG': 0.1, 'activation': 'tanh', 'HP_OPTIMIZER': 'Adam'}
Blue
Model: "sequential"
_________________________________________________________________
Layer (type)                 Output Shape              Param #   
=================================================================
dense (Dense)                (None, 200)               2000000   
_________________________________________________________________
dropout (Dropout)            (None, 200)               0         
_________________________________________________________________
dense_1 (Dense)              (None, 200)               40200     
_________________________________________________________________
dropout_1 (Dropout)          (None, 200)               0         
_________________________________________________________________
dense_2 (Dense)              (None, 1)                 201       
=================================================================
Total params: 2,040,401
Trainable params: 2,040,401
Non-trainable params: 0
_________________________________________________________________
None
Red
-0.014126894805531531
Typer KerasRegressor
Hello world
{'HP_L2_REG': 0.01, 'learning_rate': 0.001, 'HP_NUM_HIDDEN_LAYERS': 4, 'units': 200, 'kernel_initializer': 'glorot_uniform', 'rate': 0.5, 'HP_L1_REG': 0.01, 'activation': 'relu', 'HP_OPTIMIZER': 'Adam'}
Blue
Model: "sequential"
_________________________________________________________________
Layer (type)                 Output Shape              Param #   
=================================================================
dense (Dense)                (None, 200)               2000000   
_________________________________________________________________
dropout (Dropout)            (None, 200)               0         
_________________________________________________________________
dense_1 (Dense)              (None, 200)               40200     
_________________________________________________________________
dropout_1 (Dropout)          (None, 200)               0         
_________________________________________________________________
dense_2 (Dense)              (None, 200)               40200     
_________________________________________________________________
dropout_2 (Dropout)          (None, 200)               0         
_________________________________________________________________
dense_3 (Dense)              (None, 200)               40200     
_________________________________________________________________
dropout_3 (Dropout)          (None, 200)               0         
_________________________________________________________________
dense_4 (Dense)              (None, 1)                 201       
=================================================================
Total params: 2,120,801
Trainable params: 2,120,801
Non-trainable params: 0
_________________________________________________________________
None
Red
0.1498579613159705
Typer KerasRegressor
Hello world
{'HP_L2_REG': 0.01, 'learning_rate': 0.001, 'HP_NUM_HIDDEN_LAYERS': 5, 'units': 200, 'kernel_initializer': 'glorot_uniform', 'rate': 0.0, 'HP_L1_REG': 0.01, 'activation': 'tanh', 'HP_OPTIMIZER': 'Adam'}
Blue
Model: "sequential"
_________________________________________________________________
Layer (type)                 Output Shape              Param #   
=================================================================
dense (Dense)                (None, 200)               2000000   
_________________________________________________________________
dense_1 (Dense)              (None, 200)               40200     
_________________________________________________________________
dense_2 (Dense)              (None, 200)               40200     
_________________________________________________________________
dense_3 (Dense)              (None, 200)               40200     
_________________________________________________________________
dense_4 (Dense)              (None, 200)               40200     
_________________________________________________________________
dense_5 (Dense)              (None, 1)                 201       
=================================================================
Total params: 2,161,001
Trainable params: 2,161,001
Non-trainable params: 0
_________________________________________________________________
None
Red
0.5828778887906416
Typer KerasRegressor
Hello world
{'HP_L2_REG': 1e-08, 'learning_rate': 0.001, 'HP_NUM_HIDDEN_LAYERS': 4, 'units': 400, 'kernel_initializer': 'glorot_uniform', 'rate': 0.0, 'HP_L1_REG': 0.0001, 'activation': 'tanh', 'HP_OPTIMIZER': 'SGD'}
Blue
Model: "sequential"
_________________________________________________________________
Layer (type)                 Output Shape              Param #   
=================================================================
dense (Dense)                (None, 400)               4000000   
_________________________________________________________________
dense_1 (Dense)              (None, 400)               160400    
_________________________________________________________________
dense_2 (Dense)              (None, 400)               160400    
_________________________________________________________________
dense_3 (Dense)              (None, 400)               160400    
_________________________________________________________________
dense_4 (Dense)              (None, 1)                 401       
=================================================================
Total params: 4,481,601
Trainable params: 4,481,601
Non-trainable params: 0
_________________________________________________________________
None
Red
0.6036023384646179
Typer KerasRegressor
Hello world
{'HP_L2_REG': 1e-08, 'learning_rate': 0.001, 'HP_NUM_HIDDEN_LAYERS': 4, 'units': 400, 'kernel_initializer': 'glorot_uniform', 'rate': 0.2, 'HP_L1_REG': 0.0001, 'activation': 'relu', 'HP_OPTIMIZER': 'Adagrad'}
Blue
Model: "sequential"
_________________________________________________________________
Layer (type)                 Output Shape              Param #   
=================================================================
dense (Dense)                (None, 400)               4000000   
_________________________________________________________________
dropout (Dropout)            (None, 400)               0         
_________________________________________________________________
dense_1 (Dense)              (None, 400)               160400    
_________________________________________________________________
dropout_1 (Dropout)          (None, 400)               0         
_________________________________________________________________
dense_2 (Dense)              (None, 400)               160400    
_________________________________________________________________
dropout_2 (Dropout)          (None, 400)               0         
_________________________________________________________________
dense_3 (Dense)              (None, 400)               160400    
_________________________________________________________________
dropout_3 (Dropout)          (None, 400)               0         
_________________________________________________________________
dense_4 (Dense)              (None, 1)                 401       
=================================================================
Total params: 4,481,601
Trainable params: 4,481,601
Non-trainable params: 0
_________________________________________________________________
None
Red
0.4750176728739294
Typer KerasRegressor
Hello world
{'HP_L2_REG': 0.2, 'learning_rate': 0.0001, 'HP_NUM_HIDDEN_LAYERS': 2, 'units': 400, 'kernel_initializer': 'glorot_uniform', 'rate': 0.5, 'HP_L1_REG': 0.01, 'activation': 'tanh', 'HP_OPTIMIZER': 'SGD'}
Blue
Model: "sequential"
_________________________________________________________________
Layer (type)                 Output Shape              Param #   
=================================================================
dense (Dense)                (None, 400)               4000000   
_________________________________________________________________
dropout (Dropout)            (None, 400)               0         
_________________________________________________________________
dense_1 (Dense)              (None, 400)               160400    
_________________________________________________________________
dropout_1 (Dropout)          (None, 400)               0         
_________________________________________________________________
dense_2 (Dense)              (None, 1)                 401       
=================================================================
Total params: 4,160,801
Trainable params: 4,160,801
Non-trainable params: 0
_________________________________________________________________
None
Red
-2.5777870523547426
Typer KerasRegressor
Hello world
{'HP_L2_REG': 0.01, 'learning_rate': 0.001, 'HP_NUM_HIDDEN_LAYERS': 2, 'units': 400, 'kernel_initializer': 'glorot_uniform', 'rate': 0.2, 'HP_L1_REG': 0.01, 'activation': 'relu', 'HP_OPTIMIZER': 'Adagrad'}
Blue
Model: "sequential"
_________________________________________________________________
Layer (type)                 Output Shape              Param #   
=================================================================
dense (Dense)                (None, 400)               4000000   
_________________________________________________________________
dropout (Dropout)            (None, 400)               0         
_________________________________________________________________
dense_1 (Dense)              (None, 400)               160400    
_________________________________________________________________
dropout_1 (Dropout)          (None, 400)               0         
_________________________________________________________________
dense_2 (Dense)              (None, 1)                 401       
=================================================================
Total params: 4,160,801
Trainable params: 4,160,801
Non-trainable params: 0
_________________________________________________________________
None
Red
0.5233300629745645
Typer KerasRegressor
Hello world
{'HP_L2_REG': 1e-08, 'learning_rate': 1e-05, 'HP_NUM_HIDDEN_LAYERS': 4, 'units': 200, 'kernel_initializer': 'glorot_uniform', 'rate': 0.1, 'HP_L1_REG': 0.01, 'activation': 'relu', 'HP_OPTIMIZER': 'SGD'}
Blue
Model: "sequential"
_________________________________________________________________
Layer (type)                 Output Shape              Param #   
=================================================================
dense (Dense)                (None, 200)               2000000   
_________________________________________________________________
dropout (Dropout)            (None, 200)               0         
_________________________________________________________________
dense_1 (Dense)              (None, 200)               40200     
_________________________________________________________________
dropout_1 (Dropout)          (None, 200)               0         
_________________________________________________________________
dense_2 (Dense)              (None, 200)               40200     
_________________________________________________________________
dropout_2 (Dropout)          (None, 200)               0         
_________________________________________________________________
dense_3 (Dense)              (None, 200)               40200     
_________________________________________________________________
dropout_3 (Dropout)          (None, 200)               0         
_________________________________________________________________
dense_4 (Dense)              (None, 1)                 201       
=================================================================
Total params: 2,120,801
Trainable params: 2,120,801
Non-trainable params: 0
_________________________________________________________________
None
Red
-27.53973524698816
Typer KerasRegressor
Hello world
{'HP_L2_REG': 0.01, 'learning_rate': 0.01, 'HP_NUM_HIDDEN_LAYERS': 3, 'units': 400, 'kernel_initializer': 'glorot_uniform', 'rate': 0.1, 'HP_L1_REG': 0.0001, 'activation': 'tanh', 'HP_OPTIMIZER': 'Adagrad'}
Blue
Model: "sequential"
_________________________________________________________________
Layer (type)                 Output Shape              Param #   
=================================================================
dense (Dense)                (None, 400)               4000000   
_________________________________________________________________
dropout (Dropout)            (None, 400)               0         
_________________________________________________________________
dense_1 (Dense)              (None, 400)               160400    
_________________________________________________________________
dropout_1 (Dropout)          (None, 400)               0         
_________________________________________________________________
dense_2 (Dense)              (None, 400)               160400    
_________________________________________________________________
dropout_2 (Dropout)          (None, 400)               0         
_________________________________________________________________
dense_3 (Dense)              (None, 1)                 401       
=================================================================
Total params: 4,321,201
Trainable params: 4,321,201
Non-trainable params: 0
_________________________________________________________________
None
Red
0.6311905731252934
Typer KerasRegressor
Hello world
{'HP_L2_REG': 0.2, 'learning_rate': 0.0001, 'HP_NUM_HIDDEN_LAYERS': 4, 'units': 400, 'kernel_initializer': 'glorot_uniform', 'rate': 0.0, 'HP_L1_REG': 0.001, 'activation': 'relu', 'HP_OPTIMIZER': 'Adagrad'}
Blue
Model: "sequential"
_________________________________________________________________
Layer (type)                 Output Shape              Param #   
=================================================================
dense (Dense)                (None, 400)               4000000   
_________________________________________________________________
dense_1 (Dense)              (None, 400)               160400    
_________________________________________________________________
dense_2 (Dense)              (None, 400)               160400    
_________________________________________________________________
dense_3 (Dense)              (None, 400)               160400    
_________________________________________________________________
dense_4 (Dense)              (None, 1)                 401       
=================================================================
Total params: 4,481,601
Trainable params: 4,481,601
Non-trainable params: 0
_________________________________________________________________
None
Red
0.481536764098786
Typer KerasRegressor
Hello world
{'HP_L2_REG': 1e-08, 'learning_rate': 0.0001, 'HP_NUM_HIDDEN_LAYERS': 5, 'units': 200, 'kernel_initializer': 'glorot_uniform', 'rate': 0.1, 'HP_L1_REG': 0.1, 'activation': 'relu', 'HP_OPTIMIZER': 'Adam'}
Blue
Model: "sequential"
_________________________________________________________________
Layer (type)                 Output Shape              Param #   
=================================================================
dense (Dense)                (None, 200)               2000000   
_________________________________________________________________
dropout (Dropout)            (None, 200)               0         
_________________________________________________________________
dense_1 (Dense)              (None, 200)               40200     
_________________________________________________________________
dropout_1 (Dropout)          (None, 200)               0         
_________________________________________________________________
dense_2 (Dense)              (None, 200)               40200     
_________________________________________________________________
dropout_2 (Dropout)          (None, 200)               0         
_________________________________________________________________
dense_3 (Dense)              (None, 200)               40200     
_________________________________________________________________
dropout_3 (Dropout)          (None, 200)               0         
_________________________________________________________________
dense_4 (Dense)              (None, 200)               40200     
_________________________________________________________________
dropout_4 (Dropout)          (None, 200)               0         
_________________________________________________________________
dense_5 (Dense)              (None, 1)                 201       
=================================================================
Total params: 2,161,001
Trainable params: 2,161,001
Non-trainable params: 0
_________________________________________________________________
None
Red
-22.69291767413153
Typer KerasRegressor
Hello world
{'HP_L2_REG': 0.0001, 'learning_rate': 0.0001, 'HP_NUM_HIDDEN_LAYERS': 3, 'units': 200, 'kernel_initializer': 'glorot_uniform', 'rate': 0.1, 'HP_L1_REG': 0.001, 'activation': 'relu', 'HP_OPTIMIZER': 'Adagrad'}
Blue
Model: "sequential"
_________________________________________________________________
Layer (type)                 Output Shape              Param #   
=================================================================
dense (Dense)                (None, 200)               2000000   
_________________________________________________________________
dropout (Dropout)            (None, 200)               0         
_________________________________________________________________
dense_1 (Dense)              (None, 200)               40200     
_________________________________________________________________
dropout_1 (Dropout)          (None, 200)               0         
_________________________________________________________________
dense_2 (Dense)              (None, 200)               40200     
_________________________________________________________________
dropout_2 (Dropout)          (None, 200)               0         
_________________________________________________________________
dense_3 (Dense)              (None, 1)                 201       
=================================================================
Total params: 2,080,601
Trainable params: 2,080,601
Non-trainable params: 0
_________________________________________________________________
None
Red
0.33740348958116484
Typer KerasRegressor
Hello world
INNER COUNT NO.  2
{'HP_L2_REG': 0.01, 'learning_rate': 0.0001, 'HP_NUM_HIDDEN_LAYERS': 3, 'units': 400, 'kernel_initializer': 'glorot_uniform', 'rate': 0.0, 'HP_L1_REG': 0.0001, 'activation': 'relu', 'HP_OPTIMIZER': 'Adam'}
Blue
Model: "sequential"
_________________________________________________________________
Layer (type)                 Output Shape              Param #   
=================================================================
dense (Dense)                (None, 400)               4000000   
_________________________________________________________________
dense_1 (Dense)              (None, 400)               160400    
_________________________________________________________________
dense_2 (Dense)              (None, 400)               160400    
_________________________________________________________________
dense_3 (Dense)              (None, 1)                 401       
=================================================================
Total params: 4,321,201
Trainable params: 4,321,201
Non-trainable params: 0
_________________________________________________________________
None
Red
0.5714006344195177
Typer KerasRegressor
Hello world
{'HP_L2_REG': 0.0001, 'learning_rate': 0.001, 'HP_NUM_HIDDEN_LAYERS': 5, 'units': 1000, 'kernel_initializer': 'glorot_uniform', 'rate': 0.0, 'HP_L1_REG': 0.01, 'activation': 'relu', 'HP_OPTIMIZER': 'Adagrad'}
Blue
Model: "sequential"
_________________________________________________________________
Layer (type)                 Output Shape              Param #   
=================================================================
dense (Dense)                (None, 1000)              10000000  
_________________________________________________________________
dense_1 (Dense)              (None, 1000)              1001000   
_________________________________________________________________
dense_2 (Dense)              (None, 1000)              1001000   
_________________________________________________________________
dense_3 (Dense)              (None, 1000)              1001000   
_________________________________________________________________
dense_4 (Dense)              (None, 1000)              1001000   
_________________________________________________________________
dense_5 (Dense)              (None, 1)                 1001      
=================================================================
Total params: 14,005,001
Trainable params: 14,005,001
Non-trainable params: 0
_________________________________________________________________
None
Red
0.5429527079453456
Typer KerasRegressor
Hello world
{'HP_L2_REG': 1e-08, 'learning_rate': 1e-05, 'HP_NUM_HIDDEN_LAYERS': 2, 'units': 1000, 'kernel_initializer': 'glorot_uniform', 'rate': 0.0, 'HP_L1_REG': 0.0001, 'activation': 'relu', 'HP_OPTIMIZER': 'Adam'}
Blue
Model: "sequential"
_________________________________________________________________
Layer (type)                 Output Shape              Param #   
=================================================================
dense (Dense)                (None, 1000)              10000000  
_________________________________________________________________
dense_1 (Dense)              (None, 1000)              1001000   
_________________________________________________________________
dense_2 (Dense)              (None, 1)                 1001      
=================================================================
Total params: 11,002,001
Trainable params: 11,002,001
Non-trainable params: 0
_________________________________________________________________
None
Red
0.5790306125293045
Typer KerasRegressor
Hello world
{'HP_L2_REG': 0.01, 'learning_rate': 0.001, 'HP_NUM_HIDDEN_LAYERS': 4, 'units': 400, 'kernel_initializer': 'glorot_uniform', 'rate': 0.5, 'HP_L1_REG': 0.0001, 'activation': 'relu', 'HP_OPTIMIZER': 'Adagrad'}
Blue
Model: "sequential"
_________________________________________________________________
Layer (type)                 Output Shape              Param #   
=================================================================
dense (Dense)                (None, 400)               4000000   
_________________________________________________________________
dropout (Dropout)            (None, 400)               0         
_________________________________________________________________
dense_1 (Dense)              (None, 400)               160400    
_________________________________________________________________
dropout_1 (Dropout)          (None, 400)               0         
_________________________________________________________________
dense_2 (Dense)              (None, 400)               160400    
_________________________________________________________________
dropout_2 (Dropout)          (None, 400)               0         
_________________________________________________________________
dense_3 (Dense)              (None, 400)               160400    
_________________________________________________________________
dropout_3 (Dropout)          (None, 400)               0         
_________________________________________________________________
dense_4 (Dense)              (None, 1)                 401       
=================================================================
Total params: 4,481,601
Trainable params: 4,481,601
Non-trainable params: 0
_________________________________________________________________
None
Red
-0.513211787419692
Typer KerasRegressor
Hello world
{'HP_L2_REG': 0.2, 'learning_rate': 0.0001, 'HP_NUM_HIDDEN_LAYERS': 4, 'units': 1000, 'kernel_initializer': 'glorot_uniform', 'rate': 0.2, 'HP_L1_REG': 0.0001, 'activation': 'relu', 'HP_OPTIMIZER': 'Adam'}
Blue
Model: "sequential"
_________________________________________________________________
Layer (type)                 Output Shape              Param #   
=================================================================
dense (Dense)                (None, 1000)              10000000  
_________________________________________________________________
dropout (Dropout)            (None, 1000)              0         
_________________________________________________________________
dense_1 (Dense)              (None, 1000)              1001000   
_________________________________________________________________
dropout_1 (Dropout)          (None, 1000)              0         
_________________________________________________________________
dense_2 (Dense)              (None, 1000)              1001000   
_________________________________________________________________
dropout_2 (Dropout)          (None, 1000)              0         
_________________________________________________________________
dense_3 (Dense)              (None, 1000)              1001000   
_________________________________________________________________
dropout_3 (Dropout)          (None, 1000)              0         
_________________________________________________________________
dense_4 (Dense)              (None, 1)                 1001      
=================================================================
Total params: 13,004,001
Trainable params: 13,004,001
Non-trainable params: 0
_________________________________________________________________
None
Red
0.5538717714029731
Typer KerasRegressor
Hello world
{'HP_L2_REG': 0.0001, 'learning_rate': 0.001, 'HP_NUM_HIDDEN_LAYERS': 4, 'units': 1000, 'kernel_initializer': 'glorot_uniform', 'rate': 0.5, 'HP_L1_REG': 0.01, 'activation': 'tanh', 'HP_OPTIMIZER': 'Adam'}
Blue
Model: "sequential"
_________________________________________________________________
Layer (type)                 Output Shape              Param #   
=================================================================
dense (Dense)                (None, 1000)              10000000  
_________________________________________________________________
dropout (Dropout)            (None, 1000)              0         
_________________________________________________________________
dense_1 (Dense)              (None, 1000)              1001000   
_________________________________________________________________
dropout_1 (Dropout)          (None, 1000)              0         
_________________________________________________________________
dense_2 (Dense)              (None, 1000)              1001000   
_________________________________________________________________
dropout_2 (Dropout)          (None, 1000)              0         
_________________________________________________________________
dense_3 (Dense)              (None, 1000)              1001000   
_________________________________________________________________
dropout_3 (Dropout)          (None, 1000)              0         
_________________________________________________________________
dense_4 (Dense)              (None, 1)                 1001      
=================================================================
Total params: 13,004,001
Trainable params: 13,004,001
Non-trainable params: 0
_________________________________________________________________
None
Red
0.5882925973810704
Typer KerasRegressor
Hello world
{'HP_L2_REG': 1e-08, 'learning_rate': 0.01, 'HP_NUM_HIDDEN_LAYERS': 5, 'units': 400, 'kernel_initializer': 'glorot_uniform', 'rate': 0.2, 'HP_L1_REG': 0.1, 'activation': 'relu', 'HP_OPTIMIZER': 'Adam'}
Blue
Model: "sequential"
_________________________________________________________________
Layer (type)                 Output Shape              Param #   
=================================================================
dense (Dense)                (None, 400)               4000000   
_________________________________________________________________
dropout (Dropout)            (None, 400)               0         
_________________________________________________________________
dense_1 (Dense)              (None, 400)               160400    
_________________________________________________________________
dropout_1 (Dropout)          (None, 400)               0         
_________________________________________________________________
dense_2 (Dense)              (None, 400)               160400    
_________________________________________________________________
dropout_2 (Dropout)          (None, 400)               0         
_________________________________________________________________
dense_3 (Dense)              (None, 400)               160400    
_________________________________________________________________
dropout_3 (Dropout)          (None, 400)               0         
_________________________________________________________________
dense_4 (Dense)              (None, 400)               160400    
_________________________________________________________________
dropout_4 (Dropout)          (None, 400)               0         
_________________________________________________________________
dense_5 (Dense)              (None, 1)                 401       
=================================================================
Total params: 4,642,001
Trainable params: 4,642,001
Non-trainable params: 0
_________________________________________________________________
None
Red
-0.015148334236160466
Typer KerasRegressor
Hello world
{'HP_L2_REG': 0.2, 'learning_rate': 0.01, 'HP_NUM_HIDDEN_LAYERS': 4, 'units': 200, 'kernel_initializer': 'glorot_uniform', 'rate': 0.0, 'HP_L1_REG': 0.1, 'activation': 'relu', 'HP_OPTIMIZER': 'Adagrad'}
Blue
Model: "sequential"
_________________________________________________________________
Layer (type)                 Output Shape              Param #   
=================================================================
dense (Dense)                (None, 200)               2000000   
_________________________________________________________________
dense_1 (Dense)              (None, 200)               40200     
_________________________________________________________________
dense_2 (Dense)              (None, 200)               40200     
_________________________________________________________________
dense_3 (Dense)              (None, 200)               40200     
_________________________________________________________________
dense_4 (Dense)              (None, 1)                 201       
=================================================================
Total params: 2,120,801
Trainable params: 2,120,801
Non-trainable params: 0
_________________________________________________________________
None
Red
0.5142107234208727
Typer KerasRegressor
Hello world
{'HP_L2_REG': 0.01, 'learning_rate': 1e-05, 'HP_NUM_HIDDEN_LAYERS': 3, 'units': 400, 'kernel_initializer': 'glorot_uniform', 'rate': 0.2, 'HP_L1_REG': 0.1, 'activation': 'tanh', 'HP_OPTIMIZER': 'SGD'}
Blue
Model: "sequential"
_________________________________________________________________
Layer (type)                 Output Shape              Param #   
=================================================================
dense (Dense)                (None, 400)               4000000   
_________________________________________________________________
dropout (Dropout)            (None, 400)               0         
_________________________________________________________________
dense_1 (Dense)              (None, 400)               160400    
_________________________________________________________________
dropout_1 (Dropout)          (None, 400)               0         
_________________________________________________________________
dense_2 (Dense)              (None, 400)               160400    
_________________________________________________________________
dropout_2 (Dropout)          (None, 400)               0         
_________________________________________________________________
dense_3 (Dense)              (None, 1)                 401       
=================================================================
Total params: 4,321,201
Trainable params: 4,321,201
Non-trainable params: 0
_________________________________________________________________
None
Red
-21.23022160278901
Typer KerasRegressor
Hello world
{'HP_L2_REG': 0.01, 'learning_rate': 1e-05, 'HP_NUM_HIDDEN_LAYERS': 4, 'units': 200, 'kernel_initializer': 'glorot_uniform', 'rate': 0.2, 'HP_L1_REG': 0.0001, 'activation': 'tanh', 'HP_OPTIMIZER': 'Adam'}
Blue
Model: "sequential"
_________________________________________________________________
Layer (type)                 Output Shape              Param #   
=================================================================
dense (Dense)                (None, 200)               2000000   
_________________________________________________________________
dropout (Dropout)            (None, 200)               0         
_________________________________________________________________
dense_1 (Dense)              (None, 200)               40200     
_________________________________________________________________
dropout_1 (Dropout)          (None, 200)               0         
_________________________________________________________________
dense_2 (Dense)              (None, 200)               40200     
_________________________________________________________________
dropout_2 (Dropout)          (None, 200)               0         
_________________________________________________________________
dense_3 (Dense)              (None, 200)               40200     
_________________________________________________________________
dropout_3 (Dropout)          (None, 200)               0         
_________________________________________________________________
dense_4 (Dense)              (None, 1)                 201       
=================================================================
Total params: 2,120,801
Trainable params: 2,120,801
Non-trainable params: 0
_________________________________________________________________
None
Red
-13.742027277851145
Typer KerasRegressor
Hello world
{'HP_L2_REG': 0.01, 'learning_rate': 0.0001, 'HP_NUM_HIDDEN_LAYERS': 2, 'units': 200, 'kernel_initializer': 'glorot_uniform', 'rate': 0.0, 'HP_L1_REG': 0.1, 'activation': 'relu', 'HP_OPTIMIZER': 'Adam'}
Blue
Model: "sequential"
_________________________________________________________________
Layer (type)                 Output Shape              Param #   
=================================================================
dense (Dense)                (None, 200)               2000000   
_________________________________________________________________
dense_1 (Dense)              (None, 200)               40200     
_________________________________________________________________
dense_2 (Dense)              (None, 1)                 201       
=================================================================
Total params: 2,040,401
Trainable params: 2,040,401
Non-trainable params: 0
_________________________________________________________________
None
Red
0.4308520030182459
Typer KerasRegressor
Hello world
{'HP_L2_REG': 1e-08, 'learning_rate': 0.0001, 'HP_NUM_HIDDEN_LAYERS': 2, 'units': 400, 'kernel_initializer': 'glorot_uniform', 'rate': 0.5, 'HP_L1_REG': 0.1, 'activation': 'tanh', 'HP_OPTIMIZER': 'Adagrad'}
Blue
Model: "sequential"
_________________________________________________________________
Layer (type)                 Output Shape              Param #   
=================================================================
dense (Dense)                (None, 400)               4000000   
_________________________________________________________________
dropout (Dropout)            (None, 400)               0         
_________________________________________________________________
dense_1 (Dense)              (None, 400)               160400    
_________________________________________________________________
dropout_1 (Dropout)          (None, 400)               0         
_________________________________________________________________
dense_2 (Dense)              (None, 1)                 401       
=================================================================
Total params: 4,160,801
Trainable params: 4,160,801
Non-trainable params: 0
_________________________________________________________________
None
Red
-22.439234212803402
Typer KerasRegressor
Hello world
{'HP_L2_REG': 0.0001, 'learning_rate': 0.001, 'HP_NUM_HIDDEN_LAYERS': 3, 'units': 400, 'kernel_initializer': 'glorot_uniform', 'rate': 0.0, 'HP_L1_REG': 0.0001, 'activation': 'relu', 'HP_OPTIMIZER': 'Adam'}
Blue
Model: "sequential"
_________________________________________________________________
Layer (type)                 Output Shape              Param #   
=================================================================
dense (Dense)                (None, 400)               4000000   
_________________________________________________________________
dense_1 (Dense)              (None, 400)               160400    
_________________________________________________________________
dense_2 (Dense)              (None, 400)               160400    
_________________________________________________________________
dense_3 (Dense)              (None, 1)                 401       
=================================================================
Total params: 4,321,201
Trainable params: 4,321,201
Non-trainable params: 0
_________________________________________________________________
None
Red
0.5746900168106337
Typer KerasRegressor
Hello world
{'HP_L2_REG': 0.0001, 'learning_rate': 0.001, 'HP_NUM_HIDDEN_LAYERS': 4, 'units': 200, 'kernel_initializer': 'glorot_uniform', 'rate': 0.5, 'HP_L1_REG': 0.1, 'activation': 'relu', 'HP_OPTIMIZER': 'Adagrad'}
Blue
Model: "sequential"
_________________________________________________________________
Layer (type)                 Output Shape              Param #   
=================================================================
dense (Dense)                (None, 200)               2000000   
_________________________________________________________________
dropout (Dropout)            (None, 200)               0         
_________________________________________________________________
dense_1 (Dense)              (None, 200)               40200     
_________________________________________________________________
dropout_1 (Dropout)          (None, 200)               0         
_________________________________________________________________
dense_2 (Dense)              (None, 200)               40200     
_________________________________________________________________
dropout_2 (Dropout)          (None, 200)               0         
_________________________________________________________________
dense_3 (Dense)              (None, 200)               40200     
_________________________________________________________________
dropout_3 (Dropout)          (None, 200)               0         
_________________________________________________________________
dense_4 (Dense)              (None, 1)                 201       
=================================================================
Total params: 2,120,801
Trainable params: 2,120,801
Non-trainable params: 0
_________________________________________________________________
None
Red
-0.03739388362640894
Typer KerasRegressor
Hello world
{'HP_L2_REG': 0.01, 'learning_rate': 0.001, 'HP_NUM_HIDDEN_LAYERS': 4, 'units': 400, 'kernel_initializer': 'glorot_uniform', 'rate': 0.1, 'HP_L1_REG': 0.0001, 'activation': 'relu', 'HP_OPTIMIZER': 'Adam'}
Blue
Model: "sequential"
_________________________________________________________________
Layer (type)                 Output Shape              Param #   
=================================================================
dense (Dense)                (None, 400)               4000000   
_________________________________________________________________
dropout (Dropout)            (None, 400)               0         
_________________________________________________________________
dense_1 (Dense)              (None, 400)               160400    
_________________________________________________________________
dropout_1 (Dropout)          (None, 400)               0         
_________________________________________________________________
dense_2 (Dense)              (None, 400)               160400    
_________________________________________________________________
dropout_2 (Dropout)          (None, 400)               0         
_________________________________________________________________
dense_3 (Dense)              (None, 400)               160400    
_________________________________________________________________
dropout_3 (Dropout)          (None, 400)               0         
_________________________________________________________________
dense_4 (Dense)              (None, 1)                 401       
=================================================================
Total params: 4,481,601
Trainable params: 4,481,601
Non-trainable params: 0
_________________________________________________________________
None
Red
0.5781347476912833
Typer KerasRegressor
Hello world
{'HP_L2_REG': 1e-08, 'learning_rate': 0.001, 'HP_NUM_HIDDEN_LAYERS': 4, 'units': 400, 'kernel_initializer': 'glorot_uniform', 'rate': 0.1, 'HP_L1_REG': 0.01, 'activation': 'relu', 'HP_OPTIMIZER': 'SGD'}
Blue
Model: "sequential"
_________________________________________________________________
Layer (type)                 Output Shape              Param #   
=================================================================
dense (Dense)                (None, 400)               4000000   
_________________________________________________________________
dropout (Dropout)            (None, 400)               0         
_________________________________________________________________
dense_1 (Dense)              (None, 400)               160400    
_________________________________________________________________
dropout_1 (Dropout)          (None, 400)               0         
_________________________________________________________________
dense_2 (Dense)              (None, 400)               160400    
_________________________________________________________________
dropout_2 (Dropout)          (None, 400)               0         
_________________________________________________________________
dense_3 (Dense)              (None, 400)               160400    
_________________________________________________________________
dropout_3 (Dropout)          (None, 400)               0         
_________________________________________________________________
dense_4 (Dense)              (None, 1)                 401       
=================================================================
Total params: 4,481,601
Trainable params: 4,481,601
Non-trainable params: 0
_________________________________________________________________
None
Red
0.18741838450772463
Typer KerasRegressor
Hello world
{'HP_L2_REG': 0.0001, 'learning_rate': 0.01, 'HP_NUM_HIDDEN_LAYERS': 5, 'units': 400, 'kernel_initializer': 'glorot_uniform', 'rate': 0.0, 'HP_L1_REG': 0.01, 'activation': 'relu', 'HP_OPTIMIZER': 'SGD'}
Blue
Model: "sequential"
_________________________________________________________________
Layer (type)                 Output Shape              Param #   
=================================================================
dense (Dense)                (None, 400)               4000000   
_________________________________________________________________
dense_1 (Dense)              (None, 400)               160400    
_________________________________________________________________
dense_2 (Dense)              (None, 400)               160400    
_________________________________________________________________
dense_3 (Dense)              (None, 400)               160400    
_________________________________________________________________
dense_4 (Dense)              (None, 400)               160400    
_________________________________________________________________
dense_5 (Dense)              (None, 1)                 401       
=================================================================
Total params: 4,642,001
Trainable params: 4,642,001
Non-trainable params: 0
_________________________________________________________________
None
Red
0.503207007036183
Typer KerasRegressor
Hello world
{'HP_L2_REG': 0.2, 'learning_rate': 0.001, 'HP_NUM_HIDDEN_LAYERS': 4, 'units': 1000, 'kernel_initializer': 'glorot_uniform', 'rate': 0.1, 'HP_L1_REG': 0.001, 'activation': 'tanh', 'HP_OPTIMIZER': 'Adagrad'}
Blue
Model: "sequential"
_________________________________________________________________
Layer (type)                 Output Shape              Param #   
=================================================================
dense (Dense)                (None, 1000)              10000000  
_________________________________________________________________
dropout (Dropout)            (None, 1000)              0         
_________________________________________________________________
dense_1 (Dense)              (None, 1000)              1001000   
_________________________________________________________________
dropout_1 (Dropout)          (None, 1000)              0         
_________________________________________________________________
dense_2 (Dense)              (None, 1000)              1001000   
_________________________________________________________________
dropout_2 (Dropout)          (None, 1000)              0         
_________________________________________________________________
dense_3 (Dense)              (None, 1000)              1001000   
_________________________________________________________________
dropout_3 (Dropout)          (None, 1000)              0         
_________________________________________________________________
dense_4 (Dense)              (None, 1)                 1001      
=================================================================
Total params: 13,004,001
Trainable params: 13,004,001
Non-trainable params: 0
_________________________________________________________________
None
Red
0.4149798014829824
Typer KerasRegressor
Hello world
{'HP_L2_REG': 0.0001, 'learning_rate': 0.01, 'HP_NUM_HIDDEN_LAYERS': 2, 'units': 200, 'kernel_initializer': 'glorot_uniform', 'rate': 0.5, 'HP_L1_REG': 0.1, 'activation': 'tanh', 'HP_OPTIMIZER': 'Adagrad'}
Blue
Model: "sequential"
_________________________________________________________________
Layer (type)                 Output Shape              Param #   
=================================================================
dense (Dense)                (None, 200)               2000000   
_________________________________________________________________
dropout (Dropout)            (None, 200)               0         
_________________________________________________________________
dense_1 (Dense)              (None, 200)               40200     
_________________________________________________________________
dropout_1 (Dropout)          (None, 200)               0         
_________________________________________________________________
dense_2 (Dense)              (None, 1)                 201       
=================================================================
Total params: 2,040,401
Trainable params: 2,040,401
Non-trainable params: 0
_________________________________________________________________
None
Red
-0.05032543357944674
Typer KerasRegressor
Hello world
{'HP_L2_REG': 0.0001, 'learning_rate': 0.01, 'HP_NUM_HIDDEN_LAYERS': 5, 'units': 400, 'kernel_initializer': 'glorot_uniform', 'rate': 0.0, 'HP_L1_REG': 0.0001, 'activation': 'tanh', 'HP_OPTIMIZER': 'Adam'}
Blue
Model: "sequential"
_________________________________________________________________
Layer (type)                 Output Shape              Param #   
=================================================================
dense (Dense)                (None, 400)               4000000   
_________________________________________________________________
dense_1 (Dense)              (None, 400)               160400    
_________________________________________________________________
dense_2 (Dense)              (None, 400)               160400    
_________________________________________________________________
dense_3 (Dense)              (None, 400)               160400    
_________________________________________________________________
dense_4 (Dense)              (None, 400)               160400    
_________________________________________________________________
dense_5 (Dense)              (None, 1)                 401       
=================================================================
Total params: 4,642,001
Trainable params: 4,642,001
Non-trainable params: 0
_________________________________________________________________
None
Red
-0.04572052445997854
Typer KerasRegressor
Hello world
{'HP_L2_REG': 1e-08, 'learning_rate': 0.0001, 'HP_NUM_HIDDEN_LAYERS': 3, 'units': 400, 'kernel_initializer': 'glorot_uniform', 'rate': 0.2, 'HP_L1_REG': 0.0001, 'activation': 'relu', 'HP_OPTIMIZER': 'SGD'}
Blue
Model: "sequential"
_________________________________________________________________
Layer (type)                 Output Shape              Param #   
=================================================================
dense (Dense)                (None, 400)               4000000   
_________________________________________________________________
dropout (Dropout)            (None, 400)               0         
_________________________________________________________________
dense_1 (Dense)              (None, 400)               160400    
_________________________________________________________________
dropout_1 (Dropout)          (None, 400)               0         
_________________________________________________________________
dense_2 (Dense)              (None, 400)               160400    
_________________________________________________________________
dropout_2 (Dropout)          (None, 400)               0         
_________________________________________________________________
dense_3 (Dense)              (None, 1)                 401       
=================================================================
Total params: 4,321,201
Trainable params: 4,321,201
Non-trainable params: 0
_________________________________________________________________
None
Red
0.5265154687033082
Typer KerasRegressor
Hello world
{'HP_L2_REG': 0.0001, 'learning_rate': 0.001, 'HP_NUM_HIDDEN_LAYERS': 5, 'units': 200, 'kernel_initializer': 'glorot_uniform', 'rate': 0.5, 'HP_L1_REG': 0.01, 'activation': 'relu', 'HP_OPTIMIZER': 'Adagrad'}
Blue
Model: "sequential"
_________________________________________________________________
Layer (type)                 Output Shape              Param #   
=================================================================
dense (Dense)                (None, 200)               2000000   
_________________________________________________________________
dropout (Dropout)            (None, 200)               0         
_________________________________________________________________
dense_1 (Dense)              (None, 200)               40200     
_________________________________________________________________
dropout_1 (Dropout)          (None, 200)               0         
_________________________________________________________________
dense_2 (Dense)              (None, 200)               40200     
_________________________________________________________________
dropout_2 (Dropout)          (None, 200)               0         
_________________________________________________________________
dense_3 (Dense)              (None, 200)               40200     
_________________________________________________________________
dropout_3 (Dropout)          (None, 200)               0         
_________________________________________________________________
dense_4 (Dense)              (None, 200)               40200     
_________________________________________________________________
dropout_4 (Dropout)          (None, 200)               0         
_________________________________________________________________
dense_5 (Dense)              (None, 1)                 201       
=================================================================
Total params: 2,161,001
Trainable params: 2,161,001
Non-trainable params: 0
_________________________________________________________________
None
Red
-1.2736858947856828
Typer KerasRegressor
Hello world
{'HP_L2_REG': 1e-08, 'learning_rate': 1e-05, 'HP_NUM_HIDDEN_LAYERS': 5, 'units': 1000, 'kernel_initializer': 'glorot_uniform', 'rate': 0.0, 'HP_L1_REG': 0.001, 'activation': 'tanh', 'HP_OPTIMIZER': 'Adam'}
Blue
Model: "sequential"
_________________________________________________________________
Layer (type)                 Output Shape              Param #   
=================================================================
dense (Dense)                (None, 1000)              10000000  
_________________________________________________________________
dense_1 (Dense)              (None, 1000)              1001000   
_________________________________________________________________
dense_2 (Dense)              (None, 1000)              1001000   
_________________________________________________________________
dense_3 (Dense)              (None, 1000)              1001000   
_________________________________________________________________
dense_4 (Dense)              (None, 1000)              1001000   
_________________________________________________________________
dense_5 (Dense)              (None, 1)                 1001      
=================================================================
Total params: 14,005,001
Trainable params: 14,005,001
Non-trainable params: 0
_________________________________________________________________
None
Red
-2.28882292073213
Typer KerasRegressor
Hello world
{'HP_L2_REG': 1e-08, 'learning_rate': 0.0001, 'HP_NUM_HIDDEN_LAYERS': 3, 'units': 400, 'kernel_initializer': 'glorot_uniform', 'rate': 0.5, 'HP_L1_REG': 0.1, 'activation': 'tanh', 'HP_OPTIMIZER': 'Adam'}
Blue
Model: "sequential"
_________________________________________________________________
Layer (type)                 Output Shape              Param #   
=================================================================
dense (Dense)                (None, 400)               4000000   
_________________________________________________________________
dropout (Dropout)            (None, 400)               0         
_________________________________________________________________
dense_1 (Dense)              (None, 400)               160400    
_________________________________________________________________
dropout_1 (Dropout)          (None, 400)               0         
_________________________________________________________________
dense_2 (Dense)              (None, 400)               160400    
_________________________________________________________________
dropout_2 (Dropout)          (None, 400)               0         
_________________________________________________________________
dense_3 (Dense)              (None, 1)                 401       
=================================================================
Total params: 4,321,201
Trainable params: 4,321,201
Non-trainable params: 0
_________________________________________________________________
None
Red
-13.57129650203019
Typer KerasRegressor
Hello world
{'HP_L2_REG': 0.0001, 'learning_rate': 0.001, 'HP_NUM_HIDDEN_LAYERS': 3, 'units': 200, 'kernel_initializer': 'glorot_uniform', 'rate': 0.1, 'HP_L1_REG': 0.001, 'activation': 'tanh', 'HP_OPTIMIZER': 'Adagrad'}
Blue
Model: "sequential"
_________________________________________________________________
Layer (type)                 Output Shape              Param #   
=================================================================
dense (Dense)                (None, 200)               2000000   
_________________________________________________________________
dropout (Dropout)            (None, 200)               0         
_________________________________________________________________
dense_1 (Dense)              (None, 200)               40200     
_________________________________________________________________
dropout_1 (Dropout)          (None, 200)               0         
_________________________________________________________________
dense_2 (Dense)              (None, 200)               40200     
_________________________________________________________________
dropout_2 (Dropout)          (None, 200)               0         
_________________________________________________________________
dense_3 (Dense)              (None, 1)                 201       
=================================================================
Total params: 2,080,601
Trainable params: 2,080,601
Non-trainable params: 0
_________________________________________________________________
None
Red
-8.114576065286249
Typer KerasRegressor
Hello world
{'HP_L2_REG': 0.0001, 'learning_rate': 0.001, 'HP_NUM_HIDDEN_LAYERS': 4, 'units': 1000, 'kernel_initializer': 'glorot_uniform', 'rate': 0.1, 'HP_L1_REG': 0.1, 'activation': 'relu', 'HP_OPTIMIZER': 'Adam'}
Blue
Model: "sequential"
_________________________________________________________________
Layer (type)                 Output Shape              Param #   
=================================================================
dense (Dense)                (None, 1000)              10000000  
_________________________________________________________________
dropout (Dropout)            (None, 1000)              0         
_________________________________________________________________
dense_1 (Dense)              (None, 1000)              1001000   
_________________________________________________________________
dropout_1 (Dropout)          (None, 1000)              0         
_________________________________________________________________
dense_2 (Dense)              (None, 1000)              1001000   
_________________________________________________________________
dropout_2 (Dropout)          (None, 1000)              0         
_________________________________________________________________
dense_3 (Dense)              (None, 1000)              1001000   
_________________________________________________________________
dropout_3 (Dropout)          (None, 1000)              0         
_________________________________________________________________
dense_4 (Dense)              (None, 1)                 1001      
=================================================================
Total params: 13,004,001
Trainable params: 13,004,001
Non-trainable params: 0
_________________________________________________________________
None
Red
-0.014536093556114071
Typer KerasRegressor
Hello world
{'HP_L2_REG': 0.0001, 'learning_rate': 0.01, 'HP_NUM_HIDDEN_LAYERS': 2, 'units': 1000, 'kernel_initializer': 'glorot_uniform', 'rate': 0.1, 'HP_L1_REG': 0.1, 'activation': 'relu', 'HP_OPTIMIZER': 'Adagrad'}
Blue
Model: "sequential"
_________________________________________________________________
Layer (type)                 Output Shape              Param #   
=================================================================
dense (Dense)                (None, 1000)              10000000  
_________________________________________________________________
dropout (Dropout)            (None, 1000)              0         
_________________________________________________________________
dense_1 (Dense)              (None, 1000)              1001000   
_________________________________________________________________
dropout_1 (Dropout)          (None, 1000)              0         
_________________________________________________________________
dense_2 (Dense)              (None, 1)                 1001      
=================================================================
Total params: 11,002,001
Trainable params: 11,002,001
Non-trainable params: 0
_________________________________________________________________
None
Red
0.21820974081468136
Typer KerasRegressor
Hello world
{'HP_L2_REG': 0.2, 'learning_rate': 0.001, 'HP_NUM_HIDDEN_LAYERS': 3, 'units': 1000, 'kernel_initializer': 'glorot_uniform', 'rate': 0.0, 'HP_L1_REG': 0.0001, 'activation': 'relu', 'HP_OPTIMIZER': 'SGD'}
Blue
Model: "sequential"
_________________________________________________________________
Layer (type)                 Output Shape              Param #   
=================================================================
dense (Dense)                (None, 1000)              10000000  
_________________________________________________________________
dense_1 (Dense)              (None, 1000)              1001000   
_________________________________________________________________
dense_2 (Dense)              (None, 1000)              1001000   
_________________________________________________________________
dense_3 (Dense)              (None, 1)                 1001      
=================================================================
Total params: 12,003,001
Trainable params: 12,003,001
Non-trainable params: 0
_________________________________________________________________
None
Red
0.5682913539093719
Typer KerasRegressor
Hello world
{'HP_L2_REG': 0.0001, 'learning_rate': 0.0001, 'HP_NUM_HIDDEN_LAYERS': 3, 'units': 200, 'kernel_initializer': 'glorot_uniform', 'rate': 0.5, 'HP_L1_REG': 0.1, 'activation': 'tanh', 'HP_OPTIMIZER': 'Adagrad'}
Blue
Model: "sequential"
_________________________________________________________________
Layer (type)                 Output Shape              Param #   
=================================================================
dense (Dense)                (None, 200)               2000000   
_________________________________________________________________
dropout (Dropout)            (None, 200)               0         
_________________________________________________________________
dense_1 (Dense)              (None, 200)               40200     
_________________________________________________________________
dropout_1 (Dropout)          (None, 200)               0         
_________________________________________________________________
dense_2 (Dense)              (None, 200)               40200     
_________________________________________________________________
dropout_2 (Dropout)          (None, 200)               0         
_________________________________________________________________
dense_3 (Dense)              (None, 1)                 201       
=================================================================
Total params: 2,080,601
Trainable params: 2,080,601
Non-trainable params: 0
_________________________________________________________________
None
Red
-22.94697662264421
Typer KerasRegressor
Hello world
{'HP_L2_REG': 0.01, 'learning_rate': 0.001, 'HP_NUM_HIDDEN_LAYERS': 3, 'units': 200, 'kernel_initializer': 'glorot_uniform', 'rate': 0.0, 'HP_L1_REG': 0.01, 'activation': 'relu', 'HP_OPTIMIZER': 'SGD'}
Blue
Model: "sequential"
_________________________________________________________________
Layer (type)                 Output Shape              Param #   
=================================================================
dense (Dense)                (None, 200)               2000000   
_________________________________________________________________
dense_1 (Dense)              (None, 200)               40200     
_________________________________________________________________
dense_2 (Dense)              (None, 200)               40200     
_________________________________________________________________
dense_3 (Dense)              (None, 1)                 201       
=================================================================
Total params: 2,080,601
Trainable params: 2,080,601
Non-trainable params: 0
_________________________________________________________________
None
Red
0.03070647165039664
Typer KerasRegressor
Hello world
{'HP_L2_REG': 1e-08, 'learning_rate': 0.01, 'HP_NUM_HIDDEN_LAYERS': 4, 'units': 1000, 'kernel_initializer': 'glorot_uniform', 'rate': 0.2, 'HP_L1_REG': 0.01, 'activation': 'relu', 'HP_OPTIMIZER': 'SGD'}
Blue
Model: "sequential"
_________________________________________________________________
Layer (type)                 Output Shape              Param #   
=================================================================
dense (Dense)                (None, 1000)              10000000  
_________________________________________________________________
dropout (Dropout)            (None, 1000)              0         
_________________________________________________________________
dense_1 (Dense)              (None, 1000)              1001000   
_________________________________________________________________
dropout_1 (Dropout)          (None, 1000)              0         
_________________________________________________________________
dense_2 (Dense)              (None, 1000)              1001000   
_________________________________________________________________
dropout_2 (Dropout)          (None, 1000)              0         
_________________________________________________________________
dense_3 (Dense)              (None, 1000)              1001000   
_________________________________________________________________
dropout_3 (Dropout)          (None, 1000)              0         
_________________________________________________________________
dense_4 (Dense)              (None, 1)                 1001      
=================================================================
Total params: 13,004,001
Trainable params: 13,004,001
Non-trainable params: 0
_________________________________________________________________
None
Red
0.5363237142207016
Typer KerasRegressor
Hello world
{'HP_L2_REG': 0.0001, 'learning_rate': 1e-05, 'HP_NUM_HIDDEN_LAYERS': 2, 'units': 200, 'kernel_initializer': 'glorot_uniform', 'rate': 0.5, 'HP_L1_REG': 0.0001, 'activation': 'relu', 'HP_OPTIMIZER': 'SGD'}
Blue
Model: "sequential"
_________________________________________________________________
Layer (type)                 Output Shape              Param #   
=================================================================
dense (Dense)                (None, 200)               2000000   
_________________________________________________________________
dropout (Dropout)            (None, 200)               0         
_________________________________________________________________
dense_1 (Dense)              (None, 200)               40200     
_________________________________________________________________
dropout_1 (Dropout)          (None, 200)               0         
_________________________________________________________________
dense_2 (Dense)              (None, 1)                 201       
=================================================================
Total params: 2,040,401
Trainable params: 2,040,401
Non-trainable params: 0
_________________________________________________________________
None
Red
-22.31371470964947
Typer KerasRegressor
Hello world
{'HP_L2_REG': 1e-08, 'learning_rate': 0.01, 'HP_NUM_HIDDEN_LAYERS': 4, 'units': 200, 'kernel_initializer': 'glorot_uniform', 'rate': 0.1, 'HP_L1_REG': 0.1, 'activation': 'relu', 'HP_OPTIMIZER': 'Adam'}
Blue
Model: "sequential"
_________________________________________________________________
Layer (type)                 Output Shape              Param #   
=================================================================
dense (Dense)                (None, 200)               2000000   
_________________________________________________________________
dropout (Dropout)            (None, 200)               0         
_________________________________________________________________
dense_1 (Dense)              (None, 200)               40200     
_________________________________________________________________
dropout_1 (Dropout)          (None, 200)               0         
_________________________________________________________________
dense_2 (Dense)              (None, 200)               40200     
_________________________________________________________________
dropout_2 (Dropout)          (None, 200)               0         
_________________________________________________________________
dense_3 (Dense)              (None, 200)               40200     
_________________________________________________________________
dropout_3 (Dropout)          (None, 200)               0         
_________________________________________________________________
dense_4 (Dense)              (None, 1)                 201       
=================================================================
Total params: 2,120,801
Trainable params: 2,120,801
Non-trainable params: 0
_________________________________________________________________
None
Red
0.3122404268939527
Typer KerasRegressor
Hello world
{'HP_L2_REG': 1e-08, 'learning_rate': 0.01, 'HP_NUM_HIDDEN_LAYERS': 5, 'units': 1000, 'kernel_initializer': 'glorot_uniform', 'rate': 0.1, 'HP_L1_REG': 0.1, 'activation': 'relu', 'HP_OPTIMIZER': 'Adam'}
Blue
Model: "sequential"
_________________________________________________________________
Layer (type)                 Output Shape              Param #   
=================================================================
dense (Dense)                (None, 1000)              10000000  
_________________________________________________________________
dropout (Dropout)            (None, 1000)              0         
_________________________________________________________________
dense_1 (Dense)              (None, 1000)              1001000   
_________________________________________________________________
dropout_1 (Dropout)          (None, 1000)              0         
_________________________________________________________________
dense_2 (Dense)              (None, 1000)              1001000   
_________________________________________________________________
dropout_2 (Dropout)          (None, 1000)              0         
_________________________________________________________________
dense_3 (Dense)              (None, 1000)              1001000   
_________________________________________________________________
dropout_3 (Dropout)          (None, 1000)              0         
_________________________________________________________________
dense_4 (Dense)              (None, 1000)              1001000   
_________________________________________________________________
dropout_4 (Dropout)          (None, 1000)              0         
_________________________________________________________________
dense_5 (Dense)              (None, 1)                 1001      
=================================================================
Total params: 14,005,001
Trainable params: 14,005,001
Non-trainable params: 0
_________________________________________________________________
None
Red
-0.0019380418748202732
Typer KerasRegressor
Hello world
{'HP_L2_REG': 0.2, 'learning_rate': 0.001, 'HP_NUM_HIDDEN_LAYERS': 3, 'units': 400, 'kernel_initializer': 'glorot_uniform', 'rate': 0.2, 'HP_L1_REG': 0.1, 'activation': 'tanh', 'HP_OPTIMIZER': 'Adam'}
Blue
Model: "sequential"
_________________________________________________________________
Layer (type)                 Output Shape              Param #   
=================================================================
dense (Dense)                (None, 400)               4000000   
_________________________________________________________________
dropout (Dropout)            (None, 400)               0         
_________________________________________________________________
dense_1 (Dense)              (None, 400)               160400    
_________________________________________________________________
dropout_1 (Dropout)          (None, 400)               0         
_________________________________________________________________
dense_2 (Dense)              (None, 400)               160400    
_________________________________________________________________
dropout_2 (Dropout)          (None, 400)               0         
_________________________________________________________________
dense_3 (Dense)              (None, 1)                 401       
=================================================================
Total params: 4,321,201
Trainable params: 4,321,201
Non-trainable params: 0
_________________________________________________________________
None
Red
-0.01585848013990865
Typer KerasRegressor
Hello world
{'HP_L2_REG': 0.01, 'learning_rate': 0.001, 'HP_NUM_HIDDEN_LAYERS': 2, 'units': 200, 'kernel_initializer': 'glorot_uniform', 'rate': 0.1, 'HP_L1_REG': 0.01, 'activation': 'relu', 'HP_OPTIMIZER': 'Adam'}
Blue
Model: "sequential"
_________________________________________________________________
Layer (type)                 Output Shape              Param #   
=================================================================
dense (Dense)                (None, 200)               2000000   
_________________________________________________________________
dropout (Dropout)            (None, 200)               0         
_________________________________________________________________
dense_1 (Dense)              (None, 200)               40200     
_________________________________________________________________
dropout_1 (Dropout)          (None, 200)               0         
_________________________________________________________________
dense_2 (Dense)              (None, 1)                 201       
=================================================================
Total params: 2,040,401
Trainable params: 2,040,401
Non-trainable params: 0
_________________________________________________________________
None
Red
0.43965743800270096
Typer KerasRegressor
Hello world
{'HP_L2_REG': 1e-08, 'learning_rate': 0.001, 'HP_NUM_HIDDEN_LAYERS': 3, 'units': 200, 'kernel_initializer': 'glorot_uniform', 'rate': 0.0, 'HP_L1_REG': 0.1, 'activation': 'relu', 'HP_OPTIMIZER': 'Adam'}
Blue
Model: "sequential"
_________________________________________________________________
Layer (type)                 Output Shape              Param #   
=================================================================
dense (Dense)                (None, 200)               2000000   
_________________________________________________________________
dense_1 (Dense)              (None, 200)               40200     
_________________________________________________________________
dense_2 (Dense)              (None, 200)               40200     
_________________________________________________________________
dense_3 (Dense)              (None, 1)                 201       
=================================================================
Total params: 2,080,601
Trainable params: 2,080,601
Non-trainable params: 0
_________________________________________________________________
None
Red
0.4623638123390448
Typer KerasRegressor
Hello world
{'HP_L2_REG': 0.0001, 'learning_rate': 0.01, 'HP_NUM_HIDDEN_LAYERS': 3, 'units': 400, 'kernel_initializer': 'glorot_uniform', 'rate': 0.1, 'HP_L1_REG': 0.1, 'activation': 'relu', 'HP_OPTIMIZER': 'Adagrad'}
Blue
Model: "sequential"
_________________________________________________________________
Layer (type)                 Output Shape              Param #   
=================================================================
dense (Dense)                (None, 400)               4000000   
_________________________________________________________________
dropout (Dropout)            (None, 400)               0         
_________________________________________________________________
dense_1 (Dense)              (None, 400)               160400    
_________________________________________________________________
dropout_1 (Dropout)          (None, 400)               0         
_________________________________________________________________
dense_2 (Dense)              (None, 400)               160400    
_________________________________________________________________
dropout_2 (Dropout)          (None, 400)               0         
_________________________________________________________________
dense_3 (Dense)              (None, 1)                 401       
=================================================================
Total params: 4,321,201
Trainable params: 4,321,201
Non-trainable params: 0
_________________________________________________________________
None
Red
0.39688750417555674
Typer KerasRegressor
Hello world
{'HP_L2_REG': 0.2, 'learning_rate': 0.001, 'HP_NUM_HIDDEN_LAYERS': 2, 'units': 400, 'kernel_initializer': 'glorot_uniform', 'rate': 0.1, 'HP_L1_REG': 0.001, 'activation': 'relu', 'HP_OPTIMIZER': 'SGD'}
Blue
Model: "sequential"
_________________________________________________________________
Layer (type)                 Output Shape              Param #   
=================================================================
dense (Dense)                (None, 400)               4000000   
_________________________________________________________________
dropout (Dropout)            (None, 400)               0         
_________________________________________________________________
dense_1 (Dense)              (None, 400)               160400    
_________________________________________________________________
dropout_1 (Dropout)          (None, 400)               0         
_________________________________________________________________
dense_2 (Dense)              (None, 1)                 401       
=================================================================
Total params: 4,160,801
Trainable params: 4,160,801
Non-trainable params: 0
_________________________________________________________________
None
Red
0.37398310695691317
Typer KerasRegressor
Hello world
{'HP_L2_REG': 0.01, 'learning_rate': 0.0001, 'HP_NUM_HIDDEN_LAYERS': 3, 'units': 400, 'kernel_initializer': 'glorot_uniform', 'rate': 0.1, 'HP_L1_REG': 0.001, 'activation': 'relu', 'HP_OPTIMIZER': 'Adam'}
Blue
Model: "sequential"
_________________________________________________________________
Layer (type)                 Output Shape              Param #   
=================================================================
dense (Dense)                (None, 400)               4000000   
_________________________________________________________________
dropout (Dropout)            (None, 400)               0         
_________________________________________________________________
dense_1 (Dense)              (None, 400)               160400    
_________________________________________________________________
dropout_1 (Dropout)          (None, 400)               0         
_________________________________________________________________
dense_2 (Dense)              (None, 400)               160400    
_________________________________________________________________
dropout_2 (Dropout)          (None, 400)               0         
_________________________________________________________________
dense_3 (Dense)              (None, 1)                 401       
=================================================================
Total params: 4,321,201
Trainable params: 4,321,201
Non-trainable params: 0
_________________________________________________________________
None
Red
0.5168723323020609
Typer KerasRegressor
Hello world
{'HP_L2_REG': 0.01, 'learning_rate': 1e-05, 'HP_NUM_HIDDEN_LAYERS': 4, 'units': 400, 'kernel_initializer': 'glorot_uniform', 'rate': 0.0, 'HP_L1_REG': 0.01, 'activation': 'tanh', 'HP_OPTIMIZER': 'Adagrad'}
Blue
Model: "sequential"
_________________________________________________________________
Layer (type)                 Output Shape              Param #   
=================================================================
dense (Dense)                (None, 400)               4000000   
_________________________________________________________________
dense_1 (Dense)              (None, 400)               160400    
_________________________________________________________________
dense_2 (Dense)              (None, 400)               160400    
_________________________________________________________________
dense_3 (Dense)              (None, 400)               160400    
_________________________________________________________________
dense_4 (Dense)              (None, 1)                 401       
=================================================================
Total params: 4,481,601
Trainable params: 4,481,601
Non-trainable params: 0
_________________________________________________________________
None
Red
-20.74345310194467
Typer KerasRegressor
Hello world
{'HP_L2_REG': 1e-08, 'learning_rate': 0.001, 'HP_NUM_HIDDEN_LAYERS': 2, 'units': 400, 'kernel_initializer': 'glorot_uniform', 'rate': 0.0, 'HP_L1_REG': 0.0001, 'activation': 'relu', 'HP_OPTIMIZER': 'Adam'}
Blue
Model: "sequential"
_________________________________________________________________
Layer (type)                 Output Shape              Param #   
=================================================================
dense (Dense)                (None, 400)               4000000   
_________________________________________________________________
dense_1 (Dense)              (None, 400)               160400    
_________________________________________________________________
dense_2 (Dense)              (None, 1)                 401       
=================================================================
Total params: 4,160,801
Trainable params: 4,160,801
Non-trainable params: 0
_________________________________________________________________
None
Red
0.5674992568653181
Typer KerasRegressor
Hello world
{'HP_L2_REG': 0.01, 'learning_rate': 0.0001, 'HP_NUM_HIDDEN_LAYERS': 2, 'units': 400, 'kernel_initializer': 'glorot_uniform', 'rate': 0.5, 'HP_L1_REG': 0.1, 'activation': 'relu', 'HP_OPTIMIZER': 'SGD'}
Blue
Model: "sequential"
_________________________________________________________________
Layer (type)                 Output Shape              Param #   
=================================================================
dense (Dense)                (None, 400)               4000000   
_________________________________________________________________
dropout (Dropout)            (None, 400)               0         
_________________________________________________________________
dense_1 (Dense)              (None, 400)               160400    
_________________________________________________________________
dropout_1 (Dropout)          (None, 400)               0         
_________________________________________________________________
dense_2 (Dense)              (None, 1)                 401       
=================================================================
Total params: 4,160,801
Trainable params: 4,160,801
Non-trainable params: 0
_________________________________________________________________
None
Red
0.13045904964661925
Typer KerasRegressor
Hello world
{'HP_L2_REG': 1e-08, 'learning_rate': 1e-05, 'HP_NUM_HIDDEN_LAYERS': 5, 'units': 200, 'kernel_initializer': 'glorot_uniform', 'rate': 0.1, 'HP_L1_REG': 0.0001, 'activation': 'tanh', 'HP_OPTIMIZER': 'Adam'}
Blue
Model: "sequential"
_________________________________________________________________
Layer (type)                 Output Shape              Param #   
=================================================================
dense (Dense)                (None, 200)               2000000   
_________________________________________________________________
dropout (Dropout)            (None, 200)               0         
_________________________________________________________________
dense_1 (Dense)              (None, 200)               40200     
_________________________________________________________________
dropout_1 (Dropout)          (None, 200)               0         
_________________________________________________________________
dense_2 (Dense)              (None, 200)               40200     
_________________________________________________________________
dropout_2 (Dropout)          (None, 200)               0         
_________________________________________________________________
dense_3 (Dense)              (None, 200)               40200     
_________________________________________________________________
dropout_3 (Dropout)          (None, 200)               0         
_________________________________________________________________
dense_4 (Dense)              (None, 200)               40200     
_________________________________________________________________
dropout_4 (Dropout)          (None, 200)               0         
_________________________________________________________________
dense_5 (Dense)              (None, 1)                 201       
=================================================================
Total params: 2,161,001
Trainable params: 2,161,001
Non-trainable params: 0
_________________________________________________________________
None
Red
-14.023822658411389
Typer KerasRegressor
Hello world
…
Hello world
{'strides': 1, 'pool': 1, 'HP_L1_REG': 0.1, 'activation': 'tanh', 'filters': 2, 'learning_rate': 0.01, 'HP_NUM_HIDDEN_LAYERS': 3, 'units': 200, 'kernel_initializer': 'glorot_uniform', 'rate': 0.0, 'epochs': 100, 'HP_L2_REG': 0.2, 'HP_OPTIMIZER': 'SGD', 'kernel': 2}
Blue
Model: "sequential"
_________________________________________________________________
Layer (type)                 Output Shape              Param #   
=================================================================
conv1d (Conv1D)              (None, 9998, 2)           6         
_________________________________________________________________
max_pooling1d (MaxPooling1D) (None, 9998, 2)           0         
_________________________________________________________________
conv1d_1 (Conv1D)            (None, 9997, 2)           10        
_________________________________________________________________
max_pooling1d_1 (MaxPooling1 (None, 9997, 2)           0         
_________________________________________________________________
flatten (Flatten)            (None, 19994)             0         
_________________________________________________________________
dense (Dense)                (None, 1)                 19995     
=================================================================
Total params: 20,011
Trainable params: 20,011
Non-trainable params: 0
_________________________________________________________________
Summary  None
Red
0.49756551814215266
Typer KerasRegressor
Hello world
{'strides': 1, 'pool': 1, 'HP_L1_REG': 0.1, 'activation': 'tanh', 'filters': 2, 'learning_rate': 0.01, 'HP_NUM_HIDDEN_LAYERS': 3, 'units': 200, 'kernel_initializer': 'glorot_uniform', 'rate': 0.0, 'epochs': 100, 'HP_L2_REG': 0.2, 'HP_OPTIMIZER': 'SGD', 'kernel': 1}
Blue
Model: "sequential"
_________________________________________________________________
Layer (type)                 Output Shape              Param #   
=================================================================
conv1d (Conv1D)              (None, 9999, 2)           4         
_________________________________________________________________
max_pooling1d (MaxPooling1D) (None, 9999, 2)           0         
_________________________________________________________________
conv1d_1 (Conv1D)            (None, 9999, 2)           6         
_________________________________________________________________
max_pooling1d_1 (MaxPooling1 (None, 9999, 2)           0         
_________________________________________________________________
flatten (Flatten)            (None, 19998)             0         
_________________________________________________________________
dense (Dense)                (None, 1)                 19999     
=================================================================
Total params: 20,009
Trainable params: 20,009
Non-trainable params: 0
_________________________________________________________________
Summary  None
Red
0.47455530808460344
Typer KerasRegressor
Hello world
{'strides': 1, 'pool': 2, 'HP_L1_REG': 0.1, 'activation': 'tanh', 'filters': 2, 'learning_rate': 0.001, 'HP_NUM_HIDDEN_LAYERS': 3, 'units': 200, 'kernel_initializer': 'glorot_uniform', 'rate': 0.0, 'epochs': 100, 'HP_L2_REG': 0.2, 'HP_OPTIMIZER': 'SGD', 'kernel': 2}
Blue
Model: "sequential"
_________________________________________________________________
Layer (type)                 Output Shape              Param #   
=================================================================
conv1d (Conv1D)              (None, 9998, 2)           6         
_________________________________________________________________
max_pooling1d (MaxPooling1D) (None, 9997, 2)           0         
_________________________________________________________________
conv1d_1 (Conv1D)            (None, 9996, 2)           10        
_________________________________________________________________
max_pooling1d_1 (MaxPooling1 (None, 9995, 2)           0         
_________________________________________________________________
flatten (Flatten)            (None, 19990)             0         
_________________________________________________________________
dense (Dense)                (None, 1)                 19991     
=================================================================
Total params: 20,007
Trainable params: 20,007
Non-trainable params: 0
_________________________________________________________________
Summary  None
Red
0.5675918944971186
Typer KerasRegressor
Hello world
{'strides': 1, 'pool': 1, 'HP_L1_REG': 0.1, 'activation': 'tanh', 'filters': 2, 'learning_rate': 0.01, 'HP_NUM_HIDDEN_LAYERS': 3, 'units': 200, 'kernel_initializer': 'glorot_uniform', 'rate': 0.0, 'epochs': 200, 'HP_L2_REG': 0.2, 'HP_OPTIMIZER': 'SGD', 'kernel': 2}
Blue
Model: "sequential"
_________________________________________________________________
Layer (type)                 Output Shape              Param #   
=================================================================
conv1d (Conv1D)              (None, 9998, 2)           6         
_________________________________________________________________
max_pooling1d (MaxPooling1D) (None, 9998, 2)           0         
_________________________________________________________________
conv1d_1 (Conv1D)            (None, 9997, 2)           10        
_________________________________________________________________
max_pooling1d_1 (MaxPooling1 (None, 9997, 2)           0         
_________________________________________________________________
flatten (Flatten)            (None, 19994)             0         
_________________________________________________________________
dense (Dense)                (None, 1)                 19995     
=================================================================
Total params: 20,011
Trainable params: 20,011
Non-trainable params: 0
_________________________________________________________________
Summary  None
Red
0.5005394712693982
Typer KerasRegressor
Hello world
{'strides': 1, 'pool': 2, 'HP_L1_REG': 0.1, 'activation': 'tanh', 'filters': 2, 'learning_rate': 0.001, 'HP_NUM_HIDDEN_LAYERS': 3, 'units': 200, 'kernel_initializer': 'glorot_uniform', 'rate': 0.0, 'epochs': 100, 'HP_L2_REG': 0.2, 'HP_OPTIMIZER': 'SGD', 'kernel': 1}
Blue
Model: "sequential"
_________________________________________________________________
Layer (type)                 Output Shape              Param #   
=================================================================
conv1d (Conv1D)              (None, 9999, 2)           4         
_________________________________________________________________
max_pooling1d (MaxPooling1D) (None, 9998, 2)           0         
_________________________________________________________________
conv1d_1 (Conv1D)            (None, 9998, 2)           6         
_________________________________________________________________
max_pooling1d_1 (MaxPooling1 (None, 9997, 2)           0         
_________________________________________________________________
flatten (Flatten)            (None, 19994)             0         
_________________________________________________________________
dense (Dense)                (None, 1)                 19995     
=================================================================
Total params: 20,005
Trainable params: 20,005
Non-trainable params: 0
_________________________________________________________________
Summary  None
Red
0.5149506676831597
Typer KerasRegressor
Hello world
{'strides': 1, 'pool': 1, 'HP_L1_REG': 0.1, 'activation': 'tanh', 'filters': 2, 'learning_rate': 0.01, 'HP_NUM_HIDDEN_LAYERS': 3, 'units': 200, 'kernel_initializer': 'glorot_uniform', 'rate': 0.0, 'epochs': 200, 'HP_L2_REG': 0.2, 'HP_OPTIMIZER': 'SGD', 'kernel': 1}
Blue
Model: "sequential"
_________________________________________________________________
Layer (type)                 Output Shape              Param #   
=================================================================
conv1d (Conv1D)              (None, 9999, 2)           4         
_________________________________________________________________
max_pooling1d (MaxPooling1D) (None, 9999, 2)           0         
_________________________________________________________________
conv1d_1 (Conv1D)            (None, 9999, 2)           6         
_________________________________________________________________
max_pooling1d_1 (MaxPooling1 (None, 9999, 2)           0         
_________________________________________________________________
flatten (Flatten)            (None, 19998)             0         
_________________________________________________________________
dense (Dense)                (None, 1)                 19999     
=================================================================
Total params: 20,009
Trainable params: 20,009
Non-trainable params: 0
_________________________________________________________________
Summary  None
Red
0.5321442629608429
Typer KerasRegressor
Hello world
{'strides': 1, 'pool': 1, 'HP_L1_REG': 0.1, 'activation': 'tanh', 'filters': 1, 'learning_rate': 0.01, 'HP_NUM_HIDDEN_LAYERS': 3, 'units': 200, 'kernel_initializer': 'glorot_uniform', 'rate': 0.0, 'epochs': 100, 'HP_L2_REG': 0.2, 'HP_OPTIMIZER': 'SGD', 'kernel': 1}
Blue
Model: "sequential"
_________________________________________________________________
Layer (type)                 Output Shape              Param #   
=================================================================
conv1d (Conv1D)              (None, 9999, 1)           2         
_________________________________________________________________
max_pooling1d (MaxPooling1D) (None, 9999, 1)           0         
_________________________________________________________________
conv1d_1 (Conv1D)            (None, 9999, 1)           2         
_________________________________________________________________
max_pooling1d_1 (MaxPooling1 (None, 9999, 1)           0         
_________________________________________________________________
flatten (Flatten)            (None, 9999)              0         
_________________________________________________________________
dense (Dense)                (None, 1)                 10000     
=================================================================
Total params: 10,004
Trainable params: 10,004
Non-trainable params: 0
_________________________________________________________________
Summary  None
Red
-1.8965669453447576
Typer KerasRegressor
Hello world
{'strides': 2, 'pool': 2, 'HP_L1_REG': 0.1, 'activation': 'tanh', 'filters': 2, 'learning_rate': 0.001, 'HP_NUM_HIDDEN_LAYERS': 3, 'units': 200, 'kernel_initializer': 'glorot_uniform', 'rate': 0.0, 'epochs': 200, 'HP_L2_REG': 0.2, 'HP_OPTIMIZER': 'SGD', 'kernel': 2}
Blue
Model: "sequential"
_________________________________________________________________
Layer (type)                 Output Shape              Param #   
=================================================================
conv1d (Conv1D)              (None, 4999, 2)           6         
_________________________________________________________________
max_pooling1d (MaxPooling1D) (None, 2499, 2)           0         
_________________________________________________________________
conv1d_1 (Conv1D)            (None, 1249, 2)           10        
_________________________________________________________________
max_pooling1d_1 (MaxPooling1 (None, 624, 2)            0         
_________________________________________________________________
flatten (Flatten)            (None, 1248)              0         
_________________________________________________________________
dense (Dense)                (None, 1)                 1249      
=================================================================
Total params: 1,265
Trainable params: 1,265
Non-trainable params: 0
_________________________________________________________________
Summary  None
Red
-0.0360792021783376
Typer KerasRegressor
Hello world
{'strides': 2, 'pool': 1, 'HP_L1_REG': 0.1, 'activation': 'tanh', 'filters': 2, 'learning_rate': 0.01, 'HP_NUM_HIDDEN_LAYERS': 3, 'units': 200, 'kernel_initializer': 'glorot_uniform', 'rate': 0.0, 'epochs': 200, 'HP_L2_REG': 0.2, 'HP_OPTIMIZER': 'SGD', 'kernel': 2}
Blue
Model: "sequential"
_________________________________________________________________
Layer (type)                 Output Shape              Param #   
=================================================================
conv1d (Conv1D)              (None, 4999, 2)           6         
_________________________________________________________________
max_pooling1d (MaxPooling1D) (None, 2500, 2)           0         
_________________________________________________________________
conv1d_1 (Conv1D)            (None, 1250, 2)           10        
_________________________________________________________________
max_pooling1d_1 (MaxPooling1 (None, 625, 2)            0         
_________________________________________________________________
flatten (Flatten)            (None, 1250)              0         
_________________________________________________________________
dense (Dense)                (None, 1)                 1251      
=================================================================
Total params: 1,267
Trainable params: 1,267
Non-trainable params: 0
_________________________________________________________________
Summary  None
Red
-0.030473390672445477
Typer KerasRegressor
Hello world
{'strides': 2, 'pool': 2, 'HP_L1_REG': 0.1, 'activation': 'tanh', 'filters': 1, 'learning_rate': 0.01, 'HP_NUM_HIDDEN_LAYERS': 3, 'units': 200, 'kernel_initializer': 'glorot_uniform', 'rate': 0.0, 'epochs': 100, 'HP_L2_REG': 0.2, 'HP_OPTIMIZER': 'SGD', 'kernel': 2}
Blue
Model: "sequential"
_________________________________________________________________
Layer (type)                 Output Shape              Param #   
=================================================================
conv1d (Conv1D)              (None, 4999, 1)           3         
_________________________________________________________________
max_pooling1d (MaxPooling1D) (None, 2499, 1)           0         
_________________________________________________________________
conv1d_1 (Conv1D)            (None, 1249, 1)           3         
_________________________________________________________________
max_pooling1d_1 (MaxPooling1 (None, 624, 1)            0         
_________________________________________________________________
flatten (Flatten)            (None, 624)               0         
_________________________________________________________________
dense (Dense)                (None, 1)                 625       
=================================================================
Total params: 631
Trainable params: 631
Non-trainable params: 0
_________________________________________________________________
Summary  None
Red
-0.0312139047083142
Typer KerasRegressor
Hello world
{'strides': 1, 'pool': 2, 'HP_L1_REG': 0.1, 'activation': 'tanh', 'filters': 2, 'learning_rate': 0.01, 'HP_NUM_HIDDEN_LAYERS': 3, 'units': 200, 'kernel_initializer': 'glorot_uniform', 'rate': 0.0, 'epochs': 200, 'HP_L2_REG': 0.2, 'HP_OPTIMIZER': 'SGD', 'kernel': 2}
Blue
Model: "sequential"
_________________________________________________________________
Layer (type)                 Output Shape              Param #   
=================================================================
conv1d (Conv1D)              (None, 9998, 2)           6         
_________________________________________________________________
max_pooling1d (MaxPooling1D) (None, 9997, 2)           0         
_________________________________________________________________
conv1d_1 (Conv1D)            (None, 9996, 2)           10        
_________________________________________________________________
max_pooling1d_1 (MaxPooling1 (None, 9995, 2)           0         
_________________________________________________________________
flatten (Flatten)            (None, 19990)             0         
_________________________________________________________________
dense (Dense)                (None, 1)                 19991     
=================================================================
Total params: 20,007
Trainable params: 20,007
Non-trainable params: 0
_________________________________________________________________
Summary  None
Red
0.5130208639270553
Typer KerasRegressor
Hello world
{'strides': 1, 'pool': 2, 'HP_L1_REG': 0.1, 'activation': 'tanh', 'filters': 1, 'learning_rate': 0.001, 'HP_NUM_HIDDEN_LAYERS': 3, 'units': 200, 'kernel_initializer': 'glorot_uniform', 'rate': 0.0, 'epochs': 200, 'HP_L2_REG': 0.2, 'HP_OPTIMIZER': 'SGD', 'kernel': 2}
Blue
Model: "sequential"
_________________________________________________________________
Layer (type)                 Output Shape              Param #   
=================================================================
conv1d (Conv1D)              (None, 9998, 1)           3         
_________________________________________________________________
max_pooling1d (MaxPooling1D) (None, 9997, 1)           0         
_________________________________________________________________
conv1d_1 (Conv1D)            (None, 9996, 1)           3         
_________________________________________________________________
max_pooling1d_1 (MaxPooling1 (None, 9995, 1)           0         
_________________________________________________________________
flatten (Flatten)            (None, 9995)              0         
_________________________________________________________________
dense (Dense)                (None, 1)                 9996      
=================================================================
Total params: 10,002
Trainable params: 10,002
Non-trainable params: 0
_________________________________________________________________
Summary  None
Red
0.5432753605537878
Typer KerasRegressor
Hello world
{'strides': 2, 'pool': 2, 'HP_L1_REG': 0.1, 'activation': 'tanh', 'filters': 1, 'learning_rate': 0.01, 'HP_NUM_HIDDEN_LAYERS': 3, 'units': 200, 'kernel_initializer': 'glorot_uniform', 'rate': 0.0, 'epochs': 200, 'HP_L2_REG': 0.2, 'HP_OPTIMIZER': 'SGD', 'kernel': 2}
Blue
Model: "sequential"
_________________________________________________________________
Layer (type)                 Output Shape              Param #   
=================================================================
conv1d (Conv1D)              (None, 4999, 1)           3         
_________________________________________________________________
max_pooling1d (MaxPooling1D) (None, 2499, 1)           0         
_________________________________________________________________
conv1d_1 (Conv1D)            (None, 1249, 1)           3         
_________________________________________________________________
max_pooling1d_1 (MaxPooling1 (None, 624, 1)            0         
_________________________________________________________________
flatten (Flatten)            (None, 624)               0         
_________________________________________________________________
dense (Dense)                (None, 1)                 625       
=================================================================
Total params: 631
Trainable params: 631
Non-trainable params: 0
_________________________________________________________________
Summary  None
Red
-0.05250466667940801
Typer KerasRegressor
Hello world
{'strides': 1, 'pool': 2, 'HP_L1_REG': 0.1, 'activation': 'tanh', 'filters': 1, 'learning_rate': 0.001, 'HP_NUM_HIDDEN_LAYERS': 3, 'units': 200, 'kernel_initializer': 'glorot_uniform', 'rate': 0.0, 'epochs': 100, 'HP_L2_REG': 0.2, 'HP_OPTIMIZER': 'SGD', 'kernel': 1}
Blue
Model: "sequential"
_________________________________________________________________
Layer (type)                 Output Shape              Param #   
=================================================================
conv1d (Conv1D)              (None, 9999, 1)           2         
_________________________________________________________________
max_pooling1d (MaxPooling1D) (None, 9998, 1)           0         
_________________________________________________________________
conv1d_1 (Conv1D)            (None, 9998, 1)           2         
_________________________________________________________________
max_pooling1d_1 (MaxPooling1 (None, 9997, 1)           0         
_________________________________________________________________
flatten (Flatten)            (None, 9997)              0         
_________________________________________________________________
dense (Dense)                (None, 1)                 9998      
=================================================================
Total params: 10,002
Trainable params: 10,002
Non-trainable params: 0
_________________________________________________________________
Summary  None
Red
-0.006585631824477467
Typer KerasRegressor
Hello world
{'strides': 1, 'pool': 1, 'HP_L1_REG': 0.1, 'activation': 'tanh', 'filters': 2, 'learning_rate': 0.001, 'HP_NUM_HIDDEN_LAYERS': 3, 'units': 200, 'kernel_initializer': 'glorot_uniform', 'rate': 0.0, 'epochs': 100, 'HP_L2_REG': 0.2, 'HP_OPTIMIZER': 'SGD', 'kernel': 2}
Blue
Model: "sequential"
_________________________________________________________________
Layer (type)                 Output Shape              Param #   
=================================================================
conv1d (Conv1D)              (None, 9998, 2)           6         
_________________________________________________________________
max_pooling1d (MaxPooling1D) (None, 9998, 2)           0         
_________________________________________________________________
conv1d_1 (Conv1D)            (None, 9997, 2)           10        
_________________________________________________________________
max_pooling1d_1 (MaxPooling1 (None, 9997, 2)           0         
_________________________________________________________________
flatten (Flatten)            (None, 19994)             0         
_________________________________________________________________
dense (Dense)                (None, 1)                 19995     
=================================================================
Total params: 20,011
Trainable params: 20,011
Non-trainable params: 0
_________________________________________________________________
Summary  None
Red
0.5793350811747233
Typer KerasRegressor
Hello world
{'strides': 2, 'pool': 1, 'HP_L1_REG': 0.1, 'activation': 'tanh', 'filters': 1, 'learning_rate': 0.001, 'HP_NUM_HIDDEN_LAYERS': 3, 'units': 200, 'kernel_initializer': 'glorot_uniform', 'rate': 0.0, 'epochs': 100, 'HP_L2_REG': 0.2, 'HP_OPTIMIZER': 'SGD', 'kernel': 2}
Blue
Model: "sequential"
_________________________________________________________________
Layer (type)                 Output Shape              Param #   
=================================================================
conv1d (Conv1D)              (None, 4999, 1)           3         
_________________________________________________________________
max_pooling1d (MaxPooling1D) (None, 2500, 1)           0         
_________________________________________________________________
conv1d_1 (Conv1D)            (None, 1250, 1)           3         
_________________________________________________________________
max_pooling1d_1 (MaxPooling1 (None, 625, 1)            0         
_________________________________________________________________
flatten (Flatten)            (None, 625)               0         
_________________________________________________________________
dense (Dense)                (None, 1)                 626       
=================================================================
Total params: 632
Trainable params: 632
Non-trainable params: 0
_________________________________________________________________
Summary  None
Red
-0.04657433358524177
Typer KerasRegressor
Hello world
{'strides': 1, 'pool': 2, 'HP_L1_REG': 0.1, 'activation': 'tanh', 'filters': 1, 'learning_rate': 0.01, 'HP_NUM_HIDDEN_LAYERS': 3, 'units': 200, 'kernel_initializer': 'glorot_uniform', 'rate': 0.0, 'epochs': 100, 'HP_L2_REG': 0.2, 'HP_OPTIMIZER': 'SGD', 'kernel': 2}
Blue
Model: "sequential"
_________________________________________________________________
Layer (type)                 Output Shape              Param #   
=================================================================
conv1d (Conv1D)              (None, 9998, 1)           3         
_________________________________________________________________
max_pooling1d (MaxPooling1D) (None, 9997, 1)           0         
_________________________________________________________________
conv1d_1 (Conv1D)            (None, 9996, 1)           3         
_________________________________________________________________
max_pooling1d_1 (MaxPooling1 (None, 9995, 1)           0         
_________________________________________________________________
flatten (Flatten)            (None, 9995)              0         
_________________________________________________________________
dense (Dense)                (None, 1)                 9996      
=================================================================
Total params: 10,002
Trainable params: 10,002
Non-trainable params: 0
_________________________________________________________________
Summary  None
Red
-4.120909714295198
Typer KerasRegressor
Hello world
{'strides': 2, 'pool': 2, 'HP_L1_REG': 0.1, 'activation': 'tanh', 'filters': 2, 'learning_rate': 0.001, 'HP_NUM_HIDDEN_LAYERS': 3, 'units': 200, 'kernel_initializer': 'glorot_uniform', 'rate': 0.0, 'epochs': 200, 'HP_L2_REG': 0.2, 'HP_OPTIMIZER': 'SGD', 'kernel': 1}
Blue
Model: "sequential"
_________________________________________________________________
Layer (type)                 Output Shape              Param #   
=================================================================
conv1d (Conv1D)              (None, 5000, 2)           4         
_________________________________________________________________
max_pooling1d (MaxPooling1D) (None, 2500, 2)           0         
_________________________________________________________________
conv1d_1 (Conv1D)            (None, 1250, 2)           6         
_________________________________________________________________
max_pooling1d_1 (MaxPooling1 (None, 625, 2)            0         
_________________________________________________________________
flatten (Flatten)            (None, 1250)              0         
_________________________________________________________________
dense (Dense)                (None, 1)                 1251      
=================================================================
Total params: 1,261
Trainable params: 1,261
Non-trainable params: 0
_________________________________________________________________
Summary  None
Red
-0.04932437614215224
Typer KerasRegressor
Hello world
{'strides': 1, 'pool': 1, 'HP_L1_REG': 0.1, 'activation': 'tanh', 'filters': 1, 'learning_rate': 0.001, 'HP_NUM_HIDDEN_LAYERS': 3, 'units': 200, 'kernel_initializer': 'glorot_uniform', 'rate': 0.0, 'epochs': 100, 'HP_L2_REG': 0.2, 'HP_OPTIMIZER': 'SGD', 'kernel': 1}
Blue
Model: "sequential"
_________________________________________________________________
Layer (type)                 Output Shape              Param #   
=================================================================
conv1d (Conv1D)              (None, 9999, 1)           2         
_________________________________________________________________
max_pooling1d (MaxPooling1D) (None, 9999, 1)           0         
_________________________________________________________________
conv1d_1 (Conv1D)            (None, 9999, 1)           2         
_________________________________________________________________
max_pooling1d_1 (MaxPooling1 (None, 9999, 1)           0         
_________________________________________________________________
flatten (Flatten)            (None, 9999)              0         
_________________________________________________________________
dense (Dense)                (None, 1)                 10000     
=================================================================
Total params: 10,004
Trainable params: 10,004
Non-trainable params: 0
_________________________________________________________________
Summary  None
Red
-0.05036536369849709
Typer KerasRegressor
Hello world
{'strides': 2, 'pool': 2, 'HP_L1_REG': 0.1, 'activation': 'tanh', 'filters': 2, 'learning_rate': 0.001, 'HP_NUM_HIDDEN_LAYERS': 3, 'units': 200, 'kernel_initializer': 'glorot_uniform', 'rate': 0.0, 'epochs': 100, 'HP_L2_REG': 0.2, 'HP_OPTIMIZER': 'SGD', 'kernel': 1}
Blue
Model: "sequential"
_________________________________________________________________
Layer (type)                 Output Shape              Param #   
=================================================================
conv1d (Conv1D)              (None, 5000, 2)           4         
_________________________________________________________________
max_pooling1d (MaxPooling1D) (None, 2500, 2)           0         
_________________________________________________________________
conv1d_1 (Conv1D)            (None, 1250, 2)           6         
_________________________________________________________________
max_pooling1d_1 (MaxPooling1 (None, 625, 2)            0         
_________________________________________________________________
flatten (Flatten)            (None, 1250)              0         
_________________________________________________________________
dense (Dense)                (None, 1)                 1251      
=================================================================
Total params: 1,261
Trainable params: 1,261
Non-trainable params: 0
_________________________________________________________________
Summary  None
Red
-0.032474428235543806
Typer KerasRegressor
Hello world
{'strides': 1, 'pool': 2, 'HP_L1_REG': 0.1, 'activation': 'tanh', 'filters': 2, 'learning_rate': 0.001, 'HP_NUM_HIDDEN_LAYERS': 3, 'units': 200, 'kernel_initializer': 'glorot_uniform', 'rate': 0.0, 'epochs': 200, 'HP_L2_REG': 0.2, 'HP_OPTIMIZER': 'SGD', 'kernel': 1}
Blue
Model: "sequential"
_________________________________________________________________
Layer (type)                 Output Shape              Param #   
=================================================================
conv1d (Conv1D)              (None, 9999, 2)           4         
_________________________________________________________________
max_pooling1d (MaxPooling1D) (None, 9998, 2)           0         
_________________________________________________________________
conv1d_1 (Conv1D)            (None, 9998, 2)           6         
_________________________________________________________________
max_pooling1d_1 (MaxPooling1 (None, 9997, 2)           0         
_________________________________________________________________
flatten (Flatten)            (None, 19994)             0         
_________________________________________________________________
dense (Dense)                (None, 1)                 19995     
=================================================================
Total params: 20,005
Trainable params: 20,005
Non-trainable params: 0
_________________________________________________________________
Summary  None
Red
0.5691537583261034
Typer KerasRegressor
Hello world
{'strides': 2, 'pool': 1, 'HP_L1_REG': 0.1, 'activation': 'tanh', 'filters': 2, 'learning_rate': 0.001, 'HP_NUM_HIDDEN_LAYERS': 3, 'units': 200, 'kernel_initializer': 'glorot_uniform', 'rate': 0.0, 'epochs': 100, 'HP_L2_REG': 0.2, 'HP_OPTIMIZER': 'SGD', 'kernel': 2}
Blue
Model: "sequential"
_________________________________________________________________
Layer (type)                 Output Shape              Param #   
=================================================================
conv1d (Conv1D)              (None, 4999, 2)           6         
_________________________________________________________________
max_pooling1d (MaxPooling1D) (None, 2500, 2)           0         
_________________________________________________________________
conv1d_1 (Conv1D)            (None, 1250, 2)           10        
_________________________________________________________________
max_pooling1d_1 (MaxPooling1 (None, 625, 2)            0         
_________________________________________________________________
flatten (Flatten)            (None, 1250)              0         
_________________________________________________________________
dense (Dense)                (None, 1)                 1251      
=================================================================
Total params: 1,267
Trainable params: 1,267
Non-trainable params: 0
_________________________________________________________________
Summary  None
Red
-0.06443899575845058
Typer KerasRegressor
Hello world
{'strides': 2, 'pool': 2, 'HP_L1_REG': 0.1, 'activation': 'tanh', 'filters': 1, 'learning_rate': 0.001, 'HP_NUM_HIDDEN_LAYERS': 3, 'units': 200, 'kernel_initializer': 'glorot_uniform', 'rate': 0.0, 'epochs': 200, 'HP_L2_REG': 0.2, 'HP_OPTIMIZER': 'SGD', 'kernel': 1}
Blue
Model: "sequential"
_________________________________________________________________
Layer (type)                 Output Shape              Param #   
=================================================================
conv1d (Conv1D)              (None, 5000, 1)           2         
_________________________________________________________________
max_pooling1d (MaxPooling1D) (None, 2500, 1)           0         
_________________________________________________________________
conv1d_1 (Conv1D)            (None, 1250, 1)           2         
_________________________________________________________________
max_pooling1d_1 (MaxPooling1 (None, 625, 1)            0         
_________________________________________________________________
flatten (Flatten)            (None, 625)               0         
_________________________________________________________________
dense (Dense)                (None, 1)                 626       
=================================================================
Total params: 630
Trainable params: 630
Non-trainable params: 0
_________________________________________________________________
Summary  None
Red
-0.05017029877821089
Typer KerasRegressor
Hello world
{'strides': 1, 'pool': 1, 'HP_L1_REG': 0.1, 'activation': 'tanh', 'filters': 2, 'learning_rate': 0.001, 'HP_NUM_HIDDEN_LAYERS': 3, 'units': 200, 'kernel_initializer': 'glorot_uniform', 'rate': 0.0, 'epochs': 100, 'HP_L2_REG': 0.2, 'HP_OPTIMIZER': 'SGD', 'kernel': 1}
Blue
Model: "sequential"
_________________________________________________________________
Layer (type)                 Output Shape              Param #   
=================================================================
conv1d (Conv1D)              (None, 9999, 2)           4         
_________________________________________________________________
max_pooling1d (MaxPooling1D) (None, 9999, 2)           0         
_________________________________________________________________
conv1d_1 (Conv1D)            (None, 9999, 2)           6         
_________________________________________________________________
max_pooling1d_1 (MaxPooling1 (None, 9999, 2)           0         
_________________________________________________________________
flatten (Flatten)            (None, 19998)             0         
_________________________________________________________________
dense (Dense)                (None, 1)                 19999     
=================================================================
Total params: 20,009
Trainable params: 20,009
Non-trainable params: 0
_________________________________________________________________
Summary  None
Red
0.5425697569066852
Typer KerasRegressor
Hello world
{'strides': 2, 'pool': 2, 'HP_L1_REG': 0.1, 'activation': 'tanh', 'filters': 1, 'learning_rate': 0.001, 'HP_NUM_HIDDEN_LAYERS': 3, 'units': 200, 'kernel_initializer': 'glorot_uniform', 'rate': 0.0, 'epochs': 100, 'HP_L2_REG': 0.2, 'HP_OPTIMIZER': 'SGD', 'kernel': 2}
Blue
Model: "sequential"
_________________________________________________________________
Layer (type)                 Output Shape              Param #   
=================================================================
conv1d (Conv1D)              (None, 4999, 1)           3         
_________________________________________________________________
max_pooling1d (MaxPooling1D) (None, 2499, 1)           0         
_________________________________________________________________
conv1d_1 (Conv1D)            (None, 1249, 1)           3         
_________________________________________________________________
max_pooling1d_1 (MaxPooling1 (None, 624, 1)            0         
_________________________________________________________________
flatten (Flatten)            (None, 624)               0         
_________________________________________________________________
dense (Dense)                (None, 1)                 625       
=================================================================
Total params: 631
Trainable params: 631
Non-trainable params: 0
_________________________________________________________________
Summary  None
Red
-0.04693213349426606
Typer KerasRegressor
Hello world
{'strides': 2, 'pool': 2, 'HP_L1_REG': 0.1, 'activation': 'tanh', 'filters': 1, 'learning_rate': 0.01, 'HP_NUM_HIDDEN_LAYERS': 3, 'units': 200, 'kernel_initializer': 'glorot_uniform', 'rate': 0.0, 'epochs': 100, 'HP_L2_REG': 0.2, 'HP_OPTIMIZER': 'SGD', 'kernel': 1}
Blue
Model: "sequential"
_________________________________________________________________
Layer (type)                 Output Shape              Param #   
=================================================================
conv1d (Conv1D)              (None, 5000, 1)           2         
_________________________________________________________________
max_pooling1d (MaxPooling1D) (None, 2500, 1)           0         
_________________________________________________________________
conv1d_1 (Conv1D)            (None, 1250, 1)           2         
_________________________________________________________________
max_pooling1d_1 (MaxPooling1 (None, 625, 1)            0         
_________________________________________________________________
flatten (Flatten)            (None, 625)               0         
_________________________________________________________________
dense (Dense)                (None, 1)                 626       
=================================================================
Total params: 630
Trainable params: 630
Non-trainable params: 0
_________________________________________________________________
Summary  None
Red
-0.0032328869309334873
Typer KerasRegressor
Hello world
{'strides': 2, 'pool': 1, 'HP_L1_REG': 0.1, 'activation': 'tanh', 'filters': 1, 'learning_rate': 0.01, 'HP_NUM_HIDDEN_LAYERS': 3, 'units': 200, 'kernel_initializer': 'glorot_uniform', 'rate': 0.0, 'epochs': 100, 'HP_L2_REG': 0.2, 'HP_OPTIMIZER': 'SGD', 'kernel': 1}
Blue
Model: "sequential"
_________________________________________________________________
Layer (type)                 Output Shape              Param #   
=================================================================
conv1d (Conv1D)              (None, 5000, 1)           2         
_________________________________________________________________
max_pooling1d (MaxPooling1D) (None, 2500, 1)           0         
_________________________________________________________________
conv1d_1 (Conv1D)            (None, 1250, 1)           2         
_________________________________________________________________
max_pooling1d_1 (MaxPooling1 (None, 625, 1)            0         
_________________________________________________________________
flatten (Flatten)            (None, 625)               0         
_________________________________________________________________
dense (Dense)                (None, 1)                 626       
=================================================================
Total params: 630
Trainable params: 630
Non-trainable params: 0
_________________________________________________________________
Summary  None
Red
-0.11153643290468063
Typer KerasRegressor
Hello world
{'strides': 1, 'pool': 1, 'HP_L1_REG': 0.1, 'activation': 'tanh', 'filters': 1, 'learning_rate': 0.001, 'HP_NUM_HIDDEN_LAYERS': 3, 'units': 200, 'kernel_initializer': 'glorot_uniform', 'rate': 0.0, 'epochs': 100, 'HP_L2_REG': 0.2, 'HP_OPTIMIZER': 'SGD', 'kernel': 2}
Blue
Model: "sequential"
_________________________________________________________________
Layer (type)                 Output Shape              Param #   
=================================================================
conv1d (Conv1D)              (None, 9998, 1)           3         
_________________________________________________________________
max_pooling1d (MaxPooling1D) (None, 9998, 1)           0         
_________________________________________________________________
conv1d_1 (Conv1D)            (None, 9997, 1)           3         
_________________________________________________________________
max_pooling1d_1 (MaxPooling1 (None, 9997, 1)           0         
_________________________________________________________________
flatten (Flatten)            (None, 9997)              0         
_________________________________________________________________
dense (Dense)                (None, 1)                 9998      
=================================================================
Total params: 10,004
Trainable params: 10,004
Non-trainable params: 0
_________________________________________________________________
Summary  None
Red
0.2115778963489412
Typer KerasRegressor
Hello world
{'strides': 2, 'pool': 2, 'HP_L1_REG': 0.1, 'activation': 'tanh', 'filters': 2, 'learning_rate': 0.01, 'HP_NUM_HIDDEN_LAYERS': 3, 'units': 200, 'kernel_initializer': 'glorot_uniform', 'rate': 0.0, 'epochs': 100, 'HP_L2_REG': 0.2, 'HP_OPTIMIZER': 'SGD', 'kernel': 2}
Blue
Model: "sequential"
_________________________________________________________________
Layer (type)                 Output Shape              Param #   
=================================================================
conv1d (Conv1D)              (None, 4999, 2)           6         
_________________________________________________________________
max_pooling1d (MaxPooling1D) (None, 2499, 2)           0         
_________________________________________________________________
conv1d_1 (Conv1D)            (None, 1249, 2)           10        
_________________________________________________________________
max_pooling1d_1 (MaxPooling1 (None, 624, 2)            0         
_________________________________________________________________
flatten (Flatten)            (None, 1248)              0         
_________________________________________________________________
dense (Dense)                (None, 1)                 1249      
=================================================================
Total params: 1,265
Trainable params: 1,265
Non-trainable params: 0
_________________________________________________________________
Summary  None
Red
-0.043565272777776
Typer KerasRegressor
Hello world
{'strides': 1, 'pool': 1, 'HP_L1_REG': 0.1, 'activation': 'tanh', 'filters': 1, 'learning_rate': 0.001, 'HP_NUM_HIDDEN_LAYERS': 3, 'units': 200, 'kernel_initializer': 'glorot_uniform', 'rate': 0.0, 'epochs': 200, 'HP_L2_REG': 0.2, 'HP_OPTIMIZER': 'SGD', 'kernel': 2}
Blue
Model: "sequential"
_________________________________________________________________
Layer (type)                 Output Shape              Param #   
=================================================================
conv1d (Conv1D)              (None, 9998, 1)           3         
_________________________________________________________________
max_pooling1d (MaxPooling1D) (None, 9998, 1)           0         
_________________________________________________________________
conv1d_1 (Conv1D)            (None, 9997, 1)           3         
_________________________________________________________________
max_pooling1d_1 (MaxPooling1 (None, 9997, 1)           0         
_________________________________________________________________
flatten (Flatten)            (None, 9997)              0         
_________________________________________________________________
dense (Dense)                (None, 1)                 9998      
=================================================================
Total params: 10,004
Trainable params: 10,004
Non-trainable params: 0
_________________________________________________________________
Summary  None
Red
0.5800609404453916
Typer KerasRegressor
Hello world
{'strides': 2, 'pool': 1, 'HP_L1_REG': 0.1, 'activation': 'tanh', 'filters': 2, 'learning_rate': 0.01, 'HP_NUM_HIDDEN_LAYERS': 3, 'units': 200, 'kernel_initializer': 'glorot_uniform', 'rate': 0.0, 'epochs': 100, 'HP_L2_REG': 0.2, 'HP_OPTIMIZER': 'SGD', 'kernel': 1}
Blue
Model: "sequential"
_________________________________________________________________
Layer (type)                 Output Shape              Param #   
=================================================================
conv1d (Conv1D)              (None, 5000, 2)           4         
_________________________________________________________________
max_pooling1d (MaxPooling1D) (None, 2500, 2)           0         
_________________________________________________________________
conv1d_1 (Conv1D)            (None, 1250, 2)           6         
_________________________________________________________________
max_pooling1d_1 (MaxPooling1 (None, 625, 2)            0         
_________________________________________________________________
flatten (Flatten)            (None, 1250)              0         
_________________________________________________________________
dense (Dense)                (None, 1)                 1251      
=================================================================
Total params: 1,261
Trainable params: 1,261
Non-trainable params: 0
_________________________________________________________________
Summary  None
Red
-0.04119438724557489
Typer KerasRegressor
Hello world
{'strides': 1, 'pool': 2, 'HP_L1_REG': 0.1, 'activation': 'tanh', 'filters': 2, 'learning_rate': 0.01, 'HP_NUM_HIDDEN_LAYERS': 3, 'units': 200, 'kernel_initializer': 'glorot_uniform', 'rate': 0.0, 'epochs': 100, 'HP_L2_REG': 0.2, 'HP_OPTIMIZER': 'SGD', 'kernel': 2}
Blue
Model: "sequential"
_________________________________________________________________
Layer (type)                 Output Shape              Param #   
=================================================================
conv1d (Conv1D)              (None, 9998, 2)           6         
_________________________________________________________________
max_pooling1d (MaxPooling1D) (None, 9997, 2)           0         
_________________________________________________________________
conv1d_1 (Conv1D)            (None, 9996, 2)           10        
_________________________________________________________________
max_pooling1d_1 (MaxPooling1 (None, 9995, 2)           0         
_________________________________________________________________
flatten (Flatten)            (None, 19990)             0         
_________________________________________________________________
dense (Dense)                (None, 1)                 19991     
=================================================================
Total params: 20,007
Trainable params: 20,007
Non-trainable params: 0
_________________________________________________________________
Summary  None
Red
0.5347063921199215
Typer KerasRegressor
Hello world
OUTER COUNT NO.  4
Model: "sequential"
_________________________________________________________________
Layer (type)                 Output Shape              Param #   
=================================================================
conv1d (Conv1D)              (None, 9998, 2)           6         
_________________________________________________________________
max_pooling1d (MaxPooling1D) (None, 9997, 2)           0         
_________________________________________________________________
conv1d_1 (Conv1D)            (None, 9996, 2)           10        
_________________________________________________________________
max_pooling1d_1 (MaxPooling1 (None, 9995, 2)           0         
_________________________________________________________________
flatten (Flatten)            (None, 19990)             0         
_________________________________________________________________
dense (Dense)                (None, 1)                 19991     
=================================================================
Total params: 20,007
Trainable params: 20,007
Non-trainable params: 0
_________________________________________________________________
Summary  None
0.5546391863970758
Best Params of CNN is {'strides': [1], 'pool': [2, 1], 'HP_L1_REG': [0.1], 'filters': [2, 1], 'activation': ['tanh'], 'learning_rate': [0.001], 'HP_NUM_HIDDEN_LAYERS': [3], 'units': [200], 'kernel_initializer': ['glorot_uniform'], 'rate': [0.0], 'epochs': [200], 'HP_L2_REG': [0.2], 'HP_OPTIMIZER': ['SGD'], 'kernel': [2, 1]} 
…
