…
Outer scores of baseline is [0.743646218449836, 0.7158788449523518] 
Variance of baseline is [568.608118784746, 537.4894208556071] 
ADBUCE
NN
INNER COUNT NO.  1
champ
(115, 294)
(115, 294)
Tusa
(115, 1)
{'units': 400, 'HP_OPTIMIZER': 'SGD', 'HP_L1_REG': 0.0001, 'kernel_initializer': 'glorot_uniform', 'rate': 0.2, 'learning_rate': 0.0001, 'activation': 'relu', 'HP_NUM_HIDDEN_LAYERS': 2, 'HP_L2_REG': 1e-08}
Blue
Model: "sequential"
_________________________________________________________________
Layer (type)                 Output Shape              Param #   
=================================================================
dense (Dense)                (None, 400)               8400      
_________________________________________________________________
dropout (Dropout)            (None, 400)               0         
_________________________________________________________________
dense_1 (Dense)              (None, 400)               160400    
_________________________________________________________________
dropout_1 (Dropout)          (None, 400)               0         
_________________________________________________________________
dense_2 (Dense)              (None, 1)                 401       
=================================================================
Total params: 169,201
Trainable params: 169,201
Non-trainable params: 0
_________________________________________________________________
None
Please remember to set the right set size in the nested_cv code
WARNING THIS IS AN EDITED SCRIPT - Ciaran Kelly 2021 
 Edited with permission under liscence 
 Top version
Set size set to 306
…
Outer scores of baseline is [0.743646218449836, 0.7158788449523518] 
Variance of baseline is [568.608118784746, 537.4894208556071] 
ADBUCE
NN
INNER COUNT NO.  1
champ
(115, 294)
(115, 294)
Tusa
(115, 1)
{'units': 200, 'rate': 0.2, 'HP_NUM_HIDDEN_LAYERS': 4, 'learning_rate': 0.01, 'HP_OPTIMIZER': 'Adam', 'kernel_initializer': 'glorot_uniform', 'HP_L1_REG': 0.01, 'activation': 'tanh', 'HP_L2_REG': 0.0001}
Blue
Model: "sequential"
_________________________________________________________________
Layer (type)                 Output Shape              Param #   
=================================================================
dense (Dense)                (None, 200)               59000     
_________________________________________________________________
dropout (Dropout)            (None, 200)               0         
_________________________________________________________________
dense_1 (Dense)              (None, 200)               40200     
_________________________________________________________________
dropout_1 (Dropout)          (None, 200)               0         
_________________________________________________________________
dense_2 (Dense)              (None, 200)               40200     
_________________________________________________________________
dropout_2 (Dropout)          (None, 200)               0         
_________________________________________________________________
dense_3 (Dense)              (None, 200)               40200     
_________________________________________________________________
dropout_3 (Dropout)          (None, 200)               0         
_________________________________________________________________
dense_4 (Dense)              (None, 1)                 201       
=================================================================
Total params: 179,801
Trainable params: 179,801
Non-trainable params: 0
_________________________________________________________________
None
Red
0.045684945690689927
Typer KerasRegressor
Hello world
INNER COUNT NO.  2
champ
(115, 294)
(115, 294)
Tusa
(115, 1)
{'units': 1000, 'rate': 0.2, 'HP_NUM_HIDDEN_LAYERS': 4, 'learning_rate': 0.001, 'HP_OPTIMIZER': 'Adagrad', 'kernel_initializer': 'glorot_uniform', 'HP_L1_REG': 0.001, 'activation': 'relu', 'HP_L2_REG': 0.2}
Blue
Model: "sequential"
_________________________________________________________________
Layer (type)                 Output Shape              Param #   
=================================================================
dense (Dense)                (None, 1000)              295000    
_________________________________________________________________
dropout (Dropout)            (None, 1000)              0         
_________________________________________________________________
dense_1 (Dense)              (None, 1000)              1001000   
_________________________________________________________________
dropout_1 (Dropout)          (None, 1000)              0         
_________________________________________________________________
dense_2 (Dense)              (None, 1000)              1001000   
_________________________________________________________________
dropout_2 (Dropout)          (None, 1000)              0         
_________________________________________________________________
dense_3 (Dense)              (None, 1000)              1001000   
_________________________________________________________________
dropout_3 (Dropout)          (None, 1000)              0         
_________________________________________________________________
dense_4 (Dense)              (None, 1)                 1001      
=================================================================
Total params: 3,299,001
Trainable params: 3,299,001
Non-trainable params: 0
_________________________________________________________________
None
Red
-0.7651344801054556
Typer KerasRegressor
Hello world
OUTER COUNT NO.  1
champ
(230, 294)
Model: "sequential"
_________________________________________________________________
Layer (type)                 Output Shape              Param #   
=================================================================
dense (Dense)                (None, 200)               59000     
_________________________________________________________________
dropout (Dropout)            (None, 200)               0         
_________________________________________________________________
dense_1 (Dense)              (None, 200)               40200     
_________________________________________________________________
dropout_1 (Dropout)          (None, 200)               0         
_________________________________________________________________
dense_2 (Dense)              (None, 200)               40200     
_________________________________________________________________
dropout_2 (Dropout)          (None, 200)               0         
_________________________________________________________________
dense_3 (Dense)              (None, 200)               40200     
_________________________________________________________________
dropout_3 (Dropout)          (None, 200)               0         
_________________________________________________________________
dense_4 (Dense)              (None, 1)                 201       
=================================================================
Total params: 179,801
Trainable params: 179,801
Non-trainable params: 0
_________________________________________________________________
None
0.7791234763556463
INNER COUNT NO.  1
champ
(107, 294)
(107, 294)
Tusa
(107, 1)
{'units': 1000, 'rate': 0.0, 'HP_NUM_HIDDEN_LAYERS': 5, 'learning_rate': 0.0001, 'HP_OPTIMIZER': 'Adam', 'kernel_initializer': 'glorot_uniform', 'HP_L1_REG': 0.1, 'activation': 'tanh', 'HP_L2_REG': 0.01}
Blue
Model: "sequential_1"
_________________________________________________________________
Layer (type)                 Output Shape              Param #   
=================================================================
dense_5 (Dense)              (None, 1000)              295000    
_________________________________________________________________
dense_6 (Dense)              (None, 1000)              1001000   
_________________________________________________________________
dense_7 (Dense)              (None, 1000)              1001000   
_________________________________________________________________
dense_8 (Dense)              (None, 1000)              1001000   
_________________________________________________________________
dense_9 (Dense)              (None, 1000)              1001000   
_________________________________________________________________
dense_10 (Dense)             (None, 1)                 1001      
=================================================================
Total params: 4,300,001
Trainable params: 4,300,001
Non-trainable params: 0
_________________________________________________________________
None
Red
-6.763300395328052
Typer KerasRegressor
Hello world
INNER COUNT NO.  2
champ
(113, 294)
(113, 294)
Tusa
(113, 1)
{'units': 200, 'rate': 0.1, 'HP_NUM_HIDDEN_LAYERS': 4, 'learning_rate': 0.01, 'HP_OPTIMIZER': 'SGD', 'kernel_initializer': 'glorot_uniform', 'HP_L1_REG': 0.01, 'activation': 'relu', 'HP_L2_REG': 0.0001}
Blue
Model: "sequential"
_________________________________________________________________
Layer (type)                 Output Shape              Param #   
=================================================================
dense (Dense)                (None, 200)               59000     
_________________________________________________________________
dropout (Dropout)            (None, 200)               0         
_________________________________________________________________
dense_1 (Dense)              (None, 200)               40200     
_________________________________________________________________
dropout_1 (Dropout)          (None, 200)               0         
_________________________________________________________________
dense_2 (Dense)              (None, 200)               40200     
_________________________________________________________________
dropout_2 (Dropout)          (None, 200)               0         
_________________________________________________________________
dense_3 (Dense)              (None, 200)               40200     
_________________________________________________________________
dropout_3 (Dropout)          (None, 200)               0         
_________________________________________________________________
dense_4 (Dense)              (None, 1)                 201       
=================================================================
Total params: 179,801
Trainable params: 179,801
Non-trainable params: 0
_________________________________________________________________
None
Red
-1.2641865175403297
Typer KerasRegressor
Hello world
OUTER COUNT NO.  2
champ
(220, 294)
Model: "sequential"
_________________________________________________________________
Layer (type)                 Output Shape              Param #   
=================================================================
dense (Dense)                (None, 200)               59000     
_________________________________________________________________
dropout (Dropout)            (None, 200)               0         
_________________________________________________________________
dense_1 (Dense)              (None, 200)               40200     
_________________________________________________________________
dropout_1 (Dropout)          (None, 200)               0         
_________________________________________________________________
dense_2 (Dense)              (None, 200)               40200     
_________________________________________________________________
dropout_2 (Dropout)          (None, 200)               0         
_________________________________________________________________
dense_3 (Dense)              (None, 200)               40200     
_________________________________________________________________
dropout_3 (Dropout)          (None, 200)               0         
_________________________________________________________________
dense_4 (Dense)              (None, 1)                 201       
=================================================================
Total params: 179,801
Trainable params: 179,801
Non-trainable params: 0
_________________________________________________________________
None
0.41506878839660133
Best Params of NN is {'units': [200], 'rate': [0.2, 0.1], 'HP_L1_REG': [0.01], 'activation': ['tanh', 'relu'], 'learning_rate': [0.01], 'HP_OPTIMIZER': ['Adam', 'SGD'], 'HP_NUM_HIDDEN_LAYERS': [4], 'kernel_initializer': ['glorot_uniform'], 'HP_L2_REG': [0.0001]} 
…
(499, 294)
ADBUCE
CNN
INNER COUNT NO.  1
champ
(115, 294)
(115, 294, 1)
Tusa
(115, 1)
{'rate': 0.0, 'HP_L1_REG': 0.1, 'HP_NUM_HIDDEN_LAYERS': 3, 'activation': 'tanh', 'filters': 2, 'units': 200, 'strides': 2, 'pool': 1, 'HP_L2_REG': 0.2, 'kernel_initializer': 'glorot_uniform', 'learning_rate': 0.001, 'epochs': 100, 'kernel': 2, 'HP_OPTIMIZER': 'SGD'}
Blue
Model: "sequential_1"
_________________________________________________________________
Layer (type)                 Output Shape              Param #   
=================================================================
conv1d (Conv1D)              (None, 147, 2)            6         
_________________________________________________________________
max_pooling1d (MaxPooling1D) (None, 74, 2)             0         
_________________________________________________________________
conv1d_1 (Conv1D)            (None, 37, 2)             10        
_________________________________________________________________
max_pooling1d_1 (MaxPooling1 (None, 19, 2)             0         
_________________________________________________________________
flatten (Flatten)            (None, 38)                0         
_________________________________________________________________
dense_5 (Dense)              (None, 1)                 39        
=================================================================
Total params: 55
Trainable params: 55
Non-trainable params: 0
_________________________________________________________________
Summary  None
Red
-5.671984296629637
Typer KerasRegressor
Hello world
INNER COUNT NO.  2
champ
(115, 294)
(115, 294, 1)
Tusa
(115, 1)
{'rate': 0.0, 'HP_L1_REG': 0.1, 'HP_NUM_HIDDEN_LAYERS': 3, 'activation': 'tanh', 'filters': 1, 'units': 200, 'strides': 2, 'pool': 1, 'HP_L2_REG': 0.2, 'kernel_initializer': 'glorot_uniform', 'learning_rate': 0.001, 'epochs': 200, 'kernel': 1, 'HP_OPTIMIZER': 'SGD'}
Blue
Model: "sequential"
_________________________________________________________________
Layer (type)                 Output Shape              Param #   
=================================================================
conv1d (Conv1D)              (None, 147, 1)            2         
_________________________________________________________________
max_pooling1d (MaxPooling1D) (None, 74, 1)             0         
_________________________________________________________________
conv1d_1 (Conv1D)            (None, 37, 1)             2         
_________________________________________________________________
max_pooling1d_1 (MaxPooling1 (None, 19, 1)             0         
_________________________________________________________________
flatten (Flatten)            (None, 19)                0         
_________________________________________________________________
dense (Dense)                (None, 1)                 20        
=================================================================
Total params: 24
Trainable params: 24
Non-trainable params: 0
_________________________________________________________________
Summary  None
Red
-7.03454620907716
Typer KerasRegressor
Hello world
OUTER COUNT NO.  1
champ
(230, 294)
Model: "sequential"
_________________________________________________________________
Layer (type)                 Output Shape              Param #   
=================================================================
conv1d (Conv1D)              (None, 147, 2)            6         
_________________________________________________________________
max_pooling1d (MaxPooling1D) (None, 74, 2)             0         
_________________________________________________________________
conv1d_1 (Conv1D)            (None, 37, 2)             10        
_________________________________________________________________
max_pooling1d_1 (MaxPooling1 (None, 19, 2)             0         
_________________________________________________________________
flatten (Flatten)            (None, 38)                0         
_________________________________________________________________
dense (Dense)                (None, 1)                 39        
=================================================================
Total params: 55
Trainable params: 55
Non-trainable params: 0
_________________________________________________________________
Summary  None
-4.390367268297589
INNER COUNT NO.  1
champ
(107, 294)
(107, 294, 1)
Tusa
(107, 1)
{'rate': 0.0, 'HP_L1_REG': 0.1, 'HP_NUM_HIDDEN_LAYERS': 3, 'activation': 'tanh', 'filters': 2, 'units': 200, 'strides': 1, 'pool': 2, 'HP_L2_REG': 0.2, 'kernel_initializer': 'glorot_uniform', 'learning_rate': 0.01, 'epochs': 100, 'kernel': 1, 'HP_OPTIMIZER': 'SGD'}
Blue
Model: "sequential_1"
_________________________________________________________________
Layer (type)                 Output Shape              Param #   
=================================================================
conv1d_2 (Conv1D)            (None, 294, 2)            4         
_________________________________________________________________
max_pooling1d_2 (MaxPooling1 (None, 293, 2)            0         
_________________________________________________________________
conv1d_3 (Conv1D)            (None, 293, 2)            6         
_________________________________________________________________
max_pooling1d_3 (MaxPooling1 (None, 292, 2)            0         
_________________________________________________________________
flatten_1 (Flatten)          (None, 584)               0         
_________________________________________________________________
dense_1 (Dense)              (None, 1)                 585       
=================================================================
Total params: 595
Trainable params: 595
Non-trainable params: 0
_________________________________________________________________
Summary  None
Red
-0.24370804256085665
Typer KerasRegressor
Hello world
INNER COUNT NO.  2
champ
(113, 294)
(113, 294, 1)
Tusa
(113, 1)
{'rate': 0.0, 'HP_L1_REG': 0.1, 'HP_NUM_HIDDEN_LAYERS': 3, 'activation': 'tanh', 'filters': 1, 'units': 200, 'strides': 2, 'pool': 1, 'HP_L2_REG': 0.2, 'kernel_initializer': 'glorot_uniform', 'learning_rate': 0.01, 'epochs': 200, 'kernel': 2, 'HP_OPTIMIZER': 'SGD'}
Blue
Model: "sequential"
_________________________________________________________________
Layer (type)                 Output Shape              Param #   
=================================================================
conv1d (Conv1D)              (None, 147, 1)            3         
_________________________________________________________________
max_pooling1d (MaxPooling1D) (None, 74, 1)             0         
_________________________________________________________________
conv1d_1 (Conv1D)            (None, 37, 1)             3         
_________________________________________________________________
max_pooling1d_1 (MaxPooling1 (None, 19, 1)             0         
_________________________________________________________________
flatten (Flatten)            (None, 19)                0         
_________________________________________________________________
dense (Dense)                (None, 1)                 20        
=================================================================
Total params: 26
Trainable params: 26
Non-trainable params: 0
_________________________________________________________________
Summary  None
Red
-0.0029742010143700703
Typer KerasRegressor
Hello world
OUTER COUNT NO.  2
champ
(220, 294)
Model: "sequential"
_________________________________________________________________
Layer (type)                 Output Shape              Param #   
=================================================================
conv1d (Conv1D)              (None, 147, 1)            3         
_________________________________________________________________
max_pooling1d (MaxPooling1D) (None, 74, 1)             0         
_________________________________________________________________
conv1d_1 (Conv1D)            (None, 37, 1)             3         
_________________________________________________________________
max_pooling1d_1 (MaxPooling1 (None, 19, 1)             0         
_________________________________________________________________
flatten (Flatten)            (None, 19)                0         
_________________________________________________________________
dense (Dense)                (None, 1)                 20        
=================================================================
Total params: 26
Trainable params: 26
Non-trainable params: 0
_________________________________________________________________
Summary  None
-0.018471373767532162
Best Params of CNN is {'units': [200], 'activation': ['tanh'], 'HP_NUM_HIDDEN_LAYERS': [3], 'kernel_initializer': ['glorot_uniform'], 'pool': [1], 'rate': [0.0], 'strides': [2], 'filters': [2, 1], 'HP_L1_REG': [0.1], 'learning_rate': [0.001, 0.01], 'HP_OPTIMIZER': ['SGD'], 'epochs': [100, 200], 'kernel': [2], 'HP_L2_REG': [0.2]} 
…
