…
2021-11-04 23:06:01.703542: I tensorflow/core/platform/profile_utils/cpu_utils.cc:94] CPU Frequency: 2200045000 Hz
2021-11-04 23:06:01.707768: I tensorflow/compiler/xla/service/service.cc:168] XLA service 0xa3c7830 executing computations on platform Host. Devices:
2021-11-04 23:06:01.707819: I tensorflow/compiler/xla/service/service.cc:175]   StreamExecutor device (0): <undefined>, <undefined>
Model: "sequential"
_________________________________________________________________
Layer (type)                 Output Shape              Param #   
=================================================================
dense (Dense)                (None, 200)               2000000   
_________________________________________________________________
dense_1 (Dense)              (None, 200)               40200     
_________________________________________________________________
dense_2 (Dense)              (None, 200)               40200     
_________________________________________________________________
dense_3 (Dense)              (None, 200)               40200     
_________________________________________________________________
dense_4 (Dense)              (None, 200)               40200     
_________________________________________________________________
dense_5 (Dense)              (None, 1)                 201       
=================================================================
Total params: 2,161,001
Trainable params: 2,161,001
Non-trainable params: 0
_________________________________________________________________
None
Traceback (most recent call last):
  File "cv_grid_all_ml_shuf_temp.py", line 269, in <module>
    NN_NCV.fit(x_train, y_train.ravel(), name_list=name_list, model_name='NN')
…
ine flag, not via TF_XLA_FLAGS) or set the envvar XLA_FLAGS=--xla_hlo_profile.
Red
-8.349672372519924
Typer KerasRegressor
Hello world
{'HP_NUM_HIDDEN_LAYERS': 2, 'rate': 0.5, 'kernel_initializer': 'glorot_uniform', 'learning_rate': 0.01, 'HP_L1_REG': 0.01, 'units': 200, 'activation': 'relu', 'HP_L2_REG': 1e-08, 'HP_OPTIMIZER': 'SGD'}
Blue
Model: "sequential"
_________________________________________________________________
Layer (type)                 Output Shape              Param #   
=================================================================
dense (Dense)                (None, 200)               2000200   
_________________________________________________________________
dropout (Dropout)            (None, 200)               0         
_________________________________________________________________
dense_1 (Dense)              (None, 200)               40200     
_________________________________________________________________
dropout_1 (Dropout)          (None, 200)               0         
_________________________________________________________________
dense_2 (Dense)              (None, 1)                 201       
=================================================================
Total params: 2,040,601
Trainable params: 2,040,601
Non-trainable params: 0
_________________________________________________________________
None
Red
0.29043032919422984
Typer KerasRegressor
Hello world
{'HP_NUM_HIDDEN_LAYERS': 2, 'rate': 0.1, 'kernel_initializer': 'glorot_uniform', 'learning_rate': 0.0001, 'HP_L1_REG': 0.001, 'units': 200, 'activation': 'relu', 'HP_L2_REG': 0.01, 'HP_OPTIMIZER': 'SGD'}
Blue
Model: "sequential"
_________________________________________________________________
Layer (type)                 Output Shape              Param #   
=================================================================
dense (Dense)                (None, 200)               2000200   
_________________________________________________________________
dropout (Dropout)            (None, 200)               0         
_________________________________________________________________
dense_1 (Dense)              (None, 200)               40200     
_________________________________________________________________
dropout_1 (Dropout)          (None, 200)               0         
_________________________________________________________________
dense_2 (Dense)              (None, 1)                 201       
=================================================================
Total params: 2,040,601
Trainable params: 2,040,601
Non-trainable params: 0
_________________________________________________________________
None
Red
-0.5747066338181281
Typer KerasRegressor
Hello world
{'HP_NUM_HIDDEN_LAYERS': 2, 'rate': 0.1, 'kernel_initializer': 'glorot_uniform', 'learning_rate': 0.001, 'HP_L1_REG': 0.01, 'units': 400, 'activation': 'tanh', 'HP_L2_REG': 0.01, 'HP_OPTIMIZER': 'Adam'}
Blue
Model: "sequential"
_________________________________________________________________
Layer (type)                 Output Shape              Param #   
=================================================================
dense (Dense)                (None, 400)               4000400   
_________________________________________________________________
dropout (Dropout)            (None, 400)               0         
_________________________________________________________________
dense_1 (Dense)              (None, 400)               160400    
_________________________________________________________________
dropout_1 (Dropout)          (None, 400)               0         
_________________________________________________________________
dense_2 (Dense)              (None, 1)                 401       
=================================================================
Total params: 4,161,201
Trainable params: 4,161,201
Non-trainable params: 0
_________________________________________________________________
None
Red
0.4810581380464931
Typer KerasRegressor
Hello world
{'HP_NUM_HIDDEN_LAYERS': 5, 'rate': 0.2, 'kernel_initializer': 'glorot_uniform', 'learning_rate': 0.001, 'HP_L1_REG': 0.1, 'units': 400, 'activation': 'tanh', 'HP_L2_REG': 0.2, 'HP_OPTIMIZER': 'Adam'}
Blue
Model: "sequential"
_________________________________________________________________
Layer (type)                 Output Shape              Param #   
=================================================================
dense (Dense)                (None, 400)               4000400   
_________________________________________________________________
dropout (Dropout)            (None, 400)               0         
_________________________________________________________________
dense_1 (Dense)              (None, 400)               160400    
_________________________________________________________________
dropout_1 (Dropout)          (None, 400)               0         
_________________________________________________________________
dense_2 (Dense)              (None, 400)               160400    
_________________________________________________________________
dropout_2 (Dropout)          (None, 400)               0         
_________________________________________________________________
dense_3 (Dense)              (None, 400)               160400    
_________________________________________________________________
dropout_3 (Dropout)          (None, 400)               0         
_________________________________________________________________
dense_4 (Dense)              (None, 400)               160400    
_________________________________________________________________
dropout_4 (Dropout)          (None, 400)               0         
_________________________________________________________________
dense_5 (Dense)              (None, 1)                 401       
=================================================================
Total params: 4,642,401
Trainable params: 4,642,401
Non-trainable params: 0
_________________________________________________________________
None
Red
-0.01488646532745852
Typer KerasRegressor
Hello world
{'HP_NUM_HIDDEN_LAYERS': 4, 'rate': 0.0, 'kernel_initializer': 'glorot_uniform', 'learning_rate': 0.01, 'HP_L1_REG': 0.0001, 'units': 200, 'activation': 'tanh', 'HP_L2_REG': 0.01, 'HP_OPTIMIZER': 'SGD'}
Blue
Model: "sequential"
_________________________________________________________________
Layer (type)                 Output Shape              Param #   
=================================================================
dense (Dense)                (None, 200)               2000200   
_________________________________________________________________
dense_1 (Dense)              (None, 200)               40200     
_________________________________________________________________
dense_2 (Dense)              (None, 200)               40200     
_________________________________________________________________
dense_3 (Dense)              (None, 200)               40200     
_________________________________________________________________
dense_4 (Dense)              (None, 1)                 201       
=================================================================
Total params: 2,121,001
Trainable params: 2,121,001
Non-trainable params: 0
_________________________________________________________________
None
Red
0.5563062761321136
Typer KerasRegressor
Hello world
{'HP_NUM_HIDDEN_LAYERS': 5, 'rate': 0.0, 'kernel_initializer': 'glorot_uniform', 'learning_rate': 0.01, 'HP_L1_REG': 0.001, 'units': 200, 'activation': 'tanh', 'HP_L2_REG': 0.2, 'HP_OPTIMIZER': 'Adagrad'}
Blue
Model: "sequential"
_________________________________________________________________
Layer (type)                 Output Shape              Param #   
=================================================================
dense (Dense)                (None, 200)               2000200   
_________________________________________________________________
dense_1 (Dense)              (None, 200)               40200     
_________________________________________________________________
dense_2 (Dense)              (None, 200)               40200     
_________________________________________________________________
dense_3 (Dense)              (None, 200)               40200     
_________________________________________________________________
dense_4 (Dense)              (None, 200)               40200     
_________________________________________________________________
dense_5 (Dense)              (None, 1)                 201       
=================================================================
Total params: 2,161,201
Trainable params: 2,161,201
Non-trainable params: 0
_________________________________________________________________
None
Red
0.5193661332748601
Typer KerasRegressor
Hello world
{'HP_NUM_HIDDEN_LAYERS': 3, 'rate': 0.1, 'kernel_initializer': 'glorot_uniform', 'learning_rate': 0.001, 'HP_L1_REG': 0.01, 'units': 1000, 'activation': 'tanh', 'HP_L2_REG': 0.01, 'HP_OPTIMIZER': 'Adam'}
Blue
Model: "sequential"
_________________________________________________________________
Layer (type)                 Output Shape              Param #   
=================================================================
dense (Dense)                (None, 1000)              10001000  
_________________________________________________________________
dropout (Dropout)            (None, 1000)              0         
_________________________________________________________________
dense_1 (Dense)              (None, 1000)              1001000   
_________________________________________________________________
dropout_1 (Dropout)          (None, 1000)              0         
_________________________________________________________________
dense_2 (Dense)              (None, 1000)              1001000   
_________________________________________________________________
dropout_2 (Dropout)          (None, 1000)              0         
_________________________________________________________________
dense_3 (Dense)              (None, 1)                 1001      
=================================================================
Total params: 12,004,001
Trainable params: 12,004,001
Non-trainable params: 0
_________________________________________________________________
None
Red
0.47698574823635864
Typer KerasRegressor
Hello world
{'HP_NUM_HIDDEN_LAYERS': 3, 'rate': 0.1, 'kernel_initializer': 'glorot_uniform', 'learning_rate': 0.001, 'HP_L1_REG': 0.1, 'units': 1000, 'activation': 'relu', 'HP_L2_REG': 0.01, 'HP_OPTIMIZER': 'SGD'}
Blue
Model: "sequential"
_________________________________________________________________
Layer (type)                 Output Shape              Param #   
=================================================================
dense (Dense)                (None, 1000)              10001000  
_________________________________________________________________
dropout (Dropout)            (None, 1000)              0         
_________________________________________________________________
dense_1 (Dense)              (None, 1000)              1001000   
_________________________________________________________________
dropout_1 (Dropout)          (None, 1000)              0         
_________________________________________________________________
dense_2 (Dense)              (None, 1000)              1001000   
_________________________________________________________________
dropout_2 (Dropout)          (None, 1000)              0         
_________________________________________________________________
dense_3 (Dense)              (None, 1)                 1001      
=================================================================
Total params: 12,004,001
Trainable params: 12,004,001
Non-trainable params: 0
_________________________________________________________________
None
Red
-6.049092110643522
Typer KerasRegressor
Hello world
{'HP_NUM_HIDDEN_LAYERS': 4, 'rate': 0.2, 'kernel_initializer': 'glorot_uniform', 'learning_rate': 0.001, 'HP_L1_REG': 0.0001, 'units': 200, 'activation': 'tanh', 'HP_L2_REG': 0.0001, 'HP_OPTIMIZER': 'Adam'}
Blue
Model: "sequential"
_________________________________________________________________
Layer (type)                 Output Shape              Param #   
=================================================================
dense (Dense)                (None, 200)               2000200   
_________________________________________________________________
dropout (Dropout)            (None, 200)               0         
_________________________________________________________________
dense_1 (Dense)              (None, 200)               40200     
_________________________________________________________________
dropout_1 (Dropout)          (None, 200)               0         
_________________________________________________________________
dense_2 (Dense)              (None, 200)               40200     
_________________________________________________________________
dropout_2 (Dropout)          (None, 200)               0         
_________________________________________________________________
dense_3 (Dense)              (None, 200)               40200     
_________________________________________________________________
dropout_3 (Dropout)          (None, 200)               0         
_________________________________________________________________
dense_4 (Dense)              (None, 1)                 201       
=================================================================
Total params: 2,121,001
Trainable params: 2,121,001
Non-trainable params: 0
_________________________________________________________________
None
Red
0.6022797279261944
Typer KerasRegressor
Hello world
{'HP_NUM_HIDDEN_LAYERS': 3, 'rate': 0.2, 'kernel_initializer': 'glorot_uniform', 'learning_rate': 1e-05, 'HP_L1_REG': 0.0001, 'units': 200, 'activation': 'tanh', 'HP_L2_REG': 0.01, 'HP_OPTIMIZER': 'SGD'}
Blue
Model: "sequential"
_________________________________________________________________
Layer (type)                 Output Shape              Param #   
=================================================================
dense (Dense)                (None, 200)               2000200   
_________________________________________________________________
dropout (Dropout)            (None, 200)               0         
_________________________________________________________________
dense_1 (Dense)              (None, 200)               40200     
_________________________________________________________________
dropout_1 (Dropout)          (None, 200)               0         
_________________________________________________________________
dense_2 (Dense)              (None, 200)               40200     
_________________________________________________________________
dropout_2 (Dropout)          (None, 200)               0         
_________________________________________________________________
dense_3 (Dense)              (None, 1)                 201       
=================================================================
Total params: 2,080,801
Trainable params: 2,080,801
Non-trainable params: 0
_________________________________________________________________
None
Red
-7.988664174326962
Typer KerasRegressor
Hello world
{'HP_NUM_HIDDEN_LAYERS': 4, 'rate': 0.0, 'kernel_initializer': 'glorot_uniform', 'learning_rate': 0.0001, 'HP_L1_REG': 0.0001, 'units': 200, 'activation': 'relu', 'HP_L2_REG': 0.01, 'HP_OPTIMIZER': 'Adam'}
Blue
Model: "sequential"
_________________________________________________________________
Layer (type)                 Output Shape              Param #   
=================================================================
dense (Dense)                (None, 200)               2000200   
_________________________________________________________________
dense_1 (Dense)              (None, 200)               40200     
_________________________________________________________________
dense_2 (Dense)              (None, 200)               40200     
_________________________________________________________________
dense_3 (Dense)              (None, 200)               40200     
_________________________________________________________________
dense_4 (Dense)              (None, 1)                 201       
=================================================================
Total params: 2,121,001
Trainable params: 2,121,001
Non-trainable params: 0
_________________________________________________________________
None
Red
0.5857703884076342
Typer KerasRegressor
Hello world
{'HP_NUM_HIDDEN_LAYERS': 4, 'rate': 0.0, 'kernel_initializer': 'glorot_uniform', 'learning_rate': 0.01, 'HP_L1_REG': 0.01, 'units': 200, 'activation': 'relu', 'HP_L2_REG': 0.0001, 'HP_OPTIMIZER': 'Adam'}
Blue
Model: "sequential"
_________________________________________________________________
Layer (type)                 Output Shape              Param #   
=================================================================
dense (Dense)                (None, 200)               2000200   
_________________________________________________________________
dense_1 (Dense)              (None, 200)               40200     
_________________________________________________________________
dense_2 (Dense)              (None, 200)               40200     
_________________________________________________________________
dense_3 (Dense)              (None, 200)               40200     
_________________________________________________________________
dense_4 (Dense)              (None, 1)                 201       
=================================================================
Total params: 2,121,001
Trainable params: 2,121,001
Non-trainable params: 0
_________________________________________________________________
None
Red
0.4814635929465908
Typer KerasRegressor
Hello world
{'HP_NUM_HIDDEN_LAYERS': 5, 'rate': 0.5, 'kernel_initializer': 'glorot_uniform', 'learning_rate': 0.0001, 'HP_L1_REG': 0.001, 'units': 400, 'activation': 'tanh', 'HP_L2_REG': 0.2, 'HP_OPTIMIZER': 'SGD'}
Blue
Model: "sequential"
_________________________________________________________________
Layer (type)                 Output Shape              Param #   
=================================================================
dense (Dense)                (None, 400)               4000400   
_________________________________________________________________
dropout (Dropout)            (None, 400)               0         
_________________________________________________________________
dense_1 (Dense)              (None, 400)               160400    
_________________________________________________________________
dropout_1 (Dropout)          (None, 400)               0         
_________________________________________________________________
dense_2 (Dense)              (None, 400)               160400    
_________________________________________________________________
dropout_2 (Dropout)          (None, 400)               0         
_________________________________________________________________
dense_3 (Dense)              (None, 400)               160400    
_________________________________________________________________
dropout_3 (Dropout)          (None, 400)               0         
_________________________________________________________________
dense_4 (Dense)              (None, 400)               160400    
_________________________________________________________________
dropout_4 (Dropout)          (None, 400)               0         
_________________________________________________________________
dense_5 (Dense)              (None, 1)                 401       
=================================================================
Total params: 4,642,401
Trainable params: 4,642,401
Non-trainable params: 0
_________________________________________________________________
None
Red
-2.590042268187517
Typer KerasRegressor
Hello world
{'HP_NUM_HIDDEN_LAYERS': 2, 'rate': 0.2, 'kernel_initializer': 'glorot_uniform', 'learning_rate': 0.0001, 'HP_L1_REG': 0.01, 'units': 400, 'activation': 'tanh', 'HP_L2_REG': 0.0001, 'HP_OPTIMIZER': 'SGD'}
Blue
Model: "sequential"
_________________________________________________________________
Layer (type)                 Output Shape              Param #   
=================================================================
dense (Dense)                (None, 400)               4000400   
_________________________________________________________________
dropout (Dropout)            (None, 400)               0         
_________________________________________________________________
dense_1 (Dense)              (None, 400)               160400    
_________________________________________________________________
dropout_1 (Dropout)          (None, 400)               0         
_________________________________________________________________
dense_2 (Dense)              (None, 1)                 401       
=================================================================
Total params: 4,161,201
Trainable params: 4,161,201
Non-trainable params: 0
_________________________________________________________________
None
Red
-1.572261833875566
Typer KerasRegressor
Hello world
{'HP_NUM_HIDDEN_LAYERS': 5, 'rate': 0.2, 'kernel_initializer': 'glorot_uniform', 'learning_rate': 0.0001, 'HP_L1_REG': 0.1, 'units': 200, 'activation': 'tanh', 'HP_L2_REG': 0.2, 'HP_OPTIMIZER': 'Adam'}
Blue
Model: "sequential"
_________________________________________________________________
Layer (type)                 Output Shape              Param #   
=================================================================
dense (Dense)                (None, 200)               2000200   
_________________________________________________________________
dropout (Dropout)            (None, 200)               0         
_________________________________________________________________
dense_1 (Dense)              (None, 200)               40200     
_________________________________________________________________
dropout_1 (Dropout)          (None, 200)               0         
_________________________________________________________________
dense_2 (Dense)              (None, 200)               40200     
_________________________________________________________________
dropout_2 (Dropout)          (None, 200)               0         
_________________________________________________________________
dense_3 (Dense)              (None, 200)               40200     
_________________________________________________________________
dropout_3 (Dropout)          (None, 200)               0         
_________________________________________________________________
dense_4 (Dense)              (None, 200)               40200     
_________________________________________________________________
dropout_4 (Dropout)          (None, 200)               0         
_________________________________________________________________
dense_5 (Dense)              (None, 1)                 201       
=================================================================
Total params: 2,161,201
Trainable params: 2,161,201
Non-trainable params: 0
_________________________________________________________________
None
Red
-5.821911829530682
Typer KerasRegressor
Hello world
{'HP_NUM_HIDDEN_LAYERS': 5, 'rate': 0.1, 'kernel_initializer': 'glorot_uniform', 'learning_rate': 0.0001, 'HP_L1_REG': 0.001, 'units': 200, 'activation': 'tanh', 'HP_L2_REG': 0.2, 'HP_OPTIMIZER': 'Adagrad'}
Blue
Model: "sequential"
_________________________________________________________________
Layer (type)                 Output Shape              Param #   
=================================================================
dense (Dense)                (None, 200)               2000200   
_________________________________________________________________
dropout (Dropout)            (None, 200)               0         
_________________________________________________________________
dense_1 (Dense)              (None, 200)               40200     
_________________________________________________________________
dropout_1 (Dropout)          (None, 200)               0         
_________________________________________________________________
dense_2 (Dense)              (None, 200)               40200     
_________________________________________________________________
dropout_2 (Dropout)          (None, 200)               0         
_________________________________________________________________
dense_3 (Dense)              (None, 200)               40200     
_________________________________________________________________
dropout_3 (Dropout)          (None, 200)               0         
_________________________________________________________________
dense_4 (Dense)              (None, 200)               40200     
_________________________________________________________________
dropout_4 (Dropout)          (None, 200)               0         
_________________________________________________________________
dense_5 (Dense)              (None, 1)                 201       
=================================================================
Total params: 2,161,201
Trainable params: 2,161,201
Non-trainable params: 0
_________________________________________________________________
None
Red
-5.436517784515463
Typer KerasRegressor
Hello world
{'HP_NUM_HIDDEN_LAYERS': 4, 'rate': 0.2, 'kernel_initializer': 'glorot_uniform', 'learning_rate': 0.001, 'HP_L1_REG': 0.01, 'units': 200, 'activation': 'relu', 'HP_L2_REG': 0.0001, 'HP_OPTIMIZER': 'Adam'}
Blue
Model: "sequential"
_________________________________________________________________
Layer (type)                 Output Shape              Param #   
=================================================================
dense (Dense)                (None, 200)               2000200   
_________________________________________________________________
dropout (Dropout)            (None, 200)               0         
_________________________________________________________________
dense_1 (Dense)              (None, 200)               40200     
_________________________________________________________________
dropout_1 (Dropout)          (None, 200)               0         
_________________________________________________________________
dense_2 (Dense)              (None, 200)               40200     
_________________________________________________________________
dropout_2 (Dropout)          (None, 200)               0         
_________________________________________________________________
dense_3 (Dense)              (None, 200)               40200     
_________________________________________________________________
dropout_3 (Dropout)          (None, 200)               0         
_________________________________________________________________
dense_4 (Dense)              (None, 1)                 201       
=================================================================
Total params: 2,121,001
Trainable params: 2,121,001
Non-trainable params: 0
_________________________________________________________________
None
Red
0.455017876868002
Typer KerasRegressor
Hello world
{'HP_NUM_HIDDEN_LAYERS': 3, 'rate': 0.5, 'kernel_initializer': 'glorot_uniform', 'learning_rate': 0.01, 'HP_L1_REG': 0.1, 'units': 400, 'activation': 'relu', 'HP_L2_REG': 0.0001, 'HP_OPTIMIZER': 'SGD'}
Blue
Model: "sequential"
_________________________________________________________________
Layer (type)                 Output Shape              Param #   
=================================================================
dense (Dense)                (None, 400)               4000400   
_________________________________________________________________
dropout (Dropout)            (None, 400)               0         
_________________________________________________________________
dense_1 (Dense)              (None, 400)               160400    
_________________________________________________________________
dropout_1 (Dropout)          (None, 400)               0         
_________________________________________________________________
dense_2 (Dense)              (None, 400)               160400    
_________________________________________________________________
dropout_2 (Dropout)          (None, 400)               0         
_________________________________________________________________
dense_3 (Dense)              (None, 1)                 401       
=================================================================
Total params: 4,321,601
Trainable params: 4,321,601
Non-trainable params: 0
_________________________________________________________________
None
Red
-0.00998786978513233
Typer KerasRegressor
Hello world
{'HP_NUM_HIDDEN_LAYERS': 2, 'rate': 0.5, 'kernel_initializer': 'glorot_uniform', 'learning_rate': 0.01, 'HP_L1_REG': 0.1, 'units': 1000, 'activation': 'tanh', 'HP_L2_REG': 0.0001, 'HP_OPTIMIZER': 'SGD'}
Blue
Model: "sequential"
_________________________________________________________________
Layer (type)                 Output Shape              Param #   
=================================================================
dense (Dense)                (None, 1000)              10001000  
_________________________________________________________________
dropout (Dropout)            (None, 1000)              0         
_________________________________________________________________
dense_1 (Dense)              (None, 1000)              1001000   
_________________________________________________________________
dropout_1 (Dropout)          (None, 1000)              0         
_________________________________________________________________
dense_2 (Dense)              (None, 1)                 1001      
=================================================================
Total params: 11,003,001
Trainable params: 11,003,001
Non-trainable params: 0
_________________________________________________________________
None
Red
-0.02204157824691122
Typer KerasRegressor
Hello world
{'HP_NUM_HIDDEN_LAYERS': 2, 'rate': 0.0, 'kernel_initializer': 'glorot_uniform', 'learning_rate': 0.01, 'HP_L1_REG': 0.1, 'units': 1000, 'activation': 'relu', 'HP_L2_REG': 0.2, 'HP_OPTIMIZER': 'Adam'}
Blue
Model: "sequential"
_________________________________________________________________
Layer (type)                 Output Shape              Param #   
=================================================================
dense (Dense)                (None, 1000)              10001000  
_________________________________________________________________
dense_1 (Dense)              (None, 1000)              1001000   
_________________________________________________________________
dense_2 (Dense)              (None, 1)                 1001      
=================================================================
Total params: 11,003,001
Trainable params: 11,003,001
Non-trainable params: 0
_________________________________________________________________
None
Red
0.3816234767940131
Typer KerasRegressor
Hello world
{'HP_NUM_HIDDEN_LAYERS': 5, 'rate': 0.5, 'kernel_initializer': 'glorot_uniform', 'learning_rate': 0.001, 'HP_L1_REG': 0.0001, 'units': 200, 'activation': 'tanh', 'HP_L2_REG': 1e-08, 'HP_OPTIMIZER': 'Adagrad'}
Blue
Model: "sequential"
_________________________________________________________________
Layer (type)                 Output Shape              Param #   
=================================================================
dense (Dense)                (None, 200)               2000200   
_________________________________________________________________
dropout (Dropout)            (None, 200)               0         
_________________________________________________________________
dense_1 (Dense)              (None, 200)               40200     
_________________________________________________________________
dropout_1 (Dropout)          (None, 200)               0         
_________________________________________________________________
dense_2 (Dense)              (None, 200)               40200     
_________________________________________________________________
dropout_2 (Dropout)          (None, 200)               0         
_________________________________________________________________
dense_3 (Dense)              (None, 200)               40200     
_________________________________________________________________
dropout_3 (Dropout)          (None, 200)               0         
_________________________________________________________________
dense_4 (Dense)              (None, 200)               40200     
_________________________________________________________________
dropout_4 (Dropout)          (None, 200)               0         
_________________________________________________________________
dense_5 (Dense)              (None, 1)                 201       
=================================================================
Total params: 2,161,201
Trainable params: 2,161,201
Non-trainable params: 0
_________________________________________________________________
None
Red
-2.428340214689924
Typer KerasRegressor
Hello world
{'HP_NUM_HIDDEN_LAYERS': 4, 'rate': 0.2, 'kernel_initializer': 'glorot_uniform', 'learning_rate': 0.01, 'HP_L1_REG': 0.01, 'units': 200, 'activation': 'relu', 'HP_L2_REG': 0.0001, 'HP_OPTIMIZER': 'Adam'}
Blue
Model: "sequential"
_________________________________________________________________
Layer (type)                 Output Shape              Param #   
=================================================================
dense (Dense)                (None, 200)               2000200   
_________________________________________________________________
dropout (Dropout)            (None, 200)               0         
_________________________________________________________________
dense_1 (Dense)              (None, 200)               40200     
_________________________________________________________________
dropout_1 (Dropout)          (None, 200)               0         
_________________________________________________________________
dense_2 (Dense)              (None, 200)               40200     
_________________________________________________________________
dropout_2 (Dropout)          (None, 200)               0         
_________________________________________________________________
dense_3 (Dense)              (None, 200)               40200     
_________________________________________________________________
dropout_3 (Dropout)          (None, 200)               0         
_________________________________________________________________
dense_4 (Dense)              (None, 1)                 201       
=================================================================
Total params: 2,121,001
Trainable params: 2,121,001
Non-trainable params: 0
_________________________________________________________________
None
Red
0.4885218851318297
Typer KerasRegressor
Hello world
{'HP_NUM_HIDDEN_LAYERS': 2, 'rate': 0.0, 'kernel_initializer': 'glorot_uniform', 'learning_rate': 0.0001, 'HP_L1_REG': 0.1, 'units': 200, 'activation': 'tanh', 'HP_L2_REG': 0.01, 'HP_OPTIMIZER': 'Adam'}
Blue
Model: "sequential"
_________________________________________________________________
Layer (type)                 Output Shape              Param #   
=================================================================
dense (Dense)                (None, 200)               2000200   
_________________________________________________________________
dense_1 (Dense)              (None, 200)               40200     
_________________________________________________________________
dense_2 (Dense)              (None, 1)                 201       
=================================================================
Total params: 2,040,601
Trainable params: 2,040,601
Non-trainable params: 0
_________________________________________________________________
None
Red
-1.608557450705021
Typer KerasRegressor
Hello world
{'HP_NUM_HIDDEN_LAYERS': 2, 'rate': 0.5, 'kernel_initializer': 'glorot_uniform', 'learning_rate': 1e-05, 'HP_L1_REG': 0.001, 'units': 1000, 'activation': 'tanh', 'HP_L2_REG': 0.0001, 'HP_OPTIMIZER': 'Adagrad'}
Blue
Model: "sequential"
_________________________________________________________________
Layer (type)                 Output Shape              Param #   
=================================================================
dense (Dense)                (None, 1000)              10001000  
_________________________________________________________________
dropout (Dropout)            (None, 1000)              0         
_________________________________________________________________
dense_1 (Dense)              (None, 1000)              1001000   
_________________________________________________________________
dropout_1 (Dropout)          (None, 1000)              0         
_________________________________________________________________
dense_2 (Dense)              (None, 1)                 1001      
=================================================================
Total params: 11,003,001
Trainable params: 11,003,001
Non-trainable params: 0
_________________________________________________________________
None
Red
-7.497582755728915
Typer KerasRegressor
Hello world
{'HP_NUM_HIDDEN_LAYERS': 5, 'rate': 0.5, 'kernel_initializer': 'glorot_uniform', 'learning_rate': 0.0001, 'HP_L1_REG': 0.001, 'units': 1000, 'activation': 'tanh', 'HP_L2_REG': 0.0001, 'HP_OPTIMIZER': 'Adagrad'}
Blue
Model: "sequential"
_________________________________________________________________
Layer (type)                 Output Shape              Param #   
=================================================================
dense (Dense)                (None, 1000)              10001000  
_________________________________________________________________
dropout (Dropout)            (None, 1000)              0         
_________________________________________________________________
dense_1 (Dense)              (None, 1000)              1001000   
_________________________________________________________________
dropout_1 (Dropout)          (None, 1000)              0         
_________________________________________________________________
dense_2 (Dense)              (None, 1000)              1001000   
_________________________________________________________________
dropout_2 (Dropout)          (None, 1000)              0         
_________________________________________________________________
dense_3 (Dense)              (None, 1000)              1001000   
_________________________________________________________________
dropout_3 (Dropout)          (None, 1000)              0         
_________________________________________________________________
dense_4 (Dense)              (None, 1000)              1001000   
_________________________________________________________________
dropout_4 (Dropout)          (None, 1000)              0         
_________________________________________________________________
dense_5 (Dense)              (None, 1)                 1001      
=================================================================
Total params: 14,006,001
Trainable params: 14,006,001
Non-trainable params: 0
_________________________________________________________________
None
Red
-1.228196507233525
Typer KerasRegressor
Hello world
{'HP_NUM_HIDDEN_LAYERS': 4, 'rate': 0.1, 'kernel_initializer': 'glorot_uniform', 'learning_rate': 0.001, 'HP_L1_REG': 0.001, 'units': 400, 'activation': 'tanh', 'HP_L2_REG': 1e-08, 'HP_OPTIMIZER': 'Adagrad'}
Blue
Model: "sequential"
_________________________________________________________________
Layer (type)                 Output Shape              Param #   
=================================================================
dense (Dense)                (None, 400)               4000400   
_________________________________________________________________
dropout (Dropout)            (None, 400)               0         
_________________________________________________________________
dense_1 (Dense)              (None, 400)               160400    
_________________________________________________________________
dropout_1 (Dropout)          (None, 400)               0         
_________________________________________________________________
dense_2 (Dense)              (None, 400)               160400    
_________________________________________________________________
dropout_2 (Dropout)          (None, 400)               0         
_________________________________________________________________
dense_3 (Dense)              (None, 400)               160400    
_________________________________________________________________
dropout_3 (Dropout)          (None, 400)               0         
_________________________________________________________________
dense_4 (Dense)              (None, 1)                 401       
=================================================================
Total params: 4,482,001
Trainable params: 4,482,001
Non-trainable params: 0
_________________________________________________________________
None
Red
-0.5603515387663063
Typer KerasRegressor
Hello world
{'HP_NUM_HIDDEN_LAYERS': 5, 'rate': 0.0, 'kernel_initializer': 'glorot_uniform', 'learning_rate': 0.01, 'HP_L1_REG': 0.1, 'units': 1000, 'activation': 'relu', 'HP_L2_REG': 0.0001, 'HP_OPTIMIZER': 'Adam'}
Blue
Model: "sequential"
_________________________________________________________________
Layer (type)                 Output Shape              Param #   
=================================================================
dense (Dense)                (None, 1000)              10001000  
_________________________________________________________________
dense_1 (Dense)              (None, 1000)              1001000   
_________________________________________________________________
dense_2 (Dense)              (None, 1000)              1001000   
_________________________________________________________________
dense_3 (Dense)              (None, 1000)              1001000   
_________________________________________________________________
dense_4 (Dense)              (None, 1000)              1001000   
_________________________________________________________________
dense_5 (Dense)              (None, 1)                 1001      
=================================================================
Total params: 14,006,001
Trainable params: 14,006,001
Non-trainable params: 0
_________________________________________________________________
None
Red
-0.010119229986248701
Typer KerasRegressor
Hello world
{'HP_NUM_HIDDEN_LAYERS': 3, 'rate': 0.2, 'kernel_initializer': 'glorot_uniform', 'learning_rate': 0.01, 'HP_L1_REG': 0.001, 'units': 200, 'activation': 'tanh', 'HP_L2_REG': 0.01, 'HP_OPTIMIZER': 'Adagrad'}
Blue
Model: "sequential"
_________________________________________________________________
Layer (type)                 Output Shape              Param #   
=================================================================
dense (Dense)                (None, 200)               2000200   
_________________________________________________________________
dropout (Dropout)            (None, 200)               0         
_________________________________________________________________
dense_1 (Dense)              (None, 200)               40200     
_________________________________________________________________
dropout_1 (Dropout)          (None, 200)               0         
_________________________________________________________________
dense_2 (Dense)              (None, 200)               40200     
_________________________________________________________________
dropout_2 (Dropout)          (None, 200)               0         
_________________________________________________________________
dense_3 (Dense)              (None, 1)                 201       
=================================================================
Total params: 2,080,801
Trainable params: 2,080,801
Non-trainable params: 0
_________________________________________________________________
None
Red
0.5085197602855994
Typer KerasRegressor
Hello world
{'HP_NUM_HIDDEN_LAYERS': 3, 'rate': 0.5, 'kernel_initializer': 'glorot_uniform', 'learning_rate': 0.01, 'HP_L1_REG': 0.001, 'units': 200, 'activation': 'relu', 'HP_L2_REG': 0.0001, 'HP_OPTIMIZER': 'SGD'}
Blue
Model: "sequential"
_________________________________________________________________
Layer (type)                 Output Shape              Param #   
=================================================================
dense (Dense)                (None, 200)               2000200   
_________________________________________________________________
dropout (Dropout)            (None, 200)               0         
_________________________________________________________________
dense_1 (Dense)              (None, 200)               40200     
_________________________________________________________________
dropout_1 (Dropout)          (None, 200)               0         
_________________________________________________________________
dense_2 (Dense)              (None, 200)               40200     
_________________________________________________________________
dropout_2 (Dropout)          (None, 200)               0         
_________________________________________________________________
dense_3 (Dense)              (None, 1)                 201       
=================================================================
Total params: 2,080,801
Trainable params: 2,080,801
Non-trainable params: 0
_________________________________________________________________
None
Red
0.5410314025442813
Typer KerasRegressor
Hello world
{'HP_NUM_HIDDEN_LAYERS': 5, 'rate': 0.5, 'kernel_initializer': 'glorot_uniform', 'learning_rate': 1e-05, 'HP_L1_REG': 0.001, 'units': 200, 'activation': 'relu', 'HP_L2_REG': 0.2, 'HP_OPTIMIZER': 'Adagrad'}
Blue
Model: "sequential"
_________________________________________________________________
Layer (type)                 Output Shape              Param #   
=================================================================
dense (Dense)                (None, 200)               2000200   
_________________________________________________________________
dropout (Dropout)            (None, 200)               0         
_________________________________________________________________
dense_1 (Dense)              (None, 200)               40200     
_________________________________________________________________
dropout_1 (Dropout)          (None, 200)               0         
_________________________________________________________________
dense_2 (Dense)              (None, 200)               40200     
_________________________________________________________________
dropout_2 (Dropout)          (None, 200)               0         
_________________________________________________________________
dense_3 (Dense)              (None, 200)               40200     
_________________________________________________________________
dropout_3 (Dropout)          (None, 200)               0         
_________________________________________________________________
dense_4 (Dense)              (None, 200)               40200     
_________________________________________________________________
dropout_4 (Dropout)          (None, 200)               0         
_________________________________________________________________
dense_5 (Dense)              (None, 1)                 201       
=================================================================
Total params: 2,161,201
Trainable params: 2,161,201
Non-trainable params: 0
_________________________________________________________________
None
Red
-8.431670768475767
Typer KerasRegressor
Hello world
{'HP_NUM_HIDDEN_LAYERS': 4, 'rate': 0.2, 'kernel_initializer': 'glorot_uniform', 'learning_rate': 0.001, 'HP_L1_REG': 0.1, 'units': 1000, 'activation': 'relu', 'HP_L2_REG': 1e-08, 'HP_OPTIMIZER': 'SGD'}
Blue
Model: "sequential"
_________________________________________________________________
Layer (type)                 Output Shape              Param #   
=================================================================
dense (Dense)                (None, 1000)              10001000  
_________________________________________________________________
dropout (Dropout)            (None, 1000)              0         
_________________________________________________________________
dense_1 (Dense)              (None, 1000)              1001000   
_________________________________________________________________
dropout_1 (Dropout)          (None, 1000)              0         
_________________________________________________________________
dense_2 (Dense)              (None, 1000)              1001000   
_________________________________________________________________
dropout_2 (Dropout)          (None, 1000)              0         
_________________________________________________________________
dense_3 (Dense)              (None, 1000)              1001000   
_________________________________________________________________
dropout_3 (Dropout)          (None, 1000)              0         
_________________________________________________________________
dense_4 (Dense)              (None, 1)                 1001      
=================================================================
Total params: 13,005,001
Trainable params: 13,005,001
Non-trainable params: 0
_________________________________________________________________
None
Red
-6.110250122951732
Typer KerasRegressor
Hello world
{'HP_NUM_HIDDEN_LAYERS': 2, 'rate': 0.1, 'kernel_initializer': 'glorot_uniform', 'learning_rate': 0.001, 'HP_L1_REG': 0.0001, 'units': 200, 'activation': 'relu', 'HP_L2_REG': 0.0001, 'HP_OPTIMIZER': 'Adagrad'}
Blue
Model: "sequential"
_________________________________________________________________
Layer (type)                 Output Shape              Param #   
=================================================================
dense (Dense)                (None, 200)               2000200   
_________________________________________________________________
dropout (Dropout)            (None, 200)               0         
_________________________________________________________________
dense_1 (Dense)              (None, 200)               40200     
_________________________________________________________________
dropout_1 (Dropout)          (None, 200)               0         
_________________________________________________________________
dense_2 (Dense)              (None, 1)                 201       
=================================================================
Total params: 2,040,601
Trainable params: 2,040,601
Non-trainable params: 0
_________________________________________________________________
None
Red
0.5630933398638696
Typer KerasRegressor
Hello world
{'HP_NUM_HIDDEN_LAYERS': 5, 'rate': 0.2, 'kernel_initializer': 'glorot_uniform', 'learning_rate': 0.001, 'HP_L1_REG': 0.01, 'units': 400, 'activation': 'tanh', 'HP_L2_REG': 0.0001, 'HP_OPTIMIZER': 'SGD'}
Blue
Model: "sequential"
_________________________________________________________________
Layer (type)                 Output Shape              Param #   
=================================================================
dense (Dense)                (None, 400)               4000400   
_________________________________________________________________
dropout (Dropout)            (None, 400)               0         
_________________________________________________________________
dense_1 (Dense)              (None, 400)               160400    
_________________________________________________________________
dropout_1 (Dropout)          (None, 400)               0         
_________________________________________________________________
dense_2 (Dense)              (None, 400)               160400    
_________________________________________________________________
dropout_2 (Dropout)          (None, 400)               0         
_________________________________________________________________
dense_3 (Dense)              (None, 400)               160400    
_________________________________________________________________
dropout_3 (Dropout)          (None, 400)               0         
_________________________________________________________________
dense_4 (Dense)              (None, 400)               160400    
_________________________________________________________________
dropout_4 (Dropout)          (None, 400)               0         
_________________________________________________________________
dense_5 (Dense)              (None, 1)                 401       
=================================================================
Total params: 4,642,401
Trainable params: 4,642,401
Non-trainable params: 0
_________________________________________________________________
None
Red
0.2663570924238561
Typer KerasRegressor
Hello world
{'HP_NUM_HIDDEN_LAYERS': 4, 'rate': 0.0, 'kernel_initializer': 'glorot_uniform', 'learning_rate': 0.01, 'HP_L1_REG': 0.01, 'units': 400, 'activation': 'tanh', 'HP_L2_REG': 0.2, 'HP_OPTIMIZER': 'Adam'}
Blue
Model: "sequential"
_________________________________________________________________
Layer (type)                 Output Shape              Param #   
=================================================================
dense (Dense)                (None, 400)               4000400   
_________________________________________________________________
dense_1 (Dense)              (None, 400)               160400    
_________________________________________________________________
dense_2 (Dense)              (None, 400)               160400    
_________________________________________________________________
dense_3 (Dense)              (None, 400)               160400    
_________________________________________________________________
dense_4 (Dense)              (None, 1)                 401       
=================================================================
Total params: 4,482,001
Trainable params: 4,482,001
Non-trainable params: 0
_________________________________________________________________
None
Red
-0.01487642081955931
Typer KerasRegressor
Hello world
{'HP_NUM_HIDDEN_LAYERS': 5, 'rate': 0.1, 'kernel_initializer': 'glorot_uniform', 'learning_rate': 0.001, 'HP_L1_REG': 0.0001, 'units': 200, 'activation': 'tanh', 'HP_L2_REG': 0.01, 'HP_OPTIMIZER': 'Adagrad'}
Blue
Model: "sequential"
_________________________________________________________________
Layer (type)                 Output Shape              Param #   
=================================================================
dense (Dense)                (None, 200)               2000200   
_________________________________________________________________
dropout (Dropout)            (None, 200)               0         
_________________________________________________________________
dense_1 (Dense)              (None, 200)               40200     
_________________________________________________________________
dropout_1 (Dropout)          (None, 200)               0         
_________________________________________________________________
dense_2 (Dense)              (None, 200)               40200     
_________________________________________________________________
dropout_2 (Dropout)          (None, 200)               0         
_________________________________________________________________
dense_3 (Dense)              (None, 200)               40200     
_________________________________________________________________
dropout_3 (Dropout)          (None, 200)               0         
_________________________________________________________________
dense_4 (Dense)              (None, 200)               40200     
_________________________________________________________________
dropout_4 (Dropout)          (None, 200)               0         
_________________________________________________________________
dense_5 (Dense)              (None, 1)                 201       
=================================================================
Total params: 2,161,201
Trainable params: 2,161,201
Non-trainable params: 0
_________________________________________________________________
None
Red
-2.351215991650889
Typer KerasRegressor
Hello world
{'HP_NUM_HIDDEN_LAYERS': 2, 'rate': 0.2, 'kernel_initializer': 'glorot_uniform', 'learning_rate': 0.0001, 'HP_L1_REG': 0.01, 'units': 1000, 'activation': 'relu', 'HP_L2_REG': 0.2, 'HP_OPTIMIZER': 'SGD'}
Blue
Model: "sequential"
_________________________________________________________________
Layer (type)                 Output Shape              Param #   
=================================================================
dense (Dense)                (None, 1000)              10001000  
_________________________________________________________________
dropout (Dropout)            (None, 1000)              0         
_________________________________________________________________
dense_1 (Dense)              (None, 1000)              1001000   
_________________________________________________________________
dropout_1 (Dropout)          (None, 1000)              0         
_________________________________________________________________
dense_2 (Dense)              (None, 1)                 1001      
=================================================================
Total params: 11,003,001
Trainable params: 11,003,001
Non-trainable params: 0
_________________________________________________________________
None
Red
-0.4497193154684309
Typer KerasRegressor
Hello world
{'HP_NUM_HIDDEN_LAYERS': 3, 'rate': 0.2, 'kernel_initializer': 'glorot_uniform', 'learning_rate': 0.01, 'HP_L1_REG': 0.001, 'units': 1000, 'activation': 'relu', 'HP_L2_REG': 1e-08, 'HP_OPTIMIZER': 'SGD'}
Blue
Model: "sequential"
_________________________________________________________________
Layer (type)                 Output Shape              Param #   
=================================================================
dense (Dense)                (None, 1000)              10001000  
_________________________________________________________________
dropout (Dropout)            (None, 1000)              0         
_________________________________________________________________
dense_1 (Dense)              (None, 1000)              1001000   
_________________________________________________________________
dropout_1 (Dropout)          (None, 1000)              0         
_________________________________________________________________
dense_2 (Dense)              (None, 1000)              1001000   
_________________________________________________________________
dropout_2 (Dropout)          (None, 1000)              0         
_________________________________________________________________
dense_3 (Dense)              (None, 1)                 1001      
=================================================================
Total params: 12,004,001
Trainable params: 12,004,001
Non-trainable params: 0
_________________________________________________________________
None
Red
-0.051066928178628235
Typer KerasRegressor
Hello world
{'HP_NUM_HIDDEN_LAYERS': 5, 'rate': 0.1, 'kernel_initializer': 'glorot_uniform', 'learning_rate': 0.001, 'HP_L1_REG': 0.1, 'units': 400, 'activation': 'tanh', 'HP_L2_REG': 1e-08, 'HP_OPTIMIZER': 'SGD'}
Blue
Model: "sequential"
_________________________________________________________________
Layer (type)                 Output Shape              Param #   
=================================================================
dense (Dense)                (None, 400)               4000400   
_________________________________________________________________
dropout (Dropout)            (None, 400)               0         
_________________________________________________________________
dense_1 (Dense)              (None, 400)               160400    
_________________________________________________________________
dropout_1 (Dropout)          (None, 400)               0         
_________________________________________________________________
dense_2 (Dense)              (None, 400)               160400    
_________________________________________________________________
dropout_2 (Dropout)          (None, 400)               0         
_________________________________________________________________
dense_3 (Dense)              (None, 400)               160400    
_________________________________________________________________
dropout_3 (Dropout)          (None, 400)               0         
_________________________________________________________________
dense_4 (Dense)              (None, 400)               160400    
_________________________________________________________________
dropout_4 (Dropout)          (None, 400)               0         
_________________________________________________________________
dense_5 (Dense)              (None, 1)                 401       
=================================================================
Total params: 4,642,401
Trainable params: 4,642,401
Non-trainable params: 0
_________________________________________________________________
None
Red
-0.22079164862209466
Typer KerasRegressor
Hello world
{'HP_NUM_HIDDEN_LAYERS': 4, 'rate': 0.0, 'kernel_initializer': 'glorot_uniform', 'learning_rate': 1e-05, 'HP_L1_REG': 0.0001, 'units': 400, 'activation': 'relu', 'HP_L2_REG': 0.01, 'HP_OPTIMIZER': 'Adagrad'}
Blue
Model: "sequential"
_________________________________________________________________
Layer (type)                 Output Shape              Param #   
=================================================================
dense (Dense)                (None, 400)               4000400   
_________________________________________________________________
dense_1 (Dense)              (None, 400)               160400    
_________________________________________________________________
dense_2 (Dense)              (None, 400)               160400    
_________________________________________________________________
dense_3 (Dense)              (None, 400)               160400    
_________________________________________________________________
dense_4 (Dense)              (None, 1)                 401       
=================================================================
Total params: 4,482,001
Trainable params: 4,482,001
Non-trainable params: 0
_________________________________________________________________
None
Red
-8.390214338909086
Typer KerasRegressor
Hello world
{'HP_NUM_HIDDEN_LAYERS': 4, 'rate': 0.5, 'kernel_initializer': 'glorot_uniform', 'learning_rate': 1e-05, 'HP_L1_REG': 0.0001, 'units': 400, 'activation': 'tanh', 'HP_L2_REG': 0.2, 'HP_OPTIMIZER': 'Adagrad'}
Blue
Model: "sequential"
_________________________________________________________________
Layer (type)                 Output Shape              Param #   
=================================================================
dense (Dense)                (None, 400)               4000400   
_________________________________________________________________
dropout (Dropout)            (None, 400)               0         
_________________________________________________________________
dense_1 (Dense)              (None, 400)               160400    
_________________________________________________________________
dropout_1 (Dropout)          (None, 400)               0         
_________________________________________________________________
dense_2 (Dense)              (None, 400)               160400    
_________________________________________________________________
dropout_2 (Dropout)          (None, 400)               0         
_________________________________________________________________
dense_3 (Dense)              (None, 400)               160400    
_________________________________________________________________
dropout_3 (Dropout)          (None, 400)               0         
_________________________________________________________________
dense_4 (Dense)              (None, 1)                 401       
=================================================================
Total params: 4,482,001
Trainable params: 4,482,001
Non-trainable params: 0
_________________________________________________________________
None
Red
-7.999870677611916
Typer KerasRegressor
Hello world
{'HP_NUM_HIDDEN_LAYERS': 4, 'rate': 0.1, 'kernel_initializer': 'glorot_uniform', 'learning_rate': 0.0001, 'HP_L1_REG': 0.001, 'units': 200, 'activation': 'relu', 'HP_L2_REG': 0.0001, 'HP_OPTIMIZER': 'Adagrad'}
Blue
Model: "sequential"
_________________________________________________________________
Layer (type)                 Output Shape              Param #   
=================================================================
dense (Dense)                (None, 200)               2000200   
_________________________________________________________________
dropout (Dropout)            (None, 200)               0         
_________________________________________________________________
dense_1 (Dense)              (None, 200)               40200     
_________________________________________________________________
dropout_1 (Dropout)          (None, 200)               0         
_________________________________________________________________
dense_2 (Dense)              (None, 200)               40200     
_________________________________________________________________
dropout_2 (Dropout)          (None, 200)               0         
_________________________________________________________________
dense_3 (Dense)              (None, 200)               40200     
_________________________________________________________________
dropout_3 (Dropout)          (None, 200)               0         
_________________________________________________________________
dense_4 (Dense)              (None, 1)                 201       
=================================================================
Total params: 2,121,001
Trainable params: 2,121,001
Non-trainable params: 0
_________________________________________________________________
None
Red
-2.580409700181537
Typer KerasRegressor
Hello world
{'HP_NUM_HIDDEN_LAYERS': 3, 'rate': 0.0, 'kernel_initializer': 'glorot_uniform', 'learning_rate': 0.01, 'HP_L1_REG': 0.1, 'units': 1000, 'activation': 'relu', 'HP_L2_REG': 0.01, 'HP_OPTIMIZER': 'Adagrad'}
Blue
Model: "sequential"
_________________________________________________________________
Layer (type)                 Output Shape              Param #   
=================================================================
dense (Dense)                (None, 1000)              10001000  
_________________________________________________________________
dense_1 (Dense)              (None, 1000)              1001000   
_________________________________________________________________
dense_2 (Dense)              (None, 1000)              1001000   
_________________________________________________________________
dense_3 (Dense)              (None, 1)                 1001      
=================================================================
Total params: 12,004,001
Trainable params: 12,004,001
Non-trainable params: 0
_________________________________________________________________
None
Red
-0.014865103731569684
Typer KerasRegressor
Hello world
{'HP_NUM_HIDDEN_LAYERS': 3, 'rate': 0.0, 'kernel_initializer': 'glorot_uniform', 'learning_rate': 0.0001, 'HP_L1_REG': 0.001, 'units': 400, 'activation': 'tanh', 'HP_L2_REG': 0.2, 'HP_OPTIMIZER': 'Adam'}
Blue
Model: "sequential"
_________________________________________________________________
Layer (type)                 Output Shape              Param #   
=================================================================
dense (Dense)                (None, 400)               4000400   
_________________________________________________________________
dense_1 (Dense)              (None, 400)               160400    
_________________________________________________________________
dense_2 (Dense)              (None, 400)               160400    
_________________________________________________________________
dense_3 (Dense)              (None, 1)                 401       
=================================================================
Total params: 4,321,601
Trainable params: 4,321,601
Non-trainable params: 0
_________________________________________________________________
None
Red
0.16725805600461097
Typer KerasRegressor
Hello world
{'HP_NUM_HIDDEN_LAYERS': 3, 'rate': 0.5, 'kernel_initializer': 'glorot_uniform', 'learning_rate': 1e-05, 'HP_L1_REG': 0.001, 'units': 1000, 'activation': 'tanh', 'HP_L2_REG': 0.01, 'HP_OPTIMIZER': 'Adam'}
Blue
Model: "sequential"
_________________________________________________________________
Layer (type)                 Output Shape              Param #   
=================================================================
dense (Dense)                (None, 1000)              10001000  
_________________________________________________________________
dropout (Dropout)            (None, 1000)              0         
_________________________________________________________________
dense_1 (Dense)              (None, 1000)              1001000   
_________________________________________________________________
dropout_1 (Dropout)          (None, 1000)              0         
_________________________________________________________________
dense_2 (Dense)              (None, 1000)              1001000   
_________________________________________________________________
dropout_2 (Dropout)          (None, 1000)              0         
_________________________________________________________________
dense_3 (Dense)              (None, 1)                 1001      
=================================================================
Total params: 12,004,001
Trainable params: 12,004,001
Non-trainable params: 0
_________________________________________________________________
None
Red
-0.4961961397153605
Typer KerasRegressor
Hello world
{'HP_NUM_HIDDEN_LAYERS': 2, 'rate': 0.1, 'kernel_initializer': 'glorot_uniform', 'learning_rate': 0.01, 'HP_L1_REG': 0.1, 'units': 1000, 'activation': 'relu', 'HP_L2_REG': 1e-08, 'HP_OPTIMIZER': 'SGD'}
Blue
Model: "sequential"
_________________________________________________________________
Layer (type)                 Output Shape              Param #   
=================================================================
dense (Dense)                (None, 1000)              10001000  
_________________________________________________________________
dropout (Dropout)            (None, 1000)              0         
_________________________________________________________________
dense_1 (Dense)              (None, 1000)              1001000   
_________________________________________________________________
dropout_1 (Dropout)          (None, 1000)              0         
_________________________________________________________________
dense_2 (Dense)              (None, 1)                 1001      
=================================================================
Total params: 11,003,001
Trainable params: 11,003,001
Non-trainable params: 0
_________________________________________________________________
None
Red
-0.014757961284826093
Typer KerasRegressor
Hello world
{'HP_NUM_HIDDEN_LAYERS': 4, 'rate': 0.5, 'kernel_initializer': 'glorot_uniform', 'learning_rate': 1e-05, 'HP_L1_REG': 0.01, 'units': 1000, 'activation': 'relu', 'HP_L2_REG': 0.01, 'HP_OPTIMIZER': 'Adam'}
Blue
Model: "sequential"
_________________________________________________________________
Layer (type)                 Output Shape              Param #   
=================================================================
dense (Dense)                (None, 1000)              10001000  
_________________________________________________________________
dropout (Dropout)            (None, 1000)              0         
_________________________________________________________________
dense_1 (Dense)              (None, 1000)              1001000   
_________________________________________________________________
dropout_1 (Dropout)          (None, 1000)              0         
_________________________________________________________________
dense_2 (Dense)              (None, 1000)              1001000   
_________________________________________________________________
dropout_2 (Dropout)          (None, 1000)              0         
_________________________________________________________________
dense_3 (Dense)              (None, 1000)              1001000   
_________________________________________________________________
dropout_3 (Dropout)          (None, 1000)              0         
_________________________________________________________________
dense_4 (Dense)              (None, 1)                 1001      
=================================================================
Total params: 13,005,001
Trainable params: 13,005,001
Non-trainable params: 0
_________________________________________________________________
None
Red
0.28110876302723753
Typer KerasRegressor
Hello world
{'HP_NUM_HIDDEN_LAYERS': 4, 'rate': 0.5, 'kernel_initializer': 'glorot_uniform', 'learning_rate': 1e-05, 'HP_L1_REG': 0.0001, 'units': 200, 'activation': 'relu', 'HP_L2_REG': 0.01, 'HP_OPTIMIZER': 'Adam'}
Blue
Model: "sequential"
_________________________________________________________________
Layer (type)                 Output Shape              Param #   
=================================================================
dense (Dense)                (None, 200)               2000200   
_________________________________________________________________
dropout (Dropout)            (None, 200)               0         
_________________________________________________________________
dense_1 (Dense)              (None, 200)               40200     
_________________________________________________________________
dropout_1 (Dropout)          (None, 200)               0         
_________________________________________________________________
dense_2 (Dense)              (None, 200)               40200     
_________________________________________________________________
dropout_2 (Dropout)          (None, 200)               0         
_________________________________________________________________
dense_3 (Dense)              (None, 200)               40200     
_________________________________________________________________
dropout_3 (Dropout)          (None, 200)               0         
_________________________________________________________________
dense_4 (Dense)              (None, 1)                 201       
=================================================================
Total params: 2,121,001
Trainable params: 2,121,001
Non-trainable params: 0
_________________________________________________________________
None
Red
0.16463754471915648
Typer KerasRegressor
Hello world
{'HP_NUM_HIDDEN_LAYERS': 4, 'rate': 0.1, 'kernel_initializer': 'glorot_uniform', 'learning_rate': 0.001, 'HP_L1_REG': 0.001, 'units': 400, 'activation': 'tanh', 'HP_L2_REG': 0.0001, 'HP_OPTIMIZER': 'SGD'}
Blue
Model: "sequential"
_________________________________________________________________
Layer (type)                 Output Shape              Param #   
=================================================================
dense (Dense)                (None, 400)               4000400   
_________________________________________________________________
dropout (Dropout)            (None, 400)               0         
_________________________________________________________________
dense_1 (Dense)              (None, 400)               160400    
_________________________________________________________________
dropout_1 (Dropout)          (None, 400)               0         
_________________________________________________________________
dense_2 (Dense)              (None, 400)               160400    
_________________________________________________________________
dropout_2 (Dropout)          (None, 400)               0         
_________________________________________________________________
dense_3 (Dense)              (None, 400)               160400    
_________________________________________________________________
dropout_3 (Dropout)          (None, 400)               0         
_________________________________________________________________
dense_4 (Dense)              (None, 1)                 401       
=================================================================
Total params: 4,482,001
Trainable params: 4,482,001
Non-trainable params: 0
_________________________________________________________________
None
Red
0.06831453019617773
Typer KerasRegressor
Hello world
{'HP_NUM_HIDDEN_LAYERS': 5, 'rate': 0.1, 'kernel_initializer': 'glorot_uniform', 'learning_rate': 1e-05, 'HP_L1_REG': 0.0001, 'units': 400, 'activation': 'relu', 'HP_L2_REG': 0.2, 'HP_OPTIMIZER': 'Adagrad'}
Blue
Model: "sequential"
_________________________________________________________________
Layer (type)                 Output Shape              Param #   
=================================================================
dense (Dense)                (None, 400)               4000400   
_________________________________________________________________
dropout (Dropout)            (None, 400)               0         
_________________________________________________________________
dense_1 (Dense)              (None, 400)               160400    
_________________________________________________________________
dropout_1 (Dropout)          (None, 400)               0         
_________________________________________________________________
dense_2 (Dense)              (None, 400)               160400    
_________________________________________________________________
dropout_2 (Dropout)          (None, 400)               0         
_________________________________________________________________
dense_3 (Dense)              (None, 400)               160400    
_________________________________________________________________
dropout_3 (Dropout)          (None, 400)               0         
_________________________________________________________________
dense_4 (Dense)              (None, 400)               160400    
_________________________________________________________________
dropout_4 (Dropout)          (None, 400)               0         
_________________________________________________________________
dense_5 (Dense)              (None, 1)                 401       
=================================================================
Total params: 4,642,401
Trainable params: 4,642,401
Non-trainable params: 0
_________________________________________________________________
None
Red
-8.409703010073782
Typer KerasRegressor
Hello world
INNER COUNT NO.  2
champ
(574, 10000)
(574, 10000)
Tusa
(574, 1)
{'HP_NUM_HIDDEN_LAYERS': 5, 'rate': 0.1, 'kernel_initializer': 'glorot_uniform', 'learning_rate': 1e-05, 'HP_L1_REG': 0.1, 'units': 1000, 'activation': 'relu', 'HP_L2_REG': 0.0001, 'HP_OPTIMIZER': 'Adagrad'}
Blue
Model: "sequential"
_________________________________________________________________
Layer (type)                 Output Shape              Param #   
=================================================================
dense (Dense)                (None, 1000)              10001000  
_________________________________________________________________
dropout (Dropout)            (None, 1000)              0         
_________________________________________________________________
dense_1 (Dense)              (None, 1000)              1001000   
_________________________________________________________________
dropout_1 (Dropout)          (None, 1000)              0         
_________________________________________________________________
dense_2 (Dense)              (None, 1000)              1001000   
_________________________________________________________________
dropout_2 (Dropout)          (None, 1000)              0         
_________________________________________________________________
dense_3 (Dense)              (None, 1000)              1001000   
_________________________________________________________________
dropout_3 (Dropout)          (None, 1000)              0         
_________________________________________________________________
dense_4 (Dense)              (None, 1000)              1001000   
_________________________________________________________________
dropout_4 (Dropout)          (None, 1000)              0         
_________________________________________________________________
dense_5 (Dense)              (None, 1)                 1001      
=================================================================
Total params: 14,006,001
Trainable params: 14,006,001
Non-trainable params: 0
_________________________________________________________________
None
Red
-8.031193477149964
Typer KerasRegressor
Hello world
{'HP_NUM_HIDDEN_LAYERS': 5, 'rate': 0.1, 'kernel_initializer': 'glorot_uniform', 'learning_rate': 0.001, 'HP_L1_REG': 0.1, 'units': 400, 'activation': 'tanh', 'HP_L2_REG': 1e-08, 'HP_OPTIMIZER': 'SGD'}
Blue
Model: "sequential"
_________________________________________________________________
Layer (type)                 Output Shape              Param #   
=================================================================
dense (Dense)                (None, 400)               4000400   
_________________________________________________________________
dropout (Dropout)            (None, 400)               0         
_________________________________________________________________
dense_1 (Dense)              (None, 400)               160400    
_________________________________________________________________
dropout_1 (Dropout)          (None, 400)               0         
_________________________________________________________________
dense_2 (Dense)              (None, 400)               160400    
_________________________________________________________________
dropout_2 (Dropout)          (None, 400)               0         
_________________________________________________________________
dense_3 (Dense)              (None, 400)               160400    
_________________________________________________________________
dropout_3 (Dropout)          (None, 400)               0         
_________________________________________________________________
dense_4 (Dense)              (None, 400)               160400    
_________________________________________________________________
dropout_4 (Dropout)          (None, 400)               0         
_________________________________________________________________
dense_5 (Dense)              (None, 1)                 401       
=================================================================
Total params: 4,642,401
Trainable params: 4,642,401
Non-trainable params: 0
_________________________________________________________________
None
Red
-0.2882141277405226
Typer KerasRegressor
Hello world
{'HP_NUM_HIDDEN_LAYERS': 3, 'rate': 0.0, 'kernel_initializer': 'glorot_uniform', 'learning_rate': 0.001, 'HP_L1_REG': 0.01, 'units': 200, 'activation': 'tanh', 'HP_L2_REG': 1e-08, 'HP_OPTIMIZER': 'SGD'}
Blue
Model: "sequential"
_________________________________________________________________
Layer (type)                 Output Shape              Param #   
=================================================================
dense (Dense)                (None, 200)               2000200   
_________________________________________________________________
dense_1 (Dense)              (None, 200)               40200     
_________________________________________________________________
dense_2 (Dense)              (None, 200)               40200     
_________________________________________________________________
dense_3 (Dense)              (None, 1)                 201       
=================================================================
Total params: 2,080,801
Trainable params: 2,080,801
Non-trainable params: 0
_________________________________________________________________
None
Red
0.21430231558111934
Typer KerasRegressor
Hello world
{'HP_NUM_HIDDEN_LAYERS': 4, 'rate': 0.5, 'kernel_initializer': 'glorot_uniform', 'learning_rate': 0.01, 'HP_L1_REG': 0.1, 'units': 400, 'activation': 'tanh', 'HP_L2_REG': 1e-08, 'HP_OPTIMIZER': 'Adagrad'}
Blue
Model: "sequential"
_________________________________________________________________
Layer (type)                 Output Shape              Param #   
=================================================================
dense (Dense)                (None, 400)               4000400   
_________________________________________________________________
dropout (Dropout)            (None, 400)               0         
_________________________________________________________________
dense_1 (Dense)              (None, 400)               160400    
_________________________________________________________________
dropout_1 (Dropout)          (None, 400)               0         
_________________________________________________________________
dense_2 (Dense)              (None, 400)               160400    
_________________________________________________________________
dropout_2 (Dropout)          (None, 400)               0         
_________________________________________________________________
dense_3 (Dense)              (None, 400)               160400    
_________________________________________________________________
dropout_3 (Dropout)          (None, 400)               0         
_________________________________________________________________
dense_4 (Dense)              (None, 1)                 401       
=================================================================
Total params: 4,482,001
Trainable params: 4,482,001
Non-trainable params: 0
_________________________________________________________________
None
Red
-0.03419784728433295
Typer KerasRegressor
Hello world
{'HP_NUM_HIDDEN_LAYERS': 4, 'rate': 0.5, 'kernel_initializer': 'glorot_uniform', 'learning_rate': 0.01, 'HP_L1_REG': 0.0001, 'units': 1000, 'activation': 'tanh', 'HP_L2_REG': 1e-08, 'HP_OPTIMIZER': 'SGD'}
Blue
Model: "sequential"
_________________________________________________________________
Layer (type)                 Output Shape              Param #   
=================================================================
dense (Dense)                (None, 1000)              10001000  
_________________________________________________________________
dropout (Dropout)            (None, 1000)              0         
_________________________________________________________________
dense_1 (Dense)              (None, 1000)              1001000   
_________________________________________________________________
dropout_1 (Dropout)          (None, 1000)              0         
_________________________________________________________________
dense_2 (Dense)              (None, 1000)              1001000   
_________________________________________________________________
dropout_2 (Dropout)          (None, 1000)              0         
_________________________________________________________________
dense_3 (Dense)              (None, 1000)              1001000   
_________________________________________________________________
dropout_3 (Dropout)          (None, 1000)              0         
_________________________________________________________________
dense_4 (Dense)              (None, 1)                 1001      
=================================================================
Total params: 13,005,001
Trainable params: 13,005,001
Non-trainable params: 0
_________________________________________________________________
None
Red
0.5139222256895706
Typer KerasRegressor
Hello world
{'HP_NUM_HIDDEN_LAYERS': 4, 'rate': 0.2, 'kernel_initializer': 'glorot_uniform', 'learning_rate': 0.01, 'HP_L1_REG': 0.1, 'units': 1000, 'activation': 'tanh', 'HP_L2_REG': 1e-08, 'HP_OPTIMIZER': 'Adam'}
Blue
Model: "sequential"
_________________________________________________________________
Layer (type)                 Output Shape              Param #   
=================================================================
dense (Dense)                (None, 1000)              10001000  
_________________________________________________________________
dropout (Dropout)            (None, 1000)              0         
_________________________________________________________________
dense_1 (Dense)              (None, 1000)              1001000   
_________________________________________________________________
dropout_1 (Dropout)          (None, 1000)              0         
_________________________________________________________________
dense_2 (Dense)              (None, 1000)              1001000   
_________________________________________________________________
dropout_2 (Dropout)          (None, 1000)              0         
_________________________________________________________________
dense_3 (Dense)              (None, 1000)              1001000   
_________________________________________________________________
dropout_3 (Dropout)          (None, 1000)              0         
_________________________________________________________________
dense_4 (Dense)              (None, 1)                 1001      
=================================================================
Total params: 13,005,001
Trainable params: 13,005,001
Non-trainable params: 0
_________________________________________________________________
None
Red
-0.05677435463806102
Typer KerasRegressor
Hello world
{'HP_NUM_HIDDEN_LAYERS': 4, 'rate': 0.2, 'kernel_initializer': 'glorot_uniform', 'learning_rate': 0.0001, 'HP_L1_REG': 0.001, 'units': 400, 'activation': 'relu', 'HP_L2_REG': 0.0001, 'HP_OPTIMIZER': 'Adagrad'}
Blue
Model: "sequential"
_________________________________________________________________
Layer (type)                 Output Shape              Param #   
=================================================================
dense (Dense)                (None, 400)               4000400   
_________________________________________________________________
dropout (Dropout)            (None, 400)               0         
_________________________________________________________________
dense_1 (Dense)              (None, 400)               160400    
_________________________________________________________________
dropout_1 (Dropout)          (None, 400)               0         
_________________________________________________________________
dense_2 (Dense)              (None, 400)               160400    
_________________________________________________________________
dropout_2 (Dropout)          (None, 400)               0         
_________________________________________________________________
dense_3 (Dense)              (None, 400)               160400    
_________________________________________________________________
dropout_3 (Dropout)          (None, 400)               0         
_________________________________________________________________
dense_4 (Dense)              (None, 1)                 401       
=================================================================
Total params: 4,482,001
Trainable params: 4,482,001
Non-trainable params: 0
_________________________________________________________________
None
Red
-0.22113484719404797
Typer KerasRegressor
Hello world
{'HP_NUM_HIDDEN_LAYERS': 3, 'rate': 0.2, 'kernel_initializer': 'glorot_uniform', 'learning_rate': 0.001, 'HP_L1_REG': 0.1, 'units': 400, 'activation': 'relu', 'HP_L2_REG': 0.01, 'HP_OPTIMIZER': 'Adagrad'}
Blue
Model: "sequential"
_________________________________________________________________
Layer (type)                 Output Shape              Param #   
=================================================================
dense (Dense)                (None, 400)               4000400   
_________________________________________________________________
dropout (Dropout)            (None, 400)               0         
_________________________________________________________________
dense_1 (Dense)              (None, 400)               160400    
_________________________________________________________________
dropout_1 (Dropout)          (None, 400)               0         
_________________________________________________________________
dense_2 (Dense)              (None, 400)               160400    
_________________________________________________________________
dropout_2 (Dropout)          (None, 400)               0         
_________________________________________________________________
dense_3 (Dense)              (None, 1)                 401       
=================================================================
Total params: 4,321,601
Trainable params: 4,321,601
Non-trainable params: 0
_________________________________________________________________
None
Red
-7.552606901394984
Typer KerasRegressor
Hello world
{'HP_NUM_HIDDEN_LAYERS': 5, 'rate': 0.0, 'kernel_initializer': 'glorot_uniform', 'learning_rate': 0.01, 'HP_L1_REG': 0.001, 'units': 200, 'activation': 'relu', 'HP_L2_REG': 0.0001, 'HP_OPTIMIZER': 'Adagrad'}
Blue
Model: "sequential"
_________________________________________________________________
Layer (type)                 Output Shape              Param #   
=================================================================
dense (Dense)                (None, 200)               2000200   
_________________________________________________________________
dense_1 (Dense)              (None, 200)               40200     
_________________________________________________________________
dense_2 (Dense)              (None, 200)               40200     
_________________________________________________________________
dense_3 (Dense)              (None, 200)               40200     
_________________________________________________________________
dense_4 (Dense)              (None, 200)               40200     
_________________________________________________________________
dense_5 (Dense)              (None, 1)                 201       
=================================================================
Total params: 2,161,201
Trainable params: 2,161,201
Non-trainable params: 0
_________________________________________________________________
None
Red
0.46990475816962385
Typer KerasRegressor
Hello world
{'HP_NUM_HIDDEN_LAYERS': 3, 'rate': 0.1, 'kernel_initializer': 'glorot_uniform', 'learning_rate': 1e-05, 'HP_L1_REG': 0.01, 'units': 1000, 'activation': 'relu', 'HP_L2_REG': 0.2, 'HP_OPTIMIZER': 'SGD'}
Blue
Model: "sequential"
_________________________________________________________________
Layer (type)                 Output Shape              Param #   
=================================================================
dense (Dense)                (None, 1000)              10001000  
_________________________________________________________________
dropout (Dropout)            (None, 1000)              0         
_________________________________________________________________
dense_1 (Dense)              (None, 1000)              1001000   
_________________________________________________________________
dropout_1 (Dropout)          (None, 1000)              0         
_________________________________________________________________
dense_2 (Dense)              (None, 1000)              1001000   
_________________________________________________________________
dropout_2 (Dropout)          (None, 1000)              0         
_________________________________________________________________
dense_3 (Dense)              (None, 1)                 1001      
=================================================================
Total params: 12,004,001
Trainable params: 12,004,001
Non-trainable params: 0
_________________________________________________________________
None
Red
-7.974760438371904
Typer KerasRegressor
Hello world
{'HP_NUM_HIDDEN_LAYERS': 3, 'rate': 0.1, 'kernel_initializer': 'glorot_uniform', 'learning_rate': 0.0001, 'HP_L1_REG': 0.0001, 'units': 200, 'activation': 'relu', 'HP_L2_REG': 0.01, 'HP_OPTIMIZER': 'Adam'}
Blue
Model: "sequential"
_________________________________________________________________
Layer (type)                 Output Shape              Param #   
=================================================================
dense (Dense)                (None, 200)               2000200   
_________________________________________________________________
dropout (Dropout)            (None, 200)               0         
_________________________________________________________________
dense_1 (Dense)              (None, 200)               40200     
_________________________________________________________________
dropout_1 (Dropout)          (None, 200)               0         
_________________________________________________________________
dense_2 (Dense)              (None, 200)               40200     
_________________________________________________________________
dropout_2 (Dropout)          (None, 200)               0         
_________________________________________________________________
dense_3 (Dense)              (None, 1)                 201       
=================================================================
Total params: 2,080,801
Trainable params: 2,080,801
Non-trainable params: 0
_________________________________________________________________
None
Red
0.47583461096881696
Typer KerasRegressor
Hello world
{'HP_NUM_HIDDEN_LAYERS': 3, 'rate': 0.1, 'kernel_initializer': 'glorot_uniform', 'learning_rate': 0.01, 'HP_L1_REG': 0.1, 'units': 1000, 'activation': 'tanh', 'HP_L2_REG': 0.0001, 'HP_OPTIMIZER': 'SGD'}
Blue
Model: "sequential"
_________________________________________________________________
Layer (type)                 Output Shape              Param #   
=================================================================
dense (Dense)                (None, 1000)              10001000  
_________________________________________________________________
dropout (Dropout)            (None, 1000)              0         
_________________________________________________________________
dense_1 (Dense)              (None, 1000)              1001000   
_________________________________________________________________
dropout_1 (Dropout)          (None, 1000)              0         
_________________________________________________________________
dense_2 (Dense)              (None, 1000)              1001000   
_________________________________________________________________
dropout_2 (Dropout)          (None, 1000)              0         
_________________________________________________________________
dense_3 (Dense)              (None, 1)                 1001      
=================================================================
Total params: 12,004,001
Trainable params: 12,004,001
Non-trainable params: 0
_________________________________________________________________
None
Red
-0.018483669567391114
Typer KerasRegressor
Hello world
{'HP_NUM_HIDDEN_LAYERS': 4, 'rate': 0.5, 'kernel_initializer': 'glorot_uniform', 'learning_rate': 1e-05, 'HP_L1_REG': 0.01, 'units': 400, 'activation': 'tanh', 'HP_L2_REG': 0.01, 'HP_OPTIMIZER': 'Adam'}
Blue
Model: "sequential"
_________________________________________________________________
Layer (type)                 Output Shape              Param #   
=================================================================
dense (Dense)                (None, 400)               4000400   
_________________________________________________________________
dropout (Dropout)            (None, 400)               0         
_________________________________________________________________
dense_1 (Dense)              (None, 400)               160400    
_________________________________________________________________
dropout_1 (Dropout)          (None, 400)               0         
_________________________________________________________________
dense_2 (Dense)              (None, 400)               160400    
_________________________________________________________________
dropout_2 (Dropout)          (None, 400)               0         
_________________________________________________________________
dense_3 (Dense)              (None, 400)               160400    
_________________________________________________________________
dropout_3 (Dropout)          (None, 400)               0         
_________________________________________________________________
dense_4 (Dense)              (None, 1)                 401       
=================================================================
Total params: 4,482,001
Trainable params: 4,482,001
Non-trainable params: 0
_________________________________________________________________
None
Red
-2.720300356890827
Typer KerasRegressor
Hello world
{'HP_NUM_HIDDEN_LAYERS': 4, 'rate': 0.5, 'kernel_initializer': 'glorot_uniform', 'learning_rate': 1e-05, 'HP_L1_REG': 0.001, 'units': 1000, 'activation': 'relu', 'HP_L2_REG': 0.01, 'HP_OPTIMIZER': 'SGD'}
Blue
Model: "sequential"
_________________________________________________________________
Layer (type)                 Output Shape              Param #   
=================================================================
dense (Dense)                (None, 1000)              10001000  
_________________________________________________________________
dropout (Dropout)            (None, 1000)              0         
_________________________________________________________________
dense_1 (Dense)              (None, 1000)              1001000   
_________________________________________________________________
dropout_1 (Dropout)          (None, 1000)              0         
_________________________________________________________________
dense_2 (Dense)              (None, 1000)              1001000   
_________________________________________________________________
dropout_2 (Dropout)          (None, 1000)              0         
_________________________________________________________________
dense_3 (Dense)              (None, 1000)              1001000   
_________________________________________________________________
dropout_3 (Dropout)          (None, 1000)              0         
_________________________________________________________________
dense_4 (Dense)              (None, 1)                 1001      
=================================================================
Total params: 13,005,001
Trainable params: 13,005,001
Non-trainable params: 0
_________________________________________________________________
None
Red
-7.999055312044629
Typer KerasRegressor
Hello world
{'HP_NUM_HIDDEN_LAYERS': 5, 'rate': 0.0, 'kernel_initializer': 'glorot_uniform', 'learning_rate': 0.01, 'HP_L1_REG': 0.01, 'units': 1000, 'activation': 'tanh', 'HP_L2_REG': 0.2, 'HP_OPTIMIZER': 'Adagrad'}
Blue
Model: "sequential"
_________________________________________________________________
Layer (type)                 Output Shape              Param #   
=================================================================
dense (Dense)                (None, 1000)              10001000  
_________________________________________________________________
dense_1 (Dense)              (None, 1000)              1001000   
_________________________________________________________________
dense_2 (Dense)              (None, 1000)              1001000   
_________________________________________________________________
dense_3 (Dense)              (None, 1000)              1001000   
_________________________________________________________________
dense_4 (Dense)              (None, 1000)              1001000   
_________________________________________________________________
dense_5 (Dense)              (None, 1)                 1001      
=================================================================
Total params: 14,006,001
Trainable params: 14,006,001
Non-trainable params: 0
_________________________________________________________________
None
Red
0.4319135186214702
Typer KerasRegressor
Hello world
{'HP_NUM_HIDDEN_LAYERS': 3, 'rate': 0.0, 'kernel_initializer': 'glorot_uniform', 'learning_rate': 1e-05, 'HP_L1_REG': 0.01, 'units': 400, 'activation': 'relu', 'HP_L2_REG': 0.2, 'HP_OPTIMIZER': 'SGD'}
Blue
Model: "sequential"
_________________________________________________________________
Layer (type)                 Output Shape              Param #   
=================================================================
dense (Dense)                (None, 400)               4000400   
_________________________________________________________________
dense_1 (Dense)              (None, 400)               160400    
_________________________________________________________________
dense_2 (Dense)              (None, 400)               160400    
_________________________________________________________________
dense_3 (Dense)              (None, 1)                 401       
=================================================================
Total params: 4,321,601
Trainable params: 4,321,601
Non-trainable params: 0
_________________________________________________________________
None
Red
-8.031790742375051
Typer KerasRegressor
Hello world
{'HP_NUM_HIDDEN_LAYERS': 2, 'rate': 0.2, 'kernel_initializer': 'glorot_uniform', 'learning_rate': 0.001, 'HP_L1_REG': 0.1, 'units': 200, 'activation': 'tanh', 'HP_L2_REG': 1e-08, 'HP_OPTIMIZER': 'Adam'}
Blue
Model: "sequential"
_________________________________________________________________
Layer (type)                 Output Shape              Param #   
=================================================================
dense (Dense)                (None, 200)               2000200   
_________________________________________________________________
dropout (Dropout)            (None, 200)               0         
_________________________________________________________________
dense_1 (Dense)              (None, 200)               40200     
_________________________________________________________________
dropout_1 (Dropout)          (None, 200)               0         
_________________________________________________________________
dense_2 (Dense)              (None, 1)                 201       
=================================================================
Total params: 2,040,601
Trainable params: 2,040,601
Non-trainable params: 0
_________________________________________________________________
None
Red
0.36205970859043024
Typer KerasRegressor
Hello world
{'HP_NUM_HIDDEN_LAYERS': 5, 'rate': 0.2, 'kernel_initializer': 'glorot_uniform', 'learning_rate': 1e-05, 'HP_L1_REG': 0.1, 'units': 1000, 'activation': 'tanh', 'HP_L2_REG': 0.2, 'HP_OPTIMIZER': 'Adam'}
Blue
Model: "sequential"
_________________________________________________________________
Layer (type)                 Output Shape              Param #   
=================================================================
dense (Dense)                (None, 1000)              10001000  
_________________________________________________________________
dropout (Dropout)            (None, 1000)              0         
_________________________________________________________________
dense_1 (Dense)              (None, 1000)              1001000   
_________________________________________________________________
dropout_1 (Dropout)          (None, 1000)              0         
_________________________________________________________________
dense_2 (Dense)              (None, 1000)              1001000   
_________________________________________________________________
dropout_2 (Dropout)          (None, 1000)              0         
_________________________________________________________________
dense_3 (Dense)              (None, 1000)              1001000   
_________________________________________________________________
dropout_3 (Dropout)          (None, 1000)              0         
_________________________________________________________________
dense_4 (Dense)              (None, 1000)              1001000   
_________________________________________________________________
dropout_4 (Dropout)          (None, 1000)              0         
_________________________________________________________________
dense_5 (Dense)              (None, 1)                 1001      
=================================================================
Total params: 14,006,001
Trainable params: 14,006,001
Non-trainable params: 0
_________________________________________________________________
None
Red
-7.709676137547641
Typer KerasRegressor
Hello world
{'HP_NUM_HIDDEN_LAYERS': 2, 'rate': 0.5, 'kernel_initializer': 'glorot_uniform', 'learning_rate': 0.001, 'HP_L1_REG': 0.001, 'units': 200, 'activation': 'relu', 'HP_L2_REG': 0.2, 'HP_OPTIMIZER': 'SGD'}
Blue
Model: "sequential"
_________________________________________________________________
Layer (type)                 Output Shape              Param #   
=================================================================
dense (Dense)                (None, 200)               2000200   
_________________________________________________________________
dropout (Dropout)            (None, 200)               0         
_________________________________________________________________
dense_1 (Dense)              (None, 200)               40200     
_________________________________________________________________
dropout_1 (Dropout)          (None, 200)               0         
_________________________________________________________________
dense_2 (Dense)              (None, 1)                 201       
=================================================================
Total params: 2,040,601
Trainable params: 2,040,601
Non-trainable params: 0
_________________________________________________________________
None
Red
0.3999085021161193
Typer KerasRegressor
Hello world
{'HP_NUM_HIDDEN_LAYERS': 2, 'rate': 0.5, 'kernel_initializer': 'glorot_uniform', 'learning_rate': 1e-05, 'HP_L1_REG': 0.1, 'units': 200, 'activation': 'tanh', 'HP_L2_REG': 0.0001, 'HP_OPTIMIZER': 'SGD'}
Blue
Model: "sequential"
_________________________________________________________________
Layer (type)                 Output Shape              Param #   
=================================================================
dense (Dense)                (None, 200)               2000200   
_________________________________________________________________
dropout (Dropout)            (None, 200)               0         
_________________________________________________________________
dense_1 (Dense)              (None, 200)               40200     
_________________________________________________________________
dropout_1 (Dropout)          (None, 200)               0         
_________________________________________________________________
dense_2 (Dense)              (None, 1)                 201       
=================================================================
Total params: 2,040,601
Trainable params: 2,040,601
Non-trainable params: 0
_________________________________________________________________
None
Red
-7.667241500719111
Typer KerasRegressor
Hello world
{'HP_NUM_HIDDEN_LAYERS': 5, 'rate': 0.5, 'kernel_initializer': 'glorot_uniform', 'learning_rate': 0.01, 'HP_L1_REG': 0.001, 'units': 200, 'activation': 'tanh', 'HP_L2_REG': 0.2, 'HP_OPTIMIZER': 'SGD'}
Blue
Model: "sequential"
_________________________________________________________________
Layer (type)                 Output Shape              Param #   
=================================================================
dense (Dense)                (None, 200)               2000200   
_________________________________________________________________
dropout (Dropout)            (None, 200)               0         
_________________________________________________________________
dense_1 (Dense)              (None, 200)               40200     
_________________________________________________________________
dropout_1 (Dropout)          (None, 200)               0         
_________________________________________________________________
dense_2 (Dense)              (None, 200)               40200     
_________________________________________________________________
dropout_2 (Dropout)          (None, 200)               0         
_________________________________________________________________
dense_3 (Dense)              (None, 200)               40200     
_________________________________________________________________
dropout_3 (Dropout)          (None, 200)               0         
_________________________________________________________________
dense_4 (Dense)              (None, 200)               40200     
_________________________________________________________________
dropout_4 (Dropout)          (None, 200)               0         
_________________________________________________________________
dense_5 (Dense)              (None, 1)                 201       
=================================================================
Total params: 2,161,201
Trainable params: 2,161,201
Non-trainable params: 0
_________________________________________________________________
None
Red
0.34217016693619695
Typer KerasRegressor
Hello world
{'HP_NUM_HIDDEN_LAYERS': 3, 'rate': 0.2, 'kernel_initializer': 'glorot_uniform', 'learning_rate': 1e-05, 'HP_L1_REG': 0.0001, 'units': 200, 'activation': 'tanh', 'HP_L2_REG': 1e-08, 'HP_OPTIMIZER': 'Adagrad'}
Blue
Model: "sequential"
_________________________________________________________________
Layer (type)                 Output Shape              Param #   
=================================================================
dense (Dense)                (None, 200)               2000200   
_________________________________________________________________
dropout (Dropout)            (None, 200)               0         
_________________________________________________________________
dense_1 (Dense)              (None, 200)               40200     
_________________________________________________________________
dropout_1 (Dropout)          (None, 200)               0         
_________________________________________________________________
dense_2 (Dense)              (None, 200)               40200     
_________________________________________________________________
dropout_2 (Dropout)          (None, 200)               0         
_________________________________________________________________
dense_3 (Dense)              (None, 1)                 201       
=================================================================
Total params: 2,080,801
Trainable params: 2,080,801
Non-trainable params: 0
_________________________________________________________________
None
Red
-7.61387564993092
Typer KerasRegressor
Hello world
{'HP_NUM_HIDDEN_LAYERS': 5, 'rate': 0.0, 'kernel_initializer': 'glorot_uniform', 'learning_rate': 1e-05, 'HP_L1_REG': 0.0001, 'units': 1000, 'activation': 'tanh', 'HP_L2_REG': 0.2, 'HP_OPTIMIZER': 'Adam'}
Blue
Model: "sequential"
_________________________________________________________________
Layer (type)                 Output Shape              Param #   
=================================================================
dense (Dense)                (None, 1000)              10001000  
_________________________________________________________________
dense_1 (Dense)              (None, 1000)              1001000   
_________________________________________________________________
dense_2 (Dense)              (None, 1000)              1001000   
_________________________________________________________________
dense_3 (Dense)              (None, 1000)              1001000   
_________________________________________________________________
dense_4 (Dense)              (None, 1000)              1001000   
_________________________________________________________________
dense_5 (Dense)              (None, 1)                 1001      
=================================================================
Total params: 14,006,001
Trainable params: 14,006,001
Non-trainable params: 0
_________________________________________________________________
None
Red
-0.7501190367047796
Typer KerasRegressor
Hello world
{'HP_NUM_HIDDEN_LAYERS': 4, 'rate': 0.0, 'kernel_initializer': 'glorot_uniform', 'learning_rate': 1e-05, 'HP_L1_REG': 0.1, 'units': 200, 'activation': 'tanh', 'HP_L2_REG': 0.01, 'HP_OPTIMIZER': 'Adagrad'}
Blue
Model: "sequential"
_________________________________________________________________
Layer (type)                 Output Shape              Param #   
=================================================================
dense (Dense)                (None, 200)               2000200   
_________________________________________________________________
dense_1 (Dense)              (None, 200)               40200     
_________________________________________________________________
dense_2 (Dense)              (None, 200)               40200     
_________________________________________________________________
dense_3 (Dense)              (None, 200)               40200     
_________________________________________________________________
dense_4 (Dense)              (None, 1)                 201       
=================================================================
Total params: 2,121,001
Trainable params: 2,121,001
Non-trainable params: 0
_________________________________________________________________
None
Red
-7.979302808464054
Typer KerasRegressor
Hello world
{'HP_NUM_HIDDEN_LAYERS': 3, 'rate': 0.2, 'kernel_initializer': 'glorot_uniform', 'learning_rate': 0.001, 'HP_L1_REG': 0.001, 'units': 200, 'activation': 'tanh', 'HP_L2_REG': 0.2, 'HP_OPTIMIZER': 'Adam'}
Blue
Model: "sequential"
_________________________________________________________________
Layer (type)                 Output Shape              Param #   
=================================================================
dense (Dense)                (None, 200)               2000200   
_________________________________________________________________
dropout (Dropout)            (None, 200)               0         
_________________________________________________________________
dense_1 (Dense)              (None, 200)               40200     
_________________________________________________________________
dropout_1 (Dropout)          (None, 200)               0         
_________________________________________________________________
dense_2 (Dense)              (None, 200)               40200     
_________________________________________________________________
dropout_2 (Dropout)          (None, 200)               0         
_________________________________________________________________
dense_3 (Dense)              (None, 1)                 201       
=================================================================
Total params: 2,080,801
Trainable params: 2,080,801
Non-trainable params: 0
_________________________________________________________________
None
Red
0.46959700776859725
Typer KerasRegressor
Hello world
{'HP_NUM_HIDDEN_LAYERS': 2, 'rate': 0.5, 'kernel_initializer': 'glorot_uniform', 'learning_rate': 0.0001, 'HP_L1_REG': 0.01, 'units': 200, 'activation': 'tanh', 'HP_L2_REG': 0.0001, 'HP_OPTIMIZER': 'Adagrad'}
Blue
Model: "sequential"
_________________________________________________________________
Layer (type)                 Output Shape              Param #   
=================================================================
dense (Dense)                (None, 200)               2000200   
_________________________________________________________________
dropout (Dropout)            (None, 200)               0         
_________________________________________________________________
dense_1 (Dense)              (None, 200)               40200     
_________________________________________________________________
dropout_1 (Dropout)          (None, 200)               0         
_________________________________________________________________
dense_2 (Dense)              (None, 1)                 201       
=================================================================
Total params: 2,040,601
Trainable params: 2,040,601
Non-trainable params: 0
_________________________________________________________________
None
Red
-5.439613644481939
Typer KerasRegressor
Hello world
{'HP_NUM_HIDDEN_LAYERS': 3, 'rate': 0.0, 'kernel_initializer': 'glorot_uniform', 'learning_rate': 1e-05, 'HP_L1_REG': 0.0001, 'units': 400, 'activation': 'tanh', 'HP_L2_REG': 0.01, 'HP_OPTIMIZER': 'Adagrad'}
Blue
Model: "sequential"
_________________________________________________________________
Layer (type)                 Output Shape              Param #   
=================================================================
dense (Dense)                (None, 400)               4000400   
_________________________________________________________________
dense_1 (Dense)              (None, 400)               160400    
_________________________________________________________________
dense_2 (Dense)              (None, 400)               160400    
_________________________________________________________________
dense_3 (Dense)              (None, 1)                 401       
=================================================================
Total params: 4,321,601
Trainable params: 4,321,601
Non-trainable params: 0
_________________________________________________________________
None
Red
-7.284324145749592
Typer KerasRegressor
Hello world
{'HP_NUM_HIDDEN_LAYERS': 3, 'rate': 0.2, 'kernel_initializer': 'glorot_uniform', 'learning_rate': 0.01, 'HP_L1_REG': 0.0001, 'units': 200, 'activation': 'tanh', 'HP_L2_REG': 0.01, 'HP_OPTIMIZER': 'Adam'}
Blue
Model: "sequential"
_________________________________________________________________
Layer (type)                 Output Shape              Param #   
=================================================================
dense (Dense)                (None, 200)               2000200   
_________________________________________________________________
dropout (Dropout)            (None, 200)               0         
_________________________________________________________________
dense_1 (Dense)              (None, 200)               40200     
_________________________________________________________________
dropout_1 (Dropout)          (None, 200)               0         
_________________________________________________________________
dense_2 (Dense)              (None, 200)               40200     
_________________________________________________________________
dropout_2 (Dropout)          (None, 200)               0         
_________________________________________________________________
dense_3 (Dense)              (None, 1)                 201       
=================================================================
Total params: 2,080,801
Trainable params: 2,080,801
Non-trainable params: 0
_________________________________________________________________
None
Red
0.5269450044193533
Typer KerasRegressor
Hello world
{'HP_NUM_HIDDEN_LAYERS': 3, 'rate': 0.5, 'kernel_initializer': 'glorot_uniform', 'learning_rate': 1e-05, 'HP_L1_REG': 0.01, 'units': 200, 'activation': 'relu', 'HP_L2_REG': 1e-08, 'HP_OPTIMIZER': 'Adagrad'}
Blue
Model: "sequential"
_________________________________________________________________
Layer (type)                 Output Shape              Param #   
=================================================================
dense (Dense)                (None, 200)               2000200   
_________________________________________________________________
dropout (Dropout)            (None, 200)               0         
_________________________________________________________________
dense_1 (Dense)              (None, 200)               40200     
_________________________________________________________________
dropout_1 (Dropout)          (None, 200)               0         
_________________________________________________________________
dense_2 (Dense)              (None, 200)               40200     
_________________________________________________________________
dropout_2 (Dropout)          (None, 200)               0         
_________________________________________________________________
dense_3 (Dense)              (None, 1)                 201       
=================================================================
Total params: 2,080,801
Trainable params: 2,080,801
Non-trainable params: 0
_________________________________________________________________
None
Red
-7.978106232675543
Typer KerasRegressor
Hello world
{'HP_NUM_HIDDEN_LAYERS': 3, 'rate': 0.1, 'kernel_initializer': 'glorot_uniform', 'learning_rate': 0.0001, 'HP_L1_REG': 0.01, 'units': 1000, 'activation': 'tanh', 'HP_L2_REG': 0.0001, 'HP_OPTIMIZER': 'Adagrad'}
Blue
Model: "sequential"
_________________________________________________________________
Layer (type)                 Output Shape              Param #   
=================================================================
dense (Dense)                (None, 1000)              10001000  
_________________________________________________________________
dropout (Dropout)            (None, 1000)              0         
_________________________________________________________________
dense_1 (Dense)              (None, 1000)              1001000   
_________________________________________________________________
dropout_1 (Dropout)          (None, 1000)              0         
_________________________________________________________________
dense_2 (Dense)              (None, 1000)              1001000   
_________________________________________________________________
dropout_2 (Dropout)          (None, 1000)              0         
_________________________________________________________________
dense_3 (Dense)              (None, 1)                 1001      
=================================================================
Total params: 12,004,001
Trainable params: 12,004,001
Non-trainable params: 0
_________________________________________________________________
None
Red
-1.3978009370563718
Typer KerasRegressor
Hello world
{'HP_NUM_HIDDEN_LAYERS': 3, 'rate': 0.1, 'kernel_initializer': 'glorot_uniform', 'learning_rate': 0.001, 'HP_L1_REG': 0.001, 'units': 200, 'activation': 'relu', 'HP_L2_REG': 0.0001, 'HP_OPTIMIZER': 'Adam'}
Blue
Model: "sequential"
_________________________________________________________________
Layer (type)                 Output Shape              Param #   
=================================================================
dense (Dense)                (None, 200)               2000200   
_________________________________________________________________
dropout (Dropout)            (None, 200)               0         
_________________________________________________________________
dense_1 (Dense)              (None, 200)               40200     
_________________________________________________________________
dropout_1 (Dropout)          (None, 200)               0         
_________________________________________________________________
dense_2 (Dense)              (None, 200)               40200     
_________________________________________________________________
dropout_2 (Dropout)          (None, 200)               0         
_________________________________________________________________
dense_3 (Dense)              (None, 1)                 201       
=================================================================
Total params: 2,080,801
Trainable params: 2,080,801
Non-trainable params: 0
_________________________________________________________________
None
Red
0.3804294108051818
Typer KerasRegressor
Hello world
{'HP_NUM_HIDDEN_LAYERS': 2, 'rate': 0.1, 'kernel_initializer': 'glorot_uniform', 'learning_rate': 0.0001, 'HP_L1_REG': 0.0001, 'units': 1000, 'activation': 'relu', 'HP_L2_REG': 1e-08, 'HP_OPTIMIZER': 'Adagrad'}
Blue
Model: "sequential"
_________________________________________________________________
Layer (type)                 Output Shape              Param #   
=================================================================
dense (Dense)                (None, 1000)              10001000  
_________________________________________________________________
dropout (Dropout)            (None, 1000)              0         
_________________________________________________________________
dense_1 (Dense)              (None, 1000)              1001000   
_________________________________________________________________
dropout_1 (Dropout)          (None, 1000)              0         
_________________________________________________________________
dense_2 (Dense)              (None, 1)                 1001      
=================================================================
Total params: 11,003,001
Trainable params: 11,003,001
Non-trainable params: 0
_________________________________________________________________
None
Red
-0.4128579474107601
Typer KerasRegressor
Hello world
{'HP_NUM_HIDDEN_LAYERS': 3, 'rate': 0.2, 'kernel_initializer': 'glorot_uniform', 'learning_rate': 0.01, 'HP_L1_REG': 0.1, 'units': 400, 'activation': 'relu', 'HP_L2_REG': 0.01, 'HP_OPTIMIZER': 'Adagrad'}
Blue
Model: "sequential"
_________________________________________________________________
Layer (type)                 Output Shape              Param #   
=================================================================
dense (Dense)                (None, 400)               4000400   
_________________________________________________________________
dropout (Dropout)            (None, 400)               0         
_________________________________________________________________
dense_1 (Dense)              (None, 400)               160400    
_________________________________________________________________
dropout_1 (Dropout)          (None, 400)               0         
_________________________________________________________________
dense_2 (Dense)              (None, 400)               160400    
_________________________________________________________________
dropout_2 (Dropout)          (None, 400)               0         
_________________________________________________________________
dense_3 (Dense)              (None, 1)                 401       
=================================================================
Total params: 4,321,601
Trainable params: 4,321,601
Non-trainable params: 0
_________________________________________________________________
None
Red
-0.03794011717914181
Typer KerasRegressor
Hello world
{'HP_NUM_HIDDEN_LAYERS': 3, 'rate': 0.5, 'kernel_initializer': 'glorot_uniform', 'learning_rate': 0.001, 'HP_L1_REG': 0.1, 'units': 200, 'activation': 'relu', 'HP_L2_REG': 1e-08, 'HP_OPTIMIZER': 'SGD'}
Blue
Model: "sequential"
_________________________________________________________________
Layer (type)                 Output Shape              Param #   
=================================================================
dense (Dense)                (None, 200)               2000200   
_________________________________________________________________
dropout (Dropout)            (None, 200)               0         
_________________________________________________________________
dense_1 (Dense)              (None, 200)               40200     
_________________________________________________________________
dropout_1 (Dropout)          (None, 200)               0         
_________________________________________________________________
dense_2 (Dense)              (None, 200)               40200     
_________________________________________________________________
dropout_2 (Dropout)          (None, 200)               0         
_________________________________________________________________
dense_3 (Dense)              (None, 1)                 201       
=================================================================
Total params: 2,080,801
Trainable params: 2,080,801
Non-trainable params: 0
_________________________________________________________________
None
Red
-5.338380299636412
Typer KerasRegressor
Hello world
{'HP_NUM_HIDDEN_LAYERS': 3, 'rate': 0.1, 'kernel_initializer': 'glorot_uniform', 'learning_rate': 0.001, 'HP_L1_REG': 0.01, 'units': 400, 'activation': 'relu', 'HP_L2_REG': 0.0001, 'HP_OPTIMIZER': 'SGD'}
Blue
Model: "sequential"
_________________________________________________________________
Layer (type)                 Output Shape              Param #   
=================================================================
dense (Dense)                (None, 400)               4000400   
_________________________________________________________________
dropout (Dropout)            (None, 400)               0         
_________________________________________________________________
dense_1 (Dense)              (None, 400)               160400    
_________________________________________________________________
dropout_1 (Dropout)          (None, 400)               0         
_________________________________________________________________
dense_2 (Dense)              (None, 400)               160400    
_________________________________________________________________
dropout_2 (Dropout)          (None, 400)               0         
_________________________________________________________________
dense_3 (Dense)              (None, 1)                 401       
=================================================================
Total params: 4,321,601
Trainable params: 4,321,601
Non-trainable params: 0
_________________________________________________________________
None
Red
0.38005530078035066
Typer KerasRegressor
Hello world
{'HP_NUM_HIDDEN_LAYERS': 2, 'rate': 0.0, 'kernel_initializer': 'glorot_uniform', 'learning_rate': 1e-05, 'HP_L1_REG': 0.0001, 'units': 400, 'activation': 'relu', 'HP_L2_REG': 0.01, 'HP_OPTIMIZER': 'Adagrad'}
Blue
Model: "sequential"
_________________________________________________________________
Layer (type)                 Output Shape              Param #   
=================================================================
dense (Dense)                (None, 400)               4000400   
_________________________________________________________________
dense_1 (Dense)              (None, 400)               160400    
_________________________________________________________________
dense_2 (Dense)              (None, 1)                 401       
=================================================================
Total params: 4,161,201
Trainable params: 4,161,201
Non-trainable params: 0
_________________________________________________________________
None
Red
-7.938200862774263
Typer KerasRegressor
Hello world
{'HP_NUM_HIDDEN_LAYERS': 5, 'rate': 0.0, 'kernel_initializer': 'glorot_uniform', 'learning_rate': 0.0001, 'HP_L1_REG': 0.0001, 'units': 1000, 'activation': 'tanh', 'HP_L2_REG': 0.0001, 'HP_OPTIMIZER': 'SGD'}
Blue
Model: "sequential"
_________________________________________________________________
Layer (type)                 Output Shape              Param #   
=================================================================
dense (Dense)                (None, 1000)              10001000  
_________________________________________________________________
dense_1 (Dense)              (None, 1000)              1001000   
_________________________________________________________________
dense_2 (Dense)              (None, 1000)              1001000   
_________________________________________________________________
dense_3 (Dense)              (None, 1000)              1001000   
_________________________________________________________________
dense_4 (Dense)              (None, 1000)              1001000   
_________________________________________________________________
dense_5 (Dense)              (None, 1)                 1001      
=================================================================
Total params: 14,006,001
Trainable params: 14,006,001
Non-trainable params: 0
_________________________________________________________________
None
Red
-0.08612625241300043
Typer KerasRegressor
Hello world
{'HP_NUM_HIDDEN_LAYERS': 5, 'rate': 0.1, 'kernel_initializer': 'glorot_uniform', 'learning_rate': 1e-05, 'HP_L1_REG': 0.0001, 'units': 400, 'activation': 'relu', 'HP_L2_REG': 0.0001, 'HP_OPTIMIZER': 'Adagrad'}
Blue
Model: "sequential"
_________________________________________________________________
Layer (type)                 Output Shape              Param #   
=================================================================
dense (Dense)                (None, 400)               4000400   
_________________________________________________________________
dropout (Dropout)            (None, 400)               0         
_________________________________________________________________
dense_1 (Dense)              (None, 400)               160400    
_________________________________________________________________
dropout_1 (Dropout)          (None, 400)               0         
_________________________________________________________________
dense_2 (Dense)              (None, 400)               160400    
_________________________________________________________________
dropout_2 (Dropout)          (None, 400)               0         
_________________________________________________________________
dense_3 (Dense)              (None, 400)               160400    
_________________________________________________________________
dropout_3 (Dropout)          (None, 400)               0         
_________________________________________________________________
dense_4 (Dense)              (None, 400)               160400    
_________________________________________________________________
dropout_4 (Dropout)          (None, 400)               0         
_________________________________________________________________
dense_5 (Dense)              (None, 1)                 401       
=================================================================
Total params: 4,642,401
Trainable params: 4,642,401
Non-trainable params: 0
_________________________________________________________________
None
Red
-8.02746159940625
Typer KerasRegressor
Hello world
{'HP_NUM_HIDDEN_LAYERS': 4, 'rate': 0.0, 'kernel_initializer': 'glorot_uniform', 'learning_rate': 1e-05, 'HP_L1_REG': 0.1, 'units': 1000, 'activation': 'relu', 'HP_L2_REG': 0.01, 'HP_OPTIMIZER': 'Adagrad'}
Blue
Model: "sequential"
_________________________________________________________________
Layer (type)                 Output Shape              Param #   
=================================================================
dense (Dense)                (None, 1000)              10001000  
_________________________________________________________________
dense_1 (Dense)              (None, 1000)              1001000   
_________________________________________________________________
dense_2 (Dense)              (None, 1000)              1001000   
_________________________________________________________________
dense_3 (Dense)              (None, 1000)              1001000   
_________________________________________________________________
dense_4 (Dense)              (None, 1)                 1001      
=================================================================
Total params: 13,005,001
Trainable params: 13,005,001
Non-trainable params: 0
_________________________________________________________________
None
Red
-8.02347854971466
Typer KerasRegressor
Hello world
{'HP_NUM_HIDDEN_LAYERS': 2, 'rate': 0.1, 'kernel_initializer': 'glorot_uniform', 'learning_rate': 0.01, 'HP_L1_REG': 0.1, 'units': 400, 'activation': 'relu', 'HP_L2_REG': 0.01, 'HP_OPTIMIZER': 'SGD'}
Blue
Model: "sequential"
_________________________________________________________________
Layer (type)                 Output Shape              Param #   
=================================================================
dense (Dense)                (None, 400)               4000400   
_________________________________________________________________
dropout (Dropout)            (None, 400)               0         
_________________________________________________________________
dense_1 (Dense)              (None, 400)               160400    
_________________________________________________________________
dropout_1 (Dropout)          (None, 400)               0         
_________________________________________________________________
dense_2 (Dense)              (None, 1)                 401       
=================================================================
Total params: 4,161,201
Trainable params: 4,161,201
Non-trainable params: 0
_________________________________________________________________
None
Red
0.28679283737070993
Typer KerasRegressor
Hello world
{'HP_NUM_HIDDEN_LAYERS': 3, 'rate': 0.0, 'kernel_initializer': 'glorot_uniform', 'learning_rate': 0.01, 'HP_L1_REG': 0.0001, 'units': 1000, 'activation': 'relu', 'HP_L2_REG': 0.0001, 'HP_OPTIMIZER': 'SGD'}
Blue
Model: "sequential"
_________________________________________________________________
Layer (type)                 Output Shape              Param #   
=================================================================
dense (Dense)                (None, 1000)              10001000  
_________________________________________________________________
dense_1 (Dense)              (None, 1000)              1001000   
_________________________________________________________________
dense_2 (Dense)              (None, 1000)              1001000   
_________________________________________________________________
dense_3 (Dense)              (None, 1)                 1001      
=================================================================
Total params: 12,004,001
Trainable params: 12,004,001
Non-trainable params: 0
_________________________________________________________________
None
Red
0.15304041134406943
Typer KerasRegressor
Hello world
{'HP_NUM_HIDDEN_LAYERS': 2, 'rate': 0.5, 'kernel_initializer': 'glorot_uniform', 'learning_rate': 0.01, 'HP_L1_REG': 0.0001, 'units': 200, 'activation': 'tanh', 'HP_L2_REG': 1e-08, 'HP_OPTIMIZER': 'SGD'}
Blue
Model: "sequential"
_________________________________________________________________
Layer (type)                 Output Shape              Param #   
=================================================================
dense (Dense)                (None, 200)               2000200   
_________________________________________________________________
dropout (Dropout)            (None, 200)               0         
_________________________________________________________________
dense_1 (Dense)              (None, 200)               40200     
_________________________________________________________________
dropout_1 (Dropout)          (None, 200)               0         
_________________________________________________________________
dense_2 (Dense)              (None, 1)                 201       
=================================================================
Total params: 2,040,601
Trainable params: 2,040,601
Non-trainable params: 0
_________________________________________________________________
None
Red
0.472315364255917
Typer KerasRegressor
Hello world
{'HP_NUM_HIDDEN_LAYERS': 3, 'rate': 0.5, 'kernel_initializer': 'glorot_uniform', 'learning_rate': 0.001, 'HP_L1_REG': 0.001, 'units': 1000, 'activation': 'tanh', 'HP_L2_REG': 0.0001, 'HP_OPTIMIZER': 'Adam'}
Blue
Model: "sequential"
_________________________________________________________________
Layer (type)                 Output Shape              Param #   
=================================================================
dense (Dense)                (None, 1000)              10001000  
_________________________________________________________________
dropout (Dropout)            (None, 1000)              0         
_________________________________________________________________
dense_1 (Dense)              (None, 1000)              1001000   
_________________________________________________________________
dropout_1 (Dropout)          (None, 1000)              0         
_________________________________________________________________
dense_2 (Dense)              (None, 1000)              1001000   
_________________________________________________________________
dropout_2 (Dropout)          (None, 1000)              0         
_________________________________________________________________
dense_3 (Dense)              (None, 1)                 1001      
=================================================================
Total params: 12,004,001
Trainable params: 12,004,001
Non-trainable params: 0
_________________________________________________________________
None
Red
0.4942974077819523
Typer KerasRegressor
Hello world
{'HP_NUM_HIDDEN_LAYERS': 2, 'rate': 0.0, 'kernel_initializer': 'glorot_uniform', 'learning_rate': 0.0001, 'HP_L1_REG': 0.01, 'units': 400, 'activation': 'relu', 'HP_L2_REG': 0.0001, 'HP_OPTIMIZER': 'Adagrad'}
Blue
Model: "sequential"
_________________________________________________________________
…
{'HP_NUM_HIDDEN_LAYERS': 3, 'kernel_initializer': 'glorot_uniform', 'pool': 1, 'learning_rate': 0.01, 'filters': 1, 'activation': 'tanh', 'HP_L2_REG': 0.2, 'rate': 0.0, 'HP_OPTIMIZER': 'SGD', 'strides': 2, 'units': 200, 'kernel': 1, 'epochs': 200, 'HP_L1_REG': 0.1}
Blue
Model: "sequential"
_________________________________________________________________
Layer (type)                 Output Shape              Param #   
=================================================================
conv1d (Conv1D)              (None, 5000, 1)           2         
_________________________________________________________________
max_pooling1d (MaxPooling1D) (None, 2500, 1)           0         
_________________________________________________________________
conv1d_1 (Conv1D)            (None, 1250, 1)           2         
_________________________________________________________________
max_pooling1d_1 (MaxPooling1 (None, 625, 1)            0         
_________________________________________________________________
flatten (Flatten)            (None, 625)               0         
_________________________________________________________________
dense (Dense)                (None, 1)                 626       
=================================================================
Total params: 630
Trainable params: 630
Non-trainable params: 0
_________________________________________________________________
Summary  None
Red
-0.017782382000468777
Typer KerasRegressor
Hello world
{'HP_NUM_HIDDEN_LAYERS': 3, 'kernel_initializer': 'glorot_uniform', 'pool': 1, 'learning_rate': 0.01, 'filters': 1, 'activation': 'tanh', 'HP_L2_REG': 0.2, 'rate': 0.0, 'HP_OPTIMIZER': 'SGD', 'strides': 1, 'units': 200, 'kernel': 2, 'epochs': 100, 'HP_L1_REG': 0.1}
Blue
Model: "sequential"
_________________________________________________________________
Layer (type)                 Output Shape              Param #   
=================================================================
conv1d (Conv1D)              (None, 9999, 1)           3         
_________________________________________________________________
max_pooling1d (MaxPooling1D) (None, 9999, 1)           0         
_________________________________________________________________
conv1d_1 (Conv1D)            (None, 9998, 1)           3         
_________________________________________________________________
max_pooling1d_1 (MaxPooling1 (None, 9998, 1)           0         
_________________________________________________________________
flatten (Flatten)            (None, 9998)              0         
_________________________________________________________________
dense (Dense)                (None, 1)                 9999      
=================================================================
Total params: 10,005
Trainable params: 10,005
Non-trainable params: 0
_________________________________________________________________
Summary  None
Red
-0.1884729058519814
Typer KerasRegressor
Hello world
{'HP_NUM_HIDDEN_LAYERS': 3, 'kernel_initializer': 'glorot_uniform', 'pool': 2, 'learning_rate': 0.001, 'filters': 1, 'activation': 'tanh', 'HP_L2_REG': 0.2, 'rate': 0.0, 'HP_OPTIMIZER': 'SGD', 'strides': 2, 'units': 200, 'kernel': 2, 'epochs': 200, 'HP_L1_REG': 0.1}
Blue
Model: "sequential"
_________________________________________________________________
Layer (type)                 Output Shape              Param #   
=================================================================
conv1d (Conv1D)              (None, 5000, 1)           3         
_________________________________________________________________
max_pooling1d (MaxPooling1D) (None, 2500, 1)           0         
_________________________________________________________________
conv1d_1 (Conv1D)            (None, 1250, 1)           3         
_________________________________________________________________
max_pooling1d_1 (MaxPooling1 (None, 625, 1)            0         
_________________________________________________________________
flatten (Flatten)            (None, 625)               0         
_________________________________________________________________
dense (Dense)                (None, 1)                 626       
=================================================================
Total params: 632
Trainable params: 632
Non-trainable params: 0
_________________________________________________________________
Summary  None
Red
-0.04124456606991922
Typer KerasRegressor
Hello world
{'HP_NUM_HIDDEN_LAYERS': 3, 'kernel_initializer': 'glorot_uniform', 'pool': 1, 'learning_rate': 0.01, 'filters': 2, 'activation': 'tanh', 'HP_L2_REG': 0.2, 'rate': 0.0, 'HP_OPTIMIZER': 'SGD', 'strides': 2, 'units': 200, 'kernel': 1, 'epochs': 200, 'HP_L1_REG': 0.1}
Blue
Model: "sequential"
_________________________________________________________________
Layer (type)                 Output Shape              Param #   
=================================================================
conv1d (Conv1D)              (None, 5000, 2)           4         
_________________________________________________________________
max_pooling1d (MaxPooling1D) (None, 2500, 2)           0         
_________________________________________________________________
conv1d_1 (Conv1D)            (None, 1250, 2)           6         
_________________________________________________________________
max_pooling1d_1 (MaxPooling1 (None, 625, 2)            0         
_________________________________________________________________
flatten (Flatten)            (None, 1250)              0         
_________________________________________________________________
dense (Dense)                (None, 1)                 1251      
=================================================================
Total params: 1,261
Trainable params: 1,261
Non-trainable params: 0
_________________________________________________________________
Summary  None
Red
-0.06685689427101416
Typer KerasRegressor
Hello world
{'HP_NUM_HIDDEN_LAYERS': 3, 'kernel_initializer': 'glorot_uniform', 'pool': 2, 'learning_rate': 0.001, 'filters': 2, 'activation': 'tanh', 'HP_L2_REG': 0.2, 'rate': 0.0, 'HP_OPTIMIZER': 'SGD', 'strides': 2, 'units': 200, 'kernel': 2, 'epochs': 200, 'HP_L1_REG': 0.1}
Blue
Model: "sequential"
_________________________________________________________________
Layer (type)                 Output Shape              Param #   
=================================================================
conv1d (Conv1D)              (None, 5000, 2)           6         
_________________________________________________________________
max_pooling1d (MaxPooling1D) (None, 2500, 2)           0         
_________________________________________________________________
conv1d_1 (Conv1D)            (None, 1250, 2)           10        
_________________________________________________________________
max_pooling1d_1 (MaxPooling1 (None, 625, 2)            0         
_________________________________________________________________
flatten (Flatten)            (None, 1250)              0         
_________________________________________________________________
dense (Dense)                (None, 1)                 1251      
=================================================================
Total params: 1,267
Trainable params: 1,267
Non-trainable params: 0
_________________________________________________________________
Summary  None
Red
-0.04166177440265373
Typer KerasRegressor
Hello world
{'HP_NUM_HIDDEN_LAYERS': 3, 'kernel_initializer': 'glorot_uniform', 'pool': 1, 'learning_rate': 0.001, 'filters': 1, 'activation': 'tanh', 'HP_L2_REG': 0.2, 'rate': 0.0, 'HP_OPTIMIZER': 'SGD', 'strides': 2, 'units': 200, 'kernel': 2, 'epochs': 200, 'HP_L1_REG': 0.1}
Blue
Model: "sequential"
_________________________________________________________________
Layer (type)                 Output Shape              Param #   
=================================================================
conv1d (Conv1D)              (None, 5000, 1)           3         
_________________________________________________________________
max_pooling1d (MaxPooling1D) (None, 2500, 1)           0         
_________________________________________________________________
conv1d_1 (Conv1D)            (None, 1250, 1)           3         
_________________________________________________________________
max_pooling1d_1 (MaxPooling1 (None, 625, 1)            0         
_________________________________________________________________
flatten (Flatten)            (None, 625)               0         
_________________________________________________________________
dense (Dense)                (None, 1)                 626       
=================================================================
Total params: 632
Trainable params: 632
Non-trainable params: 0
_________________________________________________________________
Summary  None
Red
-0.04298710680190232
Typer KerasRegressor
Hello world
{'HP_NUM_HIDDEN_LAYERS': 3, 'kernel_initializer': 'glorot_uniform', 'pool': 2, 'learning_rate': 0.01, 'filters': 1, 'activation': 'tanh', 'HP_L2_REG': 0.2, 'rate': 0.0, 'HP_OPTIMIZER': 'SGD', 'strides': 1, 'units': 200, 'kernel': 1, 'epochs': 100, 'HP_L1_REG': 0.1}
Blue
Model: "sequential"
_________________________________________________________________
Layer (type)                 Output Shape              Param #   
=================================================================
conv1d (Conv1D)              (None, 10000, 1)          2         
_________________________________________________________________
max_pooling1d (MaxPooling1D) (None, 9999, 1)           0         
_________________________________________________________________
conv1d_1 (Conv1D)            (None, 9999, 1)           2         
_________________________________________________________________
max_pooling1d_1 (MaxPooling1 (None, 9998, 1)           0         
_________________________________________________________________
flatten (Flatten)            (None, 9998)              0         
_________________________________________________________________
dense (Dense)                (None, 1)                 9999      
=================================================================
Total params: 10,003
Trainable params: 10,003
Non-trainable params: 0
_________________________________________________________________
Summary  None
Red
-0.7642836786952587
Typer KerasRegressor
Hello world
{'HP_NUM_HIDDEN_LAYERS': 3, 'kernel_initializer': 'glorot_uniform', 'pool': 1, 'learning_rate': 0.001, 'filters': 1, 'activation': 'tanh', 'HP_L2_REG': 0.2, 'rate': 0.0, 'HP_OPTIMIZER': 'SGD', 'strides': 2, 'units': 200, 'kernel': 2, 'epochs': 100, 'HP_L1_REG': 0.1}
Blue
Model: "sequential"
_________________________________________________________________
Layer (type)                 Output Shape              Param #   
=================================================================
conv1d (Conv1D)              (None, 5000, 1)           3         
_________________________________________________________________
max_pooling1d (MaxPooling1D) (None, 2500, 1)           0         
_________________________________________________________________
conv1d_1 (Conv1D)            (None, 1250, 1)           3         
_________________________________________________________________
max_pooling1d_1 (MaxPooling1 (None, 625, 1)            0         
_________________________________________________________________
flatten (Flatten)            (None, 625)               0         
_________________________________________________________________
dense (Dense)                (None, 1)                 626       
=================================================================
Total params: 632
Trainable params: 632
Non-trainable params: 0
_________________________________________________________________
Summary  None
Red
-0.04499949028549488
Typer KerasRegressor
Hello world
{'HP_NUM_HIDDEN_LAYERS': 3, 'kernel_initializer': 'glorot_uniform', 'pool': 2, 'learning_rate': 0.01, 'filters': 1, 'activation': 'tanh', 'HP_L2_REG': 0.2, 'rate': 0.0, 'HP_OPTIMIZER': 'SGD', 'strides': 1, 'units': 200, 'kernel': 2, 'epochs': 200, 'HP_L1_REG': 0.1}
Blue
Model: "sequential"
_________________________________________________________________
Layer (type)                 Output Shape              Param #   
=================================================================
conv1d (Conv1D)              (None, 9999, 1)           3         
_________________________________________________________________
max_pooling1d (MaxPooling1D) (None, 9998, 1)           0         
_________________________________________________________________
conv1d_1 (Conv1D)            (None, 9997, 1)           3         
_________________________________________________________________
max_pooling1d_1 (MaxPooling1 (None, 9996, 1)           0         
_________________________________________________________________
flatten (Flatten)            (None, 9996)              0         
_________________________________________________________________
dense (Dense)                (None, 1)                 9997      
=================================================================
Total params: 10,003
Trainable params: 10,003
Non-trainable params: 0
_________________________________________________________________
Summary  None
Red
-0.24249568600371596
Typer KerasRegressor
Hello world
{'HP_NUM_HIDDEN_LAYERS': 3, 'kernel_initializer': 'glorot_uniform', 'pool': 2, 'learning_rate': 0.001, 'filters': 2, 'activation': 'tanh', 'HP_L2_REG': 0.2, 'rate': 0.0, 'HP_OPTIMIZER': 'SGD', 'strides': 1, 'units': 200, 'kernel': 2, 'epochs': 200, 'HP_L1_REG': 0.1}
Blue
Model: "sequential"
_________________________________________________________________
Layer (type)                 Output Shape              Param #   
=================================================================
conv1d (Conv1D)              (None, 9999, 2)           6         
_________________________________________________________________
max_pooling1d (MaxPooling1D) (None, 9998, 2)           0         
_________________________________________________________________
conv1d_1 (Conv1D)            (None, 9997, 2)           10        
_________________________________________________________________
max_pooling1d_1 (MaxPooling1 (None, 9996, 2)           0         
_________________________________________________________________
flatten (Flatten)            (None, 19992)             0         
_________________________________________________________________
dense (Dense)                (None, 1)                 19993     
=================================================================
Total params: 20,009
Trainable params: 20,009
Non-trainable params: 0
_________________________________________________________________
Summary  None
Red
0.37901280277801863
Typer KerasRegressor
Hello world
{'HP_NUM_HIDDEN_LAYERS': 3, 'kernel_initializer': 'glorot_uniform', 'pool': 2, 'learning_rate': 0.001, 'filters': 2, 'activation': 'tanh', 'HP_L2_REG': 0.2, 'rate': 0.0, 'HP_OPTIMIZER': 'SGD', 'strides': 2, 'units': 200, 'kernel': 1, 'epochs': 200, 'HP_L1_REG': 0.1}
Blue
Model: "sequential"
_________________________________________________________________
Layer (type)                 Output Shape              Param #   
=================================================================
conv1d (Conv1D)              (None, 5000, 2)           4         
_________________________________________________________________
max_pooling1d (MaxPooling1D) (None, 2500, 2)           0         
_________________________________________________________________
conv1d_1 (Conv1D)            (None, 1250, 2)           6         
_________________________________________________________________
max_pooling1d_1 (MaxPooling1 (None, 625, 2)            0         
_________________________________________________________________
flatten (Flatten)            (None, 1250)              0         
_________________________________________________________________
dense (Dense)                (None, 1)                 1251      
=================================================================
Total params: 1,261
Trainable params: 1,261
Non-trainable params: 0
_________________________________________________________________
Summary  None
Red
-0.044877820332930085
Typer KerasRegressor
Hello world
{'HP_NUM_HIDDEN_LAYERS': 3, 'kernel_initializer': 'glorot_uniform', 'pool': 1, 'learning_rate': 0.001, 'filters': 2, 'activation': 'tanh', 'HP_L2_REG': 0.2, 'rate': 0.0, 'HP_OPTIMIZER': 'SGD', 'strides': 1, 'units': 200, 'kernel': 1, 'epochs': 100, 'HP_L1_REG': 0.1}
Blue
Model: "sequential"
_________________________________________________________________
Layer (type)                 Output Shape              Param #   
=================================================================
conv1d (Conv1D)              (None, 10000, 2)          4         
_________________________________________________________________
max_pooling1d (MaxPooling1D) (None, 10000, 2)          0         
_________________________________________________________________
conv1d_1 (Conv1D)            (None, 10000, 2)          6         
_________________________________________________________________
max_pooling1d_1 (MaxPooling1 (None, 10000, 2)          0         
_________________________________________________________________
flatten (Flatten)            (None, 20000)             0         
_________________________________________________________________
dense (Dense)                (None, 1)                 20001     
=================================================================
Total params: 20,011
Trainable params: 20,011
Non-trainable params: 0
_________________________________________________________________
Summary  None
Red
0.12037719470775754
Typer KerasRegressor
Hello world
{'HP_NUM_HIDDEN_LAYERS': 3, 'kernel_initializer': 'glorot_uniform', 'pool': 1, 'learning_rate': 0.001, 'filters': 2, 'activation': 'tanh', 'HP_L2_REG': 0.2, 'rate': 0.0, 'HP_OPTIMIZER': 'SGD', 'strides': 1, 'units': 200, 'kernel': 2, 'epochs': 200, 'HP_L1_REG': 0.1}
Blue
Model: "sequential"
_________________________________________________________________
Layer (type)                 Output Shape              Param #   
=================================================================
conv1d (Conv1D)              (None, 9999, 2)           6         
_________________________________________________________________
max_pooling1d (MaxPooling1D) (None, 9999, 2)           0         
_________________________________________________________________
conv1d_1 (Conv1D)            (None, 9998, 2)           10        
_________________________________________________________________
max_pooling1d_1 (MaxPooling1 (None, 9998, 2)           0         
_________________________________________________________________
flatten (Flatten)            (None, 19996)             0         
_________________________________________________________________
dense (Dense)                (None, 1)                 19997     
=================================================================
Total params: 20,013
Trainable params: 20,013
Non-trainable params: 0
_________________________________________________________________
Summary  None
Red
-0.10043199848293805
Typer KerasRegressor
Hello world
{'HP_NUM_HIDDEN_LAYERS': 3, 'kernel_initializer': 'glorot_uniform', 'pool': 2, 'learning_rate': 0.01, 'filters': 2, 'activation': 'tanh', 'HP_L2_REG': 0.2, 'rate': 0.0, 'HP_OPTIMIZER': 'SGD', 'strides': 2, 'units': 200, 'kernel': 2, 'epochs': 100, 'HP_L1_REG': 0.1}
Blue
Model: "sequential"
_________________________________________________________________
Layer (type)                 Output Shape              Param #   
=================================================================
conv1d (Conv1D)              (None, 5000, 2)           6         
_________________________________________________________________
max_pooling1d (MaxPooling1D) (None, 2500, 2)           0         
_________________________________________________________________
conv1d_1 (Conv1D)            (None, 1250, 2)           10        
_________________________________________________________________
max_pooling1d_1 (MaxPooling1 (None, 625, 2)            0         
_________________________________________________________________
flatten (Flatten)            (None, 1250)              0         
_________________________________________________________________
dense (Dense)                (None, 1)                 1251      
=================================================================
Total params: 1,267
Trainable params: 1,267
Non-trainable params: 0
_________________________________________________________________
Summary  None
Red
-0.08367828740269911
Typer KerasRegressor
Hello world
{'HP_NUM_HIDDEN_LAYERS': 3, 'kernel_initializer': 'glorot_uniform', 'pool': 1, 'learning_rate': 0.001, 'filters': 2, 'activation': 'tanh', 'HP_L2_REG': 0.2, 'rate': 0.0, 'HP_OPTIMIZER': 'SGD', 'strides': 2, 'units': 200, 'kernel': 1, 'epochs': 100, 'HP_L1_REG': 0.1}
Blue
Model: "sequential"
_________________________________________________________________
Layer (type)                 Output Shape              Param #   
=================================================================
conv1d (Conv1D)              (None, 5000, 2)           4         
_________________________________________________________________
max_pooling1d (MaxPooling1D) (None, 2500, 2)           0         
_________________________________________________________________
conv1d_1 (Conv1D)            (None, 1250, 2)           6         
_________________________________________________________________
max_pooling1d_1 (MaxPooling1 (None, 625, 2)            0         
_________________________________________________________________
flatten (Flatten)            (None, 1250)              0         
_________________________________________________________________
dense (Dense)                (None, 1)                 1251      
=================================================================
Total params: 1,261
Trainable params: 1,261
Non-trainable params: 0
_________________________________________________________________
Summary  None
Red
-0.044401802850217775
Typer KerasRegressor
Hello world
{'HP_NUM_HIDDEN_LAYERS': 3, 'kernel_initializer': 'glorot_uniform', 'pool': 2, 'learning_rate': 0.001, 'filters': 1, 'activation': 'tanh', 'HP_L2_REG': 0.2, 'rate': 0.0, 'HP_OPTIMIZER': 'SGD', 'strides': 1, 'units': 200, 'kernel': 1, 'epochs': 200, 'HP_L1_REG': 0.1}
Blue
Model: "sequential"
_________________________________________________________________
Layer (type)                 Output Shape              Param #   
=================================================================
conv1d (Conv1D)              (None, 10000, 1)          2         
_________________________________________________________________
max_pooling1d (MaxPooling1D) (None, 9999, 1)           0         
_________________________________________________________________
conv1d_1 (Conv1D)            (None, 9999, 1)           2         
_________________________________________________________________
max_pooling1d_1 (MaxPooling1 (None, 9998, 1)           0         
_________________________________________________________________
flatten (Flatten)            (None, 9998)              0         
_________________________________________________________________
dense (Dense)                (None, 1)                 9999      
=================================================================
Total params: 10,003
Trainable params: 10,003
Non-trainable params: 0
_________________________________________________________________
Summary  None
Red
-0.013911278245800407
Typer KerasRegressor
Hello world
{'HP_NUM_HIDDEN_LAYERS': 3, 'kernel_initializer': 'glorot_uniform', 'pool': 2, 'learning_rate': 0.01, 'filters': 1, 'activation': 'tanh', 'HP_L2_REG': 0.2, 'rate': 0.0, 'HP_OPTIMIZER': 'SGD', 'strides': 2, 'units': 200, 'kernel': 1, 'epochs': 200, 'HP_L1_REG': 0.1}
Blue
Model: "sequential"
_________________________________________________________________
Layer (type)                 Output Shape              Param #   
=================================================================
conv1d (Conv1D)              (None, 5000, 1)           2         
_________________________________________________________________
max_pooling1d (MaxPooling1D) (None, 2500, 1)           0         
_________________________________________________________________
conv1d_1 (Conv1D)            (None, 1250, 1)           2         
_________________________________________________________________
max_pooling1d_1 (MaxPooling1 (None, 625, 1)            0         
_________________________________________________________________
flatten (Flatten)            (None, 625)               0         
_________________________________________________________________
dense (Dense)                (None, 1)                 626       
=================================================================
Total params: 630
Trainable params: 630
Non-trainable params: 0
_________________________________________________________________
Summary  None
Red
-0.02650444355533743
Typer KerasRegressor
Hello world
{'HP_NUM_HIDDEN_LAYERS': 3, 'kernel_initializer': 'glorot_uniform', 'pool': 2, 'learning_rate': 0.01, 'filters': 1, 'activation': 'tanh', 'HP_L2_REG': 0.2, 'rate': 0.0, 'HP_OPTIMIZER': 'SGD', 'strides': 2, 'units': 200, 'kernel': 2, 'epochs': 100, 'HP_L1_REG': 0.1}
Blue
Model: "sequential"
_________________________________________________________________
Layer (type)                 Output Shape              Param #   
=================================================================
conv1d (Conv1D)              (None, 5000, 1)           3         
_________________________________________________________________
max_pooling1d (MaxPooling1D) (None, 2500, 1)           0         
_________________________________________________________________
conv1d_1 (Conv1D)            (None, 1250, 1)           3         
_________________________________________________________________
max_pooling1d_1 (MaxPooling1 (None, 625, 1)            0         
_________________________________________________________________
flatten (Flatten)            (None, 625)               0         
_________________________________________________________________
dense (Dense)                (None, 1)                 626       
=================================================================
Total params: 632
Trainable params: 632
Non-trainable params: 0
_________________________________________________________________
Summary  None
Red
-0.037016953311486356
Typer KerasRegressor
Hello world
{'HP_NUM_HIDDEN_LAYERS': 3, 'kernel_initializer': 'glorot_uniform', 'pool': 1, 'learning_rate': 0.001, 'filters': 2, 'activation': 'tanh', 'HP_L2_REG': 0.2, 'rate': 0.0, 'HP_OPTIMIZER': 'SGD', 'strides': 2, 'units': 200, 'kernel': 2, 'epochs': 200, 'HP_L1_REG': 0.1}
Blue
Model: "sequential"
_________________________________________________________________
Layer (type)                 Output Shape              Param #   
=================================================================
conv1d (Conv1D)              (None, 5000, 2)           6         
_________________________________________________________________
max_pooling1d (MaxPooling1D) (None, 2500, 2)           0         
_________________________________________________________________
conv1d_1 (Conv1D)            (None, 1250, 2)           10        
_________________________________________________________________
max_pooling1d_1 (MaxPooling1 (None, 625, 2)            0         
_________________________________________________________________
flatten (Flatten)            (None, 1250)              0         
_________________________________________________________________
dense (Dense)                (None, 1)                 1251      
=================================================================
Total params: 1,267
Trainable params: 1,267
Non-trainable params: 0
_________________________________________________________________
Summary  None
Red
-0.04883786094391951
Typer KerasRegressor
Hello world
{'HP_NUM_HIDDEN_LAYERS': 3, 'kernel_initializer': 'glorot_uniform', 'pool': 1, 'learning_rate': 0.001, 'filters': 2, 'activation': 'tanh', 'HP_L2_REG': 0.2, 'rate': 0.0, 'HP_OPTIMIZER': 'SGD', 'strides': 2, 'units': 200, 'kernel': 1, 'epochs': 200, 'HP_L1_REG': 0.1}
Blue
Model: "sequential"
_________________________________________________________________
Layer (type)                 Output Shape              Param #   
=================================================================
conv1d (Conv1D)              (None, 5000, 2)           4         
_________________________________________________________________
max_pooling1d (MaxPooling1D) (None, 2500, 2)           0         
_________________________________________________________________
conv1d_1 (Conv1D)            (None, 1250, 2)           6         
_________________________________________________________________
max_pooling1d_1 (MaxPooling1 (None, 625, 2)            0         
_________________________________________________________________
flatten (Flatten)            (None, 1250)              0         
_________________________________________________________________
dense (Dense)                (None, 1)                 1251      
=================================================================
Total params: 1,261
Trainable params: 1,261
Non-trainable params: 0
_________________________________________________________________
Summary  None
Red
-0.04106225524143503
Typer KerasRegressor
Hello world
{'HP_NUM_HIDDEN_LAYERS': 3, 'kernel_initializer': 'glorot_uniform', 'pool': 2, 'learning_rate': 0.01, 'filters': 2, 'activation': 'tanh', 'HP_L2_REG': 0.2, 'rate': 0.0, 'HP_OPTIMIZER': 'SGD', 'strides': 2, 'units': 200, 'kernel': 1, 'epochs': 100, 'HP_L1_REG': 0.1}
Blue
Model: "sequential"
_________________________________________________________________
Layer (type)                 Output Shape              Param #   
=================================================================
conv1d (Conv1D)              (None, 5000, 2)           4         
_________________________________________________________________
max_pooling1d (MaxPooling1D) (None, 2500, 2)           0         
_________________________________________________________________
conv1d_1 (Conv1D)            (None, 1250, 2)           6         
_________________________________________________________________
max_pooling1d_1 (MaxPooling1 (None, 625, 2)            0         
_________________________________________________________________
flatten (Flatten)            (None, 1250)              0         
_________________________________________________________________
dense (Dense)                (None, 1)                 1251      
=================================================================
Total params: 1,261
Trainable params: 1,261
Non-trainable params: 0
_________________________________________________________________
Summary  None
Red
-0.10042174094426493
Typer KerasRegressor
Hello world
{'HP_NUM_HIDDEN_LAYERS': 3, 'kernel_initializer': 'glorot_uniform', 'pool': 2, 'learning_rate': 0.01, 'filters': 2, 'activation': 'tanh', 'HP_L2_REG': 0.2, 'rate': 0.0, 'HP_OPTIMIZER': 'SGD', 'strides': 1, 'units': 200, 'kernel': 1, 'epochs': 100, 'HP_L1_REG': 0.1}
Blue
Model: "sequential"
_________________________________________________________________
Layer (type)                 Output Shape              Param #   
=================================================================
conv1d (Conv1D)              (None, 10000, 2)          4         
_________________________________________________________________
max_pooling1d (MaxPooling1D) (None, 9999, 2)           0         
_________________________________________________________________
conv1d_1 (Conv1D)            (None, 9999, 2)           6         
_________________________________________________________________
max_pooling1d_1 (MaxPooling1 (None, 9998, 2)           0         
_________________________________________________________________
flatten (Flatten)            (None, 19996)             0         
_________________________________________________________________
dense (Dense)                (None, 1)                 19997     
=================================================================
Total params: 20,007
Trainable params: 20,007
Non-trainable params: 0
_________________________________________________________________
Summary  None
Red
0.43414305413719734
Typer KerasRegressor
Hello world
{'HP_NUM_HIDDEN_LAYERS': 3, 'kernel_initializer': 'glorot_uniform', 'pool': 1, 'learning_rate': 0.01, 'filters': 2, 'activation': 'tanh', 'HP_L2_REG': 0.2, 'rate': 0.0, 'HP_OPTIMIZER': 'SGD', 'strides': 2, 'units': 200, 'kernel': 2, 'epochs': 200, 'HP_L1_REG': 0.1}
Blue
Model: "sequential"
_________________________________________________________________
Layer (type)                 Output Shape              Param #   
=================================================================
conv1d (Conv1D)              (None, 5000, 2)           6         
_________________________________________________________________
max_pooling1d (MaxPooling1D) (None, 2500, 2)           0         
_________________________________________________________________
conv1d_1 (Conv1D)            (None, 1250, 2)           10        
_________________________________________________________________
max_pooling1d_1 (MaxPooling1 (None, 625, 2)            0         
_________________________________________________________________
flatten (Flatten)            (None, 1250)              0         
_________________________________________________________________
dense (Dense)                (None, 1)                 1251      
=================================================================
Total params: 1,267
Trainable params: 1,267
Non-trainable params: 0
_________________________________________________________________
Summary  None
Red
-0.030963840172511414
Typer KerasRegressor
Hello world
{'HP_NUM_HIDDEN_LAYERS': 3, 'kernel_initializer': 'glorot_uniform', 'pool': 1, 'learning_rate': 0.001, 'filters': 1, 'activation': 'tanh', 'HP_L2_REG': 0.2, 'rate': 0.0, 'HP_OPTIMIZER': 'SGD', 'strides': 2, 'units': 200, 'kernel': 1, 'epochs': 200, 'HP_L1_REG': 0.1}
Blue
Model: "sequential"
_________________________________________________________________
Layer (type)                 Output Shape              Param #   
=================================================================
conv1d (Conv1D)              (None, 5000, 1)           2         
_________________________________________________________________
max_pooling1d (MaxPooling1D) (None, 2500, 1)           0         
_________________________________________________________________
conv1d_1 (Conv1D)            (None, 1250, 1)           2         
_________________________________________________________________
max_pooling1d_1 (MaxPooling1 (None, 625, 1)            0         
_________________________________________________________________
flatten (Flatten)            (None, 625)               0         
_________________________________________________________________
dense (Dense)                (None, 1)                 626       
=================================================================
Total params: 630
Trainable params: 630
Non-trainable params: 0
_________________________________________________________________
Summary  None
Red
-0.044422332947702925
Typer KerasRegressor
Hello world
{'HP_NUM_HIDDEN_LAYERS': 3, 'kernel_initializer': 'glorot_uniform', 'pool': 2, 'learning_rate': 0.001, 'filters': 2, 'activation': 'tanh', 'HP_L2_REG': 0.2, 'rate': 0.0, 'HP_OPTIMIZER': 'SGD', 'strides': 1, 'units': 200, 'kernel': 1, 'epochs': 200, 'HP_L1_REG': 0.1}
Blue
Model: "sequential"
_________________________________________________________________
Layer (type)                 Output Shape              Param #   
=================================================================
conv1d (Conv1D)              (None, 10000, 2)          4         
_________________________________________________________________
max_pooling1d (MaxPooling1D) (None, 9999, 2)           0         
_________________________________________________________________
conv1d_1 (Conv1D)            (None, 9999, 2)           6         
_________________________________________________________________
max_pooling1d_1 (MaxPooling1 (None, 9998, 2)           0         
_________________________________________________________________
flatten (Flatten)            (None, 19996)             0         
_________________________________________________________________
dense (Dense)                (None, 1)                 19997     
=================================================================
Total params: 20,007
Trainable params: 20,007
Non-trainable params: 0
_________________________________________________________________
Summary  None
Red
-0.043587156847832764
Typer KerasRegressor
Hello world
{'HP_NUM_HIDDEN_LAYERS': 3, 'kernel_initializer': 'glorot_uniform', 'pool': 2, 'learning_rate': 0.01, 'filters': 1, 'activation': 'tanh', 'HP_L2_REG': 0.2, 'rate': 0.0, 'HP_OPTIMIZER': 'SGD', 'strides': 1, 'units': 200, 'kernel': 2, 'epochs': 100, 'HP_L1_REG': 0.1}
Blue
Model: "sequential"
_________________________________________________________________
Layer (type)                 Output Shape              Param #   
=================================================================
conv1d (Conv1D)              (None, 9999, 1)           3         
_________________________________________________________________
max_pooling1d (MaxPooling1D) (None, 9998, 1)           0         
_________________________________________________________________
conv1d_1 (Conv1D)            (None, 9997, 1)           3         
_________________________________________________________________
max_pooling1d_1 (MaxPooling1 (None, 9996, 1)           0         
_________________________________________________________________
flatten (Flatten)            (None, 9996)              0         
_________________________________________________________________
dense (Dense)                (None, 1)                 9997      
=================================================================
Total params: 10,003
Trainable params: 10,003
Non-trainable params: 0
_________________________________________________________________
Summary  None
Red
-0.023360715609065164
Typer KerasRegressor
Hello world
{'HP_NUM_HIDDEN_LAYERS': 3, 'kernel_initializer': 'glorot_uniform', 'pool': 2, 'learning_rate': 0.01, 'filters': 2, 'activation': 'tanh', 'HP_L2_REG': 0.2, 'rate': 0.0, 'HP_OPTIMIZER': 'SGD', 'strides': 1, 'units': 200, 'kernel': 1, 'epochs': 200, 'HP_L1_REG': 0.1}
Blue
Model: "sequential"
_________________________________________________________________
Layer (type)                 Output Shape              Param #   
=================================================================
conv1d (Conv1D)              (None, 10000, 2)          4         
_________________________________________________________________
max_pooling1d (MaxPooling1D) (None, 9999, 2)           0         
_________________________________________________________________
conv1d_1 (Conv1D)            (None, 9999, 2)           6         
_________________________________________________________________
max_pooling1d_1 (MaxPooling1 (None, 9998, 2)           0         
_________________________________________________________________
flatten (Flatten)            (None, 19996)             0         
_________________________________________________________________
dense (Dense)                (None, 1)                 19997     
=================================================================
Total params: 20,007
Trainable params: 20,007
Non-trainable params: 0
_________________________________________________________________
Summary  None
Red
-0.01702859097902043
Typer KerasRegressor
Hello world
{'HP_NUM_HIDDEN_LAYERS': 3, 'kernel_initializer': 'glorot_uniform', 'pool': 1, 'learning_rate': 0.001, 'filters': 1, 'activation': 'tanh', 'HP_L2_REG': 0.2, 'rate': 0.0, 'HP_OPTIMIZER': 'SGD', 'strides': 2, 'units': 200, 'kernel': 1, 'epochs': 100, 'HP_L1_REG': 0.1}
Blue
Model: "sequential"
_________________________________________________________________
Layer (type)                 Output Shape              Param #   
=================================================================
conv1d (Conv1D)              (None, 5000, 1)           2         
_________________________________________________________________
max_pooling1d (MaxPooling1D) (None, 2500, 1)           0         
_________________________________________________________________
conv1d_1 (Conv1D)            (None, 1250, 1)           2         
_________________________________________________________________
max_pooling1d_1 (MaxPooling1 (None, 625, 1)            0         
_________________________________________________________________
flatten (Flatten)            (None, 625)               0         
_________________________________________________________________
dense (Dense)                (None, 1)                 626       
=================================================================
Total params: 630
Trainable params: 630
Non-trainable params: 0
_________________________________________________________________
Summary  None
Red
-0.0436608847973321
Typer KerasRegressor
Hello world
{'HP_NUM_HIDDEN_LAYERS': 3, 'kernel_initializer': 'glorot_uniform', 'pool': 2, 'learning_rate': 0.001, 'filters': 2, 'activation': 'tanh', 'HP_L2_REG': 0.2, 'rate': 0.0, 'HP_OPTIMIZER': 'SGD', 'strides': 1, 'units': 200, 'kernel': 2, 'epochs': 100, 'HP_L1_REG': 0.1}
Blue
Model: "sequential"
_________________________________________________________________
Layer (type)                 Output Shape              Param #   
=================================================================
conv1d (Conv1D)              (None, 9999, 2)           6         
_________________________________________________________________
max_pooling1d (MaxPooling1D) (None, 9998, 2)           0         
_________________________________________________________________
conv1d_1 (Conv1D)            (None, 9997, 2)           10        
_________________________________________________________________
max_pooling1d_1 (MaxPooling1 (None, 9996, 2)           0         
_________________________________________________________________
flatten (Flatten)            (None, 19992)             0         
_________________________________________________________________
dense (Dense)                (None, 1)                 19993     
=================================================================
Total params: 20,009
Trainable params: 20,009
Non-trainable params: 0
_________________________________________________________________
Summary  None
Red
0.0031568210917785056
Typer KerasRegressor
Hello world
{'HP_NUM_HIDDEN_LAYERS': 3, 'kernel_initializer': 'glorot_uniform', 'pool': 1, 'learning_rate': 0.01, 'filters': 2, 'activation': 'tanh', 'HP_L2_REG': 0.2, 'rate': 0.0, 'HP_OPTIMIZER': 'SGD', 'strides': 2, 'units': 200, 'kernel': 2, 'epochs': 100, 'HP_L1_REG': 0.1}
Blue
Model: "sequential"
_________________________________________________________________
Layer (type)                 Output Shape              Param #   
=================================================================
conv1d (Conv1D)              (None, 5000, 2)           6         
_________________________________________________________________
max_pooling1d (MaxPooling1D) (None, 2500, 2)           0         
_________________________________________________________________
conv1d_1 (Conv1D)            (None, 1250, 2)           10        
_________________________________________________________________
max_pooling1d_1 (MaxPooling1 (None, 625, 2)            0         
_________________________________________________________________
flatten (Flatten)            (None, 1250)              0         
_________________________________________________________________
dense (Dense)                (None, 1)                 1251      
=================================================================
Total params: 1,267
Trainable params: 1,267
Non-trainable params: 0
_________________________________________________________________
Summary  None
Red
-0.02434301237913683
Typer KerasRegressor
Hello world
{'HP_NUM_HIDDEN_LAYERS': 3, 'kernel_initializer': 'glorot_uniform', 'pool': 2, 'learning_rate': 0.001, 'filters': 1, 'activation': 'tanh', 'HP_L2_REG': 0.2, 'rate': 0.0, 'HP_OPTIMIZER': 'SGD', 'strides': 1, 'units': 200, 'kernel': 1, 'epochs': 100, 'HP_L1_REG': 0.1}
Blue
Model: "sequential"
_________________________________________________________________
Layer (type)                 Output Shape              Param #   
=================================================================
conv1d (Conv1D)              (None, 10000, 1)          2         
_________________________________________________________________
max_pooling1d (MaxPooling1D) (None, 9999, 1)           0         
_________________________________________________________________
conv1d_1 (Conv1D)            (None, 9999, 1)           2         
_________________________________________________________________
max_pooling1d_1 (MaxPooling1 (None, 9998, 1)           0         
_________________________________________________________________
flatten (Flatten)            (None, 9998)              0         
_________________________________________________________________
dense (Dense)                (None, 1)                 9999      
=================================================================
Total params: 10,003
Trainable params: 10,003
Non-trainable params: 0
_________________________________________________________________
Summary  None
Red
-0.024067881226906174
Typer KerasRegressor
Hello world
{'HP_NUM_HIDDEN_LAYERS': 3, 'kernel_initializer': 'glorot_uniform', 'pool': 1, 'learning_rate': 0.01, 'filters': 1, 'activation': 'tanh', 'HP_L2_REG': 0.2, 'rate': 0.0, 'HP_OPTIMIZER': 'SGD', 'strides': 1, 'units': 200, 'kernel': 2, 'epochs': 200, 'HP_L1_REG': 0.1}
Blue
Model: "sequential"
_________________________________________________________________
Layer (type)                 Output Shape              Param #   
=================================================================
conv1d (Conv1D)              (None, 9999, 1)           3         
_________________________________________________________________
max_pooling1d (MaxPooling1D) (None, 9999, 1)           0         
_________________________________________________________________
conv1d_1 (Conv1D)            (None, 9998, 1)           3         
_________________________________________________________________
max_pooling1d_1 (MaxPooling1 (None, 9998, 1)           0         
_________________________________________________________________
flatten (Flatten)            (None, 9998)              0         
_________________________________________________________________
dense (Dense)                (None, 1)                 9999      
=================================================================
Total params: 10,005
Trainable params: 10,005
Non-trainable params: 0
_________________________________________________________________
Summary  None
Red
-0.0014022901054850934
Typer KerasRegressor
Hello world
OUTER COUNT NO.  4
champ
(766, 10000)
Model: "sequential"
_________________________________________________________________
Layer (type)                 Output Shape              Param #   
=================================================================
conv1d (Conv1D)              (None, 9999, 2)           6         
_________________________________________________________________
max_pooling1d (MaxPooling1D) (None, 9999, 2)           0         
_________________________________________________________________
conv1d_1 (Conv1D)            (None, 9998, 2)           10        
_________________________________________________________________
max_pooling1d_1 (MaxPooling1 (None, 9998, 2)           0         
_________________________________________________________________
flatten (Flatten)            (None, 19996)             0         
_________________________________________________________________
dense (Dense)                (None, 1)                 19997     
=================================================================
Total params: 20,013
Trainable params: 20,013
Non-trainable params: 0
_________________________________________________________________
Summary  None
-0.5849232441388359
Best Params of CNN is {'HP_NUM_HIDDEN_LAYERS': [3], 'kernel_initializer': ['glorot_uniform'], 'pool': [1, 2], 'rate': [0.0], 'activation': ['tanh'], 'HP_L2_REG': [0.2], 'filters': [2, 1], 'learning_rate': [0.01], 'epochs': [200, 100], 'strides': [1], 'units': [200], 'kernel': [1, 2], 'HP_OPTIMIZER': ['SGD'], 'HP_L1_REG': [0.1]} 
…
