…
2021-11-01 22:55:51.733532: I tensorflow/core/platform/profile_utils/cpu_utils.cc:94] CPU Frequency: 2200045000 Hz
2021-11-01 22:55:51.739589: I tensorflow/compiler/xla/service/service.cc:168] XLA service 0xa69d5d0 executing computations on platform Host. Devices:
2021-11-01 22:55:51.739656: I tensorflow/compiler/xla/service/service.cc:175]   StreamExecutor device (0): <undefined>, <undefined>
Model: "sequential"
_________________________________________________________________
Layer (type)                 Output Shape              Param #   
=================================================================
dense (Dense)                (None, 400)               4000000   
_________________________________________________________________
dropout (Dropout)            (None, 400)               0         
_________________________________________________________________
dense_1 (Dense)              (None, 400)               160400    
_________________________________________________________________
dropout_1 (Dropout)          (None, 400)               0         
_________________________________________________________________
dense_2 (Dense)              (None, 400)               160400    
_________________________________________________________________
dropout_2 (Dropout)          (None, 400)               0         
_________________________________________________________________
dense_3 (Dense)              (None, 400)               160400    
_________________________________________________________________
dropout_3 (Dropout)          (None, 400)               0         
_________________________________________________________________
dense_4 (Dense)              (None, 1)                 401       
=================================================================
Total params: 4,481,601
Trainable params: 4,481,601
Non-trainable params: 0
_________________________________________________________________
None
2021-11-01 22:55:53.771218: W tensorflow/compiler/jit/mark_for_compilation_pass.cc:1483] (One-time warning): Not using XLA:CPU for cluster because envvar TF_XLA_FLAGS=--tf_xla_cpu_global_jit was not set.  If you want XLA:CPU, either set that envvar, or use experimental_jit_scope to enable XLA:CPU.  To confirm that XLA is active, pass --vmodule=xla_compilation_cache=1 (as a proper command-line flag, not via TF_XLA_FLAGS) or set the envvar XLA_FLAGS=--xla_hlo_profile.
Red
0.5790409041792681
Typer KerasRegressor
Hello world
{'HP_L1_REG': 0.001, 'learning_rate': 0.0001, 'kernel_initializer': 'glorot_uniform', 'rate': 0.0, 'units': 1000, 'HP_NUM_HIDDEN_LAYERS': 2, 'HP_L2_REG': 0.0001, 'activation': 'relu', 'HP_OPTIMIZER': 'Adam'}
Blue
Model: "sequential"
_________________________________________________________________
Layer (type)                 Output Shape              Param #   
=================================================================
dense (Dense)                (None, 1000)              10000000  
_________________________________________________________________
dense_1 (Dense)              (None, 1000)              1001000   
_________________________________________________________________
dense_2 (Dense)              (None, 1)                 1001      
=================================================================
Total params: 11,002,001
Trainable params: 11,002,001
Non-trainable params: 0
_________________________________________________________________
None
Red
0.6614284381423564
Typer KerasRegressor
Hello world
{'HP_L1_REG': 0.1, 'learning_rate': 0.01, 'kernel_initializer': 'glorot_uniform', 'rate': 0.2, 'units': 400, 'HP_NUM_HIDDEN_LAYERS': 2, 'HP_L2_REG': 0.0001, 'activation': 'tanh', 'HP_OPTIMIZER': 'SGD'}
Blue
Model: "sequential"
_________________________________________________________________
Layer (type)                 Output Shape              Param #   
=================================================================
dense (Dense)                (None, 400)               4000000   
_________________________________________________________________
dropout (Dropout)            (None, 400)               0         
_________________________________________________________________
dense_1 (Dense)              (None, 400)               160400    
_________________________________________________________________
dropout_1 (Dropout)          (None, 400)               0         
_________________________________________________________________
dense_2 (Dense)              (None, 1)                 401       
=================================================================
Total params: 4,160,801
Trainable params: 4,160,801
Non-trainable params: 0
_________________________________________________________________
None
Red
-0.013585760150392812
Typer KerasRegressor
Hello world
{'HP_L1_REG': 0.001, 'learning_rate': 1e-05, 'kernel_initializer': 'glorot_uniform', 'rate': 0.1, 'units': 200, 'HP_NUM_HIDDEN_LAYERS': 3, 'HP_L2_REG': 1e-08, 'activation': 'relu', 'HP_OPTIMIZER': 'Adam'}
Blue
Model: "sequential"
_________________________________________________________________
Layer (type)                 Output Shape              Param #   
=================================================================
dense (Dense)                (None, 200)               2000000   
_________________________________________________________________
dropout (Dropout)            (None, 200)               0         
_________________________________________________________________
dense_1 (Dense)              (None, 200)               40200     
_________________________________________________________________
dropout_1 (Dropout)          (None, 200)               0         
_________________________________________________________________
dense_2 (Dense)              (None, 200)               40200     
_________________________________________________________________
dropout_2 (Dropout)          (None, 200)               0         
_________________________________________________________________
dense_3 (Dense)              (None, 1)                 201       
=================================================================
Total params: 2,080,601
Trainable params: 2,080,601
Non-trainable params: 0
_________________________________________________________________
None
Red
0.6511040698035621
Typer KerasRegressor
Hello world
{'HP_L1_REG': 0.01, 'learning_rate': 0.0001, 'kernel_initializer': 'glorot_uniform', 'rate': 0.2, 'units': 200, 'HP_NUM_HIDDEN_LAYERS': 2, 'HP_L2_REG': 0.0001, 'activation': 'relu', 'HP_OPTIMIZER': 'SGD'}
Blue
Model: "sequential"
_________________________________________________________________
Layer (type)                 Output Shape              Param #   
=================================================================
dense (Dense)                (None, 200)               2000000   
_________________________________________________________________
dropout (Dropout)            (None, 200)               0         
_________________________________________________________________
dense_1 (Dense)              (None, 200)               40200     
_________________________________________________________________
dropout_1 (Dropout)          (None, 200)               0         
_________________________________________________________________
dense_2 (Dense)              (None, 1)                 201       
=================================================================
Total params: 2,040,401
Trainable params: 2,040,401
Non-trainable params: 0
_________________________________________________________________
None
Red
0.5511045922451311
Typer KerasRegressor
Hello world
{'HP_L1_REG': 0.0001, 'learning_rate': 0.0001, 'kernel_initializer': 'glorot_uniform', 'rate': 0.1, 'units': 1000, 'HP_NUM_HIDDEN_LAYERS': 3, 'HP_L2_REG': 0.01, 'activation': 'relu', 'HP_OPTIMIZER': 'Adam'}
Blue
Model: "sequential"
_________________________________________________________________
Layer (type)                 Output Shape              Param #   
=================================================================
dense (Dense)                (None, 1000)              10000000  
_________________________________________________________________
dropout (Dropout)            (None, 1000)              0         
_________________________________________________________________
dense_1 (Dense)              (None, 1000)              1001000   
_________________________________________________________________
dropout_1 (Dropout)          (None, 1000)              0         
_________________________________________________________________
dense_2 (Dense)              (None, 1000)              1001000   
_________________________________________________________________
dropout_2 (Dropout)          (None, 1000)              0         
_________________________________________________________________
dense_3 (Dense)              (None, 1)                 1001      
=================================================================
Total params: 12,003,001
Trainable params: 12,003,001
Non-trainable params: 0
_________________________________________________________________
None
Red
0.6598509962292753
Typer KerasRegressor
Hello world
{'HP_L1_REG': 0.01, 'learning_rate': 1e-05, 'kernel_initializer': 'glorot_uniform', 'rate': 0.5, 'units': 1000, 'HP_NUM_HIDDEN_LAYERS': 4, 'HP_L2_REG': 0.2, 'activation': 'relu', 'HP_OPTIMIZER': 'SGD'}
Blue
Model: "sequential"
_________________________________________________________________
Layer (type)                 Output Shape              Param #   
=================================================================
dense (Dense)                (None, 1000)              10000000  
_________________________________________________________________
dropout (Dropout)            (None, 1000)              0         
_________________________________________________________________
dense_1 (Dense)              (None, 1000)              1001000   
_________________________________________________________________
dropout_1 (Dropout)          (None, 1000)              0         
_________________________________________________________________
dense_2 (Dense)              (None, 1000)              1001000   
_________________________________________________________________
dropout_2 (Dropout)          (None, 1000)              0         
_________________________________________________________________
dense_3 (Dense)              (None, 1000)              1001000   
_________________________________________________________________
dropout_3 (Dropout)          (None, 1000)              0         
_________________________________________________________________
dense_4 (Dense)              (None, 1)                 1001      
=================================================================
Total params: 13,004,001
Trainable params: 13,004,001
Non-trainable params: 0
_________________________________________________________________
None
Red
-8.018312426601197
Typer KerasRegressor
Hello world
{'HP_L1_REG': 0.001, 'learning_rate': 0.0001, 'kernel_initializer': 'glorot_uniform', 'rate': 0.5, 'units': 200, 'HP_NUM_HIDDEN_LAYERS': 3, 'HP_L2_REG': 0.0001, 'activation': 'tanh', 'HP_OPTIMIZER': 'Adam'}
Blue
Model: "sequential"
_________________________________________________________________
Layer (type)                 Output Shape              Param #   
=================================================================
dense (Dense)                (None, 200)               2000000   
_________________________________________________________________
dropout (Dropout)            (None, 200)               0         
_________________________________________________________________
dense_1 (Dense)              (None, 200)               40200     
_________________________________________________________________
dropout_1 (Dropout)          (None, 200)               0         
_________________________________________________________________
dense_2 (Dense)              (None, 200)               40200     
_________________________________________________________________
dropout_2 (Dropout)          (None, 200)               0         
_________________________________________________________________
dense_3 (Dense)              (None, 1)                 201       
=================================================================
Total params: 2,080,601
Trainable params: 2,080,601
Non-trainable params: 0
_________________________________________________________________
None
Red
-0.7667522269565477
Typer KerasRegressor
Hello world
{'HP_L1_REG': 0.001, 'learning_rate': 1e-05, 'kernel_initializer': 'glorot_uniform', 'rate': 0.0, 'units': 400, 'HP_NUM_HIDDEN_LAYERS': 2, 'HP_L2_REG': 0.2, 'activation': 'tanh', 'HP_OPTIMIZER': 'Adagrad'}
Blue
Model: "sequential"
_________________________________________________________________
Layer (type)                 Output Shape              Param #   
=================================================================
dense (Dense)                (None, 400)               4000000   
_________________________________________________________________
dense_1 (Dense)              (None, 400)               160400    
_________________________________________________________________
dense_2 (Dense)              (None, 1)                 401       
=================================================================
Total params: 4,160,801
Trainable params: 4,160,801
Non-trainable params: 0
_________________________________________________________________
None
Red
-6.149336426153831
Typer KerasRegressor
Hello world
{'HP_L1_REG': 0.0001, 'learning_rate': 0.001, 'kernel_initializer': 'glorot_uniform', 'rate': 0.2, 'units': 200, 'HP_NUM_HIDDEN_LAYERS': 5, 'HP_L2_REG': 0.0001, 'activation': 'relu', 'HP_OPTIMIZER': 'SGD'}
Blue
Model: "sequential"
_________________________________________________________________
Layer (type)                 Output Shape              Param #   
=================================================================
dense (Dense)                (None, 200)               2000000   
_________________________________________________________________
dropout (Dropout)            (None, 200)               0         
_________________________________________________________________
dense_1 (Dense)              (None, 200)               40200     
_________________________________________________________________
dropout_1 (Dropout)          (None, 200)               0         
_________________________________________________________________
dense_2 (Dense)              (None, 200)               40200     
_________________________________________________________________
dropout_2 (Dropout)          (None, 200)               0         
_________________________________________________________________
dense_3 (Dense)              (None, 200)               40200     
_________________________________________________________________
dropout_3 (Dropout)          (None, 200)               0         
_________________________________________________________________
dense_4 (Dense)              (None, 200)               40200     
_________________________________________________________________
dropout_4 (Dropout)          (None, 200)               0         
_________________________________________________________________
dense_5 (Dense)              (None, 1)                 201       
=================================================================
Total params: 2,161,001
Trainable params: 2,161,001
Non-trainable params: 0
_________________________________________________________________
None
Red
0.6198726154211388
Typer KerasRegressor
Hello world
{'HP_L1_REG': 0.01, 'learning_rate': 1e-05, 'kernel_initializer': 'glorot_uniform', 'rate': 0.0, 'units': 200, 'HP_NUM_HIDDEN_LAYERS': 3, 'HP_L2_REG': 0.0001, 'activation': 'relu', 'HP_OPTIMIZER': 'SGD'}
Blue
Model: "sequential"
_________________________________________________________________
Layer (type)                 Output Shape              Param #   
=================================================================
dense (Dense)                (None, 200)               2000000   
_________________________________________________________________
dense_1 (Dense)              (None, 200)               40200     
_________________________________________________________________
dense_2 (Dense)              (None, 200)               40200     
_________________________________________________________________
dense_3 (Dense)              (None, 1)                 201       
=================================================================
Total params: 2,080,601
Trainable params: 2,080,601
Non-trainable params: 0
_________________________________________________________________
None
Red
-8.310226890970554
Typer KerasRegressor
Hello world
{'HP_L1_REG': 0.0001, 'learning_rate': 1e-05, 'kernel_initializer': 'glorot_uniform', 'rate': 0.2, 'units': 1000, 'HP_NUM_HIDDEN_LAYERS': 3, 'HP_L2_REG': 0.2, 'activation': 'relu', 'HP_OPTIMIZER': 'Adagrad'}
Blue
Model: "sequential"
_________________________________________________________________
Layer (type)                 Output Shape              Param #   
=================================================================
dense (Dense)                (None, 1000)              10000000  
_________________________________________________________________
dropout (Dropout)            (None, 1000)              0         
_________________________________________________________________
dense_1 (Dense)              (None, 1000)              1001000   
_________________________________________________________________
dropout_1 (Dropout)          (None, 1000)              0         
_________________________________________________________________
dense_2 (Dense)              (None, 1000)              1001000   
_________________________________________________________________
dropout_2 (Dropout)          (None, 1000)              0         
_________________________________________________________________
dense_3 (Dense)              (None, 1)                 1001      
=================================================================
Total params: 12,003,001
Trainable params: 12,003,001
Non-trainable params: 0
_________________________________________________________________
None
Red
-7.288388264749464
Typer KerasRegressor
Hello world
{'HP_L1_REG': 0.001, 'learning_rate': 0.01, 'kernel_initializer': 'glorot_uniform', 'rate': 0.1, 'units': 400, 'HP_NUM_HIDDEN_LAYERS': 5, 'HP_L2_REG': 0.01, 'activation': 'relu', 'HP_OPTIMIZER': 'Adam'}
Blue
Model: "sequential"
_________________________________________________________________
Layer (type)                 Output Shape              Param #   
=================================================================
dense (Dense)                (None, 400)               4000000   
_________________________________________________________________
dropout (Dropout)            (None, 400)               0         
_________________________________________________________________
dense_1 (Dense)              (None, 400)               160400    
_________________________________________________________________
dropout_1 (Dropout)          (None, 400)               0         
_________________________________________________________________
dense_2 (Dense)              (None, 400)               160400    
_________________________________________________________________
dropout_2 (Dropout)          (None, 400)               0         
_________________________________________________________________
dense_3 (Dense)              (None, 400)               160400    
_________________________________________________________________
dropout_3 (Dropout)          (None, 400)               0         
_________________________________________________________________
dense_4 (Dense)              (None, 400)               160400    
_________________________________________________________________
dropout_4 (Dropout)          (None, 400)               0         
_________________________________________________________________
dense_5 (Dense)              (None, 1)                 401       
=================================================================
Total params: 4,642,001
Trainable params: 4,642,001
Non-trainable params: 0
_________________________________________________________________
None
Red
0.4197986716580321
Typer KerasRegressor
Hello world
{'HP_L1_REG': 0.01, 'learning_rate': 0.01, 'kernel_initializer': 'glorot_uniform', 'rate': 0.0, 'units': 1000, 'HP_NUM_HIDDEN_LAYERS': 3, 'HP_L2_REG': 0.0001, 'activation': 'relu', 'HP_OPTIMIZER': 'Adagrad'}
Blue
Model: "sequential"
_________________________________________________________________
Layer (type)                 Output Shape              Param #   
=================================================================
dense (Dense)                (None, 1000)              10000000  
_________________________________________________________________
dense_1 (Dense)              (None, 1000)              1001000   
_________________________________________________________________
dense_2 (Dense)              (None, 1000)              1001000   
_________________________________________________________________
dense_3 (Dense)              (None, 1)                 1001      
=================================================================
Total params: 12,003,001
Trainable params: 12,003,001
Non-trainable params: 0
_________________________________________________________________
None
Red
0.6501746045501855
Typer KerasRegressor
Hello world
{'HP_L1_REG': 0.001, 'learning_rate': 0.001, 'kernel_initializer': 'glorot_uniform', 'rate': 0.1, 'units': 400, 'HP_NUM_HIDDEN_LAYERS': 2, 'HP_L2_REG': 0.0001, 'activation': 'tanh', 'HP_OPTIMIZER': 'Adam'}
Blue
Model: "sequential"
_________________________________________________________________
Layer (type)                 Output Shape              Param #   
=================================================================
dense (Dense)                (None, 400)               4000000   
_________________________________________________________________
dropout (Dropout)            (None, 400)               0         
_________________________________________________________________
dense_1 (Dense)              (None, 400)               160400    
_________________________________________________________________
dropout_1 (Dropout)          (None, 400)               0         
_________________________________________________________________
dense_2 (Dense)              (None, 1)                 401       
=================================================================
Total params: 4,160,801
Trainable params: 4,160,801
Non-trainable params: 0
_________________________________________________________________
None
Red
0.64990838786398
Typer KerasRegressor
Hello world
{'HP_L1_REG': 0.01, 'learning_rate': 0.001, 'kernel_initializer': 'glorot_uniform', 'rate': 0.0, 'units': 200, 'HP_NUM_HIDDEN_LAYERS': 3, 'HP_L2_REG': 0.01, 'activation': 'relu', 'HP_OPTIMIZER': 'Adam'}
Blue
Model: "sequential"
_________________________________________________________________
Layer (type)                 Output Shape              Param #   
=================================================================
dense (Dense)                (None, 200)               2000000   
_________________________________________________________________
dense_1 (Dense)              (None, 200)               40200     
_________________________________________________________________
dense_2 (Dense)              (None, 200)               40200     
_________________________________________________________________
dense_3 (Dense)              (None, 1)                 201       
=================================================================
Total params: 2,080,601
Trainable params: 2,080,601
Non-trainable params: 0
_________________________________________________________________
None
Red
0.653402576477963
Typer KerasRegressor
Hello world
{'HP_L1_REG': 0.1, 'learning_rate': 0.0001, 'kernel_initializer': 'glorot_uniform', 'rate': 0.2, 'units': 1000, 'HP_NUM_HIDDEN_LAYERS': 4, 'HP_L2_REG': 0.01, 'activation': 'tanh', 'HP_OPTIMIZER': 'Adagrad'}
Blue
Model: "sequential"
_________________________________________________________________
Layer (type)                 Output Shape              Param #   
=================================================================
dense (Dense)                (None, 1000)              10000000  
_________________________________________________________________
dropout (Dropout)            (None, 1000)              0         
_________________________________________________________________
dense_1 (Dense)              (None, 1000)              1001000   
_________________________________________________________________
dropout_1 (Dropout)          (None, 1000)              0         
_________________________________________________________________
dense_2 (Dense)              (None, 1000)              1001000   
_________________________________________________________________
dropout_2 (Dropout)          (None, 1000)              0         
_________________________________________________________________
dense_3 (Dense)              (None, 1000)              1001000   
_________________________________________________________________
dropout_3 (Dropout)          (None, 1000)              0         
_________________________________________________________________
dense_4 (Dense)              (None, 1)                 1001      
=================================================================
Total params: 13,004,001
Trainable params: 13,004,001
Non-trainable params: 0
_________________________________________________________________
None
Red
-7.786544285568821
Typer KerasRegressor
Hello world
{'HP_L1_REG': 0.001, 'learning_rate': 1e-05, 'kernel_initializer': 'glorot_uniform', 'rate': 0.5, 'units': 1000, 'HP_NUM_HIDDEN_LAYERS': 2, 'HP_L2_REG': 0.2, 'activation': 'tanh', 'HP_OPTIMIZER': 'Adam'}
Blue
Model: "sequential"
_________________________________________________________________
Layer (type)                 Output Shape              Param #   
=================================================================
dense (Dense)                (None, 1000)              10000000  
_________________________________________________________________
dropout (Dropout)            (None, 1000)              0         
_________________________________________________________________
dense_1 (Dense)              (None, 1000)              1001000   
_________________________________________________________________
dropout_1 (Dropout)          (None, 1000)              0         
_________________________________________________________________
dense_2 (Dense)              (None, 1)                 1001      
=================================================================
Total params: 11,002,001
Trainable params: 11,002,001
Non-trainable params: 0
_________________________________________________________________
None
Red
-0.6522851318787855
Typer KerasRegressor
Hello world
{'HP_L1_REG': 0.01, 'learning_rate': 0.0001, 'kernel_initializer': 'glorot_uniform', 'rate': 0.5, 'units': 1000, 'HP_NUM_HIDDEN_LAYERS': 4, 'HP_L2_REG': 0.01, 'activation': 'tanh', 'HP_OPTIMIZER': 'Adam'}
Blue
Model: "sequential"
_________________________________________________________________
Layer (type)                 Output Shape              Param #   
=================================================================
dense (Dense)                (None, 1000)              10000000  
_________________________________________________________________
dropout (Dropout)            (None, 1000)              0         
_________________________________________________________________
dense_1 (Dense)              (None, 1000)              1001000   
_________________________________________________________________
dropout_1 (Dropout)          (None, 1000)              0         
_________________________________________________________________
dense_2 (Dense)              (None, 1000)              1001000   
_________________________________________________________________
dropout_2 (Dropout)          (None, 1000)              0         
_________________________________________________________________
dense_3 (Dense)              (None, 1000)              1001000   
_________________________________________________________________
dropout_3 (Dropout)          (None, 1000)              0         
_________________________________________________________________
dense_4 (Dense)              (None, 1)                 1001      
=================================================================
Total params: 13,004,001
Trainable params: 13,004,001
Non-trainable params: 0
_________________________________________________________________
None
Red
0.46588100112985487
Typer KerasRegressor
Hello world
{'HP_L1_REG': 0.0001, 'learning_rate': 1e-05, 'kernel_initializer': 'glorot_uniform', 'rate': 0.2, 'units': 1000, 'HP_NUM_HIDDEN_LAYERS': 5, 'HP_L2_REG': 0.2, 'activation': 'tanh', 'HP_OPTIMIZER': 'Adam'}
Blue
Model: "sequential"
_________________________________________________________________
Layer (type)                 Output Shape              Param #   
=================================================================
dense (Dense)                (None, 1000)              10000000  
_________________________________________________________________
dropout (Dropout)            (None, 1000)              0         
_________________________________________________________________
dense_1 (Dense)              (None, 1000)              1001000   
_________________________________________________________________
dropout_1 (Dropout)          (None, 1000)              0         
_________________________________________________________________
dense_2 (Dense)              (None, 1000)              1001000   
_________________________________________________________________
dropout_2 (Dropout)          (None, 1000)              0         
_________________________________________________________________
dense_3 (Dense)              (None, 1000)              1001000   
_________________________________________________________________
dropout_3 (Dropout)          (None, 1000)              0         
_________________________________________________________________
dense_4 (Dense)              (None, 1000)              1001000   
_________________________________________________________________
dropout_4 (Dropout)          (None, 1000)              0         
_________________________________________________________________
dense_5 (Dense)              (None, 1)                 1001      
=================================================================
Total params: 14,005,001
Trainable params: 14,005,001
Non-trainable params: 0
_________________________________________________________________
None
Red
-0.6893879812557655
Typer KerasRegressor
Hello world
{'HP_L1_REG': 0.01, 'learning_rate': 0.01, 'kernel_initializer': 'glorot_uniform', 'rate': 0.2, 'units': 1000, 'HP_NUM_HIDDEN_LAYERS': 2, 'HP_L2_REG': 0.0001, 'activation': 'relu', 'HP_OPTIMIZER': 'SGD'}
Blue
Model: "sequential"
_________________________________________________________________
Layer (type)                 Output Shape              Param #   
=================================================================
dense (Dense)                (None, 1000)              10000000  
_________________________________________________________________
dropout (Dropout)            (None, 1000)              0         
_________________________________________________________________
dense_1 (Dense)              (None, 1000)              1001000   
_________________________________________________________________
dropout_1 (Dropout)          (None, 1000)              0         
_________________________________________________________________
dense_2 (Dense)              (None, 1)                 1001      
=================================================================
Total params: 11,002,001
Trainable params: 11,002,001
Non-trainable params: 0
_________________________________________________________________
None
Red
-0.16151185672441604
Typer KerasRegressor
Hello world
{'HP_L1_REG': 0.01, 'learning_rate': 0.01, 'kernel_initializer': 'glorot_uniform', 'rate': 0.5, 'units': 1000, 'HP_NUM_HIDDEN_LAYERS': 2, 'HP_L2_REG': 0.2, 'activation': 'tanh', 'HP_OPTIMIZER': 'Adam'}
Blue
Model: "sequential"
_________________________________________________________________
Layer (type)                 Output Shape              Param #   
=================================================================
dense (Dense)                (None, 1000)              10000000  
_________________________________________________________________
dropout (Dropout)            (None, 1000)              0         
_________________________________________________________________
dense_1 (Dense)              (None, 1000)              1001000   
_________________________________________________________________
dropout_1 (Dropout)          (None, 1000)              0         
_________________________________________________________________
dense_2 (Dense)              (None, 1)                 1001      
=================================================================
Total params: 11,002,001
Trainable params: 11,002,001
Non-trainable params: 0
_________________________________________________________________
None
Red
0.21743903761907935
Typer KerasRegressor
Hello world
{'HP_L1_REG': 0.1, 'learning_rate': 0.001, 'kernel_initializer': 'glorot_uniform', 'rate': 0.2, 'units': 1000, 'HP_NUM_HIDDEN_LAYERS': 4, 'HP_L2_REG': 1e-08, 'activation': 'relu', 'HP_OPTIMIZER': 'Adam'}
Blue
Model: "sequential"
_________________________________________________________________
Layer (type)                 Output Shape              Param #   
=================================================================
dense (Dense)                (None, 1000)              10000000  
_________________________________________________________________
dropout (Dropout)            (None, 1000)              0         
_________________________________________________________________
dense_1 (Dense)              (None, 1000)              1001000   
_________________________________________________________________
dropout_1 (Dropout)          (None, 1000)              0         
_________________________________________________________________
dense_2 (Dense)              (None, 1000)              1001000   
_________________________________________________________________
dropout_2 (Dropout)          (None, 1000)              0         
_________________________________________________________________
dense_3 (Dense)              (None, 1000)              1001000   
_________________________________________________________________
dropout_3 (Dropout)          (None, 1000)              0         
_________________________________________________________________
dense_4 (Dense)              (None, 1)                 1001      
=================================================================
Total params: 13,004,001
Trainable params: 13,004,001
Non-trainable params: 0
_________________________________________________________________
None
Red
-0.012877432756198681
Typer KerasRegressor
Hello world
{'HP_L1_REG': 0.1, 'learning_rate': 0.0001, 'kernel_initializer': 'glorot_uniform', 'rate': 0.2, 'units': 400, 'HP_NUM_HIDDEN_LAYERS': 3, 'HP_L2_REG': 1e-08, 'activation': 'tanh', 'HP_OPTIMIZER': 'Adam'}
Blue
Model: "sequential"
_________________________________________________________________
Layer (type)                 Output Shape              Param #   
=================================================================
dense (Dense)                (None, 400)               4000000   
_________________________________________________________________
dropout (Dropout)            (None, 400)               0         
_________________________________________________________________
dense_1 (Dense)              (None, 400)               160400    
_________________________________________________________________
dropout_1 (Dropout)          (None, 400)               0         
_________________________________________________________________
dense_2 (Dense)              (None, 400)               160400    
_________________________________________________________________
dropout_2 (Dropout)          (None, 400)               0         
_________________________________________________________________
dense_3 (Dense)              (None, 1)                 401       
=================================================================
Total params: 4,321,201
Trainable params: 4,321,201
Non-trainable params: 0
_________________________________________________________________
None
Red
-4.109280234645718
Typer KerasRegressor
Hello world
{'HP_L1_REG': 0.0001, 'learning_rate': 0.0001, 'kernel_initializer': 'glorot_uniform', 'rate': 0.1, 'units': 1000, 'HP_NUM_HIDDEN_LAYERS': 5, 'HP_L2_REG': 0.01, 'activation': 'tanh', 'HP_OPTIMIZER': 'SGD'}
Blue
Model: "sequential"
_________________________________________________________________
Layer (type)                 Output Shape              Param #   
=================================================================
dense (Dense)                (None, 1000)              10000000  
_________________________________________________________________
dropout (Dropout)            (None, 1000)              0         
_________________________________________________________________
dense_1 (Dense)              (None, 1000)              1001000   
_________________________________________________________________
dropout_1 (Dropout)          (None, 1000)              0         
_________________________________________________________________
dense_2 (Dense)              (None, 1000)              1001000   
_________________________________________________________________
dropout_2 (Dropout)          (None, 1000)              0         
_________________________________________________________________
dense_3 (Dense)              (None, 1000)              1001000   
_________________________________________________________________
dropout_3 (Dropout)          (None, 1000)              0         
_________________________________________________________________
dense_4 (Dense)              (None, 1000)              1001000   
_________________________________________________________________
dropout_4 (Dropout)          (None, 1000)              0         
_________________________________________________________________
dense_5 (Dense)              (None, 1)                 1001      
=================================================================
Total params: 14,005,001
Trainable params: 14,005,001
Non-trainable params: 0
_________________________________________________________________
None
Red
-0.005165390278164095
Typer KerasRegressor
Hello world
{'HP_L1_REG': 0.1, 'learning_rate': 0.001, 'kernel_initializer': 'glorot_uniform', 'rate': 0.2, 'units': 200, 'HP_NUM_HIDDEN_LAYERS': 2, 'HP_L2_REG': 0.0001, 'activation': 'tanh', 'HP_OPTIMIZER': 'Adagrad'}
Blue
Model: "sequential"
_________________________________________________________________
Layer (type)                 Output Shape              Param #   
=================================================================
dense (Dense)                (None, 200)               2000000   
_________________________________________________________________
dropout (Dropout)            (None, 200)               0         
_________________________________________________________________
dense_1 (Dense)              (None, 200)               40200     
_________________________________________________________________
dropout_1 (Dropout)          (None, 200)               0         
_________________________________________________________________
dense_2 (Dense)              (None, 1)                 201       
=================================================================
Total params: 2,040,401
Trainable params: 2,040,401
Non-trainable params: 0
_________________________________________________________________
None
Red
-6.422489392779414
Typer KerasRegressor
Hello world
{'HP_L1_REG': 0.1, 'learning_rate': 0.001, 'kernel_initializer': 'glorot_uniform', 'rate': 0.0, 'units': 200, 'HP_NUM_HIDDEN_LAYERS': 4, 'HP_L2_REG': 0.01, 'activation': 'relu', 'HP_OPTIMIZER': 'SGD'}
Blue
Model: "sequential"
_________________________________________________________________
Layer (type)                 Output Shape              Param #   
=================================================================
dense (Dense)                (None, 200)               2000000   
_________________________________________________________________
dense_1 (Dense)              (None, 200)               40200     
_________________________________________________________________
dense_2 (Dense)              (None, 200)               40200     
_________________________________________________________________
dense_3 (Dense)              (None, 200)               40200     
_________________________________________________________________
dense_4 (Dense)              (None, 1)                 201       
=================================================================
Total params: 2,120,801
Trainable params: 2,120,801
Non-trainable params: 0
_________________________________________________________________
None
Red
0.5142428244982289
Typer KerasRegressor
Hello world
{'HP_L1_REG': 0.0001, 'learning_rate': 0.01, 'kernel_initializer': 'glorot_uniform', 'rate': 0.2, 'units': 400, 'HP_NUM_HIDDEN_LAYERS': 5, 'HP_L2_REG': 0.01, 'activation': 'tanh', 'HP_OPTIMIZER': 'Adam'}
Blue
Model: "sequential"
_________________________________________________________________
Layer (type)                 Output Shape              Param #   
=================================================================
dense (Dense)                (None, 400)               4000000   
_________________________________________________________________
dropout (Dropout)            (None, 400)               0         
_________________________________________________________________
dense_1 (Dense)              (None, 400)               160400    
_________________________________________________________________
dropout_1 (Dropout)          (None, 400)               0         
_________________________________________________________________
dense_2 (Dense)              (None, 400)               160400    
_________________________________________________________________
dropout_2 (Dropout)          (None, 400)               0         
_________________________________________________________________
dense_3 (Dense)              (None, 400)               160400    
_________________________________________________________________
dropout_3 (Dropout)          (None, 400)               0         
_________________________________________________________________
dense_4 (Dense)              (None, 400)               160400    
_________________________________________________________________
dropout_4 (Dropout)          (None, 400)               0         
_________________________________________________________________
dense_5 (Dense)              (None, 1)                 401       
=================================================================
Total params: 4,642,001
Trainable params: 4,642,001
Non-trainable params: 0
_________________________________________________________________
None
Red
-0.021650379382245344
Typer KerasRegressor
Hello world
{'HP_L1_REG': 0.0001, 'learning_rate': 0.0001, 'kernel_initializer': 'glorot_uniform', 'rate': 0.5, 'units': 200, 'HP_NUM_HIDDEN_LAYERS': 4, 'HP_L2_REG': 0.01, 'activation': 'tanh', 'HP_OPTIMIZER': 'Adagrad'}
Blue
Model: "sequential"
_________________________________________________________________
Layer (type)                 Output Shape              Param #   
=================================================================
dense (Dense)                (None, 200)               2000000   
_________________________________________________________________
dropout (Dropout)            (None, 200)               0         
_________________________________________________________________
dense_1 (Dense)              (None, 200)               40200     
_________________________________________________________________
dropout_1 (Dropout)          (None, 200)               0         
_________________________________________________________________
dense_2 (Dense)              (None, 200)               40200     
_________________________________________________________________
dropout_2 (Dropout)          (None, 200)               0         
_________________________________________________________________
dense_3 (Dense)              (None, 200)               40200     
_________________________________________________________________
dropout_3 (Dropout)          (None, 200)               0         
_________________________________________________________________
dense_4 (Dense)              (None, 1)                 201       
=================================================================
Total params: 2,120,801
Trainable params: 2,120,801
Non-trainable params: 0
_________________________________________________________________
None
Red
-5.5705144543295235
Typer KerasRegressor
Hello world
{'HP_L1_REG': 0.01, 'learning_rate': 1e-05, 'kernel_initializer': 'glorot_uniform', 'rate': 0.5, 'units': 200, 'HP_NUM_HIDDEN_LAYERS': 5, 'HP_L2_REG': 0.0001, 'activation': 'tanh', 'HP_OPTIMIZER': 'SGD'}
Blue
Model: "sequential"
_________________________________________________________________
Layer (type)                 Output Shape              Param #   
=================================================================
dense (Dense)                (None, 200)               2000000   
_________________________________________________________________
dropout (Dropout)            (None, 200)               0         
_________________________________________________________________
dense_1 (Dense)              (None, 200)               40200     
_________________________________________________________________
dropout_1 (Dropout)          (None, 200)               0         
_________________________________________________________________
dense_2 (Dense)              (None, 200)               40200     
_________________________________________________________________
dropout_2 (Dropout)          (None, 200)               0         
_________________________________________________________________
dense_3 (Dense)              (None, 200)               40200     
_________________________________________________________________
dropout_3 (Dropout)          (None, 200)               0         
_________________________________________________________________
dense_4 (Dense)              (None, 200)               40200     
_________________________________________________________________
dropout_4 (Dropout)          (None, 200)               0         
_________________________________________________________________
dense_5 (Dense)              (None, 1)                 201       
=================================================================
Total params: 2,161,001
Trainable params: 2,161,001
Non-trainable params: 0
_________________________________________________________________
None
Red
-7.967010645239634
Typer KerasRegressor
Hello world
{'HP_L1_REG': 0.01, 'learning_rate': 1e-05, 'kernel_initializer': 'glorot_uniform', 'rate': 0.1, 'units': 200, 'HP_NUM_HIDDEN_LAYERS': 2, 'HP_L2_REG': 1e-08, 'activation': 'tanh', 'HP_OPTIMIZER': 'Adam'}
Blue
Model: "sequential"
_________________________________________________________________
Layer (type)                 Output Shape              Param #   
=================================================================
dense (Dense)                (None, 200)               2000000   
_________________________________________________________________
dropout (Dropout)            (None, 200)               0         
_________________________________________________________________
dense_1 (Dense)              (None, 200)               40200     
_________________________________________________________________
dropout_1 (Dropout)          (None, 200)               0         
_________________________________________________________________
dense_2 (Dense)              (None, 1)                 201       
=================================================================
Total params: 2,040,401
Trainable params: 2,040,401
Non-trainable params: 0
_________________________________________________________________
None
Red
-4.335892321261614
Typer KerasRegressor
Hello world
{'HP_L1_REG': 0.001, 'learning_rate': 0.01, 'kernel_initializer': 'glorot_uniform', 'rate': 0.1, 'units': 1000, 'HP_NUM_HIDDEN_LAYERS': 2, 'HP_L2_REG': 0.01, 'activation': 'relu', 'HP_OPTIMIZER': 'Adagrad'}
Blue
Model: "sequential"
_________________________________________________________________
Layer (type)                 Output Shape              Param #   
=================================================================
dense (Dense)                (None, 1000)              10000000  
_________________________________________________________________
dropout (Dropout)            (None, 1000)              0         
_________________________________________________________________
dense_1 (Dense)              (None, 1000)              1001000   
_________________________________________________________________
dropout_1 (Dropout)          (None, 1000)              0         
_________________________________________________________________
dense_2 (Dense)              (None, 1)                 1001      
=================================================================
Total params: 11,002,001
Trainable params: 11,002,001
Non-trainable params: 0
_________________________________________________________________
None
Red
0.6584640476398376
Typer KerasRegressor
Hello world
{'HP_L1_REG': 0.1, 'learning_rate': 0.001, 'kernel_initializer': 'glorot_uniform', 'rate': 0.1, 'units': 400, 'HP_NUM_HIDDEN_LAYERS': 5, 'HP_L2_REG': 0.01, 'activation': 'tanh', 'HP_OPTIMIZER': 'SGD'}
Blue
Model: "sequential"
_________________________________________________________________
Layer (type)                 Output Shape              Param #   
=================================================================
dense (Dense)                (None, 400)               4000000   
_________________________________________________________________
dropout (Dropout)            (None, 400)               0         
_________________________________________________________________
dense_1 (Dense)              (None, 400)               160400    
_________________________________________________________________
dropout_1 (Dropout)          (None, 400)               0         
_________________________________________________________________
dense_2 (Dense)              (None, 400)               160400    
_________________________________________________________________
dropout_2 (Dropout)          (None, 400)               0         
_________________________________________________________________
dense_3 (Dense)              (None, 400)               160400    
_________________________________________________________________
dropout_3 (Dropout)          (None, 400)               0         
_________________________________________________________________
dense_4 (Dense)              (None, 400)               160400    
_________________________________________________________________
dropout_4 (Dropout)          (None, 400)               0         
_________________________________________________________________
dense_5 (Dense)              (None, 1)                 401       
=================================================================
Total params: 4,642,001
Trainable params: 4,642,001
Non-trainable params: 0
_________________________________________________________________
None
Red
-0.20660736305250316
Typer KerasRegressor
Hello world
{'HP_L1_REG': 0.0001, 'learning_rate': 0.0001, 'kernel_initializer': 'glorot_uniform', 'rate': 0.2, 'units': 400, 'HP_NUM_HIDDEN_LAYERS': 5, 'HP_L2_REG': 0.2, 'activation': 'relu', 'HP_OPTIMIZER': 'Adagrad'}
Blue
Model: "sequential"
_________________________________________________________________
Layer (type)                 Output Shape              Param #   
=================================================================
dense (Dense)                (None, 400)               4000000   
_________________________________________________________________
dropout (Dropout)            (None, 400)               0         
_________________________________________________________________
dense_1 (Dense)              (None, 400)               160400    
_________________________________________________________________
dropout_1 (Dropout)          (None, 400)               0         
_________________________________________________________________
dense_2 (Dense)              (None, 400)               160400    
_________________________________________________________________
dropout_2 (Dropout)          (None, 400)               0         
_________________________________________________________________
dense_3 (Dense)              (None, 400)               160400    
_________________________________________________________________
dropout_3 (Dropout)          (None, 400)               0         
_________________________________________________________________
dense_4 (Dense)              (None, 400)               160400    
_________________________________________________________________
dropout_4 (Dropout)          (None, 400)               0         
_________________________________________________________________
dense_5 (Dense)              (None, 1)                 401       
=================================================================
Total params: 4,642,001
Trainable params: 4,642,001
Non-trainable params: 0
_________________________________________________________________
None
Red
0.5711143239648464
Typer KerasRegressor
Hello world
{'HP_L1_REG': 0.001, 'learning_rate': 0.0001, 'kernel_initializer': 'glorot_uniform', 'rate': 0.1, 'units': 200, 'HP_NUM_HIDDEN_LAYERS': 4, 'HP_L2_REG': 0.01, 'activation': 'relu', 'HP_OPTIMIZER': 'Adam'}
Blue
Model: "sequential"
_________________________________________________________________
Layer (type)                 Output Shape              Param #   
=================================================================
dense (Dense)                (None, 200)               2000000   
_________________________________________________________________
dropout (Dropout)            (None, 200)               0         
_________________________________________________________________
dense_1 (Dense)              (None, 200)               40200     
_________________________________________________________________
dropout_1 (Dropout)          (None, 200)               0         
_________________________________________________________________
dense_2 (Dense)              (None, 200)               40200     
_________________________________________________________________
dropout_2 (Dropout)          (None, 200)               0         
_________________________________________________________________
dense_3 (Dense)              (None, 200)               40200     
_________________________________________________________________
dropout_3 (Dropout)          (None, 200)               0         
_________________________________________________________________
dense_4 (Dense)              (None, 1)                 201       
=================================================================
Total params: 2,120,801
Trainable params: 2,120,801
Non-trainable params: 0
_________________________________________________________________
None
Red
0.6585129661340865
Typer KerasRegressor
Hello world
{'HP_L1_REG': 0.001, 'learning_rate': 0.001, 'kernel_initializer': 'glorot_uniform', 'rate': 0.1, 'units': 400, 'HP_NUM_HIDDEN_LAYERS': 2, 'HP_L2_REG': 0.0001, 'activation': 'relu', 'HP_OPTIMIZER': 'SGD'}
Blue
Model: "sequential"
_________________________________________________________________
Layer (type)                 Output Shape              Param #   
=================================================================
dense (Dense)                (None, 400)               4000000   
_________________________________________________________________
dropout (Dropout)            (None, 400)               0         
_________________________________________________________________
dense_1 (Dense)              (None, 400)               160400    
_________________________________________________________________
dropout_1 (Dropout)          (None, 400)               0         
_________________________________________________________________
dense_2 (Dense)              (None, 1)                 401       
=================================================================
Total params: 4,160,801
Trainable params: 4,160,801
Non-trainable params: 0
_________________________________________________________________
None
Red
0.6496273348455102
Typer KerasRegressor
Hello world
{'HP_L1_REG': 0.001, 'learning_rate': 0.0001, 'kernel_initializer': 'glorot_uniform', 'rate': 0.0, 'units': 400, 'HP_NUM_HIDDEN_LAYERS': 4, 'HP_L2_REG': 0.2, 'activation': 'relu', 'HP_OPTIMIZER': 'Adam'}
Blue
Model: "sequential"
_________________________________________________________________
Layer (type)                 Output Shape              Param #   
=================================================================
dense (Dense)                (None, 400)               4000000   
_________________________________________________________________
dense_1 (Dense)              (None, 400)               160400    
_________________________________________________________________
dense_2 (Dense)              (None, 400)               160400    
_________________________________________________________________
dense_3 (Dense)              (None, 400)               160400    
_________________________________________________________________
dense_4 (Dense)              (None, 1)                 401       
=================================================================
Total params: 4,481,601
Trainable params: 4,481,601
Non-trainable params: 0
_________________________________________________________________
None
Red
0.6702379294139231
Typer KerasRegressor
Hello world
{'HP_L1_REG': 0.01, 'learning_rate': 0.01, 'kernel_initializer': 'glorot_uniform', 'rate': 0.1, 'units': 200, 'HP_NUM_HIDDEN_LAYERS': 4, 'HP_L2_REG': 0.0001, 'activation': 'relu', 'HP_OPTIMIZER': 'SGD'}
Blue
Model: "sequential"
_________________________________________________________________
Layer (type)                 Output Shape              Param #   
=================================================================
dense (Dense)                (None, 200)               2000000   
_________________________________________________________________
dropout (Dropout)            (None, 200)               0         
_________________________________________________________________
dense_1 (Dense)              (None, 200)               40200     
_________________________________________________________________
dropout_1 (Dropout)          (None, 200)               0         
_________________________________________________________________
dense_2 (Dense)              (None, 200)               40200     
_________________________________________________________________
dropout_2 (Dropout)          (None, 200)               0         
_________________________________________________________________
dense_3 (Dense)              (None, 200)               40200     
_________________________________________________________________
dropout_3 (Dropout)          (None, 200)               0         
_________________________________________________________________
dense_4 (Dense)              (None, 1)                 201       
=================================================================
Total params: 2,120,801
Trainable params: 2,120,801
Non-trainable params: 0
_________________________________________________________________
None
Red
0.6151926432429132
Typer KerasRegressor
Hello world
{'HP_L1_REG': 0.01, 'learning_rate': 0.0001, 'kernel_initializer': 'glorot_uniform', 'rate': 0.5, 'units': 400, 'HP_NUM_HIDDEN_LAYERS': 3, 'HP_L2_REG': 0.2, 'activation': 'relu', 'HP_OPTIMIZER': 'Adam'}
Blue
Model: "sequential"
_________________________________________________________________
Layer (type)                 Output Shape              Param #   
=================================================================
dense (Dense)                (None, 400)               4000000   
_________________________________________________________________
dropout (Dropout)            (None, 400)               0         
_________________________________________________________________
dense_1 (Dense)              (None, 400)               160400    
_________________________________________________________________
dropout_1 (Dropout)          (None, 400)               0         
_________________________________________________________________
dense_2 (Dense)              (None, 400)               160400    
_________________________________________________________________
dropout_2 (Dropout)          (None, 400)               0         
_________________________________________________________________
dense_3 (Dense)              (None, 1)                 401       
=================================================================
Total params: 4,321,201
Trainable params: 4,321,201
Non-trainable params: 0
_________________________________________________________________
None
Red
0.6056811656255948
Typer KerasRegressor
Hello world
{'HP_L1_REG': 0.001, 'learning_rate': 0.01, 'kernel_initializer': 'glorot_uniform', 'rate': 0.0, 'units': 400, 'HP_NUM_HIDDEN_LAYERS': 2, 'HP_L2_REG': 0.2, 'activation': 'tanh', 'HP_OPTIMIZER': 'Adam'}
Blue
Model: "sequential"
_________________________________________________________________
Layer (type)                 Output Shape              Param #   
=================================================================
dense (Dense)                (None, 400)               4000000   
_________________________________________________________________
dense_1 (Dense)              (None, 400)               160400    
_________________________________________________________________
dense_2 (Dense)              (None, 1)                 401       
=================================================================
Total params: 4,160,801
Trainable params: 4,160,801
Non-trainable params: 0
_________________________________________________________________
None
Red
-0.163990890450187
Typer KerasRegressor
Hello world
{'HP_L1_REG': 0.0001, 'learning_rate': 1e-05, 'kernel_initializer': 'glorot_uniform', 'rate': 0.0, 'units': 400, 'HP_NUM_HIDDEN_LAYERS': 5, 'HP_L2_REG': 0.0001, 'activation': 'relu', 'HP_OPTIMIZER': 'Adam'}
Blue
Model: "sequential"
_________________________________________________________________
Layer (type)                 Output Shape              Param #   
=================================================================
dense (Dense)                (None, 400)               4000000   
_________________________________________________________________
dense_1 (Dense)              (None, 400)               160400    
_________________________________________________________________
dense_2 (Dense)              (None, 400)               160400    
_________________________________________________________________
dense_3 (Dense)              (None, 400)               160400    
_________________________________________________________________
dense_4 (Dense)              (None, 400)               160400    
_________________________________________________________________
dense_5 (Dense)              (None, 1)                 401       
=================================================================
Total params: 4,642,001
Trainable params: 4,642,001
Non-trainable params: 0
_________________________________________________________________
None
Red
0.6674450921464794
Typer KerasRegressor
Hello world
{'HP_L1_REG': 0.1, 'learning_rate': 0.0001, 'kernel_initializer': 'glorot_uniform', 'rate': 0.2, 'units': 1000, 'HP_NUM_HIDDEN_LAYERS': 2, 'HP_L2_REG': 0.2, 'activation': 'tanh', 'HP_OPTIMIZER': 'Adagrad'}
Blue
Model: "sequential"
_________________________________________________________________
Layer (type)                 Output Shape              Param #   
=================================================================
dense (Dense)                (None, 1000)              10000000  
_________________________________________________________________
dropout (Dropout)            (None, 1000)              0         
_________________________________________________________________
dense_1 (Dense)              (None, 1000)              1001000   
_________________________________________________________________
dropout_1 (Dropout)          (None, 1000)              0         
_________________________________________________________________
dense_2 (Dense)              (None, 1)                 1001      
=================================================================
Total params: 11,002,001
Trainable params: 11,002,001
Non-trainable params: 0
_________________________________________________________________
None
Red
-7.404001814334162
Typer KerasRegressor
Hello world
{'HP_L1_REG': 0.01, 'learning_rate': 0.01, 'kernel_initializer': 'glorot_uniform', 'rate': 0.0, 'units': 200, 'HP_NUM_HIDDEN_LAYERS': 5, 'HP_L2_REG': 1e-08, 'activation': 'tanh', 'HP_OPTIMIZER': 'SGD'}
Blue
Model: "sequential"
_________________________________________________________________
Layer (type)                 Output Shape              Param #   
=================================================================
dense (Dense)                (None, 200)               2000000   
_________________________________________________________________
dense_1 (Dense)              (None, 200)               40200     
_________________________________________________________________
dense_2 (Dense)              (None, 200)               40200     
_________________________________________________________________
dense_3 (Dense)              (None, 200)               40200     
_________________________________________________________________
dense_4 (Dense)              (None, 200)               40200     
_________________________________________________________________
dense_5 (Dense)              (None, 1)                 201       
=================================================================
Total params: 2,161,001
Trainable params: 2,161,001
Non-trainable params: 0
_________________________________________________________________
None
Red
0.25829968003457304
Typer KerasRegressor
Hello world
{'HP_L1_REG': 0.001, 'learning_rate': 1e-05, 'kernel_initializer': 'glorot_uniform', 'rate': 0.1, 'units': 200, 'HP_NUM_HIDDEN_LAYERS': 5, 'HP_L2_REG': 1e-08, 'activation': 'tanh', 'HP_OPTIMIZER': 'Adagrad'}
Blue
Model: "sequential"
_________________________________________________________________
Layer (type)                 Output Shape              Param #   
=================================================================
dense (Dense)                (None, 200)               2000000   
_________________________________________________________________
dropout (Dropout)            (None, 200)               0         
_________________________________________________________________
dense_1 (Dense)              (None, 200)               40200     
_________________________________________________________________
dropout_1 (Dropout)          (None, 200)               0         
_________________________________________________________________
dense_2 (Dense)              (None, 200)               40200     
_________________________________________________________________
dropout_2 (Dropout)          (None, 200)               0         
_________________________________________________________________
dense_3 (Dense)              (None, 200)               40200     
_________________________________________________________________
dropout_3 (Dropout)          (None, 200)               0         
_________________________________________________________________
dense_4 (Dense)              (None, 200)               40200     
_________________________________________________________________
dropout_4 (Dropout)          (None, 200)               0         
_________________________________________________________________
dense_5 (Dense)              (None, 1)                 201       
=================================================================
Total params: 2,161,001
Trainable params: 2,161,001
Non-trainable params: 0
_________________________________________________________________
None
Red
-7.400335952178434
Typer KerasRegressor
Hello world
{'HP_L1_REG': 0.0001, 'learning_rate': 0.0001, 'kernel_initializer': 'glorot_uniform', 'rate': 0.0, 'units': 1000, 'HP_NUM_HIDDEN_LAYERS': 2, 'HP_L2_REG': 0.2, 'activation': 'tanh', 'HP_OPTIMIZER': 'SGD'}
Blue
Model: "sequential"
_________________________________________________________________
Layer (type)                 Output Shape              Param #   
=================================================================
dense (Dense)                (None, 1000)              10000000  
_________________________________________________________________
dense_1 (Dense)              (None, 1000)              1001000   
_________________________________________________________________
dense_2 (Dense)              (None, 1)                 1001      
=================================================================
Total params: 11,002,001
Trainable params: 11,002,001
Non-trainable params: 0
_________________________________________________________________
None
Red
0.028763514102508436
Typer KerasRegressor
Hello world
{'HP_L1_REG': 0.0001, 'learning_rate': 0.0001, 'kernel_initializer': 'glorot_uniform', 'rate': 0.5, 'units': 200, 'HP_NUM_HIDDEN_LAYERS': 4, 'HP_L2_REG': 0.2, 'activation': 'relu', 'HP_OPTIMIZER': 'SGD'}
Blue
Model: "sequential"
_________________________________________________________________
Layer (type)                 Output Shape              Param #   
=================================================================
dense (Dense)                (None, 200)               2000000   
_________________________________________________________________
dropout (Dropout)            (None, 200)               0         
_________________________________________________________________
dense_1 (Dense)              (None, 200)               40200     
_________________________________________________________________
dropout_1 (Dropout)          (None, 200)               0         
_________________________________________________________________
dense_2 (Dense)              (None, 200)               40200     
_________________________________________________________________
dropout_2 (Dropout)          (None, 200)               0         
_________________________________________________________________
dense_3 (Dense)              (None, 200)               40200     
_________________________________________________________________
dropout_3 (Dropout)          (None, 200)               0         
_________________________________________________________________
dense_4 (Dense)              (None, 1)                 201       
=================================================================
Total params: 2,120,801
Trainable params: 2,120,801
Non-trainable params: 0
_________________________________________________________________
None
Red
0.3740482341975132
Typer KerasRegressor
Hello world
{'HP_L1_REG': 0.1, 'learning_rate': 0.001, 'kernel_initializer': 'glorot_uniform', 'rate': 0.1, 'units': 1000, 'HP_NUM_HIDDEN_LAYERS': 2, 'HP_L2_REG': 0.0001, 'activation': 'tanh', 'HP_OPTIMIZER': 'Adagrad'}
Blue
Model: "sequential"
_________________________________________________________________
Layer (type)                 Output Shape              Param #   
=================================================================
dense (Dense)                (None, 1000)              10000000  
_________________________________________________________________
dropout (Dropout)            (None, 1000)              0         
_________________________________________________________________
dense_1 (Dense)              (None, 1000)              1001000   
_________________________________________________________________
dropout_1 (Dropout)          (None, 1000)              0         
_________________________________________________________________
dense_2 (Dense)              (None, 1)                 1001      
=================================================================
Total params: 11,002,001
Trainable params: 11,002,001
Non-trainable params: 0
_________________________________________________________________
None
Red
-7.034813439169326
Typer KerasRegressor
Hello world
{'HP_L1_REG': 0.1, 'learning_rate': 0.0001, 'kernel_initializer': 'glorot_uniform', 'rate': 0.1, 'units': 200, 'HP_NUM_HIDDEN_LAYERS': 5, 'HP_L2_REG': 1e-08, 'activation': 'tanh', 'HP_OPTIMIZER': 'Adam'}
Blue
Model: "sequential"
_________________________________________________________________
Layer (type)                 Output Shape              Param #   
=================================================================
dense (Dense)                (None, 200)               2000000   
_________________________________________________________________
dropout (Dropout)            (None, 200)               0         
_________________________________________________________________
dense_1 (Dense)              (None, 200)               40200     
_________________________________________________________________
dropout_1 (Dropout)          (None, 200)               0         
_________________________________________________________________
dense_2 (Dense)              (None, 200)               40200     
_________________________________________________________________
dropout_2 (Dropout)          (None, 200)               0         
_________________________________________________________________
dense_3 (Dense)              (None, 200)               40200     
_________________________________________________________________
dropout_3 (Dropout)          (None, 200)               0         
_________________________________________________________________
dense_4 (Dense)              (None, 200)               40200     
_________________________________________________________________
dropout_4 (Dropout)          (None, 200)               0         
_________________________________________________________________
dense_5 (Dense)              (None, 1)                 201       
=================================================================
Total params: 2,161,001
Trainable params: 2,161,001
Non-trainable params: 0
_________________________________________________________________
None
Red
-6.10159967943417
Typer KerasRegressor
Hello world
{'HP_L1_REG': 0.1, 'learning_rate': 1e-05, 'kernel_initializer': 'glorot_uniform', 'rate': 0.2, 'units': 400, 'HP_NUM_HIDDEN_LAYERS': 5, 'HP_L2_REG': 0.01, 'activation': 'relu', 'HP_OPTIMIZER': 'SGD'}
Blue
Model: "sequential"
_________________________________________________________________
Layer (type)                 Output Shape              Param #   
=================================================================
dense (Dense)                (None, 400)               4000000   
_________________________________________________________________
dropout (Dropout)            (None, 400)               0         
_________________________________________________________________
dense_1 (Dense)              (None, 400)               160400    
_________________________________________________________________
dropout_1 (Dropout)          (None, 400)               0         
_________________________________________________________________
dense_2 (Dense)              (None, 400)               160400    
_________________________________________________________________
dropout_2 (Dropout)          (None, 400)               0         
_________________________________________________________________
dense_3 (Dense)              (None, 400)               160400    
_________________________________________________________________
dropout_3 (Dropout)          (None, 400)               0         
_________________________________________________________________
dense_4 (Dense)              (None, 400)               160400    
_________________________________________________________________
dropout_4 (Dropout)          (None, 400)               0         
_________________________________________________________________
dense_5 (Dense)              (None, 1)                 401       
=================================================================
Total params: 4,642,001
Trainable params: 4,642,001
Non-trainable params: 0
_________________________________________________________________
None
Red
-8.429555223137326
Typer KerasRegressor
Hello world
{'HP_L1_REG': 0.0001, 'learning_rate': 0.0001, 'kernel_initializer': 'glorot_uniform', 'rate': 0.1, 'units': 400, 'HP_NUM_HIDDEN_LAYERS': 3, 'HP_L2_REG': 0.2, 'activation': 'relu', 'HP_OPTIMIZER': 'Adagrad'}
Blue
Model: "sequential"
_________________________________________________________________
Layer (type)                 Output Shape              Param #   
=================================================================
dense (Dense)                (None, 400)               4000000   
_________________________________________________________________
dropout (Dropout)            (None, 400)               0         
_________________________________________________________________
dense_1 (Dense)              (None, 400)               160400    
_________________________________________________________________
dropout_1 (Dropout)          (None, 400)               0         
_________________________________________________________________
dense_2 (Dense)              (None, 400)               160400    
_________________________________________________________________
dropout_2 (Dropout)          (None, 400)               0         
_________________________________________________________________
dense_3 (Dense)              (None, 1)                 401       
=================================================================
Total params: 4,321,201
Trainable params: 4,321,201
Non-trainable params: 0
_________________________________________________________________
None
Red
0.5488722424980885
Typer KerasRegressor
Hello world
INNER COUNT NO.  2
{'HP_L1_REG': 0.001, 'learning_rate': 0.001, 'kernel_initializer': 'glorot_uniform', 'rate': 0.1, 'units': 400, 'HP_NUM_HIDDEN_LAYERS': 4, 'HP_L2_REG': 0.2, 'activation': 'relu', 'HP_OPTIMIZER': 'Adam'}
Blue
Model: "sequential"
_________________________________________________________________
Layer (type)                 Output Shape              Param #   
=================================================================
dense (Dense)                (None, 400)               4000000   
_________________________________________________________________
dropout (Dropout)            (None, 400)               0         
_________________________________________________________________
dense_1 (Dense)              (None, 400)               160400    
_________________________________________________________________
dropout_1 (Dropout)          (None, 400)               0         
_________________________________________________________________
dense_2 (Dense)              (None, 400)               160400    
_________________________________________________________________
dropout_2 (Dropout)          (None, 400)               0         
_________________________________________________________________
dense_3 (Dense)              (None, 400)               160400    
_________________________________________________________________
dropout_3 (Dropout)          (None, 400)               0         
_________________________________________________________________
dense_4 (Dense)              (None, 1)                 401       
=================================================================
Total params: 4,481,601
Trainable params: 4,481,601
Non-trainable params: 0
_________________________________________________________________
None
Red
0.5073336645367612
Typer KerasRegressor
Hello world
{'HP_L1_REG': 0.01, 'learning_rate': 0.01, 'kernel_initializer': 'glorot_uniform', 'rate': 0.1, 'units': 400, 'HP_NUM_HIDDEN_LAYERS': 5, 'HP_L2_REG': 0.2, 'activation': 'relu', 'HP_OPTIMIZER': 'SGD'}
Blue
Model: "sequential"
_________________________________________________________________
Layer (type)                 Output Shape              Param #   
=================================================================
dense (Dense)                (None, 400)               4000000   
_________________________________________________________________
dropout (Dropout)            (None, 400)               0         
_________________________________________________________________
dense_1 (Dense)              (None, 400)               160400    
_________________________________________________________________
dropout_1 (Dropout)          (None, 400)               0         
_________________________________________________________________
dense_2 (Dense)              (None, 400)               160400    
_________________________________________________________________
dropout_2 (Dropout)          (None, 400)               0         
_________________________________________________________________
dense_3 (Dense)              (None, 400)               160400    
_________________________________________________________________
dropout_3 (Dropout)          (None, 400)               0         
_________________________________________________________________
dense_4 (Dense)              (None, 400)               160400    
_________________________________________________________________
dropout_4 (Dropout)          (None, 400)               0         
_________________________________________________________________
dense_5 (Dense)              (None, 1)                 401       
=================================================================
Total params: 4,642,001
Trainable params: 4,642,001
Non-trainable params: 0
_________________________________________________________________
None
Red
-0.00031621888022304034
Typer KerasRegressor
Hello world
{'HP_L1_REG': 0.01, 'learning_rate': 0.0001, 'kernel_initializer': 'glorot_uniform', 'rate': 0.1, 'units': 200, 'HP_NUM_HIDDEN_LAYERS': 3, 'HP_L2_REG': 0.0001, 'activation': 'relu', 'HP_OPTIMIZER': 'Adagrad'}
Blue
Model: "sequential"
_________________________________________________________________
Layer (type)                 Output Shape              Param #   
=================================================================
dense (Dense)                (None, 200)               2000000   
_________________________________________________________________
dropout (Dropout)            (None, 200)               0         
_________________________________________________________________
dense_1 (Dense)              (None, 200)               40200     
_________________________________________________________________
dropout_1 (Dropout)          (None, 200)               0         
_________________________________________________________________
dense_2 (Dense)              (None, 200)               40200     
_________________________________________________________________
dropout_2 (Dropout)          (None, 200)               0         
_________________________________________________________________
dense_3 (Dense)              (None, 1)                 201       
=================================================================
Total params: 2,080,601
Trainable params: 2,080,601
Non-trainable params: 0
_________________________________________________________________
None
Red
0.3950478051197658
Typer KerasRegressor
Hello world
{'HP_L1_REG': 0.0001, 'learning_rate': 1e-05, 'kernel_initializer': 'glorot_uniform', 'rate': 0.1, 'units': 1000, 'HP_NUM_HIDDEN_LAYERS': 2, 'HP_L2_REG': 0.0001, 'activation': 'tanh', 'HP_OPTIMIZER': 'SGD'}
Blue
Model: "sequential"
_________________________________________________________________
Layer (type)                 Output Shape              Param #   
=================================================================
dense (Dense)                (None, 1000)              10000000  
_________________________________________________________________
dropout (Dropout)            (None, 1000)              0         
_________________________________________________________________
dense_1 (Dense)              (None, 1000)              1001000   
_________________________________________________________________
dropout_1 (Dropout)          (None, 1000)              0         
_________________________________________________________________
dense_2 (Dense)              (None, 1)                 1001      
=================================================================
Total params: 11,002,001
Trainable params: 11,002,001
Non-trainable params: 0
_________________________________________________________________
None
Red
-5.841687744015866
Typer KerasRegressor
Hello world
{'HP_L1_REG': 0.1, 'learning_rate': 1e-05, 'kernel_initializer': 'glorot_uniform', 'rate': 0.1, 'units': 1000, 'HP_NUM_HIDDEN_LAYERS': 5, 'HP_L2_REG': 0.0001, 'activation': 'relu', 'HP_OPTIMIZER': 'SGD'}
Blue
Model: "sequential"
_________________________________________________________________
Layer (type)                 Output Shape              Param #   
=================================================================
dense (Dense)                (None, 1000)              10000000  
_________________________________________________________________
dropout (Dropout)            (None, 1000)              0         
_________________________________________________________________
dense_1 (Dense)              (None, 1000)              1001000   
_________________________________________________________________
dropout_1 (Dropout)          (None, 1000)              0         
_________________________________________________________________
dense_2 (Dense)              (None, 1000)              1001000   
_________________________________________________________________
dropout_2 (Dropout)          (None, 1000)              0         
_________________________________________________________________
dense_3 (Dense)              (None, 1000)              1001000   
_________________________________________________________________
dropout_3 (Dropout)          (None, 1000)              0         
_________________________________________________________________
dense_4 (Dense)              (None, 1000)              1001000   
_________________________________________________________________
dropout_4 (Dropout)          (None, 1000)              0         
_________________________________________________________________
dense_5 (Dense)              (None, 1)                 1001      
=================================================================
Total params: 14,005,001
Trainable params: 14,005,001
Non-trainable params: 0
_________________________________________________________________
None
Red
-7.962701464066804
Typer KerasRegressor
Hello world
{'HP_L1_REG': 0.0001, 'learning_rate': 0.0001, 'kernel_initializer': 'glorot_uniform', 'rate': 0.5, 'units': 1000, 'HP_NUM_HIDDEN_LAYERS': 2, 'HP_L2_REG': 0.2, 'activation': 'tanh', 'HP_OPTIMIZER': 'Adam'}
Blue
Model: "sequential"
_________________________________________________________________
Layer (type)                 Output Shape              Param #   
=================================================================
dense (Dense)                (None, 1000)              10000000  
_________________________________________________________________
dropout (Dropout)            (None, 1000)              0         
_________________________________________________________________
dense_1 (Dense)              (None, 1000)              1001000   
_________________________________________________________________
dropout_1 (Dropout)          (None, 1000)              0         
_________________________________________________________________
dense_2 (Dense)              (None, 1)                 1001      
=================================================================
Total params: 11,002,001
Trainable params: 11,002,001
Non-trainable params: 0
_________________________________________________________________
None
Red
0.5715692929116603
Typer KerasRegressor
Hello world
{'HP_L1_REG': 0.001, 'learning_rate': 0.01, 'kernel_initializer': 'glorot_uniform', 'rate': 0.1, 'units': 1000, 'HP_NUM_HIDDEN_LAYERS': 2, 'HP_L2_REG': 1e-08, 'activation': 'tanh', 'HP_OPTIMIZER': 'Adam'}
Blue
Model: "sequential"
_________________________________________________________________
Layer (type)                 Output Shape              Param #   
=================================================================
dense (Dense)                (None, 1000)              10000000  
_________________________________________________________________
dropout (Dropout)            (None, 1000)              0         
_________________________________________________________________
dense_1 (Dense)              (None, 1000)              1001000   
_________________________________________________________________
dropout_1 (Dropout)          (None, 1000)              0         
_________________________________________________________________
dense_2 (Dense)              (None, 1)                 1001      
=================================================================
Total params: 11,002,001
Trainable params: 11,002,001
Non-trainable params: 0
_________________________________________________________________
None
Red
0.460393025691622
Typer KerasRegressor
Hello world
{'HP_L1_REG': 0.01, 'learning_rate': 0.01, 'kernel_initializer': 'glorot_uniform', 'rate': 0.2, 'units': 1000, 'HP_NUM_HIDDEN_LAYERS': 4, 'HP_L2_REG': 0.01, 'activation': 'tanh', 'HP_OPTIMIZER': 'SGD'}
Blue
Model: "sequential"
_________________________________________________________________
Layer (type)                 Output Shape              Param #   
=================================================================
dense (Dense)                (None, 1000)              10000000  
_________________________________________________________________
dropout (Dropout)            (None, 1000)              0         
_________________________________________________________________
dense_1 (Dense)              (None, 1000)              1001000   
_________________________________________________________________
dropout_1 (Dropout)          (None, 1000)              0         
_________________________________________________________________
dense_2 (Dense)              (None, 1000)              1001000   
_________________________________________________________________
dropout_2 (Dropout)          (None, 1000)              0         
_________________________________________________________________
dense_3 (Dense)              (None, 1000)              1001000   
_________________________________________________________________
dropout_3 (Dropout)          (None, 1000)              0         
_________________________________________________________________
dense_4 (Dense)              (None, 1)                 1001      
=================================================================
Total params: 13,004,001
Trainable params: 13,004,001
Non-trainable params: 0
_________________________________________________________________
None
Red
0.4541549651115696
Typer KerasRegressor
Hello world
{'HP_L1_REG': 0.01, 'learning_rate': 0.0001, 'kernel_initializer': 'glorot_uniform', 'rate': 0.0, 'units': 200, 'HP_NUM_HIDDEN_LAYERS': 4, 'HP_L2_REG': 1e-08, 'activation': 'relu', 'HP_OPTIMIZER': 'SGD'}
Blue
Model: "sequential"
_________________________________________________________________
Layer (type)                 Output Shape              Param #   
=================================================================
dense (Dense)                (None, 200)               2000000   
_________________________________________________________________
dense_1 (Dense)              (None, 200)               40200     
_________________________________________________________________
dense_2 (Dense)              (None, 200)               40200     
_________________________________________________________________
dense_3 (Dense)              (None, 200)               40200     
_________________________________________________________________
dense_4 (Dense)              (None, 1)                 201       
=================================================================
Total params: 2,120,801
Trainable params: 2,120,801
Non-trainable params: 0
_________________________________________________________________
None
Red
0.5280609573184574
Typer KerasRegressor
Hello world
{'HP_L1_REG': 0.01, 'learning_rate': 0.0001, 'kernel_initializer': 'glorot_uniform', 'rate': 0.0, 'units': 400, 'HP_NUM_HIDDEN_LAYERS': 4, 'HP_L2_REG': 0.01, 'activation': 'relu', 'HP_OPTIMIZER': 'SGD'}
Blue
Model: "sequential"
_________________________________________________________________
Layer (type)                 Output Shape              Param #   
=================================================================
dense (Dense)                (None, 400)               4000000   
_________________________________________________________________
dense_1 (Dense)              (None, 400)               160400    
_________________________________________________________________
dense_2 (Dense)              (None, 400)               160400    
_________________________________________________________________
dense_3 (Dense)              (None, 400)               160400    
_________________________________________________________________
dense_4 (Dense)              (None, 1)                 401       
=================================================================
Total params: 4,481,601
Trainable params: 4,481,601
Non-trainable params: 0
_________________________________________________________________
None
Red
0.5255157613854627
Typer KerasRegressor
Hello world
{'HP_L1_REG': 0.0001, 'learning_rate': 0.001, 'kernel_initializer': 'glorot_uniform', 'rate': 0.5, 'units': 1000, 'HP_NUM_HIDDEN_LAYERS': 4, 'HP_L2_REG': 0.0001, 'activation': 'relu', 'HP_OPTIMIZER': 'SGD'}
Blue
Model: "sequential"
_________________________________________________________________
Layer (type)                 Output Shape              Param #   
=================================================================
dense (Dense)                (None, 1000)              10000000  
_________________________________________________________________
dropout (Dropout)            (None, 1000)              0         
_________________________________________________________________
dense_1 (Dense)              (None, 1000)              1001000   
_________________________________________________________________
dropout_1 (Dropout)          (None, 1000)              0         
_________________________________________________________________
dense_2 (Dense)              (None, 1000)              1001000   
_________________________________________________________________
dropout_2 (Dropout)          (None, 1000)              0         
_________________________________________________________________
dense_3 (Dense)              (None, 1000)              1001000   
_________________________________________________________________
dropout_3 (Dropout)          (None, 1000)              0         
_________________________________________________________________
dense_4 (Dense)              (None, 1)                 1001      
=================================================================
Total params: 13,004,001
Trainable params: 13,004,001
Non-trainable params: 0
_________________________________________________________________
None
Red
-0.3768748098487278
Typer KerasRegressor
Hello world
{'HP_L1_REG': 0.01, 'learning_rate': 1e-05, 'kernel_initializer': 'glorot_uniform', 'rate': 0.1, 'units': 200, 'HP_NUM_HIDDEN_LAYERS': 2, 'HP_L2_REG': 0.2, 'activation': 'relu', 'HP_OPTIMIZER': 'Adam'}
Blue
Model: "sequential"
_________________________________________________________________
Layer (type)                 Output Shape              Param #   
=================================================================
dense (Dense)                (None, 200)               2000000   
_________________________________________________________________
dropout (Dropout)            (None, 200)               0         
_________________________________________________________________
dense_1 (Dense)              (None, 200)               40200     
_________________________________________________________________
dropout_1 (Dropout)          (None, 200)               0         
_________________________________________________________________
dense_2 (Dense)              (None, 1)                 201       
=================================================================
Total params: 2,040,401
Trainable params: 2,040,401
Non-trainable params: 0
_________________________________________________________________
None
Red
0.45556820698330946
Typer KerasRegressor
Hello world
{'HP_L1_REG': 0.01, 'learning_rate': 0.001, 'kernel_initializer': 'glorot_uniform', 'rate': 0.0, 'units': 200, 'HP_NUM_HIDDEN_LAYERS': 4, 'HP_L2_REG': 0.2, 'activation': 'relu', 'HP_OPTIMIZER': 'Adagrad'}
Blue
Model: "sequential"
_________________________________________________________________
Layer (type)                 Output Shape              Param #   
=================================================================
dense (Dense)                (None, 200)               2000000   
_________________________________________________________________
dense_1 (Dense)              (None, 200)               40200     
_________________________________________________________________
dense_2 (Dense)              (None, 200)               40200     
_________________________________________________________________
dense_3 (Dense)              (None, 200)               40200     
_________________________________________________________________
dense_4 (Dense)              (None, 1)                 201       
=================================================================
Total params: 2,120,801
Trainable params: 2,120,801
Non-trainable params: 0
_________________________________________________________________
None
Red
0.5573400125190753
Typer KerasRegressor
Hello world
{'HP_L1_REG': 0.01, 'learning_rate': 0.01, 'kernel_initializer': 'glorot_uniform', 'rate': 0.1, 'units': 200, 'HP_NUM_HIDDEN_LAYERS': 5, 'HP_L2_REG': 0.0001, 'activation': 'tanh', 'HP_OPTIMIZER': 'Adagrad'}
Blue
Model: "sequential"
_________________________________________________________________
Layer (type)                 Output Shape              Param #   
=================================================================
dense (Dense)                (None, 200)               2000000   
_________________________________________________________________
dropout (Dropout)            (None, 200)               0         
_________________________________________________________________
dense_1 (Dense)              (None, 200)               40200     
_________________________________________________________________
dropout_1 (Dropout)          (None, 200)               0         
_________________________________________________________________
dense_2 (Dense)              (None, 200)               40200     
_________________________________________________________________
dropout_2 (Dropout)          (None, 200)               0         
_________________________________________________________________
dense_3 (Dense)              (None, 200)               40200     
_________________________________________________________________
dropout_3 (Dropout)          (None, 200)               0         
_________________________________________________________________
dense_4 (Dense)              (None, 200)               40200     
_________________________________________________________________
dropout_4 (Dropout)          (None, 200)               0         
_________________________________________________________________
dense_5 (Dense)              (None, 1)                 201       
=================================================================
Total params: 2,161,001
Trainable params: 2,161,001
Non-trainable params: 0
_________________________________________________________________
None
Red
0.5253551995462863
Typer KerasRegressor
Hello world
{'HP_L1_REG': 0.0001, 'learning_rate': 0.001, 'kernel_initializer': 'glorot_uniform', 'rate': 0.0, 'units': 400, 'HP_NUM_HIDDEN_LAYERS': 3, 'HP_L2_REG': 1e-08, 'activation': 'tanh', 'HP_OPTIMIZER': 'SGD'}
Blue
Model: "sequential"
_________________________________________________________________
Layer (type)                 Output Shape              Param #   
=================================================================
dense (Dense)                (None, 400)               4000000   
_________________________________________________________________
dense_1 (Dense)              (None, 400)               160400    
_________________________________________________________________
dense_2 (Dense)              (None, 400)               160400    
_________________________________________________________________
dense_3 (Dense)              (None, 1)                 401       
=================================================================
Total params: 4,321,201
Trainable params: 4,321,201
Non-trainable params: 0
_________________________________________________________________
None
Red
0.5679717835262836
Typer KerasRegressor
Hello world
{'HP_L1_REG': 0.001, 'learning_rate': 0.01, 'kernel_initializer': 'glorot_uniform', 'rate': 0.0, 'units': 200, 'HP_NUM_HIDDEN_LAYERS': 2, 'HP_L2_REG': 0.01, 'activation': 'relu', 'HP_OPTIMIZER': 'SGD'}
Blue
Model: "sequential"
_________________________________________________________________
Layer (type)                 Output Shape              Param #   
=================================================================
dense (Dense)                (None, 200)               2000000   
_________________________________________________________________
dense_1 (Dense)              (None, 200)               40200     
_________________________________________________________________
dense_2 (Dense)              (None, 1)                 201       
=================================================================
Total params: 2,040,401
Trainable params: 2,040,401
Non-trainable params: 0
_________________________________________________________________
None
Red
-0.49652748434624794
Typer KerasRegressor
Hello world
{'HP_L1_REG': 0.0001, 'learning_rate': 0.0001, 'kernel_initializer': 'glorot_uniform', 'rate': 0.5, 'units': 1000, 'HP_NUM_HIDDEN_LAYERS': 4, 'HP_L2_REG': 0.2, 'activation': 'tanh', 'HP_OPTIMIZER': 'Adam'}
Blue
Model: "sequential"
_________________________________________________________________
Layer (type)                 Output Shape              Param #   
=================================================================
dense (Dense)                (None, 1000)              10000000  
_________________________________________________________________
dropout (Dropout)            (None, 1000)              0         
_________________________________________________________________
dense_1 (Dense)              (None, 1000)              1001000   
_________________________________________________________________
dropout_1 (Dropout)          (None, 1000)              0         
_________________________________________________________________
dense_2 (Dense)              (None, 1000)              1001000   
_________________________________________________________________
dropout_2 (Dropout)          (None, 1000)              0         
_________________________________________________________________
dense_3 (Dense)              (None, 1000)              1001000   
_________________________________________________________________
dropout_3 (Dropout)          (None, 1000)              0         
_________________________________________________________________
dense_4 (Dense)              (None, 1)                 1001      
=================================================================
Total params: 13,004,001
Trainable params: 13,004,001
Non-trainable params: 0
_________________________________________________________________
None
Red
0.5909144018192105
Typer KerasRegressor
Hello world
{'HP_L1_REG': 0.0001, 'learning_rate': 1e-05, 'kernel_initializer': 'glorot_uniform', 'rate': 0.0, 'units': 400, 'HP_NUM_HIDDEN_LAYERS': 2, 'HP_L2_REG': 0.2, 'activation': 'tanh', 'HP_OPTIMIZER': 'SGD'}
Blue
Model: "sequential"
_________________________________________________________________
Layer (type)                 Output Shape              Param #   
=================================================================
dense (Dense)                (None, 400)               4000000   
_________________________________________________________________
dense_1 (Dense)              (None, 400)               160400    
_________________________________________________________________
dense_2 (Dense)              (None, 1)                 401       
=================================================================
Total params: 4,160,801
Trainable params: 4,160,801
Non-trainable params: 0
_________________________________________________________________
None
Red
-6.2192316550799
Typer KerasRegressor
Hello world
{'HP_L1_REG': 0.01, 'learning_rate': 0.0001, 'kernel_initializer': 'glorot_uniform', 'rate': 0.5, 'units': 400, 'HP_NUM_HIDDEN_LAYERS': 2, 'HP_L2_REG': 0.2, 'activation': 'tanh', 'HP_OPTIMIZER': 'Adagrad'}
Blue
Model: "sequential"
_________________________________________________________________
Layer (type)                 Output Shape              Param #   
=================================================================
dense (Dense)                (None, 400)               4000000   
_________________________________________________________________
dropout (Dropout)            (None, 400)               0         
_________________________________________________________________
dense_1 (Dense)              (None, 400)               160400    
_________________________________________________________________
dropout_1 (Dropout)          (None, 400)               0         
_________________________________________________________________
dense_2 (Dense)              (None, 1)                 401       
=================================================================
Total params: 4,160,801
Trainable params: 4,160,801
Non-trainable params: 0
_________________________________________________________________
None
Red
-3.90861865075963
Typer KerasRegressor
Hello world
{'HP_L1_REG': 0.0001, 'learning_rate': 0.01, 'kernel_initializer': 'glorot_uniform', 'rate': 0.5, 'units': 1000, 'HP_NUM_HIDDEN_LAYERS': 3, 'HP_L2_REG': 0.2, 'activation': 'tanh', 'HP_OPTIMIZER': 'Adam'}
Blue
Model: "sequential"
_________________________________________________________________
Layer (type)                 Output Shape              Param #   
=================================================================
dense (Dense)                (None, 1000)              10000000  
_________________________________________________________________
dropout (Dropout)            (None, 1000)              0         
_________________________________________________________________
dense_1 (Dense)              (None, 1000)              1001000   
_________________________________________________________________
dropout_1 (Dropout)          (None, 1000)              0         
_________________________________________________________________
dense_2 (Dense)              (None, 1000)              1001000   
_________________________________________________________________
dropout_2 (Dropout)          (None, 1000)              0         
_________________________________________________________________
dense_3 (Dense)              (None, 1)                 1001      
=================================================================
Total params: 12,003,001
Trainable params: 12,003,001
Non-trainable params: 0
_________________________________________________________________
None
Red
0.08473919941418873
Typer KerasRegressor
Hello world
{'HP_L1_REG': 0.0001, 'learning_rate': 0.0001, 'kernel_initializer': 'glorot_uniform', 'rate': 0.2, 'units': 400, 'HP_NUM_HIDDEN_LAYERS': 5, 'HP_L2_REG': 0.01, 'activation': 'tanh', 'HP_OPTIMIZER': 'SGD'}
Blue
Model: "sequential"
_________________________________________________________________
Layer (type)                 Output Shape              Param #   
=================================================================
dense (Dense)                (None, 400)               4000000   
_________________________________________________________________
dropout (Dropout)            (None, 400)               0         
_________________________________________________________________
dense_1 (Dense)              (None, 400)               160400    
_________________________________________________________________
dropout_1 (Dropout)          (None, 400)               0         
_________________________________________________________________
dense_2 (Dense)              (None, 400)               160400    
_________________________________________________________________
dropout_2 (Dropout)          (None, 400)               0         
_________________________________________________________________
dense_3 (Dense)              (None, 400)               160400    
_________________________________________________________________
dropout_3 (Dropout)          (None, 400)               0         
_________________________________________________________________
dense_4 (Dense)              (None, 400)               160400    
_________________________________________________________________
dropout_4 (Dropout)          (None, 400)               0         
_________________________________________________________________
dense_5 (Dense)              (None, 1)                 401       
=================================================================
Total params: 4,642,001
Trainable params: 4,642,001
Non-trainable params: 0
_________________________________________________________________
None
Red
-0.7654487769018661
Typer KerasRegressor
Hello world
{'HP_L1_REG': 0.0001, 'learning_rate': 1e-05, 'kernel_initializer': 'glorot_uniform', 'rate': 0.1, 'units': 1000, 'HP_NUM_HIDDEN_LAYERS': 5, 'HP_L2_REG': 1e-08, 'activation': 'relu', 'HP_OPTIMIZER': 'SGD'}
Blue
Model: "sequential"
_________________________________________________________________
Layer (type)                 Output Shape              Param #   
=================================================================
dense (Dense)                (None, 1000)              10000000  
_________________________________________________________________
dropout (Dropout)            (None, 1000)              0         
_________________________________________________________________
dense_1 (Dense)              (None, 1000)              1001000   
_________________________________________________________________
dropout_1 (Dropout)          (None, 1000)              0         
_________________________________________________________________
dense_2 (Dense)              (None, 1000)              1001000   
_________________________________________________________________
dropout_2 (Dropout)          (None, 1000)              0         
_________________________________________________________________
dense_3 (Dense)              (None, 1000)              1001000   
_________________________________________________________________
dropout_3 (Dropout)          (None, 1000)              0         
_________________________________________________________________
dense_4 (Dense)              (None, 1000)              1001000   
_________________________________________________________________
dropout_4 (Dropout)          (None, 1000)              0         
_________________________________________________________________
dense_5 (Dense)              (None, 1)                 1001      
=================================================================
Total params: 14,005,001
Trainable params: 14,005,001
Non-trainable params: 0
_________________________________________________________________
None
Red
-7.904726664750216
Typer KerasRegressor
Hello world
{'HP_L1_REG': 0.1, 'learning_rate': 1e-05, 'kernel_initializer': 'glorot_uniform', 'rate': 0.0, 'units': 400, 'HP_NUM_HIDDEN_LAYERS': 2, 'HP_L2_REG': 0.2, 'activation': 'relu', 'HP_OPTIMIZER': 'Adam'}
Blue
Model: "sequential"
_________________________________________________________________
Layer (type)                 Output Shape              Param #   
=================================================================
dense (Dense)                (None, 400)               4000000   
_________________________________________________________________
dense_1 (Dense)              (None, 400)               160400    
_________________________________________________________________
dense_2 (Dense)              (None, 1)                 401       
=================================================================
Total params: 4,160,801
Trainable params: 4,160,801
Non-trainable params: 0
_________________________________________________________________
None
Red
-7.612502523405416
Typer KerasRegressor
Hello world
{'HP_L1_REG': 0.1, 'learning_rate': 0.01, 'kernel_initializer': 'glorot_uniform', 'rate': 0.0, 'units': 400, 'HP_NUM_HIDDEN_LAYERS': 3, 'HP_L2_REG': 0.01, 'activation': 'relu', 'HP_OPTIMIZER': 'Adagrad'}
Blue
Model: "sequential"
_________________________________________________________________
Layer (type)                 Output Shape              Param #   
=================================================================
dense (Dense)                (None, 400)               4000000   
_________________________________________________________________
dense_1 (Dense)              (None, 400)               160400    
_________________________________________________________________
dense_2 (Dense)              (None, 400)               160400    
_________________________________________________________________
dense_3 (Dense)              (None, 1)                 401       
=================================================================
Total params: 4,321,201
Trainable params: 4,321,201
Non-trainable params: 0
_________________________________________________________________
None
Red
0.506082473618398
Typer KerasRegressor
Hello world
{'HP_L1_REG': 0.0001, 'learning_rate': 0.001, 'kernel_initializer': 'glorot_uniform', 'rate': 0.1, 'units': 400, 'HP_NUM_HIDDEN_LAYERS': 3, 'HP_L2_REG': 0.2, 'activation': 'relu', 'HP_OPTIMIZER': 'Adagrad'}
Blue
Model: "sequential"
_________________________________________________________________
Layer (type)                 Output Shape              Param #   
=================================================================
dense (Dense)                (None, 400)               4000000   
_________________________________________________________________
dropout (Dropout)            (None, 400)               0         
_________________________________________________________________
dense_1 (Dense)              (None, 400)               160400    
_________________________________________________________________
dropout_1 (Dropout)          (None, 400)               0         
_________________________________________________________________
dense_2 (Dense)              (None, 400)               160400    
_________________________________________________________________
dropout_2 (Dropout)          (None, 400)               0         
_________________________________________________________________
dense_3 (Dense)              (None, 1)                 401       
=================================================================
Total params: 4,321,201
Trainable params: 4,321,201
Non-trainable params: 0
_________________________________________________________________
None
Red
0.5852519576929511
Typer KerasRegressor
Hello world
{'HP_L1_REG': 0.0001, 'learning_rate': 0.0001, 'kernel_initializer': 'glorot_uniform', 'rate': 0.1, 'units': 200, 'HP_NUM_HIDDEN_LAYERS': 3, 'HP_L2_REG': 0.0001, 'activation': 'relu', 'HP_OPTIMIZER': 'SGD'}
Blue
Model: "sequential"
_________________________________________________________________
Layer (type)                 Output Shape              Param #   
=================================================================
dense (Dense)                (None, 200)               2000000   
_________________________________________________________________
dropout (Dropout)            (None, 200)               0         
_________________________________________________________________
dense_1 (Dense)              (None, 200)               40200     
_________________________________________________________________
dropout_1 (Dropout)          (None, 200)               0         
_________________________________________________________________
dense_2 (Dense)              (None, 200)               40200     
_________________________________________________________________
dropout_2 (Dropout)          (None, 200)               0         
_________________________________________________________________
dense_3 (Dense)              (None, 1)                 201       
=================================================================
Total params: 2,080,601
Trainable params: 2,080,601
Non-trainable params: 0
_________________________________________________________________
None
Red
0.534962045868838
Typer KerasRegressor
Hello world
{'HP_L1_REG': 0.0001, 'learning_rate': 0.0001, 'kernel_initializer': 'glorot_uniform', 'rate': 0.5, 'units': 400, 'HP_NUM_HIDDEN_LAYERS': 5, 'HP_L2_REG': 1e-08, 'activation': 'relu', 'HP_OPTIMIZER': 'SGD'}
Blue
Model: "sequential"
_________________________________________________________________
Layer (type)                 Output Shape              Param #   
=================================================================
dense (Dense)                (None, 400)               4000000   
_________________________________________________________________
dropout (Dropout)            (None, 400)               0         
_________________________________________________________________
dense_1 (Dense)              (None, 400)               160400    
_________________________________________________________________
dropout_1 (Dropout)          (None, 400)               0         
_________________________________________________________________
dense_2 (Dense)              (None, 400)               160400    
_________________________________________________________________
dropout_2 (Dropout)          (None, 400)               0         
_________________________________________________________________
dense_3 (Dense)              (None, 400)               160400    
_________________________________________________________________
dropout_3 (Dropout)          (None, 400)               0         
_________________________________________________________________
dense_4 (Dense)              (None, 400)               160400    
_________________________________________________________________
dropout_4 (Dropout)          (None, 400)               0         
_________________________________________________________________
dense_5 (Dense)              (None, 1)                 401       
=================================================================
Total params: 4,642,001
Trainable params: 4,642,001
Non-trainable params: 0
_________________________________________________________________
None
Red
-0.07327890908397339
Typer KerasRegressor
Hello world
{'HP_L1_REG': 0.1, 'learning_rate': 0.001, 'kernel_initializer': 'glorot_uniform', 'rate': 0.2, 'units': 200, 'HP_NUM_HIDDEN_LAYERS': 5, 'HP_L2_REG': 0.0001, 'activation': 'tanh', 'HP_OPTIMIZER': 'SGD'}
Blue
Model: "sequential"
_________________________________________________________________
Layer (type)                 Output Shape              Param #   
=================================================================
dense (Dense)                (None, 200)               2000000   
_________________________________________________________________
dropout (Dropout)            (None, 200)               0         
_________________________________________________________________
dense_1 (Dense)              (None, 200)               40200     
_________________________________________________________________
dropout_1 (Dropout)          (None, 200)               0         
_________________________________________________________________
dense_2 (Dense)              (None, 200)               40200     
_________________________________________________________________
dropout_2 (Dropout)          (None, 200)               0         
_________________________________________________________________
dense_3 (Dense)              (None, 200)               40200     
_________________________________________________________________
dropout_3 (Dropout)          (None, 200)               0         
_________________________________________________________________
dense_4 (Dense)              (None, 200)               40200     
_________________________________________________________________
dropout_4 (Dropout)          (None, 200)               0         
_________________________________________________________________
dense_5 (Dense)              (None, 1)                 201       
=================================================================
Total params: 2,161,001
Trainable params: 2,161,001
Non-trainable params: 0
_________________________________________________________________
None
Red
-0.31346784853866816
Typer KerasRegressor
Hello world
{'HP_L1_REG': 0.1, 'learning_rate': 0.0001, 'kernel_initializer': 'glorot_uniform', 'rate': 0.2, 'units': 200, 'HP_NUM_HIDDEN_LAYERS': 4, 'HP_L2_REG': 1e-08, 'activation': 'tanh', 'HP_OPTIMIZER': 'SGD'}
Blue
Model: "sequential"
_________________________________________________________________
Layer (type)                 Output Shape              Param #   
=================================================================
dense (Dense)                (None, 200)               2000000   
_________________________________________________________________
dropout (Dropout)            (None, 200)               0         
_________________________________________________________________
dense_1 (Dense)              (None, 200)               40200     
_________________________________________________________________
dropout_1 (Dropout)          (None, 200)               0         
_________________________________________________________________
dense_2 (Dense)              (None, 200)               40200     
_________________________________________________________________
dropout_2 (Dropout)          (None, 200)               0         
_________________________________________________________________
dense_3 (Dense)              (None, 200)               40200     
_________________________________________________________________
dropout_3 (Dropout)          (None, 200)               0         
_________________________________________________________________
dense_4 (Dense)              (None, 1)                 201       
=================================================================
Total params: 2,120,801
Trainable params: 2,120,801
Non-trainable params: 0
_________________________________________________________________
None
Red
-3.444923030122106
Typer KerasRegressor
Hello world
{'HP_L1_REG': 0.0001, 'learning_rate': 0.0001, 'kernel_initializer': 'glorot_uniform', 'rate': 0.0, 'units': 400, 'HP_NUM_HIDDEN_LAYERS': 5, 'HP_L2_REG': 0.01, 'activation': 'relu', 'HP_OPTIMIZER': 'Adagrad'}
Blue
Model: "sequential"
_________________________________________________________________
Layer (type)                 Output Shape              Param #   
=================================================================
dense (Dense)                (None, 400)               4000000   
_________________________________________________________________
dense_1 (Dense)              (None, 400)               160400    
_________________________________________________________________
dense_2 (Dense)              (None, 400)               160400    
_________________________________________________________________
dense_3 (Dense)              (None, 400)               160400    
_________________________________________________________________
dense_4 (Dense)              (None, 400)               160400    
_________________________________________________________________
dense_5 (Dense)              (None, 1)                 401       
=================================================================
Total params: 4,642,001
Trainable params: 4,642,001
Non-trainable params: 0
_________________________________________________________________
None
Red
0.5405202792254067
Typer KerasRegressor
Hello world
{'HP_L1_REG': 0.01, 'learning_rate': 0.01, 'kernel_initializer': 'glorot_uniform', 'rate': 0.0, 'units': 1000, 'HP_NUM_HIDDEN_LAYERS': 3, 'HP_L2_REG': 0.01, 'activation': 'relu', 'HP_OPTIMIZER': 'Adam'}
Blue
Model: "sequential"
_________________________________________________________________
Layer (type)                 Output Shape              Param #   
=================================================================
dense (Dense)                (None, 1000)              10000000  
_________________________________________________________________
dense_1 (Dense)              (None, 1000)              1001000   
_________________________________________________________________
dense_2 (Dense)              (None, 1000)              1001000   
_________________________________________________________________
dense_3 (Dense)              (None, 1)                 1001      
=================================================================
Total params: 12,003,001
Trainable params: 12,003,001
Non-trainable params: 0
_________________________________________________________________
None
Red
0.5338219931474121
Typer KerasRegressor
Hello world
{'HP_L1_REG': 0.1, 'learning_rate': 0.01, 'kernel_initializer': 'glorot_uniform', 'rate': 0.2, 'units': 400, 'HP_NUM_HIDDEN_LAYERS': 4, 'HP_L2_REG': 0.2, 'activation': 'relu', 'HP_OPTIMIZER': 'Adam'}
Blue
Model: "sequential"
_________________________________________________________________
Layer (type)                 Output Shape              Param #   
=================================================================
dense (Dense)                (None, 400)               4000000   
_________________________________________________________________
dropout (Dropout)            (None, 400)               0         
_________________________________________________________________
dense_1 (Dense)              (None, 400)               160400    
_________________________________________________________________
dropout_1 (Dropout)          (None, 400)               0         
_________________________________________________________________
dense_2 (Dense)              (None, 400)               160400    
_________________________________________________________________
dropout_2 (Dropout)          (None, 400)               0         
_________________________________________________________________
dense_3 (Dense)              (None, 400)               160400    
_________________________________________________________________
dropout_3 (Dropout)          (None, 400)               0         
_________________________________________________________________
dense_4 (Dense)              (None, 1)                 401       
=================================================================
Total params: 4,481,601
Trainable params: 4,481,601
Non-trainable params: 0
_________________________________________________________________
None
Red
-0.04254847651140592
Typer KerasRegressor
Hello world
{'HP_L1_REG': 0.01, 'learning_rate': 0.001, 'kernel_initializer': 'glorot_uniform', 'rate': 0.1, 'units': 200, 'HP_NUM_HIDDEN_LAYERS': 4, 'HP_L2_REG': 0.2, 'activation': 'tanh', 'HP_OPTIMIZER': 'Adam'}
Blue
Model: "sequential"
_________________________________________________________________
Layer (type)                 Output Shape              Param #   
=================================================================
dense (Dense)                (None, 200)               2000000   
_________________________________________________________________
dropout (Dropout)            (None, 200)               0         
_________________________________________________________________
dense_1 (Dense)              (None, 200)               40200     
_________________________________________________________________
dropout_1 (Dropout)          (None, 200)               0         
_________________________________________________________________
dense_2 (Dense)              (None, 200)               40200     
_________________________________________________________________
dropout_2 (Dropout)          (None, 200)               0         
_________________________________________________________________
dense_3 (Dense)              (None, 200)               40200     
_________________________________________________________________
dropout_3 (Dropout)          (None, 200)               0         
_________________________________________________________________
dense_4 (Dense)              (None, 1)                 201       
=================================================================
Total params: 2,120,801
Trainable params: 2,120,801
Non-trainable params: 0
_________________________________________________________________
None
Red
0.4267679168805075
Typer KerasRegressor
Hello world
{'HP_L1_REG': 0.0001, 'learning_rate': 0.0001, 'kernel_initializer': 'glorot_uniform', 'rate': 0.1, 'units': 400, 'HP_NUM_HIDDEN_LAYERS': 4, 'HP_L2_REG': 1e-08, 'activation': 'tanh', 'HP_OPTIMIZER': 'Adagrad'}
Blue
Model: "sequential"
_________________________________________________________________
Layer (type)                 Output Shape              Param #   
=================================================================
dense (Dense)                (None, 400)               4000000   
_________________________________________________________________
dropout (Dropout)            (None, 400)               0         
_________________________________________________________________
dense_1 (Dense)              (None, 400)               160400    
_________________________________________________________________
dropout_1 (Dropout)          (None, 400)               0         
_________________________________________________________________
dense_2 (Dense)              (None, 400)               160400    
_________________________________________________________________
dropout_2 (Dropout)          (None, 400)               0         
_________________________________________________________________
dense_3 (Dense)              (None, 400)               160400    
_________________________________________________________________
dropout_3 (Dropout)          (None, 400)               0         
_________________________________________________________________
dense_4 (Dense)              (None, 1)                 401       
=================================================================
Total params: 4,481,601
Trainable params: 4,481,601
Non-trainable params: 0
_________________________________________________________________
None
Red
-3.2679930732093307
Typer KerasRegressor
Hello world
{'HP_L1_REG': 0.001, 'learning_rate': 0.001, 'kernel_initializer': 'glorot_uniform', 'rate': 0.5, 'units': 200, 'HP_NUM_HIDDEN_LAYERS': 5, 'HP_L2_REG': 0.01, 'activation': 'relu', 'HP_OPTIMIZER': 'Adam'}
Blue
Model: "sequential"
_________________________________________________________________
Layer (type)                 Output Shape              Param #   
=================================================================
dense (Dense)                (None, 200)               2000000   
_________________________________________________________________
dropout (Dropout)            (None, 200)               0         
_________________________________________________________________
dense_1 (Dense)              (None, 200)               40200     
_________________________________________________________________
dropout_1 (Dropout)          (None, 200)               0         
_________________________________________________________________
dense_2 (Dense)              (None, 200)               40200     
_________________________________________________________________
dropout_2 (Dropout)          (None, 200)               0         
_________________________________________________________________
dense_3 (Dense)              (None, 200)               40200     
_________________________________________________________________
dropout_3 (Dropout)          (None, 200)               0         
_________________________________________________________________
dense_4 (Dense)              (None, 200)               40200     
_________________________________________________________________
dropout_4 (Dropout)          (None, 200)               0         
_________________________________________________________________
dense_5 (Dense)              (None, 1)                 201       
=================================================================
Total params: 2,161,001
Trainable params: 2,161,001
Non-trainable params: 0
_________________________________________________________________
None
Red
-0.9956489807451214
Typer KerasRegressor
Hello world
{'HP_L1_REG': 0.01, 'learning_rate': 1e-05, 'kernel_initializer': 'glorot_uniform', 'rate': 0.1, 'units': 200, 'HP_NUM_HIDDEN_LAYERS': 2, 'HP_L2_REG': 0.2, 'activation': 'tanh', 'HP_OPTIMIZER': 'Adagrad'}
Blue
Model: "sequential"
_________________________________________________________________
Layer (type)                 Output Shape              Param #   
=================================================================
dense (Dense)                (None, 200)               2000000   
_________________________________________________________________
dropout (Dropout)            (None, 200)               0         
_________________________________________________________________
dense_1 (Dense)              (None, 200)               40200     
_________________________________________________________________
dropout_1 (Dropout)          (None, 200)               0         
_________________________________________________________________
dense_2 (Dense)              (None, 1)                 201       
=================================================================
Total params: 2,040,401
Trainable params: 2,040,401
Non-trainable params: 0
_________________________________________________________________
None
Red
-6.72919813111996
Typer KerasRegressor
Hello world
{'HP_L1_REG': 0.1, 'learning_rate': 1e-05, 'kernel_initializer': 'glorot_uniform', 'rate': 0.5, 'units': 200, 'HP_NUM_HIDDEN_LAYERS': 3, 'HP_L2_REG': 0.2, 'activation': 'tanh', 'HP_OPTIMIZER': 'Adagrad'}
Blue
Model: "sequential"
_________________________________________________________________
Layer (type)                 Output Shape              Param #   
=================================================================
dense (Dense)                (None, 200)               2000000   
_________________________________________________________________
dropout (Dropout)            (None, 200)               0         
_________________________________________________________________
dense_1 (Dense)              (None, 200)               40200     
_________________________________________________________________
dropout_1 (Dropout)          (None, 200)               0         
_________________________________________________________________
dense_2 (Dense)              (None, 200)               40200     
_________________________________________________________________
dropout_2 (Dropout)          (None, 200)               0         
_________________________________________________________________
dense_3 (Dense)              (None, 1)                 201       
=================================================================
Total params: 2,080,601
Trainable params: 2,080,601
Non-trainable params: 0
_________________________________________________________________
None
Red
-7.964030046383131
Typer KerasRegressor
Hello world
{'HP_L1_REG': 0.01, 'learning_rate': 0.001, 'kernel_initializer': 'glorot_uniform', 'rate': 0.5, 'units': 1000, 'HP_NUM_HIDDEN_LAYERS': 3, 'HP_L2_REG': 0.2, 'activation': 'relu', 'HP_OPTIMIZER': 'Adam'}
Blue
Model: "sequential"
_________________________________________________________________
Layer (type)                 Output Shape              Param #   
=================================================================
dense (Dense)                (None, 1000)              10000000  
_________________________________________________________________
dropout (Dropout)            (None, 1000)              0         
_________________________________________________________________
dense_1 (Dense)              (None, 1000)              1001000   
_________________________________________________________________
dropout_1 (Dropout)          (None, 1000)              0         
_________________________________________________________________
dense_2 (Dense)              (None, 1000)              1001000   
_________________________________________________________________
dropout_2 (Dropout)          (None, 1000)              0         
_________________________________________________________________
dense_3 (Dense)              (None, 1)                 1001      
=================================================================
Total params: 12,003,001
Trainable params: 12,003,001
Non-trainable params: 0
_________________________________________________________________
None
Red
0.45091565472153794
Typer KerasRegressor
Hello world
{'HP_L1_REG': 0.01, 'learning_rate': 0.01, 'kernel_initializer': 'glorot_uniform', 'rate': 0.0, 'units': 200, 'HP_NUM_HIDDEN_LAYERS': 4, 'HP_L2_REG': 0.0001, 'activation': 'tanh', 'HP_OPTIMIZER': 'Adam'}
Blue
Model: "sequential"
_________________________________________________________________
Layer (type)                 Output Shape              Param #   
=================================================================
dense (Dense)                (None, 200)               2000000   
_________________________________________________________________
dense_1 (Dense)              (None, 200)               40200     
_________________________________________________________________
dense_2 (Dense)              (None, 200)               40200     
_________________________________________________________________
dense_3 (Dense)              (None, 200)               40200     
_________________________________________________________________
dense_4 (Dense)              (None, 1)                 201       
=================================================================
Total params: 2,120,801
Trainable params: 2,120,801
Non-trainable params: 0
_________________________________________________________________
None
Red
0.38811579524112283
Typer KerasRegressor
Hello world
{'HP_L1_REG': 0.0001, 'learning_rate': 1e-05, 'kernel_initializer': 'glorot_uniform', 'rate': 0.2, 'units': 1000, 'HP_NUM_HIDDEN_LAYERS': 4, 'HP_L2_REG': 0.2, 'activation': 'tanh', 'HP_OPTIMIZER': 'SGD'}
Blue
Model: "sequential"
_________________________________________________________________
Layer (type)                 Output Shape              Param #   
=================================================================
dense (Dense)                (None, 1000)              10000000  
_________________________________________________________________
dropout (Dropout)            (None, 1000)              0         
_________________________________________________________________
dense_1 (Dense)              (None, 1000)              1001000   
_________________________________________________________________
dropout_1 (Dropout)          (None, 1000)              0         
_________________________________________________________________
dense_2 (Dense)              (None, 1000)              1001000   
_________________________________________________________________
dropout_2 (Dropout)          (None, 1000)              0         
_________________________________________________________________
dense_3 (Dense)              (None, 1000)              1001000   
_________________________________________________________________
dropout_3 (Dropout)          (None, 1000)              0         
_________________________________________________________________
dense_4 (Dense)              (None, 1)                 1001      
=================================================================
Total params: 13,004,001
Trainable params: 13,004,001
Non-trainable params: 0
_________________________________________________________________
None
Red
-6.355388332363839
Typer KerasRegressor
Hello world
{'HP_L1_REG': 0.0001, 'learning_rate': 0.01, 'kernel_initializer': 'glorot_uniform', 'rate': 0.1, 'units': 200, 'HP_NUM_HIDDEN_LAYERS': 5, 'HP_L2_REG': 0.0001, 'activation': 'relu', 'HP_OPTIMIZER': 'SGD'}
Blue
Model: "sequential"
_________________________________________________________________
Layer (type)                 Output Shape              Param #   
=================================================================
dense (Dense)                (None, 200)               2000000   
_________________________________________________________________
dropout (Dropout)            (None, 200)               0         
_________________________________________________________________
dense_1 (Dense)              (None, 200)               40200     
_________________________________________________________________
dropout_1 (Dropout)          (None, 200)               0         
_________________________________________________________________
dense_2 (Dense)              (None, 200)               40200     
_________________________________________________________________
dropout_2 (Dropout)          (None, 200)               0         
_________________________________________________________________
dense_3 (Dense)              (None, 200)               40200     
_________________________________________________________________
dropout_3 (Dropout)          (None, 200)               0         
_________________________________________________________________
dense_4 (Dense)              (None, 200)               40200     
_________________________________________________________________
dropout_4 (Dropout)          (None, 200)               0         
_________________________________________________________________
dense_5 (Dense)              (None, 1)                 201       
=================================================================
Total params: 2,161,001
Trainable params: 2,161,001
Non-trainable params: 0
_________________________________________________________________
None
Red
0.6066548733773859
Typer KerasRegressor
Hello world
{'HP_L1_REG': 0.001, 'learning_rate': 0.001, 'kernel_initializer': 'glorot_uniform', 'rate': 0.0, 'units': 400, 'HP_NUM_HIDDEN_LAYERS': 3, 'HP_L2_REG': 0.0001, 'activation': 'tanh', 'HP_OPTIMIZER': 'Adam'}
Blue
Model: "sequential"
_________________________________________________________________
Layer (type)                 Output Shape              Param #   
=================================================================
dense (Dense)                (None, 400)               4000000   
_________________________________________________________________
dense_1 (Dense)              (None, 400)               160400    
_________________________________________________________________
dense_2 (Dense)              (None, 400)               160400    
_________________________________________________________________
dense_3 (Dense)              (None, 1)                 401       
=================================================================
Total params: 4,321,201
Trainable params: 4,321,201
Non-trainable params: 0
_________________________________________________________________
None
Red
0.5927931787166629
Typer KerasRegressor
Hello world
{'HP_L1_REG': 0.01, 'learning_rate': 0.01, 'kernel_initializer': 'glorot_uniform', 'rate': 0.1, 'units': 200, 'HP_NUM_HIDDEN_LAYERS': 3, 'HP_L2_REG': 0.01, 'activation': 'relu', 'HP_OPTIMIZER': 'SGD'}
Blue
Model: "sequential"
_________________________________________________________________
Layer (type)                 Output Shape              Param #   
=================================================================
dense (Dense)                (None, 200)               2000000   
_________________________________________________________________
dropout (Dropout)            (None, 200)               0         
_________________________________________________________________
dense_1 (Dense)              (None, 200)               40200     
_________________________________________________________________
dropout_1 (Dropout)          (None, 200)               0         
_________________________________________________________________
dense_2 (Dense)              (None, 200)               40200     
_________________________________________________________________
dropout_2 (Dropout)          (None, 200)               0         
_________________________________________________________________
dense_3 (Dense)              (None, 1)                 201       
=================================================================
…
{'activation': 'tanh', 'filters': 2, 'epochs': 100, 'kernel': 1, 'HP_L2_REG': 0.2, 'HP_OPTIMIZER': 'SGD', 'HP_L1_REG': 0.1, 'learning_rate': 0.01, 'kernel_initializer': 'glorot_uniform', 'rate': 0.0, 'pool': 1, 'units': 200, 'HP_NUM_HIDDEN_LAYERS': 3, 'strides': 1}
Blue
Model: "sequential"
_________________________________________________________________
Layer (type)                 Output Shape              Param #   
=================================================================
conv1d (Conv1D)              (None, 9999, 2)           4         
_________________________________________________________________
max_pooling1d (MaxPooling1D) (None, 9999, 2)           0         
_________________________________________________________________
conv1d_1 (Conv1D)            (None, 9999, 2)           6         
_________________________________________________________________
max_pooling1d_1 (MaxPooling1 (None, 9999, 2)           0         
_________________________________________________________________
flatten (Flatten)            (None, 19998)             0         
_________________________________________________________________
dense (Dense)                (None, 1)                 19999     
=================================================================
Total params: 20,009
Trainable params: 20,009
Non-trainable params: 0
_________________________________________________________________
Summary  None
Red
0.6676883784650567
Typer KerasRegressor
Hello world
{'activation': 'tanh', 'filters': 1, 'epochs': 100, 'kernel': 2, 'HP_L2_REG': 0.2, 'HP_OPTIMIZER': 'SGD', 'HP_L1_REG': 0.1, 'learning_rate': 0.01, 'kernel_initializer': 'glorot_uniform', 'rate': 0.0, 'pool': 1, 'units': 200, 'HP_NUM_HIDDEN_LAYERS': 3, 'strides': 2}
Blue
Model: "sequential"
_________________________________________________________________
Layer (type)                 Output Shape              Param #   
=================================================================
conv1d (Conv1D)              (None, 4999, 1)           3         
_________________________________________________________________
max_pooling1d (MaxPooling1D) (None, 2500, 1)           0         
_________________________________________________________________
conv1d_1 (Conv1D)            (None, 1250, 1)           3         
_________________________________________________________________
max_pooling1d_1 (MaxPooling1 (None, 625, 1)            0         
_________________________________________________________________
flatten (Flatten)            (None, 625)               0         
_________________________________________________________________
dense (Dense)                (None, 1)                 626       
=================================================================
Total params: 632
Trainable params: 632
Non-trainable params: 0
_________________________________________________________________
Summary  None
Red
-0.020289349195401707
Typer KerasRegressor
Hello world
{'activation': 'tanh', 'filters': 2, 'epochs': 100, 'kernel': 1, 'HP_L2_REG': 0.2, 'HP_OPTIMIZER': 'SGD', 'HP_L1_REG': 0.1, 'learning_rate': 0.001, 'kernel_initializer': 'glorot_uniform', 'rate': 0.0, 'pool': 2, 'units': 200, 'HP_NUM_HIDDEN_LAYERS': 3, 'strides': 1}
Blue
Model: "sequential"
_________________________________________________________________
Layer (type)                 Output Shape              Param #   
=================================================================
conv1d (Conv1D)              (None, 9999, 2)           4         
_________________________________________________________________
max_pooling1d (MaxPooling1D) (None, 9998, 2)           0         
_________________________________________________________________
conv1d_1 (Conv1D)            (None, 9998, 2)           6         
_________________________________________________________________
max_pooling1d_1 (MaxPooling1 (None, 9997, 2)           0         
_________________________________________________________________
flatten (Flatten)            (None, 19994)             0         
_________________________________________________________________
dense (Dense)                (None, 1)                 19995     
=================================================================
Total params: 20,005
Trainable params: 20,005
Non-trainable params: 0
_________________________________________________________________
Summary  None
Red
0.5435363353881448
Typer KerasRegressor
Hello world
{'activation': 'tanh', 'filters': 2, 'epochs': 100, 'kernel': 1, 'HP_L2_REG': 0.2, 'HP_OPTIMIZER': 'SGD', 'HP_L1_REG': 0.1, 'learning_rate': 0.01, 'kernel_initializer': 'glorot_uniform', 'rate': 0.0, 'pool': 2, 'units': 200, 'HP_NUM_HIDDEN_LAYERS': 3, 'strides': 1}
Blue
Model: "sequential"
_________________________________________________________________
Layer (type)                 Output Shape              Param #   
=================================================================
conv1d (Conv1D)              (None, 9999, 2)           4         
_________________________________________________________________
max_pooling1d (MaxPooling1D) (None, 9998, 2)           0         
_________________________________________________________________
conv1d_1 (Conv1D)            (None, 9998, 2)           6         
_________________________________________________________________
max_pooling1d_1 (MaxPooling1 (None, 9997, 2)           0         
_________________________________________________________________
flatten (Flatten)            (None, 19994)             0         
_________________________________________________________________
dense (Dense)                (None, 1)                 19995     
=================================================================
Total params: 20,005
Trainable params: 20,005
Non-trainable params: 0
_________________________________________________________________
Summary  None
Red
0.16154809193184239
Typer KerasRegressor
Hello world
{'activation': 'tanh', 'filters': 1, 'epochs': 100, 'kernel': 2, 'HP_L2_REG': 0.2, 'HP_OPTIMIZER': 'SGD', 'HP_L1_REG': 0.1, 'learning_rate': 0.01, 'kernel_initializer': 'glorot_uniform', 'rate': 0.0, 'pool': 1, 'units': 200, 'HP_NUM_HIDDEN_LAYERS': 3, 'strides': 1}
Blue
Model: "sequential"
_________________________________________________________________
Layer (type)                 Output Shape              Param #   
=================================================================
conv1d (Conv1D)              (None, 9998, 1)           3         
_________________________________________________________________
max_pooling1d (MaxPooling1D) (None, 9998, 1)           0         
_________________________________________________________________
conv1d_1 (Conv1D)            (None, 9997, 1)           3         
_________________________________________________________________
max_pooling1d_1 (MaxPooling1 (None, 9997, 1)           0         
_________________________________________________________________
flatten (Flatten)            (None, 9997)              0         
_________________________________________________________________
dense (Dense)                (None, 1)                 9998      
=================================================================
Total params: 10,004
Trainable params: 10,004
Non-trainable params: 0
_________________________________________________________________
Summary  None
Red
0.650064622006749
Typer KerasRegressor
Hello world
{'activation': 'tanh', 'filters': 1, 'epochs': 200, 'kernel': 2, 'HP_L2_REG': 0.2, 'HP_OPTIMIZER': 'SGD', 'HP_L1_REG': 0.1, 'learning_rate': 0.01, 'kernel_initializer': 'glorot_uniform', 'rate': 0.0, 'pool': 1, 'units': 200, 'HP_NUM_HIDDEN_LAYERS': 3, 'strides': 2}
Blue
Model: "sequential"
_________________________________________________________________
Layer (type)                 Output Shape              Param #   
=================================================================
conv1d (Conv1D)              (None, 4999, 1)           3         
_________________________________________________________________
max_pooling1d (MaxPooling1D) (None, 2500, 1)           0         
_________________________________________________________________
conv1d_1 (Conv1D)            (None, 1250, 1)           3         
_________________________________________________________________
max_pooling1d_1 (MaxPooling1 (None, 625, 1)            0         
_________________________________________________________________
flatten (Flatten)            (None, 625)               0         
_________________________________________________________________
dense (Dense)                (None, 1)                 626       
=================================================================
Total params: 632
Trainable params: 632
Non-trainable params: 0
_________________________________________________________________
Summary  None
Red
-0.015408108957973843
Typer KerasRegressor
Hello world
{'activation': 'tanh', 'filters': 1, 'epochs': 200, 'kernel': 2, 'HP_L2_REG': 0.2, 'HP_OPTIMIZER': 'SGD', 'HP_L1_REG': 0.1, 'learning_rate': 0.001, 'kernel_initializer': 'glorot_uniform', 'rate': 0.0, 'pool': 1, 'units': 200, 'HP_NUM_HIDDEN_LAYERS': 3, 'strides': 1}
Blue
Model: "sequential"
_________________________________________________________________
Layer (type)                 Output Shape              Param #   
=================================================================
conv1d (Conv1D)              (None, 9998, 1)           3         
_________________________________________________________________
max_pooling1d (MaxPooling1D) (None, 9998, 1)           0         
_________________________________________________________________
conv1d_1 (Conv1D)            (None, 9997, 1)           3         
_________________________________________________________________
max_pooling1d_1 (MaxPooling1 (None, 9997, 1)           0         
_________________________________________________________________
flatten (Flatten)            (None, 9997)              0         
_________________________________________________________________
dense (Dense)                (None, 1)                 9998      
=================================================================
Total params: 10,004
Trainable params: 10,004
Non-trainable params: 0
_________________________________________________________________
Summary  None
Red
0.6396278998304885
Typer KerasRegressor
Hello world
INNER COUNT NO.  4
{'activation': 'tanh', 'filters': 2, 'epochs': 100, 'kernel': 2, 'HP_L2_REG': 0.2, 'HP_OPTIMIZER': 'SGD', 'HP_L1_REG': 0.1, 'learning_rate': 0.01, 'kernel_initializer': 'glorot_uniform', 'rate': 0.0, 'pool': 1, 'units': 200, 'HP_NUM_HIDDEN_LAYERS': 3, 'strides': 2}
Blue
Model: "sequential"
_________________________________________________________________
Layer (type)                 Output Shape              Param #   
=================================================================
conv1d (Conv1D)              (None, 4999, 2)           6         
_________________________________________________________________
max_pooling1d (MaxPooling1D) (None, 2500, 2)           0         
_________________________________________________________________
conv1d_1 (Conv1D)            (None, 1250, 2)           10        
_________________________________________________________________
max_pooling1d_1 (MaxPooling1 (None, 625, 2)            0         
_________________________________________________________________
flatten (Flatten)            (None, 1250)              0         
_________________________________________________________________
dense (Dense)                (None, 1)                 1251      
=================================================================
Total params: 1,267
Trainable params: 1,267
Non-trainable params: 0
_________________________________________________________________
Summary  None
Red
-0.012416876482890471
Typer KerasRegressor
Hello world
{'activation': 'tanh', 'filters': 1, 'epochs': 200, 'kernel': 1, 'HP_L2_REG': 0.2, 'HP_OPTIMIZER': 'SGD', 'HP_L1_REG': 0.1, 'learning_rate': 0.01, 'kernel_initializer': 'glorot_uniform', 'rate': 0.0, 'pool': 1, 'units': 200, 'HP_NUM_HIDDEN_LAYERS': 3, 'strides': 2}
Blue
Model: "sequential"
_________________________________________________________________
Layer (type)                 Output Shape              Param #   
=================================================================
conv1d (Conv1D)              (None, 5000, 1)           2         
_________________________________________________________________
max_pooling1d (MaxPooling1D) (None, 2500, 1)           0         
_________________________________________________________________
conv1d_1 (Conv1D)            (None, 1250, 1)           2         
_________________________________________________________________
max_pooling1d_1 (MaxPooling1 (None, 625, 1)            0         
_________________________________________________________________
flatten (Flatten)            (None, 625)               0         
_________________________________________________________________
dense (Dense)                (None, 1)                 626       
=================================================================
Total params: 630
Trainable params: 630
Non-trainable params: 0
_________________________________________________________________
Summary  None
Red
-0.008302126919825126
Typer KerasRegressor
Hello world
{'activation': 'tanh', 'filters': 2, 'epochs': 200, 'kernel': 1, 'HP_L2_REG': 0.2, 'HP_OPTIMIZER': 'SGD', 'HP_L1_REG': 0.1, 'learning_rate': 0.01, 'kernel_initializer': 'glorot_uniform', 'rate': 0.0, 'pool': 1, 'units': 200, 'HP_NUM_HIDDEN_LAYERS': 3, 'strides': 2}
Blue
Model: "sequential"
_________________________________________________________________
Layer (type)                 Output Shape              Param #   
=================================================================
conv1d (Conv1D)              (None, 5000, 2)           4         
_________________________________________________________________
max_pooling1d (MaxPooling1D) (None, 2500, 2)           0         
_________________________________________________________________
conv1d_1 (Conv1D)            (None, 1250, 2)           6         
_________________________________________________________________
max_pooling1d_1 (MaxPooling1 (None, 625, 2)            0         
_________________________________________________________________
flatten (Flatten)            (None, 1250)              0         
_________________________________________________________________
dense (Dense)                (None, 1)                 1251      
=================================================================
Total params: 1,261
Trainable params: 1,261
Non-trainable params: 0
_________________________________________________________________
Summary  None
Red
-0.02663680759202358
Typer KerasRegressor
Hello world
{'activation': 'tanh', 'filters': 1, 'epochs': 100, 'kernel': 1, 'HP_L2_REG': 0.2, 'HP_OPTIMIZER': 'SGD', 'HP_L1_REG': 0.1, 'learning_rate': 0.001, 'kernel_initializer': 'glorot_uniform', 'rate': 0.0, 'pool': 1, 'units': 200, 'HP_NUM_HIDDEN_LAYERS': 3, 'strides': 1}
Blue
Model: "sequential"
_________________________________________________________________
Layer (type)                 Output Shape              Param #   
=================================================================
conv1d (Conv1D)              (None, 9999, 1)           2         
_________________________________________________________________
max_pooling1d (MaxPooling1D) (None, 9999, 1)           0         
_________________________________________________________________
conv1d_1 (Conv1D)            (None, 9999, 1)           2         
_________________________________________________________________
max_pooling1d_1 (MaxPooling1 (None, 9999, 1)           0         
_________________________________________________________________
flatten (Flatten)            (None, 9999)              0         
_________________________________________________________________
dense (Dense)                (None, 1)                 10000     
=================================================================
Total params: 10,004
Trainable params: 10,004
Non-trainable params: 0
_________________________________________________________________
Summary  None
Red
0.37629847896530055
Typer KerasRegressor
Hello world
{'activation': 'tanh', 'filters': 2, 'epochs': 100, 'kernel': 1, 'HP_L2_REG': 0.2, 'HP_OPTIMIZER': 'SGD', 'HP_L1_REG': 0.1, 'learning_rate': 0.001, 'kernel_initializer': 'glorot_uniform', 'rate': 0.0, 'pool': 1, 'units': 200, 'HP_NUM_HIDDEN_LAYERS': 3, 'strides': 1}
Blue
Model: "sequential"
_________________________________________________________________
Layer (type)                 Output Shape              Param #   
=================================================================
conv1d (Conv1D)              (None, 9999, 2)           4         
_________________________________________________________________
max_pooling1d (MaxPooling1D) (None, 9999, 2)           0         
_________________________________________________________________
conv1d_1 (Conv1D)            (None, 9999, 2)           6         
_________________________________________________________________
max_pooling1d_1 (MaxPooling1 (None, 9999, 2)           0         
_________________________________________________________________
flatten (Flatten)            (None, 19998)             0         
_________________________________________________________________
dense (Dense)                (None, 1)                 19999     
=================================================================
Total params: 20,009
Trainable params: 20,009
Non-trainable params: 0
_________________________________________________________________
Summary  None
Red
0.5856106057373942
Typer KerasRegressor
Hello world
{'activation': 'tanh', 'filters': 1, 'epochs': 200, 'kernel': 2, 'HP_L2_REG': 0.2, 'HP_OPTIMIZER': 'SGD', 'HP_L1_REG': 0.1, 'learning_rate': 0.001, 'kernel_initializer': 'glorot_uniform', 'rate': 0.0, 'pool': 1, 'units': 200, 'HP_NUM_HIDDEN_LAYERS': 3, 'strides': 2}
Blue
Model: "sequential"
_________________________________________________________________
Layer (type)                 Output Shape              Param #   
=================================================================
conv1d (Conv1D)              (None, 4999, 1)           3         
_________________________________________________________________
max_pooling1d (MaxPooling1D) (None, 2500, 1)           0         
_________________________________________________________________
conv1d_1 (Conv1D)            (None, 1250, 1)           3         
_________________________________________________________________
max_pooling1d_1 (MaxPooling1 (None, 625, 1)            0         
_________________________________________________________________
flatten (Flatten)            (None, 625)               0         
_________________________________________________________________
dense (Dense)                (None, 1)                 626       
=================================================================
Total params: 632
Trainable params: 632
Non-trainable params: 0
_________________________________________________________________
Summary  None
Red
-0.02120878626012046
Typer KerasRegressor
Hello world
{'activation': 'tanh', 'filters': 1, 'epochs': 100, 'kernel': 2, 'HP_L2_REG': 0.2, 'HP_OPTIMIZER': 'SGD', 'HP_L1_REG': 0.1, 'learning_rate': 0.001, 'kernel_initializer': 'glorot_uniform', 'rate': 0.0, 'pool': 1, 'units': 200, 'HP_NUM_HIDDEN_LAYERS': 3, 'strides': 2}
Blue
Model: "sequential"
_________________________________________________________________
Layer (type)                 Output Shape              Param #   
=================================================================
conv1d (Conv1D)              (None, 4999, 1)           3         
_________________________________________________________________
max_pooling1d (MaxPooling1D) (None, 2500, 1)           0         
_________________________________________________________________
conv1d_1 (Conv1D)            (None, 1250, 1)           3         
_________________________________________________________________
max_pooling1d_1 (MaxPooling1 (None, 625, 1)            0         
_________________________________________________________________
flatten (Flatten)            (None, 625)               0         
_________________________________________________________________
dense (Dense)                (None, 1)                 626       
=================================================================
Total params: 632
Trainable params: 632
Non-trainable params: 0
_________________________________________________________________
Summary  None
Red
-0.02365778039862998
Typer KerasRegressor
Hello world
{'activation': 'tanh', 'filters': 1, 'epochs': 100, 'kernel': 1, 'HP_L2_REG': 0.2, 'HP_OPTIMIZER': 'SGD', 'HP_L1_REG': 0.1, 'learning_rate': 0.01, 'kernel_initializer': 'glorot_uniform', 'rate': 0.0, 'pool': 1, 'units': 200, 'HP_NUM_HIDDEN_LAYERS': 3, 'strides': 1}
Blue
Model: "sequential"
_________________________________________________________________
Layer (type)                 Output Shape              Param #   
=================================================================
conv1d (Conv1D)              (None, 9999, 1)           2         
_________________________________________________________________
max_pooling1d (MaxPooling1D) (None, 9999, 1)           0         
_________________________________________________________________
conv1d_1 (Conv1D)            (None, 9999, 1)           2         
_________________________________________________________________
max_pooling1d_1 (MaxPooling1 (None, 9999, 1)           0         
_________________________________________________________________
flatten (Flatten)            (None, 9999)              0         
_________________________________________________________________
dense (Dense)                (None, 1)                 10000     
=================================================================
Total params: 10,004
Trainable params: 10,004
Non-trainable params: 0
_________________________________________________________________
Summary  None
Red
0.5836293050680588
Typer KerasRegressor
Hello world
{'activation': 'tanh', 'filters': 2, 'epochs': 200, 'kernel': 2, 'HP_L2_REG': 0.2, 'HP_OPTIMIZER': 'SGD', 'HP_L1_REG': 0.1, 'learning_rate': 0.01, 'kernel_initializer': 'glorot_uniform', 'rate': 0.0, 'pool': 1, 'units': 200, 'HP_NUM_HIDDEN_LAYERS': 3, 'strides': 1}
Blue
Model: "sequential"
_________________________________________________________________
Layer (type)                 Output Shape              Param #   
=================================================================
conv1d (Conv1D)              (None, 9998, 2)           6         
_________________________________________________________________
max_pooling1d (MaxPooling1D) (None, 9998, 2)           0         
_________________________________________________________________
conv1d_1 (Conv1D)            (None, 9997, 2)           10        
_________________________________________________________________
max_pooling1d_1 (MaxPooling1 (None, 9997, 2)           0         
_________________________________________________________________
flatten (Flatten)            (None, 19994)             0         
_________________________________________________________________
dense (Dense)                (None, 1)                 19995     
=================================================================
Total params: 20,011
Trainable params: 20,011
Non-trainable params: 0
_________________________________________________________________
Summary  None
Red
0.6118425249052926
Typer KerasRegressor
Hello world
{'activation': 'tanh', 'filters': 1, 'epochs': 100, 'kernel': 2, 'HP_L2_REG': 0.2, 'HP_OPTIMIZER': 'SGD', 'HP_L1_REG': 0.1, 'learning_rate': 0.001, 'kernel_initializer': 'glorot_uniform', 'rate': 0.0, 'pool': 2, 'units': 200, 'HP_NUM_HIDDEN_LAYERS': 3, 'strides': 1}
Blue
Model: "sequential"
_________________________________________________________________
Layer (type)                 Output Shape              Param #   
=================================================================
conv1d (Conv1D)              (None, 9998, 1)           3         
_________________________________________________________________
max_pooling1d (MaxPooling1D) (None, 9997, 1)           0         
_________________________________________________________________
conv1d_1 (Conv1D)            (None, 9996, 1)           3         
_________________________________________________________________
max_pooling1d_1 (MaxPooling1 (None, 9995, 1)           0         
_________________________________________________________________
flatten (Flatten)            (None, 9995)              0         
_________________________________________________________________
dense (Dense)                (None, 1)                 9996      
=================================================================
Total params: 10,002
Trainable params: 10,002
Non-trainable params: 0
_________________________________________________________________
Summary  None
Red
0.5622050996118065
Typer KerasRegressor
Hello world
{'activation': 'tanh', 'filters': 2, 'epochs': 200, 'kernel': 1, 'HP_L2_REG': 0.2, 'HP_OPTIMIZER': 'SGD', 'HP_L1_REG': 0.1, 'learning_rate': 0.001, 'kernel_initializer': 'glorot_uniform', 'rate': 0.0, 'pool': 1, 'units': 200, 'HP_NUM_HIDDEN_LAYERS': 3, 'strides': 1}
Blue
Model: "sequential"
_________________________________________________________________
Layer (type)                 Output Shape              Param #   
=================================================================
conv1d (Conv1D)              (None, 9999, 2)           4         
_________________________________________________________________
max_pooling1d (MaxPooling1D) (None, 9999, 2)           0         
_________________________________________________________________
conv1d_1 (Conv1D)            (None, 9999, 2)           6         
_________________________________________________________________
max_pooling1d_1 (MaxPooling1 (None, 9999, 2)           0         
_________________________________________________________________
flatten (Flatten)            (None, 19998)             0         
_________________________________________________________________
dense (Dense)                (None, 1)                 19999     
=================================================================
Total params: 20,009
Trainable params: 20,009
Non-trainable params: 0
_________________________________________________________________
Summary  None
Red
0.6138308180555526
Typer KerasRegressor
Hello world
{'activation': 'tanh', 'filters': 1, 'epochs': 200, 'kernel': 1, 'HP_L2_REG': 0.2, 'HP_OPTIMIZER': 'SGD', 'HP_L1_REG': 0.1, 'learning_rate': 0.01, 'kernel_initializer': 'glorot_uniform', 'rate': 0.0, 'pool': 2, 'units': 200, 'HP_NUM_HIDDEN_LAYERS': 3, 'strides': 2}
Blue
Model: "sequential"
_________________________________________________________________
Layer (type)                 Output Shape              Param #   
=================================================================
conv1d (Conv1D)              (None, 5000, 1)           2         
_________________________________________________________________
max_pooling1d (MaxPooling1D) (None, 2500, 1)           0         
_________________________________________________________________
conv1d_1 (Conv1D)            (None, 1250, 1)           2         
_________________________________________________________________
max_pooling1d_1 (MaxPooling1 (None, 625, 1)            0         
_________________________________________________________________
flatten (Flatten)            (None, 625)               0         
_________________________________________________________________
dense (Dense)                (None, 1)                 626       
=================================================================
Total params: 630
Trainable params: 630
Non-trainable params: 0
_________________________________________________________________
Summary  None
Red
-0.007288161032841467
Typer KerasRegressor
Hello world
{'activation': 'tanh', 'filters': 1, 'epochs': 200, 'kernel': 2, 'HP_L2_REG': 0.2, 'HP_OPTIMIZER': 'SGD', 'HP_L1_REG': 0.1, 'learning_rate': 0.01, 'kernel_initializer': 'glorot_uniform', 'rate': 0.0, 'pool': 1, 'units': 200, 'HP_NUM_HIDDEN_LAYERS': 3, 'strides': 2}
Blue
Model: "sequential"
_________________________________________________________________
Layer (type)                 Output Shape              Param #   
=================================================================
conv1d (Conv1D)              (None, 4999, 1)           3         
_________________________________________________________________
max_pooling1d (MaxPooling1D) (None, 2500, 1)           0         
_________________________________________________________________
conv1d_1 (Conv1D)            (None, 1250, 1)           3         
_________________________________________________________________
max_pooling1d_1 (MaxPooling1 (None, 625, 1)            0         
_________________________________________________________________
flatten (Flatten)            (None, 625)               0         
_________________________________________________________________
dense (Dense)                (None, 1)                 626       
=================================================================
Total params: 632
Trainable params: 632
Non-trainable params: 0
_________________________________________________________________
Summary  None
Red
-0.0263203611274756
Typer KerasRegressor
Hello world
{'activation': 'tanh', 'filters': 2, 'epochs': 100, 'kernel': 2, 'HP_L2_REG': 0.2, 'HP_OPTIMIZER': 'SGD', 'HP_L1_REG': 0.1, 'learning_rate': 0.001, 'kernel_initializer': 'glorot_uniform', 'rate': 0.0, 'pool': 2, 'units': 200, 'HP_NUM_HIDDEN_LAYERS': 3, 'strides': 1}
Blue
Model: "sequential"
_________________________________________________________________
Layer (type)                 Output Shape              Param #   
=================================================================
conv1d (Conv1D)              (None, 9998, 2)           6         
_________________________________________________________________
max_pooling1d (MaxPooling1D) (None, 9997, 2)           0         
_________________________________________________________________
conv1d_1 (Conv1D)            (None, 9996, 2)           10        
_________________________________________________________________
max_pooling1d_1 (MaxPooling1 (None, 9995, 2)           0         
_________________________________________________________________
flatten (Flatten)            (None, 19990)             0         
_________________________________________________________________
dense (Dense)                (None, 1)                 19991     
=================================================================
Total params: 20,007
Trainable params: 20,007
Non-trainable params: 0
_________________________________________________________________
Summary  None
Red
0.6010459557425588
Typer KerasRegressor
Hello world
{'activation': 'tanh', 'filters': 1, 'epochs': 100, 'kernel': 1, 'HP_L2_REG': 0.2, 'HP_OPTIMIZER': 'SGD', 'HP_L1_REG': 0.1, 'learning_rate': 0.001, 'kernel_initializer': 'glorot_uniform', 'rate': 0.0, 'pool': 1, 'units': 200, 'HP_NUM_HIDDEN_LAYERS': 3, 'strides': 2}
Blue
Model: "sequential"
_________________________________________________________________
Layer (type)                 Output Shape              Param #   
=================================================================
conv1d (Conv1D)              (None, 5000, 1)           2         
_________________________________________________________________
max_pooling1d (MaxPooling1D) (None, 2500, 1)           0         
_________________________________________________________________
conv1d_1 (Conv1D)            (None, 1250, 1)           2         
_________________________________________________________________
max_pooling1d_1 (MaxPooling1 (None, 625, 1)            0         
_________________________________________________________________
flatten (Flatten)            (None, 625)               0         
_________________________________________________________________
dense (Dense)                (None, 1)                 626       
=================================================================
Total params: 630
Trainable params: 630
Non-trainable params: 0
_________________________________________________________________
Summary  None
Red
-0.023549912623507474
Typer KerasRegressor
Hello world
{'activation': 'tanh', 'filters': 2, 'epochs': 100, 'kernel': 1, 'HP_L2_REG': 0.2, 'HP_OPTIMIZER': 'SGD', 'HP_L1_REG': 0.1, 'learning_rate': 0.001, 'kernel_initializer': 'glorot_uniform', 'rate': 0.0, 'pool': 2, 'units': 200, 'HP_NUM_HIDDEN_LAYERS': 3, 'strides': 1}
Blue
Model: "sequential"
_________________________________________________________________
Layer (type)                 Output Shape              Param #   
=================================================================
conv1d (Conv1D)              (None, 9999, 2)           4         
_________________________________________________________________
max_pooling1d (MaxPooling1D) (None, 9998, 2)           0         
_________________________________________________________________
conv1d_1 (Conv1D)            (None, 9998, 2)           6         
_________________________________________________________________
max_pooling1d_1 (MaxPooling1 (None, 9997, 2)           0         
_________________________________________________________________
flatten (Flatten)            (None, 19994)             0         
_________________________________________________________________
dense (Dense)                (None, 1)                 19995     
=================================================================
Total params: 20,005
Trainable params: 20,005
Non-trainable params: 0
_________________________________________________________________
Summary  None
Red
0.6197935333488833
Typer KerasRegressor
Hello world
{'activation': 'tanh', 'filters': 1, 'epochs': 100, 'kernel': 2, 'HP_L2_REG': 0.2, 'HP_OPTIMIZER': 'SGD', 'HP_L1_REG': 0.1, 'learning_rate': 0.001, 'kernel_initializer': 'glorot_uniform', 'rate': 0.0, 'pool': 2, 'units': 200, 'HP_NUM_HIDDEN_LAYERS': 3, 'strides': 2}
Blue
Model: "sequential"
_________________________________________________________________
Layer (type)                 Output Shape              Param #   
=================================================================
conv1d (Conv1D)              (None, 4999, 1)           3         
_________________________________________________________________
max_pooling1d (MaxPooling1D) (None, 2499, 1)           0         
_________________________________________________________________
conv1d_1 (Conv1D)            (None, 1249, 1)           3         
_________________________________________________________________
max_pooling1d_1 (MaxPooling1 (None, 624, 1)            0         
_________________________________________________________________
flatten (Flatten)            (None, 624)               0         
_________________________________________________________________
dense (Dense)                (None, 1)                 625       
=================================================================
Total params: 631
Trainable params: 631
Non-trainable params: 0
_________________________________________________________________
Summary  None
Red
-0.025131895187699316
Typer KerasRegressor
Hello world
{'activation': 'tanh', 'filters': 1, 'epochs': 100, 'kernel': 1, 'HP_L2_REG': 0.2, 'HP_OPTIMIZER': 'SGD', 'HP_L1_REG': 0.1, 'learning_rate': 0.01, 'kernel_initializer': 'glorot_uniform', 'rate': 0.0, 'pool': 1, 'units': 200, 'HP_NUM_HIDDEN_LAYERS': 3, 'strides': 2}
Blue
Model: "sequential"
_________________________________________________________________
Layer (type)                 Output Shape              Param #   
=================================================================
conv1d (Conv1D)              (None, 5000, 1)           2         
_________________________________________________________________
max_pooling1d (MaxPooling1D) (None, 2500, 1)           0         
_________________________________________________________________
conv1d_1 (Conv1D)            (None, 1250, 1)           2         
_________________________________________________________________
max_pooling1d_1 (MaxPooling1 (None, 625, 1)            0         
_________________________________________________________________
flatten (Flatten)            (None, 625)               0         
_________________________________________________________________
dense (Dense)                (None, 1)                 626       
=================================================================
Total params: 630
Trainable params: 630
Non-trainable params: 0
_________________________________________________________________
Summary  None
Red
-0.06187752043781036
Typer KerasRegressor
Hello world
{'activation': 'tanh', 'filters': 2, 'epochs': 200, 'kernel': 1, 'HP_L2_REG': 0.2, 'HP_OPTIMIZER': 'SGD', 'HP_L1_REG': 0.1, 'learning_rate': 0.01, 'kernel_initializer': 'glorot_uniform', 'rate': 0.0, 'pool': 2, 'units': 200, 'HP_NUM_HIDDEN_LAYERS': 3, 'strides': 2}
Blue
Model: "sequential"
_________________________________________________________________
Layer (type)                 Output Shape              Param #   
=================================================================
conv1d (Conv1D)              (None, 5000, 2)           4         
_________________________________________________________________
max_pooling1d (MaxPooling1D) (None, 2500, 2)           0         
_________________________________________________________________
conv1d_1 (Conv1D)            (None, 1250, 2)           6         
_________________________________________________________________
max_pooling1d_1 (MaxPooling1 (None, 625, 2)            0         
_________________________________________________________________
flatten (Flatten)            (None, 1250)              0         
_________________________________________________________________
dense (Dense)                (None, 1)                 1251      
=================================================================
Total params: 1,261
Trainable params: 1,261
Non-trainable params: 0
_________________________________________________________________
Summary  None
Red
-0.02258610262259908
Typer KerasRegressor
Hello world
{'activation': 'tanh', 'filters': 1, 'epochs': 100, 'kernel': 1, 'HP_L2_REG': 0.2, 'HP_OPTIMIZER': 'SGD', 'HP_L1_REG': 0.1, 'learning_rate': 0.01, 'kernel_initializer': 'glorot_uniform', 'rate': 0.0, 'pool': 2, 'units': 200, 'HP_NUM_HIDDEN_LAYERS': 3, 'strides': 1}
Blue
Model: "sequential"
_________________________________________________________________
Layer (type)                 Output Shape              Param #   
=================================================================
conv1d (Conv1D)              (None, 9999, 1)           2         
_________________________________________________________________
max_pooling1d (MaxPooling1D) (None, 9998, 1)           0         
_________________________________________________________________
conv1d_1 (Conv1D)            (None, 9998, 1)           2         
_________________________________________________________________
max_pooling1d_1 (MaxPooling1 (None, 9997, 1)           0         
_________________________________________________________________
flatten (Flatten)            (None, 9997)              0         
_________________________________________________________________
dense (Dense)                (None, 1)                 9998      
=================================================================
Total params: 10,002
Trainable params: 10,002
Non-trainable params: 0
_________________________________________________________________
Summary  None
Red
-1.3626254922453422
Typer KerasRegressor
Hello world
{'activation': 'tanh', 'filters': 2, 'epochs': 200, 'kernel': 1, 'HP_L2_REG': 0.2, 'HP_OPTIMIZER': 'SGD', 'HP_L1_REG': 0.1, 'learning_rate': 0.01, 'kernel_initializer': 'glorot_uniform', 'rate': 0.0, 'pool': 2, 'units': 200, 'HP_NUM_HIDDEN_LAYERS': 3, 'strides': 1}
Blue
Model: "sequential"
_________________________________________________________________
Layer (type)                 Output Shape              Param #   
=================================================================
conv1d (Conv1D)              (None, 9999, 2)           4         
_________________________________________________________________
max_pooling1d (MaxPooling1D) (None, 9998, 2)           0         
_________________________________________________________________
conv1d_1 (Conv1D)            (None, 9998, 2)           6         
_________________________________________________________________
max_pooling1d_1 (MaxPooling1 (None, 9997, 2)           0         
_________________________________________________________________
flatten (Flatten)            (None, 19994)             0         
_________________________________________________________________
dense (Dense)                (None, 1)                 19995     
=================================================================
Total params: 20,005
Trainable params: 20,005
Non-trainable params: 0
_________________________________________________________________
Summary  None
Red
0.5303579129700906
Typer KerasRegressor
Hello world
{'activation': 'tanh', 'filters': 1, 'epochs': 200, 'kernel': 2, 'HP_L2_REG': 0.2, 'HP_OPTIMIZER': 'SGD', 'HP_L1_REG': 0.1, 'learning_rate': 0.01, 'kernel_initializer': 'glorot_uniform', 'rate': 0.0, 'pool': 2, 'units': 200, 'HP_NUM_HIDDEN_LAYERS': 3, 'strides': 2}
Blue
Model: "sequential"
_________________________________________________________________
Layer (type)                 Output Shape              Param #   
=================================================================
conv1d (Conv1D)              (None, 4999, 1)           3         
_________________________________________________________________
max_pooling1d (MaxPooling1D) (None, 2499, 1)           0         
_________________________________________________________________
conv1d_1 (Conv1D)            (None, 1249, 1)           3         
_________________________________________________________________
max_pooling1d_1 (MaxPooling1 (None, 624, 1)            0         
_________________________________________________________________
flatten (Flatten)            (None, 624)               0         
_________________________________________________________________
dense (Dense)                (None, 1)                 625       
=================================================================
Total params: 631
Trainable params: 631
Non-trainable params: 0
_________________________________________________________________
Summary  None
Red
-0.02745046662018913
Typer KerasRegressor
Hello world
{'activation': 'tanh', 'filters': 2, 'epochs': 200, 'kernel': 2, 'HP_L2_REG': 0.2, 'HP_OPTIMIZER': 'SGD', 'HP_L1_REG': 0.1, 'learning_rate': 0.001, 'kernel_initializer': 'glorot_uniform', 'rate': 0.0, 'pool': 1, 'units': 200, 'HP_NUM_HIDDEN_LAYERS': 3, 'strides': 1}
Blue
Model: "sequential"
_________________________________________________________________
Layer (type)                 Output Shape              Param #   
=================================================================
conv1d (Conv1D)              (None, 9998, 2)           6         
_________________________________________________________________
max_pooling1d (MaxPooling1D) (None, 9998, 2)           0         
_________________________________________________________________
conv1d_1 (Conv1D)            (None, 9997, 2)           10        
_________________________________________________________________
max_pooling1d_1 (MaxPooling1 (None, 9997, 2)           0         
_________________________________________________________________
flatten (Flatten)            (None, 19994)             0         
_________________________________________________________________
dense (Dense)                (None, 1)                 19995     
=================================================================
Total params: 20,011
Trainable params: 20,011
Non-trainable params: 0
_________________________________________________________________
Summary  None
Red
0.6120509321884868
Typer KerasRegressor
Hello world
{'activation': 'tanh', 'filters': 1, 'epochs': 200, 'kernel': 2, 'HP_L2_REG': 0.2, 'HP_OPTIMIZER': 'SGD', 'HP_L1_REG': 0.1, 'learning_rate': 0.01, 'kernel_initializer': 'glorot_uniform', 'rate': 0.0, 'pool': 2, 'units': 200, 'HP_NUM_HIDDEN_LAYERS': 3, 'strides': 1}
Blue
Model: "sequential"
_________________________________________________________________
Layer (type)                 Output Shape              Param #   
=================================================================
conv1d (Conv1D)              (None, 9998, 1)           3         
_________________________________________________________________
max_pooling1d (MaxPooling1D) (None, 9997, 1)           0         
_________________________________________________________________
conv1d_1 (Conv1D)            (None, 9996, 1)           3         
_________________________________________________________________
max_pooling1d_1 (MaxPooling1 (None, 9995, 1)           0         
_________________________________________________________________
flatten (Flatten)            (None, 9995)              0         
_________________________________________________________________
dense (Dense)                (None, 1)                 9996      
=================================================================
Total params: 10,002
Trainable params: 10,002
Non-trainable params: 0
_________________________________________________________________
Summary  None
Red
0.6195912222825158
Typer KerasRegressor
Hello world
{'activation': 'tanh', 'filters': 2, 'epochs': 100, 'kernel': 1, 'HP_L2_REG': 0.2, 'HP_OPTIMIZER': 'SGD', 'HP_L1_REG': 0.1, 'learning_rate': 0.01, 'kernel_initializer': 'glorot_uniform', 'rate': 0.0, 'pool': 1, 'units': 200, 'HP_NUM_HIDDEN_LAYERS': 3, 'strides': 2}
Blue
Model: "sequential"
_________________________________________________________________
Layer (type)                 Output Shape              Param #   
=================================================================
conv1d (Conv1D)              (None, 5000, 2)           4         
_________________________________________________________________
max_pooling1d (MaxPooling1D) (None, 2500, 2)           0         
_________________________________________________________________
conv1d_1 (Conv1D)            (None, 1250, 2)           6         
_________________________________________________________________
max_pooling1d_1 (MaxPooling1 (None, 625, 2)            0         
_________________________________________________________________
flatten (Flatten)            (None, 1250)              0         
_________________________________________________________________
dense (Dense)                (None, 1)                 1251      
=================================================================
Total params: 1,261
Trainable params: 1,261
Non-trainable params: 0
_________________________________________________________________
Summary  None
Red
-0.03453342385741531
Typer KerasRegressor
Hello world
{'activation': 'tanh', 'filters': 2, 'epochs': 100, 'kernel': 2, 'HP_L2_REG': 0.2, 'HP_OPTIMIZER': 'SGD', 'HP_L1_REG': 0.1, 'learning_rate': 0.01, 'kernel_initializer': 'glorot_uniform', 'rate': 0.0, 'pool': 2, 'units': 200, 'HP_NUM_HIDDEN_LAYERS': 3, 'strides': 1}
Blue
Model: "sequential"
_________________________________________________________________
Layer (type)                 Output Shape              Param #   
=================================================================
conv1d (Conv1D)              (None, 9998, 2)           6         
_________________________________________________________________
max_pooling1d (MaxPooling1D) (None, 9997, 2)           0         
_________________________________________________________________
conv1d_1 (Conv1D)            (None, 9996, 2)           10        
_________________________________________________________________
max_pooling1d_1 (MaxPooling1 (None, 9995, 2)           0         
_________________________________________________________________
flatten (Flatten)            (None, 19990)             0         
_________________________________________________________________
dense (Dense)                (None, 1)                 19991     
=================================================================
Total params: 20,007
Trainable params: 20,007
Non-trainable params: 0
_________________________________________________________________
Summary  None
Red
0.5969719130630435
Typer KerasRegressor
Hello world
{'activation': 'tanh', 'filters': 2, 'epochs': 200, 'kernel': 2, 'HP_L2_REG': 0.2, 'HP_OPTIMIZER': 'SGD', 'HP_L1_REG': 0.1, 'learning_rate': 0.001, 'kernel_initializer': 'glorot_uniform', 'rate': 0.0, 'pool': 2, 'units': 200, 'HP_NUM_HIDDEN_LAYERS': 3, 'strides': 1}
…
