…
2021-12-08 16:38:22.497370: I tensorflow/core/platform/profile_utils/cpu_utils.cc:94] CPU Frequency: 2200045000 Hz
2021-12-08 16:38:22.501737: I tensorflow/compiler/xla/service/service.cc:168] XLA service 0x9d63030 executing computations on platform Host. Devices:
2021-12-08 16:38:22.501757: I tensorflow/compiler/xla/service/service.cc:175]   StreamExecutor device (0): <undefined>, <undefined>
Model: "sequential"
_________________________________________________________________
Layer (type)                 Output Shape              Param #   
=================================================================
dense (Dense)                (None, 400)               4000400   
_________________________________________________________________
dropout (Dropout)            (None, 400)               0         
_________________________________________________________________
dense_1 (Dense)              (None, 400)               160400    
_________________________________________________________________
dropout_1 (Dropout)          (None, 400)               0         
_________________________________________________________________
dense_2 (Dense)              (None, 400)               160400    
_________________________________________________________________
dropout_2 (Dropout)          (None, 400)               0         
_________________________________________________________________
dense_3 (Dense)              (None, 400)               160400    
_________________________________________________________________
dropout_3 (Dropout)          (None, 400)               0         
_________________________________________________________________
dense_4 (Dense)              (None, 400)               160400    
_________________________________________________________________
dropout_4 (Dropout)          (None, 400)               0         
_________________________________________________________________
dense_5 (Dense)              (None, 1)                 401       
=================================================================
Total params: 4,642,401
Trainable params: 4,642,401
Non-trainable params: 0
_________________________________________________________________
None
2021-12-08 16:38:24.577159: W tensorflow/compiler/jit/mark_for_compilation_pass.cc:1483] (One-time warning): Not using XLA:CPU for cluster because envvar TF_XLA_FLAGS=--tf_xla_cpu_global_jit was not set.  If you want XLA:CPU, either set that envvar, or use experimental_jit_scope to enable XLA:CPU.  To confirm that XLA is active, pass --vmodule=xla_compilation_cache=1 (as a proper command-line flag, not via TF_XLA_FLAGS) or set the envvar XLA_FLAGS=--xla_hlo_profile.
Red
0.1108438326082587
Typer KerasRegressor
Hello world
{'learning_rate': 0.01, 'batch_size': 64, 'rate': 0.5, 'HP_L1_REG': 0.001, 'activation': 'tanh', 'kernel_initializer': 'glorot_uniform', 'HP_L2_REG': 0.01, 'HP_OPTIMIZER': 'SGD', 'epochs': 100, 'HP_NUM_HIDDEN_LAYERS': 4, 'units': 400}
Blue
Model: "sequential"
_________________________________________________________________
Layer (type)                 Output Shape              Param #   
=================================================================
dense (Dense)                (None, 400)               4000400   
_________________________________________________________________
dropout (Dropout)            (None, 400)               0         
_________________________________________________________________
dense_1 (Dense)              (None, 400)               160400    
_________________________________________________________________
dropout_1 (Dropout)          (None, 400)               0         
_________________________________________________________________
dense_2 (Dense)              (None, 400)               160400    
_________________________________________________________________
dropout_2 (Dropout)          (None, 400)               0         
_________________________________________________________________
dense_3 (Dense)              (None, 400)               160400    
_________________________________________________________________
dropout_3 (Dropout)          (None, 400)               0         
_________________________________________________________________
dense_4 (Dense)              (None, 1)                 401       
=================================================================
Total params: 4,482,001
Trainable params: 4,482,001
Non-trainable params: 0
_________________________________________________________________
None
Red
0.18011355911490168
Typer KerasRegressor
Hello world
{'learning_rate': 0.001, 'batch_size': 64, 'rate': 0.0, 'HP_L1_REG': 0.001, 'activation': 'tanh', 'kernel_initializer': 'glorot_uniform', 'HP_L2_REG': 1e-08, 'HP_OPTIMIZER': 'Adam', 'epochs': 50, 'HP_NUM_HIDDEN_LAYERS': 2, 'units': 1000}
Blue
Model: "sequential"
_________________________________________________________________
Layer (type)                 Output Shape              Param #   
=================================================================
dense (Dense)                (None, 1000)              10001000  
_________________________________________________________________
dense_1 (Dense)              (None, 1000)              1001000   
_________________________________________________________________
dense_2 (Dense)              (None, 1)                 1001      
=================================================================
Total params: 11,003,001
Trainable params: 11,003,001
Non-trainable params: 0
_________________________________________________________________
None
Red
0.3263072895523971
Typer KerasRegressor
Hello world
{'learning_rate': 0.0001, 'batch_size': 16, 'rate': 0.5, 'HP_L1_REG': 0.01, 'activation': 'relu', 'kernel_initializer': 'glorot_uniform', 'HP_L2_REG': 1e-08, 'HP_OPTIMIZER': 'Adagrad', 'epochs': 100, 'HP_NUM_HIDDEN_LAYERS': 4, 'units': 200}
Blue
Model: "sequential"
_________________________________________________________________
Layer (type)                 Output Shape              Param #   
=================================================================
dense (Dense)                (None, 200)               2000200   
_________________________________________________________________
dropout (Dropout)            (None, 200)               0         
_________________________________________________________________
dense_1 (Dense)              (None, 200)               40200     
_________________________________________________________________
dropout_1 (Dropout)          (None, 200)               0         
_________________________________________________________________
dense_2 (Dense)              (None, 200)               40200     
_________________________________________________________________
dropout_2 (Dropout)          (None, 200)               0         
_________________________________________________________________
dense_3 (Dense)              (None, 200)               40200     
_________________________________________________________________
dropout_3 (Dropout)          (None, 200)               0         
_________________________________________________________________
dense_4 (Dense)              (None, 1)                 201       
=================================================================
Total params: 2,121,001
Trainable params: 2,121,001
Non-trainable params: 0
_________________________________________________________________
None
Red
0.00400326872415202
Typer KerasRegressor
Hello world
{'learning_rate': 0.01, 'batch_size': 16, 'rate': 0.1, 'HP_L1_REG': 0.0001, 'activation': 'relu', 'kernel_initializer': 'glorot_uniform', 'HP_L2_REG': 0.01, 'HP_OPTIMIZER': 'SGD', 'epochs': 200, 'HP_NUM_HIDDEN_LAYERS': 4, 'units': 200}
Blue
Model: "sequential"
_________________________________________________________________
Layer (type)                 Output Shape              Param #   
=================================================================
dense (Dense)                (None, 200)               2000200   
_________________________________________________________________
dropout (Dropout)            (None, 200)               0         
_________________________________________________________________
dense_1 (Dense)              (None, 200)               40200     
_________________________________________________________________
dropout_1 (Dropout)          (None, 200)               0         
_________________________________________________________________
dense_2 (Dense)              (None, 200)               40200     
_________________________________________________________________
dropout_2 (Dropout)          (None, 200)               0         
_________________________________________________________________
dense_3 (Dense)              (None, 200)               40200     
_________________________________________________________________
dropout_3 (Dropout)          (None, 200)               0         
_________________________________________________________________
dense_4 (Dense)              (None, 1)                 201       
=================================================================
Total params: 2,121,001
Trainable params: 2,121,001
Non-trainable params: 0
_________________________________________________________________
None
Red
0.21472383724929944
Typer KerasRegressor
Hello world
{'learning_rate': 0.01, 'batch_size': 128, 'rate': 0.1, 'HP_L1_REG': 0.0001, 'activation': 'tanh', 'kernel_initializer': 'glorot_uniform', 'HP_L2_REG': 0.01, 'HP_OPTIMIZER': 'Adagrad', 'epochs': 50, 'HP_NUM_HIDDEN_LAYERS': 5, 'units': 200}
Blue
Model: "sequential"
_________________________________________________________________
Layer (type)                 Output Shape              Param #   
=================================================================
dense (Dense)                (None, 200)               2000200   
_________________________________________________________________
dropout (Dropout)            (None, 200)               0         
_________________________________________________________________
dense_1 (Dense)              (None, 200)               40200     
_________________________________________________________________
dropout_1 (Dropout)          (None, 200)               0         
_________________________________________________________________
dense_2 (Dense)              (None, 200)               40200     
_________________________________________________________________
dropout_2 (Dropout)          (None, 200)               0         
_________________________________________________________________
dense_3 (Dense)              (None, 200)               40200     
_________________________________________________________________
dropout_3 (Dropout)          (None, 200)               0         
_________________________________________________________________
dense_4 (Dense)              (None, 200)               40200     
_________________________________________________________________
dropout_4 (Dropout)          (None, 200)               0         
_________________________________________________________________
dense_5 (Dense)              (None, 1)                 201       
=================================================================
Total params: 2,161,201
Trainable params: 2,161,201
Non-trainable params: 0
_________________________________________________________________
None
Red
0.2560699670936729
Typer KerasRegressor
Hello world
{'learning_rate': 0.001, 'batch_size': 64, 'rate': 0.5, 'HP_L1_REG': 0.001, 'activation': 'tanh', 'kernel_initializer': 'glorot_uniform', 'HP_L2_REG': 0.0001, 'HP_OPTIMIZER': 'Adagrad', 'epochs': 50, 'HP_NUM_HIDDEN_LAYERS': 2, 'units': 1000}
Blue
Model: "sequential"
_________________________________________________________________
Layer (type)                 Output Shape              Param #   
=================================================================
dense (Dense)                (None, 1000)              10001000  
_________________________________________________________________
dropout (Dropout)            (None, 1000)              0         
_________________________________________________________________
dense_1 (Dense)              (None, 1000)              1001000   
_________________________________________________________________
dropout_1 (Dropout)          (None, 1000)              0         
_________________________________________________________________
dense_2 (Dense)              (None, 1)                 1001      
=================================================================
Total params: 11,003,001
Trainable params: 11,003,001
Non-trainable params: 0
_________________________________________________________________
None
Red
0.2822061721686564
Typer KerasRegressor
Hello world
{'learning_rate': 0.001, 'batch_size': 64, 'rate': 0.0, 'HP_L1_REG': 0.01, 'activation': 'relu', 'kernel_initializer': 'glorot_uniform', 'HP_L2_REG': 1e-08, 'HP_OPTIMIZER': 'Adagrad', 'epochs': 100, 'HP_NUM_HIDDEN_LAYERS': 5, 'units': 400}
Blue
Model: "sequential"
_________________________________________________________________
Layer (type)                 Output Shape              Param #   
=================================================================
dense (Dense)                (None, 400)               4000400   
_________________________________________________________________
dense_1 (Dense)              (None, 400)               160400    
_________________________________________________________________
dense_2 (Dense)              (None, 400)               160400    
_________________________________________________________________
dense_3 (Dense)              (None, 400)               160400    
_________________________________________________________________
dense_4 (Dense)              (None, 400)               160400    
_________________________________________________________________
dense_5 (Dense)              (None, 1)                 401       
=================================================================
Total params: 4,642,401
Trainable params: 4,642,401
Non-trainable params: 0
_________________________________________________________________
None
Red
-0.0068385579534602225
Typer KerasRegressor
Hello world
{'learning_rate': 0.01, 'batch_size': 64, 'rate': 0.5, 'HP_L1_REG': 0.001, 'activation': 'tanh', 'kernel_initializer': 'glorot_uniform', 'HP_L2_REG': 1e-08, 'HP_OPTIMIZER': 'Adam', 'epochs': 100, 'HP_NUM_HIDDEN_LAYERS': 3, 'units': 1000}
Blue
Model: "sequential"
_________________________________________________________________
Layer (type)                 Output Shape              Param #   
=================================================================
dense (Dense)                (None, 1000)              10001000  
_________________________________________________________________
dropout (Dropout)            (None, 1000)              0         
_________________________________________________________________
dense_1 (Dense)              (None, 1000)              1001000   
_________________________________________________________________
dropout_1 (Dropout)          (None, 1000)              0         
_________________________________________________________________
dense_2 (Dense)              (None, 1000)              1001000   
_________________________________________________________________
dropout_2 (Dropout)          (None, 1000)              0         
_________________________________________________________________
dense_3 (Dense)              (None, 1)                 1001      
=================================================================
Total params: 12,004,001
Trainable params: 12,004,001
Non-trainable params: 0
_________________________________________________________________
None
Red
0.26538469537135523
Typer KerasRegressor
Hello world
{'learning_rate': 0.01, 'batch_size': 16, 'rate': 0.1, 'HP_L1_REG': 0.01, 'activation': 'relu', 'kernel_initializer': 'glorot_uniform', 'HP_L2_REG': 0.01, 'HP_OPTIMIZER': 'Adagrad', 'epochs': 50, 'HP_NUM_HIDDEN_LAYERS': 5, 'units': 1000}
Blue
Model: "sequential"
_________________________________________________________________
Layer (type)                 Output Shape              Param #   
=================================================================
dense (Dense)                (None, 1000)              10001000  
_________________________________________________________________
dropout (Dropout)            (None, 1000)              0         
_________________________________________________________________
dense_1 (Dense)              (None, 1000)              1001000   
_________________________________________________________________
dropout_1 (Dropout)          (None, 1000)              0         
_________________________________________________________________
dense_2 (Dense)              (None, 1000)              1001000   
_________________________________________________________________
dropout_2 (Dropout)          (None, 1000)              0         
_________________________________________________________________
dense_3 (Dense)              (None, 1000)              1001000   
_________________________________________________________________
dropout_3 (Dropout)          (None, 1000)              0         
_________________________________________________________________
dense_4 (Dense)              (None, 1000)              1001000   
_________________________________________________________________
dropout_4 (Dropout)          (None, 1000)              0         
_________________________________________________________________
dense_5 (Dense)              (None, 1)                 1001      
=================================================================
Total params: 14,006,001
Trainable params: 14,006,001
Non-trainable params: 0
_________________________________________________________________
None
Red
-0.015298338545828738
Typer KerasRegressor
Hello world
{'learning_rate': 0.001, 'batch_size': 16, 'rate': 0.0, 'HP_L1_REG': 0.001, 'activation': 'relu', 'kernel_initializer': 'glorot_uniform', 'HP_L2_REG': 0.2, 'HP_OPTIMIZER': 'Adagrad', 'epochs': 200, 'HP_NUM_HIDDEN_LAYERS': 5, 'units': 1000}
Blue
Model: "sequential"
_________________________________________________________________
Layer (type)                 Output Shape              Param #   
=================================================================
dense (Dense)                (None, 1000)              10001000  
_________________________________________________________________
dense_1 (Dense)              (None, 1000)              1001000   
_________________________________________________________________
dense_2 (Dense)              (None, 1000)              1001000   
_________________________________________________________________
dense_3 (Dense)              (None, 1000)              1001000   
_________________________________________________________________
dense_4 (Dense)              (None, 1000)              1001000   
_________________________________________________________________
dense_5 (Dense)              (None, 1)                 1001      
=================================================================
Total params: 14,006,001
Trainable params: 14,006,001
Non-trainable params: 0
_________________________________________________________________
None
Red
-0.014713477905964334
Typer KerasRegressor
Hello world
{'learning_rate': 1e-05, 'batch_size': 16, 'rate': 0.1, 'HP_L1_REG': 0.0001, 'activation': 'tanh', 'kernel_initializer': 'glorot_uniform', 'HP_L2_REG': 0.0001, 'HP_OPTIMIZER': 'SGD', 'epochs': 200, 'HP_NUM_HIDDEN_LAYERS': 3, 'units': 400}
Blue
Model: "sequential"
_________________________________________________________________
Layer (type)                 Output Shape              Param #   
=================================================================
dense (Dense)                (None, 400)               4000400   
_________________________________________________________________
dropout (Dropout)            (None, 400)               0         
_________________________________________________________________
dense_1 (Dense)              (None, 400)               160400    
_________________________________________________________________
dropout_1 (Dropout)          (None, 400)               0         
_________________________________________________________________
dense_2 (Dense)              (None, 400)               160400    
_________________________________________________________________
dropout_2 (Dropout)          (None, 400)               0         
_________________________________________________________________
dense_3 (Dense)              (None, 1)                 401       
=================================================================
Total params: 4,321,601
Trainable params: 4,321,601
Non-trainable params: 0
_________________________________________________________________
None
Red
0.21445803929118312
Typer KerasRegressor
Hello world
{'learning_rate': 0.01, 'batch_size': 128, 'rate': 0.2, 'HP_L1_REG': 0.0001, 'activation': 'tanh', 'kernel_initializer': 'glorot_uniform', 'HP_L2_REG': 0.2, 'HP_OPTIMIZER': 'SGD', 'epochs': 200, 'HP_NUM_HIDDEN_LAYERS': 4, 'units': 200}
Blue
Model: "sequential"
_________________________________________________________________
Layer (type)                 Output Shape              Param #   
=================================================================
dense (Dense)                (None, 200)               2000200   
_________________________________________________________________
dropout (Dropout)            (None, 200)               0         
_________________________________________________________________
dense_1 (Dense)              (None, 200)               40200     
_________________________________________________________________
dropout_1 (Dropout)          (None, 200)               0         
_________________________________________________________________
dense_2 (Dense)              (None, 200)               40200     
_________________________________________________________________
dropout_2 (Dropout)          (None, 200)               0         
_________________________________________________________________
dense_3 (Dense)              (None, 200)               40200     
_________________________________________________________________
dropout_3 (Dropout)          (None, 200)               0         
_________________________________________________________________
dense_4 (Dense)              (None, 1)                 201       
=================================================================
Total params: 2,121,001
Trainable params: 2,121,001
Non-trainable params: 0
_________________________________________________________________
None
Red
0.3550196244995949
Typer KerasRegressor
Hello world
{'learning_rate': 0.001, 'batch_size': 64, 'rate': 0.2, 'HP_L1_REG': 0.01, 'activation': 'tanh', 'kernel_initializer': 'glorot_uniform', 'HP_L2_REG': 0.0001, 'HP_OPTIMIZER': 'Adam', 'epochs': 50, 'HP_NUM_HIDDEN_LAYERS': 2, 'units': 1000}
Blue
Model: "sequential"
_________________________________________________________________
Layer (type)                 Output Shape              Param #   
=================================================================
dense (Dense)                (None, 1000)              10001000  
_________________________________________________________________
dropout (Dropout)            (None, 1000)              0         
_________________________________________________________________
dense_1 (Dense)              (None, 1000)              1001000   
_________________________________________________________________
dropout_1 (Dropout)          (None, 1000)              0         
_________________________________________________________________
dense_2 (Dense)              (None, 1)                 1001      
=================================================================
Total params: 11,003,001
Trainable params: 11,003,001
Non-trainable params: 0
_________________________________________________________________
None
Red
-0.01613292831527935
Typer KerasRegressor
Hello world
{'learning_rate': 0.01, 'batch_size': 128, 'rate': 0.0, 'HP_L1_REG': 0.01, 'activation': 'tanh', 'kernel_initializer': 'glorot_uniform', 'HP_L2_REG': 0.0001, 'HP_OPTIMIZER': 'SGD', 'epochs': 200, 'HP_NUM_HIDDEN_LAYERS': 3, 'units': 400}
Blue
Model: "sequential"
_________________________________________________________________
Layer (type)                 Output Shape              Param #   
=================================================================
dense (Dense)                (None, 400)               4000400   
_________________________________________________________________
dense_1 (Dense)              (None, 400)               160400    
_________________________________________________________________
dense_2 (Dense)              (None, 400)               160400    
_________________________________________________________________
dense_3 (Dense)              (None, 1)                 401       
=================================================================
Total params: 4,321,601
Trainable params: 4,321,601
Non-trainable params: 0
_________________________________________________________________
None
Red
-0.013587033741743193
Typer KerasRegressor
Hello world
{'learning_rate': 0.001, 'batch_size': 64, 'rate': 0.0, 'HP_L1_REG': 0.001, 'activation': 'relu', 'kernel_initializer': 'glorot_uniform', 'HP_L2_REG': 0.0001, 'HP_OPTIMIZER': 'SGD', 'epochs': 200, 'HP_NUM_HIDDEN_LAYERS': 5, 'units': 400}
Blue
Model: "sequential"
_________________________________________________________________
Layer (type)                 Output Shape              Param #   
=================================================================
dense (Dense)                (None, 400)               4000400   
_________________________________________________________________
dense_1 (Dense)              (None, 400)               160400    
_________________________________________________________________
dense_2 (Dense)              (None, 400)               160400    
_________________________________________________________________
dense_3 (Dense)              (None, 400)               160400    
_________________________________________________________________
dense_4 (Dense)              (None, 400)               160400    
_________________________________________________________________
dense_5 (Dense)              (None, 1)                 401       
=================================================================
Total params: 4,642,401
Trainable params: 4,642,401
Non-trainable params: 0
_________________________________________________________________
None
Red
0.1541399862553351
Typer KerasRegressor
Hello world
{'learning_rate': 0.01, 'batch_size': 64, 'rate': 0.1, 'HP_L1_REG': 0.01, 'activation': 'relu', 'kernel_initializer': 'glorot_uniform', 'HP_L2_REG': 0.2, 'HP_OPTIMIZER': 'SGD', 'epochs': 200, 'HP_NUM_HIDDEN_LAYERS': 2, 'units': 1000}
Blue
Model: "sequential"
_________________________________________________________________
Layer (type)                 Output Shape              Param #   
=================================================================
dense (Dense)                (None, 1000)              10001000  
_________________________________________________________________
dropout (Dropout)            (None, 1000)              0         
_________________________________________________________________
dense_1 (Dense)              (None, 1000)              1001000   
_________________________________________________________________
dropout_1 (Dropout)          (None, 1000)              0         
_________________________________________________________________
dense_2 (Dense)              (None, 1)                 1001      
=================================================================
Total params: 11,003,001
Trainable params: 11,003,001
Non-trainable params: 0
_________________________________________________________________
None
Red
-0.014284939907110994
Typer KerasRegressor
Hello world
{'learning_rate': 1e-05, 'batch_size': 64, 'rate': 0.1, 'HP_L1_REG': 0.1, 'activation': 'tanh', 'kernel_initializer': 'glorot_uniform', 'HP_L2_REG': 0.0001, 'HP_OPTIMIZER': 'Adam', 'epochs': 200, 'HP_NUM_HIDDEN_LAYERS': 3, 'units': 1000}
Blue
Model: "sequential"
_________________________________________________________________
Layer (type)                 Output Shape              Param #   
=================================================================
dense (Dense)                (None, 1000)              10001000  
_________________________________________________________________
dropout (Dropout)            (None, 1000)              0         
_________________________________________________________________
dense_1 (Dense)              (None, 1000)              1001000   
_________________________________________________________________
dropout_1 (Dropout)          (None, 1000)              0         
_________________________________________________________________
dense_2 (Dense)              (None, 1000)              1001000   
_________________________________________________________________
dropout_2 (Dropout)          (None, 1000)              0         
_________________________________________________________________
dense_3 (Dense)              (None, 1)                 1001      
=================================================================
Total params: 12,004,001
Trainable params: 12,004,001
Non-trainable params: 0
_________________________________________________________________
None
Red
-0.014697625324838093
Typer KerasRegressor
Hello world
{'learning_rate': 0.01, 'batch_size': 128, 'rate': 0.0, 'HP_L1_REG': 0.0001, 'activation': 'tanh', 'kernel_initializer': 'glorot_uniform', 'HP_L2_REG': 0.0001, 'HP_OPTIMIZER': 'Adam', 'epochs': 200, 'HP_NUM_HIDDEN_LAYERS': 3, 'units': 1000}
Blue
Model: "sequential"
_________________________________________________________________
Layer (type)                 Output Shape              Param #   
=================================================================
dense (Dense)                (None, 1000)              10001000  
_________________________________________________________________
dense_1 (Dense)              (None, 1000)              1001000   
_________________________________________________________________
dense_2 (Dense)              (None, 1000)              1001000   
_________________________________________________________________
dense_3 (Dense)              (None, 1)                 1001      
=================================================================
Total params: 12,004,001
Trainable params: 12,004,001
Non-trainable params: 0
_________________________________________________________________
None
Red
0.1686330030172073
Typer KerasRegressor
Hello world
{'learning_rate': 1e-05, 'batch_size': 16, 'rate': 0.0, 'HP_L1_REG': 0.1, 'activation': 'relu', 'kernel_initializer': 'glorot_uniform', 'HP_L2_REG': 0.2, 'HP_OPTIMIZER': 'SGD', 'epochs': 100, 'HP_NUM_HIDDEN_LAYERS': 3, 'units': 1000}
Blue
Model: "sequential"
_________________________________________________________________
Layer (type)                 Output Shape              Param #   
=================================================================
dense (Dense)                (None, 1000)              10001000  
_________________________________________________________________
dense_1 (Dense)              (None, 1000)              1001000   
_________________________________________________________________
dense_2 (Dense)              (None, 1000)              1001000   
_________________________________________________________________
dense_3 (Dense)              (None, 1)                 1001      
=================================================================
Total params: 12,004,001
Trainable params: 12,004,001
Non-trainable params: 0
_________________________________________________________________
None
Red
0.015043778418374454
Typer KerasRegressor
Hello world
{'learning_rate': 0.01, 'batch_size': 64, 'rate': 0.2, 'HP_L1_REG': 0.1, 'activation': 'relu', 'kernel_initializer': 'glorot_uniform', 'HP_L2_REG': 0.2, 'HP_OPTIMIZER': 'Adam', 'epochs': 200, 'HP_NUM_HIDDEN_LAYERS': 4, 'units': 1000}
Blue
Model: "sequential"
_________________________________________________________________
Layer (type)                 Output Shape              Param #   
=================================================================
dense (Dense)                (None, 1000)              10001000  
_________________________________________________________________
dropout (Dropout)            (None, 1000)              0         
_________________________________________________________________
dense_1 (Dense)              (None, 1000)              1001000   
_________________________________________________________________
dropout_1 (Dropout)          (None, 1000)              0         
_________________________________________________________________
dense_2 (Dense)              (None, 1000)              1001000   
_________________________________________________________________
dropout_2 (Dropout)          (None, 1000)              0         
_________________________________________________________________
dense_3 (Dense)              (None, 1000)              1001000   
_________________________________________________________________
dropout_3 (Dropout)          (None, 1000)              0         
_________________________________________________________________
dense_4 (Dense)              (None, 1)                 1001      
=================================================================
Total params: 13,005,001
Trainable params: 13,005,001
Non-trainable params: 0
_________________________________________________________________
None
Red
-0.014017046518524756
Typer KerasRegressor
Hello world
{'learning_rate': 0.001, 'batch_size': 64, 'rate': 0.1, 'HP_L1_REG': 0.1, 'activation': 'relu', 'kernel_initializer': 'glorot_uniform', 'HP_L2_REG': 0.0001, 'HP_OPTIMIZER': 'Adagrad', 'epochs': 100, 'HP_NUM_HIDDEN_LAYERS': 2, 'units': 400}
Blue
Model: "sequential"
_________________________________________________________________
Layer (type)                 Output Shape              Param #   
=================================================================
dense (Dense)                (None, 400)               4000400   
_________________________________________________________________
dropout (Dropout)            (None, 400)               0         
_________________________________________________________________
dense_1 (Dense)              (None, 400)               160400    
_________________________________________________________________
dropout_1 (Dropout)          (None, 400)               0         
_________________________________________________________________
dense_2 (Dense)              (None, 1)                 401       
=================================================================
Total params: 4,161,201
Trainable params: 4,161,201
Non-trainable params: 0
_________________________________________________________________
None
Red
-0.010093841584064345
Typer KerasRegressor
Hello world
{'learning_rate': 0.01, 'batch_size': 128, 'rate': 0.0, 'HP_L1_REG': 0.01, 'activation': 'tanh', 'kernel_initializer': 'glorot_uniform', 'HP_L2_REG': 1e-08, 'HP_OPTIMIZER': 'Adam', 'epochs': 200, 'HP_NUM_HIDDEN_LAYERS': 4, 'units': 400}
Blue
Model: "sequential"
_________________________________________________________________
Layer (type)                 Output Shape              Param #   
=================================================================
dense (Dense)                (None, 400)               4000400   
_________________________________________________________________
dense_1 (Dense)              (None, 400)               160400    
_________________________________________________________________
dense_2 (Dense)              (None, 400)               160400    
_________________________________________________________________
dense_3 (Dense)              (None, 400)               160400    
_________________________________________________________________
dense_4 (Dense)              (None, 1)                 401       
=================================================================
Total params: 4,482,001
Trainable params: 4,482,001
Non-trainable params: 0
_________________________________________________________________
None
Red
-0.027368740821952287
Typer KerasRegressor
Hello world
{'learning_rate': 0.01, 'batch_size': 128, 'rate': 0.1, 'HP_L1_REG': 0.0001, 'activation': 'tanh', 'kernel_initializer': 'glorot_uniform', 'HP_L2_REG': 0.0001, 'HP_OPTIMIZER': 'Adagrad', 'epochs': 100, 'HP_NUM_HIDDEN_LAYERS': 2, 'units': 200}
Blue
Model: "sequential"
_________________________________________________________________
Layer (type)                 Output Shape              Param #   
=================================================================
dense (Dense)                (None, 200)               2000200   
_________________________________________________________________
dropout (Dropout)            (None, 200)               0         
_________________________________________________________________
dense_1 (Dense)              (None, 200)               40200     
_________________________________________________________________
dropout_1 (Dropout)          (None, 200)               0         
_________________________________________________________________
dense_2 (Dense)              (None, 1)                 201       
=================================================================
Total params: 2,040,601
Trainable params: 2,040,601
Non-trainable params: 0
_________________________________________________________________
None
Red
0.25343127080731664
Typer KerasRegressor
Hello world
{'learning_rate': 0.001, 'batch_size': 128, 'rate': 0.2, 'HP_L1_REG': 0.1, 'activation': 'relu', 'kernel_initializer': 'glorot_uniform', 'HP_L2_REG': 0.2, 'HP_OPTIMIZER': 'SGD', 'epochs': 50, 'HP_NUM_HIDDEN_LAYERS': 4, 'units': 200}
Blue
Model: "sequential"
_________________________________________________________________
Layer (type)                 Output Shape              Param #   
=================================================================
dense (Dense)                (None, 200)               2000200   
_________________________________________________________________
dropout (Dropout)            (None, 200)               0         
_________________________________________________________________
dense_1 (Dense)              (None, 200)               40200     
_________________________________________________________________
dropout_1 (Dropout)          (None, 200)               0         
_________________________________________________________________
dense_2 (Dense)              (None, 200)               40200     
_________________________________________________________________
dropout_2 (Dropout)          (None, 200)               0         
_________________________________________________________________
dense_3 (Dense)              (None, 200)               40200     
_________________________________________________________________
dropout_3 (Dropout)          (None, 200)               0         
_________________________________________________________________
dense_4 (Dense)              (None, 1)                 201       
=================================================================
Total params: 2,121,001
Trainable params: 2,121,001
Non-trainable params: 0
_________________________________________________________________
None
Red
-3.815639111337532e-05
Typer KerasRegressor
Hello world
{'learning_rate': 0.01, 'batch_size': 64, 'rate': 0.0, 'HP_L1_REG': 0.0001, 'activation': 'tanh', 'kernel_initializer': 'glorot_uniform', 'HP_L2_REG': 1e-08, 'HP_OPTIMIZER': 'Adagrad', 'epochs': 50, 'HP_NUM_HIDDEN_LAYERS': 2, 'units': 200}
Blue
Model: "sequential"
_________________________________________________________________
Layer (type)                 Output Shape              Param #   
=================================================================
dense (Dense)                (None, 200)               2000200   
_________________________________________________________________
dense_1 (Dense)              (None, 200)               40200     
_________________________________________________________________
dense_2 (Dense)              (None, 1)                 201       
=================================================================
Total params: 2,040,601
Trainable params: 2,040,601
Non-trainable params: 0
_________________________________________________________________
None
Red
0.24773463864083678
Typer KerasRegressor
Hello world
{'learning_rate': 0.0001, 'batch_size': 64, 'rate': 0.1, 'HP_L1_REG': 0.01, 'activation': 'relu', 'kernel_initializer': 'glorot_uniform', 'HP_L2_REG': 1e-08, 'HP_OPTIMIZER': 'SGD', 'epochs': 50, 'HP_NUM_HIDDEN_LAYERS': 3, 'units': 1000}
Blue
Model: "sequential"
_________________________________________________________________
Layer (type)                 Output Shape              Param #   
=================================================================
dense (Dense)                (None, 1000)              10001000  
_________________________________________________________________
dropout (Dropout)            (None, 1000)              0         
_________________________________________________________________
dense_1 (Dense)              (None, 1000)              1001000   
_________________________________________________________________
dropout_1 (Dropout)          (None, 1000)              0         
_________________________________________________________________
dense_2 (Dense)              (None, 1000)              1001000   
_________________________________________________________________
dropout_2 (Dropout)          (None, 1000)              0         
_________________________________________________________________
dense_3 (Dense)              (None, 1)                 1001      
=================================================================
Total params: 12,004,001
Trainable params: 12,004,001
Non-trainable params: 0
_________________________________________________________________
None
Red
0.028317438134855544
Typer KerasRegressor
Hello world
{'learning_rate': 1e-05, 'batch_size': 64, 'rate': 0.1, 'HP_L1_REG': 0.01, 'activation': 'tanh', 'kernel_initializer': 'glorot_uniform', 'HP_L2_REG': 0.0001, 'HP_OPTIMIZER': 'Adam', 'epochs': 200, 'HP_NUM_HIDDEN_LAYERS': 2, 'units': 400}
Blue
Model: "sequential"
_________________________________________________________________
Layer (type)                 Output Shape              Param #   
=================================================================
dense (Dense)                (None, 400)               4000400   
_________________________________________________________________
dropout (Dropout)            (None, 400)               0         
_________________________________________________________________
dense_1 (Dense)              (None, 400)               160400    
_________________________________________________________________
dropout_1 (Dropout)          (None, 400)               0         
_________________________________________________________________
dense_2 (Dense)              (None, 1)                 401       
=================================================================
Total params: 4,161,201
Trainable params: 4,161,201
Non-trainable params: 0
_________________________________________________________________
None
Red
0.22314036041997054
Typer KerasRegressor
Hello world
{'learning_rate': 1e-05, 'batch_size': 128, 'rate': 0.5, 'HP_L1_REG': 0.01, 'activation': 'tanh', 'kernel_initializer': 'glorot_uniform', 'HP_L2_REG': 1e-08, 'HP_OPTIMIZER': 'SGD', 'epochs': 100, 'HP_NUM_HIDDEN_LAYERS': 3, 'units': 1000}
Blue
Model: "sequential"
_________________________________________________________________
Layer (type)                 Output Shape              Param #   
=================================================================
dense (Dense)                (None, 1000)              10001000  
_________________________________________________________________
dropout (Dropout)            (None, 1000)              0         
_________________________________________________________________
dense_1 (Dense)              (None, 1000)              1001000   
_________________________________________________________________
dropout_1 (Dropout)          (None, 1000)              0         
_________________________________________________________________
dense_2 (Dense)              (None, 1000)              1001000   
_________________________________________________________________
dropout_2 (Dropout)          (None, 1000)              0         
_________________________________________________________________
dense_3 (Dense)              (None, 1)                 1001      
=================================================================
Total params: 12,004,001
Trainable params: 12,004,001
Non-trainable params: 0
_________________________________________________________________
None
Red
-0.11784298590362008
Typer KerasRegressor
Hello world
{'learning_rate': 0.001, 'batch_size': 128, 'rate': 0.0, 'HP_L1_REG': 0.01, 'activation': 'relu', 'kernel_initializer': 'glorot_uniform', 'HP_L2_REG': 0.01, 'HP_OPTIMIZER': 'Adam', 'epochs': 50, 'HP_NUM_HIDDEN_LAYERS': 5, 'units': 1000}
Blue
Model: "sequential"
_________________________________________________________________
Layer (type)                 Output Shape              Param #   
=================================================================
dense (Dense)                (None, 1000)              10001000  
_________________________________________________________________
dense_1 (Dense)              (None, 1000)              1001000   
_________________________________________________________________
dense_2 (Dense)              (None, 1000)              1001000   
_________________________________________________________________
dense_3 (Dense)              (None, 1000)              1001000   
_________________________________________________________________
dense_4 (Dense)              (None, 1000)              1001000   
_________________________________________________________________
dense_5 (Dense)              (None, 1)                 1001      
=================================================================
Total params: 14,006,001
Trainable params: 14,006,001
Non-trainable params: 0
_________________________________________________________________
None
Red
-0.011312302122835405
Typer KerasRegressor
Hello world
{'learning_rate': 1e-05, 'batch_size': 128, 'rate': 0.1, 'HP_L1_REG': 0.01, 'activation': 'tanh', 'kernel_initializer': 'glorot_uniform', 'HP_L2_REG': 1e-08, 'HP_OPTIMIZER': 'Adam', 'epochs': 50, 'HP_NUM_HIDDEN_LAYERS': 5, 'units': 400}
Blue
Model: "sequential"
_________________________________________________________________
Layer (type)                 Output Shape              Param #   
=================================================================
dense (Dense)                (None, 400)               4000400   
_________________________________________________________________
dropout (Dropout)            (None, 400)               0         
_________________________________________________________________
dense_1 (Dense)              (None, 400)               160400    
_________________________________________________________________
dropout_1 (Dropout)          (None, 400)               0         
_________________________________________________________________
dense_2 (Dense)              (None, 400)               160400    
_________________________________________________________________
dropout_2 (Dropout)          (None, 400)               0         
_________________________________________________________________
dense_3 (Dense)              (None, 400)               160400    
_________________________________________________________________
dropout_3 (Dropout)          (None, 400)               0         
_________________________________________________________________
dense_4 (Dense)              (None, 400)               160400    
_________________________________________________________________
dropout_4 (Dropout)          (None, 400)               0         
_________________________________________________________________
dense_5 (Dense)              (None, 1)                 401       
=================================================================
Total params: 4,642,401
Trainable params: 4,642,401
Non-trainable params: 0
_________________________________________________________________
None
Red
0.05929835467040845
Typer KerasRegressor
Hello world
{'learning_rate': 1e-05, 'batch_size': 128, 'rate': 0.5, 'HP_L1_REG': 0.001, 'activation': 'tanh', 'kernel_initializer': 'glorot_uniform', 'HP_L2_REG': 0.01, 'HP_OPTIMIZER': 'SGD', 'epochs': 50, 'HP_NUM_HIDDEN_LAYERS': 3, 'units': 400}
Blue
Model: "sequential"
_________________________________________________________________
Layer (type)                 Output Shape              Param #   
=================================================================
dense (Dense)                (None, 400)               4000400   
_________________________________________________________________
dropout (Dropout)            (None, 400)               0         
_________________________________________________________________
dense_1 (Dense)              (None, 400)               160400    
_________________________________________________________________
dropout_1 (Dropout)          (None, 400)               0         
_________________________________________________________________
dense_2 (Dense)              (None, 400)               160400    
_________________________________________________________________
dropout_2 (Dropout)          (None, 400)               0         
_________________________________________________________________
dense_3 (Dense)              (None, 1)                 401       
=================================================================
Total params: 4,321,601
Trainable params: 4,321,601
Non-trainable params: 0
_________________________________________________________________
None
Red
-0.27416139243997817
Typer KerasRegressor
Hello world
{'learning_rate': 1e-05, 'batch_size': 128, 'rate': 0.2, 'HP_L1_REG': 0.1, 'activation': 'relu', 'kernel_initializer': 'glorot_uniform', 'HP_L2_REG': 0.01, 'HP_OPTIMIZER': 'Adagrad', 'epochs': 200, 'HP_NUM_HIDDEN_LAYERS': 2, 'units': 400}
Blue
Model: "sequential"
_________________________________________________________________
Layer (type)                 Output Shape              Param #   
=================================================================
dense (Dense)                (None, 400)               4000400   
_________________________________________________________________
dropout (Dropout)            (None, 400)               0         
_________________________________________________________________
dense_1 (Dense)              (None, 400)               160400    
_________________________________________________________________
dropout_1 (Dropout)          (None, 400)               0         
_________________________________________________________________
dense_2 (Dense)              (None, 1)                 401       
=================================================================
Total params: 4,161,201
Trainable params: 4,161,201
Non-trainable params: 0
_________________________________________________________________
None
Red
0.006491393511026677
Typer KerasRegressor
Hello world
{'learning_rate': 0.0001, 'batch_size': 64, 'rate': 0.0, 'HP_L1_REG': 0.0001, 'activation': 'relu', 'kernel_initializer': 'glorot_uniform', 'HP_L2_REG': 1e-08, 'HP_OPTIMIZER': 'Adam', 'epochs': 100, 'HP_NUM_HIDDEN_LAYERS': 5, 'units': 200}
Blue
Model: "sequential"
_________________________________________________________________
Layer (type)                 Output Shape              Param #   
=================================================================
dense (Dense)                (None, 200)               2000200   
_________________________________________________________________
dense_1 (Dense)              (None, 200)               40200     
_________________________________________________________________
dense_2 (Dense)              (None, 200)               40200     
_________________________________________________________________
dense_3 (Dense)              (None, 200)               40200     
_________________________________________________________________
dense_4 (Dense)              (None, 200)               40200     
_________________________________________________________________
dense_5 (Dense)              (None, 1)                 201       
=================================================================
Total params: 2,161,201
Trainable params: 2,161,201
Non-trainable params: 0
_________________________________________________________________
None
Red
0.38120578511366554
Typer KerasRegressor
Hello world
{'learning_rate': 1e-05, 'batch_size': 64, 'rate': 0.2, 'HP_L1_REG': 0.1, 'activation': 'relu', 'kernel_initializer': 'glorot_uniform', 'HP_L2_REG': 0.0001, 'HP_OPTIMIZER': 'Adam', 'epochs': 200, 'HP_NUM_HIDDEN_LAYERS': 2, 'units': 400}
Blue
Model: "sequential"
_________________________________________________________________
Layer (type)                 Output Shape              Param #   
=================================================================
dense (Dense)                (None, 400)               4000400   
_________________________________________________________________
dropout (Dropout)            (None, 400)               0         
_________________________________________________________________
dense_1 (Dense)              (None, 400)               160400    
_________________________________________________________________
dropout_1 (Dropout)          (None, 400)               0         
_________________________________________________________________
dense_2 (Dense)              (None, 1)                 401       
=================================================================
Total params: 4,161,201
Trainable params: 4,161,201
Non-trainable params: 0
_________________________________________________________________
None
Red
-0.0005216190574817148
Typer KerasRegressor
Hello world
{'learning_rate': 1e-05, 'batch_size': 16, 'rate': 0.2, 'HP_L1_REG': 0.0001, 'activation': 'tanh', 'kernel_initializer': 'glorot_uniform', 'HP_L2_REG': 0.01, 'HP_OPTIMIZER': 'Adam', 'epochs': 50, 'HP_NUM_HIDDEN_LAYERS': 5, 'units': 400}
Blue
Model: "sequential"
_________________________________________________________________
Layer (type)                 Output Shape              Param #   
=================================================================
dense (Dense)                (None, 400)               4000400   
_________________________________________________________________
dropout (Dropout)            (None, 400)               0         
_________________________________________________________________
dense_1 (Dense)              (None, 400)               160400    
_________________________________________________________________
dropout_1 (Dropout)          (None, 400)               0         
_________________________________________________________________
dense_2 (Dense)              (None, 400)               160400    
_________________________________________________________________
dropout_2 (Dropout)          (None, 400)               0         
_________________________________________________________________
dense_3 (Dense)              (None, 400)               160400    
_________________________________________________________________
dropout_3 (Dropout)          (None, 400)               0         
_________________________________________________________________
dense_4 (Dense)              (None, 400)               160400    
_________________________________________________________________
dropout_4 (Dropout)          (None, 400)               0         
_________________________________________________________________
dense_5 (Dense)              (None, 1)                 401       
=================================================================
Total params: 4,642,401
Trainable params: 4,642,401
Non-trainable params: 0
_________________________________________________________________
None
Red
0.32741423761242094
Typer KerasRegressor
Hello world
{'learning_rate': 0.01, 'batch_size': 64, 'rate': 0.1, 'HP_L1_REG': 0.01, 'activation': 'tanh', 'kernel_initializer': 'glorot_uniform', 'HP_L2_REG': 0.01, 'HP_OPTIMIZER': 'Adam', 'epochs': 200, 'HP_NUM_HIDDEN_LAYERS': 3, 'units': 1000}
Blue
Model: "sequential"
_________________________________________________________________
Layer (type)                 Output Shape              Param #   
=================================================================
dense (Dense)                (None, 1000)              10001000  
_________________________________________________________________
dropout (Dropout)            (None, 1000)              0         
_________________________________________________________________
dense_1 (Dense)              (None, 1000)              1001000   
_________________________________________________________________
dropout_1 (Dropout)          (None, 1000)              0         
_________________________________________________________________
dense_2 (Dense)              (None, 1000)              1001000   
_________________________________________________________________
dropout_2 (Dropout)          (None, 1000)              0         
_________________________________________________________________
dense_3 (Dense)              (None, 1)                 1001      
=================================================================
Total params: 12,004,001
Trainable params: 12,004,001
Non-trainable params: 0
_________________________________________________________________
None
Red
-0.010145566832163277
Typer KerasRegressor
Hello world
{'learning_rate': 0.01, 'batch_size': 128, 'rate': 0.5, 'HP_L1_REG': 0.1, 'activation': 'tanh', 'kernel_initializer': 'glorot_uniform', 'HP_L2_REG': 0.01, 'HP_OPTIMIZER': 'Adam', 'epochs': 50, 'HP_NUM_HIDDEN_LAYERS': 3, 'units': 200}
Blue
Model: "sequential"
_________________________________________________________________
Layer (type)                 Output Shape              Param #   
=================================================================
dense (Dense)                (None, 200)               2000200   
_________________________________________________________________
dropout (Dropout)            (None, 200)               0         
_________________________________________________________________
dense_1 (Dense)              (None, 200)               40200     
_________________________________________________________________
dropout_1 (Dropout)          (None, 200)               0         
_________________________________________________________________
dense_2 (Dense)              (None, 200)               40200     
_________________________________________________________________
dropout_2 (Dropout)          (None, 200)               0         
_________________________________________________________________
dense_3 (Dense)              (None, 1)                 201       
=================================================================
Total params: 2,080,801
Trainable params: 2,080,801
Non-trainable params: 0
_________________________________________________________________
None
Red
-0.021071334485500914
Typer KerasRegressor
Hello world
{'learning_rate': 0.0001, 'batch_size': 16, 'rate': 0.2, 'HP_L1_REG': 0.0001, 'activation': 'tanh', 'kernel_initializer': 'glorot_uniform', 'HP_L2_REG': 0.2, 'HP_OPTIMIZER': 'SGD', 'epochs': 100, 'HP_NUM_HIDDEN_LAYERS': 5, 'units': 400}
Blue
Model: "sequential"
_________________________________________________________________
Layer (type)                 Output Shape              Param #   
=================================================================
dense (Dense)                (None, 400)               4000400   
_________________________________________________________________
dropout (Dropout)            (None, 400)               0         
_________________________________________________________________
dense_1 (Dense)              (None, 400)               160400    
_________________________________________________________________
dropout_1 (Dropout)          (None, 400)               0         
_________________________________________________________________
dense_2 (Dense)              (None, 400)               160400    
_________________________________________________________________
dropout_2 (Dropout)          (None, 400)               0         
_________________________________________________________________
dense_3 (Dense)              (None, 400)               160400    
_________________________________________________________________
dropout_3 (Dropout)          (None, 400)               0         
_________________________________________________________________
dense_4 (Dense)              (None, 400)               160400    
_________________________________________________________________
dropout_4 (Dropout)          (None, 400)               0         
_________________________________________________________________
dense_5 (Dense)              (None, 1)                 401       
=================================================================
Total params: 4,642,401
Trainable params: 4,642,401
Non-trainable params: 0
_________________________________________________________________
None
Red
0.28973284968058166
Typer KerasRegressor
Hello world
{'learning_rate': 0.0001, 'batch_size': 16, 'rate': 0.5, 'HP_L1_REG': 0.001, 'activation': 'relu', 'kernel_initializer': 'glorot_uniform', 'HP_L2_REG': 0.01, 'HP_OPTIMIZER': 'Adagrad', 'epochs': 50, 'HP_NUM_HIDDEN_LAYERS': 4, 'units': 1000}
Blue
Model: "sequential"
_________________________________________________________________
Layer (type)                 Output Shape              Param #   
=================================================================
dense (Dense)                (None, 1000)              10001000  
_________________________________________________________________
dropout (Dropout)            (None, 1000)              0         
_________________________________________________________________
dense_1 (Dense)              (None, 1000)              1001000   
_________________________________________________________________
dropout_1 (Dropout)          (None, 1000)              0         
_________________________________________________________________
dense_2 (Dense)              (None, 1000)              1001000   
_________________________________________________________________
dropout_2 (Dropout)          (None, 1000)              0         
_________________________________________________________________
dense_3 (Dense)              (None, 1000)              1001000   
_________________________________________________________________
dropout_3 (Dropout)          (None, 1000)              0         
_________________________________________________________________
dense_4 (Dense)              (None, 1)                 1001      
=================================================================
Total params: 13,005,001
Trainable params: 13,005,001
Non-trainable params: 0
_________________________________________________________________
None
Red
0.02342292285077696
Typer KerasRegressor
Hello world
{'learning_rate': 0.001, 'batch_size': 16, 'rate': 0.5, 'HP_L1_REG': 0.001, 'activation': 'relu', 'kernel_initializer': 'glorot_uniform', 'HP_L2_REG': 1e-08, 'HP_OPTIMIZER': 'Adam', 'epochs': 50, 'HP_NUM_HIDDEN_LAYERS': 4, 'units': 200}
Blue
Model: "sequential"
_________________________________________________________________
Layer (type)                 Output Shape              Param #   
=================================================================
dense (Dense)                (None, 200)               2000200   
_________________________________________________________________
dropout (Dropout)            (None, 200)               0         
_________________________________________________________________
dense_1 (Dense)              (None, 200)               40200     
_________________________________________________________________
dropout_1 (Dropout)          (None, 200)               0         
_________________________________________________________________
dense_2 (Dense)              (None, 200)               40200     
_________________________________________________________________
dropout_2 (Dropout)          (None, 200)               0         
_________________________________________________________________
dense_3 (Dense)              (None, 200)               40200     
_________________________________________________________________
dropout_3 (Dropout)          (None, 200)               0         
_________________________________________________________________
dense_4 (Dense)              (None, 1)                 201       
=================================================================
Total params: 2,121,001
Trainable params: 2,121,001
Non-trainable params: 0
_________________________________________________________________
None
Red
0.16452622507417236
Typer KerasRegressor
Hello world
{'learning_rate': 0.0001, 'batch_size': 16, 'rate': 0.5, 'HP_L1_REG': 0.001, 'activation': 'relu', 'kernel_initializer': 'glorot_uniform', 'HP_L2_REG': 1e-08, 'HP_OPTIMIZER': 'SGD', 'epochs': 50, 'HP_NUM_HIDDEN_LAYERS': 5, 'units': 200}
Blue
Model: "sequential"
_________________________________________________________________
Layer (type)                 Output Shape              Param #   
=================================================================
dense (Dense)                (None, 200)               2000200   
_________________________________________________________________
dropout (Dropout)            (None, 200)               0         
_________________________________________________________________
dense_1 (Dense)              (None, 200)               40200     
_________________________________________________________________
dropout_1 (Dropout)          (None, 200)               0         
_________________________________________________________________
dense_2 (Dense)              (None, 200)               40200     
_________________________________________________________________
dropout_2 (Dropout)          (None, 200)               0         
_________________________________________________________________
dense_3 (Dense)              (None, 200)               40200     
_________________________________________________________________
dropout_3 (Dropout)          (None, 200)               0         
_________________________________________________________________
dense_4 (Dense)              (None, 200)               40200     
_________________________________________________________________
dropout_4 (Dropout)          (None, 200)               0         
_________________________________________________________________
dense_5 (Dense)              (None, 1)                 201       
=================================================================
Total params: 2,161,201
Trainable params: 2,161,201
Non-trainable params: 0
_________________________________________________________________
None
Red
0.009150821677662124
Typer KerasRegressor
Hello world
{'learning_rate': 0.001, 'batch_size': 128, 'rate': 0.0, 'HP_L1_REG': 0.01, 'activation': 'tanh', 'kernel_initializer': 'glorot_uniform', 'HP_L2_REG': 0.2, 'HP_OPTIMIZER': 'SGD', 'epochs': 100, 'HP_NUM_HIDDEN_LAYERS': 5, 'units': 400}
Blue
Model: "sequential"
_________________________________________________________________
Layer (type)                 Output Shape              Param #   
=================================================================
dense (Dense)                (None, 400)               4000400   
_________________________________________________________________
dense_1 (Dense)              (None, 400)               160400    
_________________________________________________________________
dense_2 (Dense)              (None, 400)               160400    
_________________________________________________________________
dense_3 (Dense)              (None, 400)               160400    
_________________________________________________________________
dense_4 (Dense)              (None, 400)               160400    
_________________________________________________________________
dense_5 (Dense)              (None, 1)                 401       
=================================================================
Total params: 4,642,401
Trainable params: 4,642,401
Non-trainable params: 0
_________________________________________________________________
None
Red
0.28329481183025085
Typer KerasRegressor
Hello world
{'learning_rate': 0.0001, 'batch_size': 128, 'rate': 0.2, 'HP_L1_REG': 0.001, 'activation': 'tanh', 'kernel_initializer': 'glorot_uniform', 'HP_L2_REG': 1e-08, 'HP_OPTIMIZER': 'SGD', 'epochs': 200, 'HP_NUM_HIDDEN_LAYERS': 3, 'units': 1000}
Blue
Model: "sequential"
_________________________________________________________________
Layer (type)                 Output Shape              Param #   
=================================================================
dense (Dense)                (None, 1000)              10001000  
_________________________________________________________________
dropout (Dropout)            (None, 1000)              0         
_________________________________________________________________
dense_1 (Dense)              (None, 1000)              1001000   
_________________________________________________________________
dropout_1 (Dropout)          (None, 1000)              0         
_________________________________________________________________
dense_2 (Dense)              (None, 1000)              1001000   
_________________________________________________________________
dropout_2 (Dropout)          (None, 1000)              0         
_________________________________________________________________
dense_3 (Dense)              (None, 1)                 1001      
=================================================================
Total params: 12,004,001
Trainable params: 12,004,001
Non-trainable params: 0
_________________________________________________________________
None
Red
0.2218516957865595
Typer KerasRegressor
Hello world
{'learning_rate': 0.0001, 'batch_size': 16, 'rate': 0.0, 'HP_L1_REG': 0.0001, 'activation': 'tanh', 'kernel_initializer': 'glorot_uniform', 'HP_L2_REG': 0.2, 'HP_OPTIMIZER': 'Adam', 'epochs': 200, 'HP_NUM_HIDDEN_LAYERS': 4, 'units': 1000}
Blue
Model: "sequential"
_________________________________________________________________
Layer (type)                 Output Shape              Param #   
=================================================================
dense (Dense)                (None, 1000)              10001000  
_________________________________________________________________
dense_1 (Dense)              (None, 1000)              1001000   
_________________________________________________________________
dense_2 (Dense)              (None, 1000)              1001000   
_________________________________________________________________
dense_3 (Dense)              (None, 1000)              1001000   
_________________________________________________________________
dense_4 (Dense)              (None, 1)                 1001      
=================================================================
Total params: 13,005,001
Trainable params: 13,005,001
Non-trainable params: 0
_________________________________________________________________
None
Red
0.21708969397695932
Typer KerasRegressor
Hello world
{'learning_rate': 0.001, 'batch_size': 64, 'rate': 0.0, 'HP_L1_REG': 0.001, 'activation': 'relu', 'kernel_initializer': 'glorot_uniform', 'HP_L2_REG': 0.2, 'HP_OPTIMIZER': 'Adam', 'epochs': 100, 'HP_NUM_HIDDEN_LAYERS': 2, 'units': 1000}
Blue
Model: "sequential"
_________________________________________________________________
Layer (type)                 Output Shape              Param #   
=================================================================
dense (Dense)                (None, 1000)              10001000  
_________________________________________________________________
dense_1 (Dense)              (None, 1000)              1001000   
_________________________________________________________________
dense_2 (Dense)              (None, 1)                 1001      
=================================================================
Total params: 11,003,001
Trainable params: 11,003,001
Non-trainable params: 0
_________________________________________________________________
None
Red
0.19409713768214942
Typer KerasRegressor
Hello world
{'learning_rate': 0.0001, 'batch_size': 64, 'rate': 0.5, 'HP_L1_REG': 0.01, 'activation': 'relu', 'kernel_initializer': 'glorot_uniform', 'HP_L2_REG': 0.2, 'HP_OPTIMIZER': 'Adagrad', 'epochs': 50, 'HP_NUM_HIDDEN_LAYERS': 2, 'units': 400}
Blue
Model: "sequential"
_________________________________________________________________
Layer (type)                 Output Shape              Param #   
=================================================================
dense (Dense)                (None, 400)               4000400   
_________________________________________________________________
dropout (Dropout)            (None, 400)               0         
_________________________________________________________________
dense_1 (Dense)              (None, 400)               160400    
_________________________________________________________________
dropout_1 (Dropout)          (None, 400)               0         
_________________________________________________________________
dense_2 (Dense)              (None, 1)                 401       
=================================================================
Total params: 4,161,201
Trainable params: 4,161,201
Non-trainable params: 0
_________________________________________________________________
None
Red
0.017428149308612584
Typer KerasRegressor
Hello world
{'learning_rate': 0.001, 'batch_size': 16, 'rate': 0.0, 'HP_L1_REG': 0.001, 'activation': 'relu', 'kernel_initializer': 'glorot_uniform', 'HP_L2_REG': 1e-08, 'HP_OPTIMIZER': 'Adam', 'epochs': 100, 'HP_NUM_HIDDEN_LAYERS': 5, 'units': 1000}
Blue
Model: "sequential"
_________________________________________________________________
Layer (type)                 Output Shape              Param #   
=================================================================
dense (Dense)                (None, 1000)              10001000  
_________________________________________________________________
dense_1 (Dense)              (None, 1000)              1001000   
_________________________________________________________________
dense_2 (Dense)              (None, 1000)              1001000   
_________________________________________________________________
dense_3 (Dense)              (None, 1000)              1001000   
_________________________________________________________________
dense_4 (Dense)              (None, 1000)              1001000   
_________________________________________________________________
dense_5 (Dense)              (None, 1)                 1001      
=================================================================
Total params: 14,006,001
Trainable params: 14,006,001
Non-trainable params: 0
_________________________________________________________________
None
Red
-0.015964887995561172
Typer KerasRegressor
Hello world
{'learning_rate': 0.001, 'batch_size': 128, 'rate': 0.5, 'HP_L1_REG': 0.01, 'activation': 'tanh', 'kernel_initializer': 'glorot_uniform', 'HP_L2_REG': 1e-08, 'HP_OPTIMIZER': 'SGD', 'epochs': 50, 'HP_NUM_HIDDEN_LAYERS': 2, 'units': 1000}
Blue
Model: "sequential"
_________________________________________________________________
Layer (type)                 Output Shape              Param #   
=================================================================
dense (Dense)                (None, 1000)              10001000  
_________________________________________________________________
dropout (Dropout)            (None, 1000)              0         
_________________________________________________________________
dense_1 (Dense)              (None, 1000)              1001000   
_________________________________________________________________
dropout_1 (Dropout)          (None, 1000)              0         
_________________________________________________________________
dense_2 (Dense)              (None, 1)                 1001      
=================================================================
Total params: 11,003,001
Trainable params: 11,003,001
Non-trainable params: 0
_________________________________________________________________
None
Red
0.30029182417554345
Typer KerasRegressor
Hello world
{'learning_rate': 0.0001, 'batch_size': 64, 'rate': 0.2, 'HP_L1_REG': 0.01, 'activation': 'relu', 'kernel_initializer': 'glorot_uniform', 'HP_L2_REG': 0.0001, 'HP_OPTIMIZER': 'SGD', 'epochs': 100, 'HP_NUM_HIDDEN_LAYERS': 2, 'units': 400}
Blue
Model: "sequential"
_________________________________________________________________
Layer (type)                 Output Shape              Param #   
=================================================================
dense (Dense)                (None, 400)               4000400   
_________________________________________________________________
dropout (Dropout)            (None, 400)               0         
_________________________________________________________________
dense_1 (Dense)              (None, 400)               160400    
_________________________________________________________________
dropout_1 (Dropout)          (None, 400)               0         
_________________________________________________________________
dense_2 (Dense)              (None, 1)                 401       
=================================================================
Total params: 4,161,201
Trainable params: 4,161,201
Non-trainable params: 0
_________________________________________________________________
None
Red
0.024940619326338065
Typer KerasRegressor
Hello world
{'learning_rate': 1e-05, 'batch_size': 16, 'rate': 0.2, 'HP_L1_REG': 0.001, 'activation': 'tanh', 'kernel_initializer': 'glorot_uniform', 'HP_L2_REG': 1e-08, 'HP_OPTIMIZER': 'Adagrad', 'epochs': 100, 'HP_NUM_HIDDEN_LAYERS': 3, 'units': 200}
Blue
Model: "sequential"
_________________________________________________________________
Layer (type)                 Output Shape              Param #   
=================================================================
dense (Dense)                (None, 200)               2000200   
_________________________________________________________________
dropout (Dropout)            (None, 200)               0         
_________________________________________________________________
dense_1 (Dense)              (None, 200)               40200     
_________________________________________________________________
dropout_1 (Dropout)          (None, 200)               0         
_________________________________________________________________
dense_2 (Dense)              (None, 200)               40200     
_________________________________________________________________
dropout_2 (Dropout)          (None, 200)               0         
_________________________________________________________________
dense_3 (Dense)              (None, 1)                 201       
=================================================================
Total params: 2,080,801
Trainable params: 2,080,801
Non-trainable params: 0
_________________________________________________________________
None
Red
0.033791930443905493
Typer KerasRegressor
Hello world
{'learning_rate': 0.001, 'batch_size': 16, 'rate': 0.1, 'HP_L1_REG': 0.0001, 'activation': 'tanh', 'kernel_initializer': 'glorot_uniform', 'HP_L2_REG': 0.0001, 'HP_OPTIMIZER': 'SGD', 'epochs': 50, 'HP_NUM_HIDDEN_LAYERS': 2, 'units': 200}
Blue
Model: "sequential"
_________________________________________________________________
Layer (type)                 Output Shape              Param #   
=================================================================
dense (Dense)                (None, 200)               2000200   
_________________________________________________________________
dropout (Dropout)            (None, 200)               0         
_________________________________________________________________
dense_1 (Dense)              (None, 200)               40200     
_________________________________________________________________
dropout_1 (Dropout)          (None, 200)               0         
_________________________________________________________________
dense_2 (Dense)              (None, 1)                 201       
=================================================================
Total params: 2,040,601
Trainable params: 2,040,601
Non-trainable params: 0
_________________________________________________________________
None
Red
0.24241657368868796
Typer KerasRegressor
Hello world
{'learning_rate': 0.0001, 'batch_size': 16, 'rate': 0.5, 'HP_L1_REG': 0.1, 'activation': 'relu', 'kernel_initializer': 'glorot_uniform', 'HP_L2_REG': 0.0001, 'HP_OPTIMIZER': 'Adam', 'epochs': 50, 'HP_NUM_HIDDEN_LAYERS': 3, 'units': 400}
Blue
Model: "sequential"
_________________________________________________________________
Layer (type)                 Output Shape              Param #   
=================================================================
dense (Dense)                (None, 400)               4000400   
_________________________________________________________________
dropout (Dropout)            (None, 400)               0         
_________________________________________________________________
dense_1 (Dense)              (None, 400)               160400    
_________________________________________________________________
dropout_1 (Dropout)          (None, 400)               0         
_________________________________________________________________
dense_2 (Dense)              (None, 400)               160400    
_________________________________________________________________
dropout_2 (Dropout)          (None, 400)               0         
_________________________________________________________________
dense_3 (Dense)              (None, 1)                 401       
=================================================================
Total params: 4,321,601
Trainable params: 4,321,601
Non-trainable params: 0
_________________________________________________________________
None
Red
-0.01550586272135801
Typer KerasRegressor
Hello world
{'learning_rate': 0.0001, 'batch_size': 128, 'rate': 0.5, 'HP_L1_REG': 0.001, 'activation': 'relu', 'kernel_initializer': 'glorot_uniform', 'HP_L2_REG': 0.2, 'HP_OPTIMIZER': 'Adagrad', 'epochs': 50, 'HP_NUM_HIDDEN_LAYERS': 2, 'units': 400}
Blue
Model: "sequential"
_________________________________________________________________
Layer (type)                 Output Shape              Param #   
=================================================================
dense (Dense)                (None, 400)               4000400   
_________________________________________________________________
dropout (Dropout)            (None, 400)               0         
_________________________________________________________________
dense_1 (Dense)              (None, 400)               160400    
_________________________________________________________________
dropout_1 (Dropout)          (None, 400)               0         
_________________________________________________________________
dense_2 (Dense)              (None, 1)                 401       
=================================================================
Total params: 4,161,201
Trainable params: 4,161,201
Non-trainable params: 0
_________________________________________________________________
None
Red
0.039363860849942145
Typer KerasRegressor
Hello world
{'learning_rate': 0.001, 'batch_size': 16, 'rate': 0.5, 'HP_L1_REG': 0.0001, 'activation': 'tanh', 'kernel_initializer': 'glorot_uniform', 'HP_L2_REG': 0.01, 'HP_OPTIMIZER': 'Adagrad', 'epochs': 200, 'HP_NUM_HIDDEN_LAYERS': 2, 'units': 200}
Blue
Model: "sequential"
_________________________________________________________________
Layer (type)                 Output Shape              Param #   
=================================================================
dense (Dense)                (None, 200)               2000200   
_________________________________________________________________
dropout (Dropout)            (None, 200)               0         
_________________________________________________________________
dense_1 (Dense)              (None, 200)               40200     
_________________________________________________________________
dropout_1 (Dropout)          (None, 200)               0         
_________________________________________________________________
dense_2 (Dense)              (None, 1)                 201       
=================================================================
Total params: 2,040,601
Trainable params: 2,040,601
Non-trainable params: 0
_________________________________________________________________
None
Red
0.30243195198104356
Typer KerasRegressor
Hello world
{'learning_rate': 0.001, 'batch_size': 64, 'rate': 0.0, 'HP_L1_REG': 0.001, 'activation': 'tanh', 'kernel_initializer': 'glorot_uniform', 'HP_L2_REG': 0.2, 'HP_OPTIMIZER': 'SGD', 'epochs': 200, 'HP_NUM_HIDDEN_LAYERS': 4, 'units': 1000}
Blue
Model: "sequential"
_________________________________________________________________
Layer (type)                 Output Shape              Param #   
=================================================================
dense (Dense)                (None, 1000)              10001000  
_________________________________________________________________
dense_1 (Dense)              (None, 1000)              1001000   
_________________________________________________________________
dense_2 (Dense)              (None, 1000)              1001000   
_________________________________________________________________
dense_3 (Dense)              (None, 1000)              1001000   
_________________________________________________________________
dense_4 (Dense)              (None, 1)                 1001      
=================================================================
Total params: 13,005,001
Trainable params: 13,005,001
Non-trainable params: 0
_________________________________________________________________
None
Red
0.3408260893020514
Typer KerasRegressor
Hello world
{'learning_rate': 0.01, 'batch_size': 16, 'rate': 0.5, 'HP_L1_REG': 0.1, 'activation': 'tanh', 'kernel_initializer': 'glorot_uniform', 'HP_L2_REG': 0.01, 'HP_OPTIMIZER': 'Adagrad', 'epochs': 100, 'HP_NUM_HIDDEN_LAYERS': 5, 'units': 400}
Blue
Model: "sequential"
_________________________________________________________________
Layer (type)                 Output Shape              Param #   
=================================================================
dense (Dense)                (None, 400)               4000400   
_________________________________________________________________
dropout (Dropout)            (None, 400)               0         
_________________________________________________________________
dense_1 (Dense)              (None, 400)               160400    
_________________________________________________________________
dropout_1 (Dropout)          (None, 400)               0         
_________________________________________________________________
dense_2 (Dense)              (None, 400)               160400    
_________________________________________________________________
dropout_2 (Dropout)          (None, 400)               0         
_________________________________________________________________
dense_3 (Dense)              (None, 400)               160400    
_________________________________________________________________
dropout_3 (Dropout)          (None, 400)               0         
_________________________________________________________________
dense_4 (Dense)              (None, 400)               160400    
_________________________________________________________________
dropout_4 (Dropout)          (None, 400)               0         
_________________________________________________________________
dense_5 (Dense)              (None, 1)                 401       
=================================================================
Total params: 4,642,401
Trainable params: 4,642,401
Non-trainable params: 0
_________________________________________________________________
None
Red
-0.015228427993926319
Typer KerasRegressor
Hello world
{'learning_rate': 0.0001, 'batch_size': 128, 'rate': 0.1, 'HP_L1_REG': 0.0001, 'activation': 'tanh', 'kernel_initializer': 'glorot_uniform', 'HP_L2_REG': 0.0001, 'HP_OPTIMIZER': 'Adagrad', 'epochs': 50, 'HP_NUM_HIDDEN_LAYERS': 5, 'units': 1000}
Blue
Model: "sequential"
_________________________________________________________________
Layer (type)                 Output Shape              Param #   
=================================================================
dense (Dense)                (None, 1000)              10001000  
_________________________________________________________________
dropout (Dropout)            (None, 1000)              0         
_________________________________________________________________
dense_1 (Dense)              (None, 1000)              1001000   
_________________________________________________________________
dropout_1 (Dropout)          (None, 1000)              0         
_________________________________________________________________
dense_2 (Dense)              (None, 1000)              1001000   
_________________________________________________________________
dropout_2 (Dropout)          (None, 1000)              0         
_________________________________________________________________
dense_3 (Dense)              (None, 1000)              1001000   
_________________________________________________________________
dropout_3 (Dropout)          (None, 1000)              0         
_________________________________________________________________
dense_4 (Dense)              (None, 1000)              1001000   
_________________________________________________________________
dropout_4 (Dropout)          (None, 1000)              0         
_________________________________________________________________
dense_5 (Dense)              (None, 1)                 1001      
=================================================================
Total params: 14,006,001
Trainable params: 14,006,001
Non-trainable params: 0
_________________________________________________________________
None
Red
0.20482010223544145
Typer KerasRegressor
Hello world
{'learning_rate': 0.001, 'batch_size': 64, 'rate': 0.1, 'HP_L1_REG': 0.1, 'activation': 'relu', 'kernel_initializer': 'glorot_uniform', 'HP_L2_REG': 0.0001, 'HP_OPTIMIZER': 'Adagrad', 'epochs': 100, 'HP_NUM_HIDDEN_LAYERS': 3, 'units': 1000}
Blue
Model: "sequential"
_________________________________________________________________
Layer (type)                 Output Shape              Param #   
=================================================================
dense (Dense)                (None, 1000)              10001000  
_________________________________________________________________
dropout (Dropout)            (None, 1000)              0         
_________________________________________________________________
dense_1 (Dense)              (None, 1000)              1001000   
_________________________________________________________________
dropout_1 (Dropout)          (None, 1000)              0         
_________________________________________________________________
dense_2 (Dense)              (None, 1000)              1001000   
_________________________________________________________________
dropout_2 (Dropout)          (None, 1000)              0         
_________________________________________________________________
dense_3 (Dense)              (None, 1)                 1001      
=================================================================
Total params: 12,004,001
Trainable params: 12,004,001
Non-trainable params: 0
_________________________________________________________________
None
Red
-0.011641069904542167
Typer KerasRegressor
Hello world
{'learning_rate': 0.0001, 'batch_size': 64, 'rate': 0.0, 'HP_L1_REG': 0.001, 'activation': 'relu', 'kernel_initializer': 'glorot_uniform', 'HP_L2_REG': 0.2, 'HP_OPTIMIZER': 'SGD', 'epochs': 50, 'HP_NUM_HIDDEN_LAYERS': 3, 'units': 200}
Blue
Model: "sequential"
_________________________________________________________________
Layer (type)                 Output Shape              Param #   
=================================================================
dense (Dense)                (None, 200)               2000200   
_________________________________________________________________
dense_1 (Dense)              (None, 200)               40200     
_________________________________________________________________
dense_2 (Dense)              (None, 200)               40200     
_________________________________________________________________
dense_3 (Dense)              (None, 1)                 201       
=================================================================
Total params: 2,080,801
Trainable params: 2,080,801
Non-trainable params: 0
_________________________________________________________________
None
Red
0.016014889340530636
Typer KerasRegressor
Hello world
{'learning_rate': 0.001, 'batch_size': 128, 'rate': 0.2, 'HP_L1_REG': 0.01, 'activation': 'tanh', 'kernel_initializer': 'glorot_uniform', 'HP_L2_REG': 0.2, 'HP_OPTIMIZER': 'Adagrad', 'epochs': 100, 'HP_NUM_HIDDEN_LAYERS': 2, 'units': 1000}
Blue
Model: "sequential"
_________________________________________________________________
Layer (type)                 Output Shape              Param #   
=================================================================
dense (Dense)                (None, 1000)              10001000  
_________________________________________________________________
dropout (Dropout)            (None, 1000)              0         
_________________________________________________________________
dense_1 (Dense)              (None, 1000)              1001000   
_________________________________________________________________
dropout_1 (Dropout)          (None, 1000)              0         
_________________________________________________________________
dense_2 (Dense)              (None, 1)                 1001      
=================================================================
Total params: 11,003,001
Trainable params: 11,003,001
Non-trainable params: 0
_________________________________________________________________
None
Red
0.18776769796336878
Typer KerasRegressor
Hello world
{'learning_rate': 0.0001, 'batch_size': 16, 'rate': 0.1, 'HP_L1_REG': 0.1, 'activation': 'relu', 'kernel_initializer': 'glorot_uniform', 'HP_L2_REG': 0.01, 'HP_OPTIMIZER': 'Adam', 'epochs': 50, 'HP_NUM_HIDDEN_LAYERS': 4, 'units': 200}
Blue
Model: "sequential"
_________________________________________________________________
Layer (type)                 Output Shape              Param #   
=================================================================
dense (Dense)                (None, 200)               2000200   
_________________________________________________________________
dropout (Dropout)            (None, 200)               0         
_________________________________________________________________
dense_1 (Dense)              (None, 200)               40200     
_________________________________________________________________
dropout_1 (Dropout)          (None, 200)               0         
_________________________________________________________________
dense_2 (Dense)              (None, 200)               40200     
_________________________________________________________________
dropout_2 (Dropout)          (None, 200)               0         
_________________________________________________________________
dense_3 (Dense)              (None, 200)               40200     
_________________________________________________________________
dropout_3 (Dropout)          (None, 200)               0         
_________________________________________________________________
dense_4 (Dense)              (None, 1)                 201       
=================================================================
Total params: 2,121,001
Trainable params: 2,121,001
Non-trainable params: 0
_________________________________________________________________
None
Red
-0.015092117140529382
Typer KerasRegressor
Hello world
{'learning_rate': 1e-05, 'batch_size': 128, 'rate': 0.2, 'HP_L1_REG': 0.01, 'activation': 'tanh', 'kernel_initializer': 'glorot_uniform', 'HP_L2_REG': 0.2, 'HP_OPTIMIZER': 'Adam', 'epochs': 200, 'HP_NUM_HIDDEN_LAYERS': 3, 'units': 400}
Blue
Model: "sequential"
_________________________________________________________________
Layer (type)                 Output Shape              Param #   
=================================================================
dense (Dense)                (None, 400)               4000400   
_________________________________________________________________
dropout (Dropout)            (None, 400)               0         
_________________________________________________________________
dense_1 (Dense)              (None, 400)               160400    
_________________________________________________________________
dropout_1 (Dropout)          (None, 400)               0         
_________________________________________________________________
dense_2 (Dense)              (None, 400)               160400    
_________________________________________________________________
dropout_2 (Dropout)          (None, 400)               0         
_________________________________________________________________
dense_3 (Dense)              (None, 1)                 401       
=================================================================
Total params: 4,321,601
Trainable params: 4,321,601
Non-trainable params: 0
_________________________________________________________________
None
Red
0.07759156890723673
Typer KerasRegressor
Hello world
{'learning_rate': 1e-05, 'batch_size': 64, 'rate': 0.0, 'HP_L1_REG': 0.0001, 'activation': 'tanh', 'kernel_initializer': 'glorot_uniform', 'HP_L2_REG': 0.01, 'HP_OPTIMIZER': 'Adagrad', 'epochs': 200, 'HP_NUM_HIDDEN_LAYERS': 4, 'units': 1000}
Blue
Model: "sequential"
_________________________________________________________________
Layer (type)                 Output Shape              Param #   
=================================================================
dense (Dense)                (None, 1000)              10001000  
_________________________________________________________________
dense_1 (Dense)              (None, 1000)              1001000   
_________________________________________________________________
dense_2 (Dense)              (None, 1000)              1001000   
_________________________________________________________________
dense_3 (Dense)              (None, 1000)              1001000   
_________________________________________________________________
dense_4 (Dense)              (None, 1)                 1001      
=================================================================
Total params: 13,005,001
Trainable params: 13,005,001
Non-trainable params: 0
_________________________________________________________________
None
Red
0.12301395894033107
Typer KerasRegressor
Hello world
{'learning_rate': 0.01, 'batch_size': 128, 'rate': 0.0, 'HP_L1_REG': 0.1, 'activation': 'relu', 'kernel_initializer': 'glorot_uniform', 'HP_L2_REG': 1e-08, 'HP_OPTIMIZER': 'Adagrad', 'epochs': 100, 'HP_NUM_HIDDEN_LAYERS': 5, 'units': 1000}
Blue
Model: "sequential"
_________________________________________________________________
Layer (type)                 Output Shape              Param #   
=================================================================
dense (Dense)                (None, 1000)              10001000  
_________________________________________________________________
dense_1 (Dense)              (None, 1000)              1001000   
_________________________________________________________________
dense_2 (Dense)              (None, 1000)              1001000   
_________________________________________________________________
dense_3 (Dense)              (None, 1000)              1001000   
_________________________________________________________________
dense_4 (Dense)              (None, 1000)              1001000   
_________________________________________________________________
dense_5 (Dense)              (None, 1)                 1001      
=================================================================
Total params: 14,006,001
Trainable params: 14,006,001
Non-trainable params: 0
_________________________________________________________________
None
Red
-0.016773400178729636
Typer KerasRegressor
Hello world
{'learning_rate': 1e-05, 'batch_size': 128, 'rate': 0.1, 'HP_L1_REG': 0.1, 'activation': 'relu', 'kernel_initializer': 'glorot_uniform', 'HP_L2_REG': 0.0001, 'HP_OPTIMIZER': 'Adagrad', 'epochs': 50, 'HP_NUM_HIDDEN_LAYERS': 2, 'units': 200}
Blue
Model: "sequential"
_________________________________________________________________
Layer (type)                 Output Shape              Param #   
=================================================================
dense (Dense)                (None, 200)               2000200   
_________________________________________________________________
dropout (Dropout)            (None, 200)               0         
_________________________________________________________________
dense_1 (Dense)              (None, 200)               40200     
_________________________________________________________________
dropout_1 (Dropout)          (None, 200)               0         
_________________________________________________________________
dense_2 (Dense)              (None, 1)                 201       
=================================================================
Total params: 2,040,601
Trainable params: 2,040,601
Non-trainable params: 0
_________________________________________________________________
None
Red
-0.10728788070123252
Typer KerasRegressor
Hello world
{'learning_rate': 0.0001, 'batch_size': 128, 'rate': 0.1, 'HP_L1_REG': 0.01, 'activation': 'relu', 'kernel_initializer': 'glorot_uniform', 'HP_L2_REG': 0.01, 'HP_OPTIMIZER': 'Adam', 'epochs': 200, 'HP_NUM_HIDDEN_LAYERS': 4, 'units': 1000}
Blue
Model: "sequential"
_________________________________________________________________
Layer (type)                 Output Shape              Param #   
=================================================================
dense (Dense)                (None, 1000)              10001000  
_________________________________________________________________
dropout (Dropout)            (None, 1000)              0         
_________________________________________________________________
dense_1 (Dense)              (None, 1000)              1001000   
_________________________________________________________________
dropout_1 (Dropout)          (None, 1000)              0         
_________________________________________________________________
dense_2 (Dense)              (None, 1000)              1001000   
_________________________________________________________________
dropout_2 (Dropout)          (None, 1000)              0         
_________________________________________________________________
dense_3 (Dense)              (None, 1000)              1001000   
_________________________________________________________________
dropout_3 (Dropout)          (None, 1000)              0         
_________________________________________________________________
dense_4 (Dense)              (None, 1)                 1001      
=================================================================
Total params: 13,005,001
Trainable params: 13,005,001
Non-trainable params: 0
_________________________________________________________________
None
Red
-0.0160688355121561
Typer KerasRegressor
Hello world
{'learning_rate': 0.001, 'batch_size': 64, 'rate': 0.1, 'HP_L1_REG': 0.1, 'activation': 'relu', 'kernel_initializer': 'glorot_uniform', 'HP_L2_REG': 0.0001, 'HP_OPTIMIZER': 'Adam', 'epochs': 200, 'HP_NUM_HIDDEN_LAYERS': 4, 'units': 400}
Blue
Model: "sequential"
_________________________________________________________________
Layer (type)                 Output Shape              Param #   
=================================================================
dense (Dense)                (None, 400)               4000400   
_________________________________________________________________
dropout (Dropout)            (None, 400)               0         
_________________________________________________________________
dense_1 (Dense)              (None, 400)               160400    
_________________________________________________________________
dropout_1 (Dropout)          (None, 400)               0         
_________________________________________________________________
dense_2 (Dense)              (None, 400)               160400    
_________________________________________________________________
dropout_2 (Dropout)          (None, 400)               0         
_________________________________________________________________
dense_3 (Dense)              (None, 400)               160400    
_________________________________________________________________
dropout_3 (Dropout)          (None, 400)               0         
_________________________________________________________________
dense_4 (Dense)              (None, 1)                 401       
=================================================================
Total params: 4,482,001
Trainable params: 4,482,001
Non-trainable params: 0
_________________________________________________________________
None
Red
-0.014591552514864103
Typer KerasRegressor
Hello world
{'learning_rate': 0.001, 'batch_size': 16, 'rate': 0.1, 'HP_L1_REG': 0.001, 'activation': 'relu', 'kernel_initializer': 'glorot_uniform', 'HP_L2_REG': 1e-08, 'HP_OPTIMIZER': 'Adam', 'epochs': 100, 'HP_NUM_HIDDEN_LAYERS': 2, 'units': 1000}
Blue
Model: "sequential"
_________________________________________________________________
Layer (type)                 Output Shape              Param #   
=================================================================
dense (Dense)                (None, 1000)              10001000  
_________________________________________________________________
dropout (Dropout)            (None, 1000)              0         
_________________________________________________________________
dense_1 (Dense)              (None, 1000)              1001000   
_________________________________________________________________
dropout_1 (Dropout)          (None, 1000)              0         
_________________________________________________________________
dense_2 (Dense)              (None, 1)                 1001      
=================================================================
Total params: 11,003,001
Trainable params: 11,003,001
Non-trainable params: 0
_________________________________________________________________
None
Red
0.17703394573887876
Typer KerasRegressor
Hello world
{'learning_rate': 1e-05, 'batch_size': 16, 'rate': 0.2, 'HP_L1_REG': 0.001, 'activation': 'relu', 'kernel_initializer': 'glorot_uniform', 'HP_L2_REG': 0.0001, 'HP_OPTIMIZER': 'SGD', 'epochs': 50, 'HP_NUM_HIDDEN_LAYERS': 4, 'units': 200}
Blue
Model: "sequential"
_________________________________________________________________
Layer (type)                 Output Shape              Param #   
=================================================================
dense (Dense)                (None, 200)               2000200   
_________________________________________________________________
dropout (Dropout)            (None, 200)               0         
_________________________________________________________________
dense_1 (Dense)              (None, 200)               40200     
_________________________________________________________________
dropout_1 (Dropout)          (None, 200)               0         
_________________________________________________________________
dense_2 (Dense)              (None, 200)               40200     
_________________________________________________________________
dropout_2 (Dropout)          (None, 200)               0         
_________________________________________________________________
dense_3 (Dense)              (None, 200)               40200     
_________________________________________________________________
dropout_3 (Dropout)          (None, 200)               0         
_________________________________________________________________
dense_4 (Dense)              (None, 1)                 201       
=================================================================
Total params: 2,121,001
Trainable params: 2,121,001
Non-trainable params: 0
_________________________________________________________________
None
Red
0.00529906004606584
Typer KerasRegressor
Hello world
{'learning_rate': 1e-05, 'batch_size': 16, 'rate': 0.0, 'HP_L1_REG': 0.01, 'activation': 'relu', 'kernel_initializer': 'glorot_uniform', 'HP_L2_REG': 0.01, 'HP_OPTIMIZER': 'SGD', 'epochs': 100, 'HP_NUM_HIDDEN_LAYERS': 4, 'units': 400}
Blue
Model: "sequential"
_________________________________________________________________
Layer (type)                 Output Shape              Param #   
=================================================================
dense (Dense)                (None, 400)               4000400   
_________________________________________________________________
dense_1 (Dense)              (None, 400)               160400    
_________________________________________________________________
dense_2 (Dense)              (None, 400)               160400    
_________________________________________________________________
dense_3 (Dense)              (None, 400)               160400    
_________________________________________________________________
dense_4 (Dense)              (None, 1)                 401       
=================================================================
Total params: 4,482,001
Trainable params: 4,482,001
Non-trainable params: 0
_________________________________________________________________
None
Red
0.01123675624992726
Typer KerasRegressor
Hello world
{'learning_rate': 1e-05, 'batch_size': 128, 'rate': 0.5, 'HP_L1_REG': 0.0001, 'activation': 'relu', 'kernel_initializer': 'glorot_uniform', 'HP_L2_REG': 0.2, 'HP_OPTIMIZER': 'Adagrad', 'epochs': 50, 'HP_NUM_HIDDEN_LAYERS': 3, 'units': 1000}
Blue
Model: "sequential"
_________________________________________________________________
Layer (type)                 Output Shape              Param #   
=================================================================
dense (Dense)                (None, 1000)              10001000  
_________________________________________________________________
dropout (Dropout)            (None, 1000)              0         
_________________________________________________________________
dense_1 (Dense)              (None, 1000)              1001000   
_________________________________________________________________
dropout_1 (Dropout)          (None, 1000)              0         
_________________________________________________________________
dense_2 (Dense)              (None, 1000)              1001000   
_________________________________________________________________
dropout_2 (Dropout)          (None, 1000)              0         
_________________________________________________________________
dense_3 (Dense)              (None, 1)                 1001      
=================================================================
Total params: 12,004,001
Trainable params: 12,004,001
Non-trainable params: 0
_________________________________________________________________
None
Red
-0.022731994119242538
Typer KerasRegressor
Hello world
{'learning_rate': 0.0001, 'batch_size': 128, 'rate': 0.0, 'HP_L1_REG': 0.0001, 'activation': 'tanh', 'kernel_initializer': 'glorot_uniform', 'HP_L2_REG': 1e-08, 'HP_OPTIMIZER': 'Adagrad', 'epochs': 200, 'HP_NUM_HIDDEN_LAYERS': 2, 'units': 1000}
Blue
Model: "sequential"
_________________________________________________________________
Layer (type)                 Output Shape              Param #   
=================================================================
dense (Dense)                (None, 1000)              10001000  
_________________________________________________________________
dense_1 (Dense)              (None, 1000)              1001000   
_________________________________________________________________
dense_2 (Dense)              (None, 1)                 1001      
=================================================================
Total params: 11,003,001
Trainable params: 11,003,001
Non-trainable params: 0
_________________________________________________________________
None
Red
0.2894356815129989
Typer KerasRegressor
Hello world
{'learning_rate': 0.01, 'batch_size': 16, 'rate': 0.2, 'HP_L1_REG': 0.1, 'activation': 'tanh', 'kernel_initializer': 'glorot_uniform', 'HP_L2_REG': 0.01, 'HP_OPTIMIZER': 'SGD', 'epochs': 100, 'HP_NUM_HIDDEN_LAYERS': 2, 'units': 1000}
Blue
Model: "sequential"
_________________________________________________________________
Layer (type)                 Output Shape              Param #   
=================================================================
dense (Dense)                (None, 1000)              10001000  
_________________________________________________________________
dropout (Dropout)            (None, 1000)              0         
_________________________________________________________________
dense_1 (Dense)              (None, 1000)              1001000   
_________________________________________________________________
dropout_1 (Dropout)          (None, 1000)              0         
_________________________________________________________________
dense_2 (Dense)              (None, 1)                 1001      
=================================================================
Total params: 11,003,001
Trainable params: 11,003,001
Non-trainable params: 0
_________________________________________________________________
None
Red
-0.011197017585257596
Typer KerasRegressor
Hello world
{'learning_rate': 0.001, 'batch_size': 64, 'rate': 0.1, 'HP_L1_REG': 0.0001, 'activation': 'relu', 'kernel_initializer': 'glorot_uniform', 'HP_L2_REG': 0.0001, 'HP_OPTIMIZER': 'Adagrad', 'epochs': 100, 'HP_NUM_HIDDEN_LAYERS': 4, 'units': 200}
Blue
Model: "sequential"
_________________________________________________________________
Layer (type)                 Output Shape              Param #   
=================================================================
dense (Dense)                (None, 200)               2000200   
_________________________________________________________________
dropout (Dropout)            (None, 200)               0         
_________________________________________________________________
dense_1 (Dense)              (None, 200)               40200     
_________________________________________________________________
dropout_1 (Dropout)          (None, 200)               0         
_________________________________________________________________
dense_2 (Dense)              (None, 200)               40200     
_________________________________________________________________
dropout_2 (Dropout)          (None, 200)               0         
_________________________________________________________________
dense_3 (Dense)              (None, 200)               40200     
_________________________________________________________________
dropout_3 (Dropout)          (None, 200)               0         
_________________________________________________________________
dense_4 (Dense)              (None, 1)                 201       
=================================================================
Total params: 2,121,001
Trainable params: 2,121,001
Non-trainable params: 0
_________________________________________________________________
None
Red
0.3370598207858949
Typer KerasRegressor
Hello world
{'learning_rate': 1e-05, 'batch_size': 128, 'rate': 0.5, 'HP_L1_REG': 0.1, 'activation': 'tanh', 'kernel_initializer': 'glorot_uniform', 'HP_L2_REG': 0.01, 'HP_OPTIMIZER': 'Adam', 'epochs': 50, 'HP_NUM_HIDDEN_LAYERS': 2, 'units': 400}
Blue
Model: "sequential"
_________________________________________________________________
Layer (type)                 Output Shape              Param #   
=================================================================
dense (Dense)                (None, 400)               4000400   
_________________________________________________________________
dropout (Dropout)            (None, 400)               0         
_________________________________________________________________
dense_1 (Dense)              (None, 400)               160400    
_________________________________________________________________
dropout_1 (Dropout)          (None, 400)               0         
_________________________________________________________________
dense_2 (Dense)              (None, 1)                 401       
=================================================================
Total params: 4,161,201
Trainable params: 4,161,201
Non-trainable params: 0
_________________________________________________________________
None
Red
-0.015412690952215424
Typer KerasRegressor
Hello world
{'learning_rate': 0.0001, 'batch_size': 128, 'rate': 0.5, 'HP_L1_REG': 0.01, 'activation': 'tanh', 'kernel_initializer': 'glorot_uniform', 'HP_L2_REG': 1e-08, 'HP_OPTIMIZER': 'Adagrad', 'epochs': 50, 'HP_NUM_HIDDEN_LAYERS': 5, 'units': 200}
Blue
Model: "sequential"
_________________________________________________________________
Layer (type)                 Output Shape              Param #   
=================================================================
dense (Dense)                (None, 200)               2000200   
_________________________________________________________________
dropout (Dropout)            (None, 200)               0         
_________________________________________________________________
dense_1 (Dense)              (None, 200)               40200     
_________________________________________________________________
dropout_1 (Dropout)          (None, 200)               0         
_________________________________________________________________
dense_2 (Dense)              (None, 200)               40200     
_________________________________________________________________
dropout_2 (Dropout)          (None, 200)               0         
_________________________________________________________________
dense_3 (Dense)              (None, 200)               40200     
_________________________________________________________________
dropout_3 (Dropout)          (None, 200)               0         
_________________________________________________________________
dense_4 (Dense)              (None, 200)               40200     
_________________________________________________________________
dropout_4 (Dropout)          (None, 200)               0         
_________________________________________________________________
dense_5 (Dense)              (None, 1)                 201       
=================================================================
Total params: 2,161,201
Trainable params: 2,161,201
Non-trainable params: 0
_________________________________________________________________
None
Red
-0.1272938293129111
Typer KerasRegressor
Hello world
{'learning_rate': 0.01, 'batch_size': 128, 'rate': 0.1, 'HP_L1_REG': 0.1, 'activation': 'tanh', 'kernel_initializer': 'glorot_uniform', 'HP_L2_REG': 0.01, 'HP_OPTIMIZER': 'SGD', 'epochs': 200, 'HP_NUM_HIDDEN_LAYERS': 5, 'units': 1000}
Blue
Model: "sequential"
_________________________________________________________________
Layer (type)                 Output Shape              Param #   
=================================================================
dense (Dense)                (None, 1000)              10001000  
_________________________________________________________________
dropout (Dropout)            (None, 1000)              0         
_________________________________________________________________
dense_1 (Dense)              (None, 1000)              1001000   
_________________________________________________________________
dropout_1 (Dropout)          (None, 1000)              0         
_________________________________________________________________
dense_2 (Dense)              (None, 1000)              1001000   
_________________________________________________________________
dropout_2 (Dropout)          (None, 1000)              0         
_________________________________________________________________
dense_3 (Dense)              (None, 1000)              1001000   
_________________________________________________________________
dropout_3 (Dropout)          (None, 1000)              0         
_________________________________________________________________
dense_4 (Dense)              (None, 1000)              1001000   
_________________________________________________________________
dropout_4 (Dropout)          (None, 1000)              0         
_________________________________________________________________
dense_5 (Dense)              (None, 1)                 1001      
=================================================================
Total params: 14,006,001
Trainable params: 14,006,001
Non-trainable params: 0
_________________________________________________________________
None
Red
-0.01742998489036207
Typer KerasRegressor
Hello world
{'learning_rate': 1e-05, 'batch_size': 64, 'rate': 0.5, 'HP_L1_REG': 0.001, 'activation': 'relu', 'kernel_initializer': 'glorot_uniform', 'HP_L2_REG': 0.0001, 'HP_OPTIMIZER': 'Adam', 'epochs': 100, 'HP_NUM_HIDDEN_LAYERS': 2, 'units': 1000}
Blue
Model: "sequential"
_________________________________________________________________
Layer (type)                 Output Shape              Param #   
=================================================================
dense (Dense)                (None, 1000)              10001000  
_________________________________________________________________
dropout (Dropout)            (None, 1000)              0         
_________________________________________________________________
dense_1 (Dense)              (None, 1000)              1001000   
_________________________________________________________________
dropout_1 (Dropout)          (None, 1000)              0         
_________________________________________________________________
dense_2 (Dense)              (None, 1)                 1001      
=================================================================
Total params: 11,003,001
Trainable params: 11,003,001
Non-trainable params: 0
_________________________________________________________________
None
Red
0.3891642004007516
Typer KerasRegressor
Hello world
{'learning_rate': 0.01, 'batch_size': 64, 'rate': 0.2, 'HP_L1_REG': 0.001, 'activation': 'tanh', 'kernel_initializer': 'glorot_uniform', 'HP_L2_REG': 1e-08, 'HP_OPTIMIZER': 'SGD', 'epochs': 200, 'HP_NUM_HIDDEN_LAYERS': 2, 'units': 400}
Blue
Model: "sequential"
_________________________________________________________________
Layer (type)                 Output Shape              Param #   
=================================================================
dense (Dense)                (None, 400)               4000400   
_________________________________________________________________
dropout (Dropout)            (None, 400)               0         
_________________________________________________________________
dense_1 (Dense)              (None, 400)               160400    
_________________________________________________________________
dropout_1 (Dropout)          (None, 400)               0         
_________________________________________________________________
dense_2 (Dense)              (None, 1)                 401       
=================================================================
Total params: 4,161,201
Trainable params: 4,161,201
Non-trainable params: 0
_________________________________________________________________
None
Red
0.1682676678945133
Typer KerasRegressor
Hello world
{'learning_rate': 0.0001, 'batch_size': 128, 'rate': 0.2, 'HP_L1_REG': 0.0001, 'activation': 'relu', 'kernel_initializer': 'glorot_uniform', 'HP_L2_REG': 1e-08, 'HP_OPTIMIZER': 'SGD', 'epochs': 50, 'HP_NUM_HIDDEN_LAYERS': 3, 'units': 400}
Blue
Model: "sequential"
_________________________________________________________________
Layer (type)                 Output Shape              Param #   
=================================================================
dense (Dense)                (None, 400)               4000400   
_________________________________________________________________
dropout (Dropout)            (None, 400)               0         
_________________________________________________________________
dense_1 (Dense)              (None, 400)               160400    
_________________________________________________________________
dropout_1 (Dropout)          (None, 400)               0         
_________________________________________________________________
dense_2 (Dense)              (None, 400)               160400    
_________________________________________________________________
dropout_2 (Dropout)          (None, 400)               0         
_________________________________________________________________
dense_3 (Dense)              (None, 1)                 401       
=================================================================
Total params: 4,321,601
Trainable params: 4,321,601
Non-trainable params: 0
_________________________________________________________________
None
Red
-0.021419276866997183
Typer KerasRegressor
Hello world
{'learning_rate': 0.01, 'batch_size': 64, 'rate': 0.1, 'HP_L1_REG': 0.001, 'activation': 'relu', 'kernel_initializer': 'glorot_uniform', 'HP_L2_REG': 0.0001, 'HP_OPTIMIZER': 'Adam', 'epochs': 200, 'HP_NUM_HIDDEN_LAYERS': 2, 'units': 400}
Blue
Model: "sequential"
_________________________________________________________________
Layer (type)                 Output Shape              Param #   
=================================================================
dense (Dense)                (None, 400)               4000400   
_________________________________________________________________
dropout (Dropout)            (None, 400)               0         
_________________________________________________________________
dense_1 (Dense)              (None, 400)               160400    
_________________________________________________________________
dropout_1 (Dropout)          (None, 400)               0         
_________________________________________________________________
dense_2 (Dense)              (None, 1)                 401       
=================================================================
Total params: 4,161,201
Trainable params: 4,161,201
Non-trainable params: 0
_________________________________________________________________
None
Red
0.024711789279762475
Typer KerasRegressor
Hello world
{'learning_rate': 1e-05, 'batch_size': 64, 'rate': 0.0, 'HP_L1_REG': 0.0001, 'activation': 'relu', 'kernel_initializer': 'glorot_uniform', 'HP_L2_REG': 0.2, 'HP_OPTIMIZER': 'SGD', 'epochs': 50, 'HP_NUM_HIDDEN_LAYERS': 3, 'units': 400}
Blue
Model: "sequential"
_________________________________________________________________
Layer (type)                 Output Shape              Param #   
=================================================================
dense (Dense)                (None, 400)               4000400   
_________________________________________________________________
dense_1 (Dense)              (None, 400)               160400    
_________________________________________________________________
dense_2 (Dense)              (None, 400)               160400    
_________________________________________________________________
dense_3 (Dense)              (None, 1)                 401       
=================================================================
Total params: 4,321,601
Trainable params: 4,321,601
Non-trainable params: 0
_________________________________________________________________
None
Red
-0.022223549039268153
Typer KerasRegressor
Hello world
{'learning_rate': 0.0001, 'batch_size': 64, 'rate': 0.0, 'HP_L1_REG': 0.1, 'activation': 'tanh', 'kernel_initializer': 'glorot_uniform', 'HP_L2_REG': 1e-08, 'HP_OPTIMIZER': 'Adagrad', 'epochs': 100, 'HP_NUM_HIDDEN_LAYERS': 2, 'units': 1000}
Blue
Model: "sequential"
_________________________________________________________________
Layer (type)                 Output Shape              Param #   
=================================================================
dense (Dense)                (None, 1000)              10001000  
_________________________________________________________________
dense_1 (Dense)              (None, 1000)              1001000   
_________________________________________________________________
dense_2 (Dense)              (None, 1)                 1001      
=================================================================
Total params: 11,003,001
Trainable params: 11,003,001
Non-trainable params: 0
_________________________________________________________________
None
Red
0.05740315929039852
Typer KerasRegressor
Hello world
{'learning_rate': 0.001, 'batch_size': 128, 'rate': 0.0, 'HP_L1_REG': 0.0001, 'activation': 'relu', 'kernel_initializer': 'glorot_uniform', 'HP_L2_REG': 0.0001, 'HP_OPTIMIZER': 'Adam', 'epochs': 50, 'HP_NUM_HIDDEN_LAYERS': 5, 'units': 400}
Blue
Model: "sequential"
_________________________________________________________________
Layer (type)                 Output Shape              Param #   
=================================================================
dense (Dense)                (None, 400)               4000400   
_________________________________________________________________
dense_1 (Dense)              (None, 400)               160400    
_________________________________________________________________
dense_2 (Dense)              (None, 400)               160400    
_________________________________________________________________
dense_3 (Dense)              (None, 400)               160400    
_________________________________________________________________
dense_4 (Dense)              (None, 400)               160400    
_________________________________________________________________
dense_5 (Dense)              (None, 1)                 401       
=================================================================
Total params: 4,642,401
Trainable params: 4,642,401
Non-trainable params: 0
_________________________________________________________________
None
Red
0.3306684696958885
Typer KerasRegressor
Hello world
{'learning_rate': 0.0001, 'batch_size': 16, 'rate': 0.1, 'HP_L1_REG': 0.1, 'activation': 'relu', 'kernel_initializer': 'glorot_uniform', 'HP_L2_REG': 0.01, 'HP_OPTIMIZER': 'SGD', 'epochs': 100, 'HP_NUM_HIDDEN_LAYERS': 2, 'units': 400}
Blue
Model: "sequential"
_________________________________________________________________
Layer (type)                 Output Shape              Param #   
=================================================================
dense (Dense)                (None, 400)               4000400   
_________________________________________________________________
dropout (Dropout)            (None, 400)               0         
_________________________________________________________________
dense_1 (Dense)              (None, 400)               160400    
_________________________________________________________________
dropout_1 (Dropout)          (None, 400)               0         
_________________________________________________________________
dense_2 (Dense)              (None, 1)                 401       
=================================================================
Total params: 4,161,201
Trainable params: 4,161,201
Non-trainable params: 0
_________________________________________________________________
None
Red
-0.000594059698511451
Typer KerasRegressor
Hello world
{'learning_rate': 0.01, 'batch_size': 16, 'rate': 0.2, 'HP_L1_REG': 0.001, 'activation': 'tanh', 'kernel_initializer': 'glorot_uniform', 'HP_L2_REG': 1e-08, 'HP_OPTIMIZER': 'SGD', 'epochs': 50, 'HP_NUM_HIDDEN_LAYERS': 5, 'units': 1000}
Blue
Model: "sequential"
_________________________________________________________________
Layer (type)                 Output Shape              Param #   
=================================================================
dense (Dense)                (None, 1000)              10001000  
_________________________________________________________________
dropout (Dropout)            (None, 1000)              0         
_________________________________________________________________
dense_1 (Dense)              (None, 1000)              1001000   
_________________________________________________________________
dropout_1 (Dropout)          (None, 1000)              0         
_________________________________________________________________
dense_2 (Dense)              (None, 1000)              1001000   
_________________________________________________________________
dropout_2 (Dropout)          (None, 1000)              0         
_________________________________________________________________
dense_3 (Dense)              (None, 1000)              1001000   
_________________________________________________________________
dropout_3 (Dropout)          (None, 1000)              0         
_________________________________________________________________
dense_4 (Dense)              (None, 1000)              1001000   
_________________________________________________________________
dropout_4 (Dropout)          (None, 1000)              0         
_________________________________________________________________
dense_5 (Dense)              (None, 1)                 1001      
=================================================================
Total params: 14,006,001
Trainable params: 14,006,001
Non-trainable params: 0
_________________________________________________________________
None
Red
0.29524502553274823
Typer KerasRegressor
Hello world
{'learning_rate': 0.01, 'batch_size': 64, 'rate': 0.5, 'HP_L1_REG': 0.1, 'activation': 'relu', 'kernel_initializer': 'glorot_uniform', 'HP_L2_REG': 0.2, 'HP_OPTIMIZER': 'Adam', 'epochs': 200, 'HP_NUM_HIDDEN_LAYERS': 3, 'units': 200}
Blue
Model: "sequential"
_________________________________________________________________
Layer (type)                 Output Shape              Param #   
=================================================================
dense (Dense)                (None, 200)               2000200   
_________________________________________________________________
dropout (Dropout)            (None, 200)               0         
_________________________________________________________________
dense_1 (Dense)              (None, 200)               40200     
_________________________________________________________________
dropout_1 (Dropout)          (None, 200)               0         
_________________________________________________________________
dense_2 (Dense)              (None, 200)               40200     
_________________________________________________________________
dropout_2 (Dropout)          (None, 200)               0         
_________________________________________________________________
dense_3 (Dense)              (None, 1)                 201       
=================================================================
Total params: 2,080,801
Trainable params: 2,080,801
Non-trainable params: 0
_________________________________________________________________
None
Red
-0.01608676109408602
Typer KerasRegressor
Hello world
{'learning_rate': 0.01, 'batch_size': 16, 'rate': 0.1, 'HP_L1_REG': 0.001, 'activation': 'tanh', 'kernel_initializer': 'glorot_uniform', 'HP_L2_REG': 0.0001, 'HP_OPTIMIZER': 'Adagrad', 'epochs': 200, 'HP_NUM_HIDDEN_LAYERS': 3, 'units': 1000}
Blue
Model: "sequential"
_________________________________________________________________
Layer (type)                 Output Shape              Param #   
=================================================================
dense (Dense)                (None, 1000)              10001000  
_________________________________________________________________
dropout (Dropout)            (None, 1000)              0         
_________________________________________________________________
dense_1 (Dense)              (None, 1000)              1001000   
_________________________________________________________________
dropout_1 (Dropout)          (None, 1000)              0         
_________________________________________________________________
dense_2 (Dense)              (None, 1000)              1001000   
_________________________________________________________________
dropout_2 (Dropout)          (None, 1000)              0         
_________________________________________________________________
dense_3 (Dense)              (None, 1)                 1001      
=================================================================
Total params: 12,004,001
Trainable params: 12,004,001
Non-trainable params: 0
_________________________________________________________________
None
Red
0.07698919054185394
Typer KerasRegressor
Hello world
{'learning_rate': 0.001, 'batch_size': 128, 'rate': 0.1, 'HP_L1_REG': 0.1, 'activation': 'relu', 'kernel_initializer': 'glorot_uniform', 'HP_L2_REG': 0.01, 'HP_OPTIMIZER': 'SGD', 'epochs': 200, 'HP_NUM_HIDDEN_LAYERS': 4, 'units': 400}
Blue
Model: "sequential"
_________________________________________________________________
Layer (type)                 Output Shape              Param #   
=================================================================
dense (Dense)                (None, 400)               4000400   
_________________________________________________________________
dropout (Dropout)            (None, 400)               0         
_________________________________________________________________
dense_1 (Dense)              (None, 400)               160400    
_________________________________________________________________
dropout_1 (Dropout)          (None, 400)               0         
_________________________________________________________________
dense_2 (Dense)              (None, 400)               160400    
_________________________________________________________________
dropout_2 (Dropout)          (None, 400)               0         
_________________________________________________________________
dense_3 (Dense)              (None, 400)               160400    
_________________________________________________________________
dropout_3 (Dropout)          (None, 400)               0         
_________________________________________________________________
dense_4 (Dense)              (None, 1)                 401       
=================================================================
Total params: 4,482,001
Trainable params: 4,482,001
Non-trainable params: 0
_________________________________________________________________
None
Red
-0.0087059546753816
Typer KerasRegressor
Hello world
{'learning_rate': 0.0001, 'batch_size': 128, 'rate': 0.5, 'HP_L1_REG': 0.001, 'activation': 'tanh', 'kernel_initializer': 'glorot_uniform', 'HP_L2_REG': 0.01, 'HP_OPTIMIZER': 'Adagrad', 'epochs': 100, 'HP_NUM_HIDDEN_LAYERS': 3, 'units': 400}
Blue
Model: "sequential"
_________________________________________________________________
Layer (type)                 Output Shape              Param #   
=================================================================
dense (Dense)                (None, 400)               4000400   
_________________________________________________________________
dropout (Dropout)            (None, 400)               0         
_________________________________________________________________
dense_1 (Dense)              (None, 400)               160400    
_________________________________________________________________
dropout_1 (Dropout)          (None, 400)               0         
_________________________________________________________________
dense_2 (Dense)              (None, 400)               160400    
_________________________________________________________________
dropout_2 (Dropout)          (None, 400)               0         
_________________________________________________________________
dense_3 (Dense)              (None, 1)                 401       
=================================================================
Total params: 4,321,601
Trainable params: 4,321,601
Non-trainable params: 0
_________________________________________________________________
None
Red
0.21192569442136533
Typer KerasRegressor
Hello world
{'learning_rate': 0.0001, 'batch_size': 128, 'rate': 0.1, 'HP_L1_REG': 0.001, 'activation': 'tanh', 'kernel_initializer': 'glorot_uniform', 'HP_L2_REG': 0.0001, 'HP_OPTIMIZER': 'Adam', 'epochs': 50, 'HP_NUM_HIDDEN_LAYERS': 4, 'units': 1000}
Blue
Model: "sequential"
_________________________________________________________________
Layer (type)                 Output Shape              Param #   
=================================================================
dense (Dense)                (None, 1000)              10001000  
_________________________________________________________________
dropout (Dropout)            (None, 1000)              0         
_________________________________________________________________
dense_1 (Dense)              (None, 1000)              1001000   
_________________________________________________________________
dropout_1 (Dropout)          (None, 1000)              0         
_________________________________________________________________
dense_2 (Dense)              (None, 1000)              1001000   
_________________________________________________________________
dropout_2 (Dropout)          (None, 1000)              0         
_________________________________________________________________
dense_3 (Dense)              (None, 1000)              1001000   
_________________________________________________________________
dropout_3 (Dropout)          (None, 1000)              0         
_________________________________________________________________
dense_4 (Dense)              (None, 1)                 1001      
=================================================================
Total params: 13,005,001
Trainable params: 13,005,001
Non-trainable params: 0
_________________________________________________________________
None
Red
0.1498589439884792
Typer KerasRegressor
Hello world
{'learning_rate': 0.001, 'batch_size': 128, 'rate': 0.2, 'HP_L1_REG': 0.01, 'activation': 'relu', 'kernel_initializer': 'glorot_uniform', 'HP_L2_REG': 0.0001, 'HP_OPTIMIZER': 'SGD', 'epochs': 100, 'HP_NUM_HIDDEN_LAYERS': 2, 'units': 400}
Blue
Model: "sequential"
_________________________________________________________________
Layer (type)                 Output Shape              Param #   
=================================================================
dense (Dense)                (None, 400)               4000400   
_________________________________________________________________
dropout (Dropout)            (None, 400)               0         
_________________________________________________________________
dense_1 (Dense)              (None, 400)               160400    
_________________________________________________________________
dropout_1 (Dropout)          (None, 400)               0         
_________________________________________________________________
dense_2 (Dense)              (None, 1)                 401       
=================================================================
Total params: 4,161,201
Trainable params: 4,161,201
Non-trainable params: 0
_________________________________________________________________
None
Red
0.17548550224419368
Typer KerasRegressor
Hello world
{'learning_rate': 0.0001, 'batch_size': 64, 'rate': 0.2, 'HP_L1_REG': 0.0001, 'activation': 'tanh', 'kernel_initializer': 'glorot_uniform', 'HP_L2_REG': 0.0001, 'HP_OPTIMIZER': 'Adagrad', 'epochs': 100, 'HP_NUM_HIDDEN_LAYERS': 4, 'units': 200}
Blue
Model: "sequential"
_________________________________________________________________
Layer (type)                 Output Shape              Param #   
=================================================================
dense (Dense)                (None, 200)               2000200   
_________________________________________________________________
dropout (Dropout)            (None, 200)               0         
_________________________________________________________________
dense_1 (Dense)              (None, 200)               40200     
_________________________________________________________________
dropout_1 (Dropout)          (None, 200)               0         
_________________________________________________________________
dense_2 (Dense)              (None, 200)               40200     
_________________________________________________________________
dropout_2 (Dropout)          (None, 200)               0         
_________________________________________________________________
dense_3 (Dense)              (None, 200)               40200     
_________________________________________________________________
dropout_3 (Dropout)          (None, 200)               0         
_________________________________________________________________
dense_4 (Dense)              (None, 1)                 201       
=================================================================
Total params: 2,121,001
Trainable params: 2,121,001
Non-trainable params: 0
_________________________________________________________________
None
Red
0.2565472657712051
Typer KerasRegressor
Hello world
…
_________________________________________________________________
max_pooling1d (MaxPooling1D) (None, 2500, 1)           0         
_________________________________________________________________
conv1d_1 (Conv1D)            (None, 1250, 1)           2         
_________________________________________________________________
max_pooling1d_1 (MaxPooling1 (None, 625, 1)            0         
_________________________________________________________________
conv1d_2 (Conv1D)            (None, 313, 1)            2         
_________________________________________________________________
max_pooling1d_2 (MaxPooling1 (None, 156, 1)            0         
_________________________________________________________________
flatten (Flatten)            (None, 156)               0         
_________________________________________________________________
dense (Dense)                (None, 1)                 157       
=================================================================
Total params: 163
Trainable params: 163
Non-trainable params: 0
_________________________________________________________________
Summary  None
Red
-0.0038548358975201147
Typer KerasRegressor
Hello world
{'rate': 0.0, 'activation': 'tanh', 'kernel_initializer': 'glorot_uniform', 'HP_L2_REG': 0.2, 'epochs': 500, 'pool': 1, 'units': 200, 'learning_rate': 0.001, 'HP_L1_REG': 0.1, 'kernel': 2, 'HP_OPTIMIZER': 'SGD', 'batch_size': 64, 'strides': 2, 'HP_NUM_HIDDEN_LAYERS': 3, 'filters': 2}
Blue
Model: "sequential"
_________________________________________________________________
Layer (type)                 Output Shape              Param #   
=================================================================
conv1d (Conv1D)              (None, 5000, 2)           6         
_________________________________________________________________
max_pooling1d (MaxPooling1D) (None, 2500, 2)           0         
_________________________________________________________________
conv1d_1 (Conv1D)            (None, 1250, 2)           10        
_________________________________________________________________
max_pooling1d_1 (MaxPooling1 (None, 625, 2)            0         
_________________________________________________________________
conv1d_2 (Conv1D)            (None, 312, 2)            10        
_________________________________________________________________
max_pooling1d_2 (MaxPooling1 (None, 156, 2)            0         
_________________________________________________________________
flatten (Flatten)            (None, 312)               0         
_________________________________________________________________
dense (Dense)                (None, 1)                 313       
=================================================================
Total params: 339
Trainable params: 339
Non-trainable params: 0
_________________________________________________________________
Summary  None
Red
-0.0034642906985009603
Typer KerasRegressor
Hello world
{'rate': 0.0, 'activation': 'tanh', 'kernel_initializer': 'glorot_uniform', 'HP_L2_REG': 0.2, 'epochs': 500, 'pool': 1, 'units': 200, 'learning_rate': 0.01, 'HP_L1_REG': 0.1, 'kernel': 1, 'HP_OPTIMIZER': 'SGD', 'batch_size': 128, 'strides': 1, 'HP_NUM_HIDDEN_LAYERS': 3, 'filters': 2}
Blue
Model: "sequential"
_________________________________________________________________
Layer (type)                 Output Shape              Param #   
=================================================================
conv1d (Conv1D)              (None, 10000, 2)          4         
_________________________________________________________________
max_pooling1d (MaxPooling1D) (None, 10000, 2)          0         
_________________________________________________________________
conv1d_1 (Conv1D)            (None, 10000, 2)          6         
_________________________________________________________________
max_pooling1d_1 (MaxPooling1 (None, 10000, 2)          0         
_________________________________________________________________
conv1d_2 (Conv1D)            (None, 10000, 2)          6         
_________________________________________________________________
max_pooling1d_2 (MaxPooling1 (None, 10000, 2)          0         
_________________________________________________________________
flatten (Flatten)            (None, 20000)             0         
_________________________________________________________________
dense (Dense)                (None, 1)                 20001     
=================================================================
Total params: 20,017
Trainable params: 20,017
Non-trainable params: 0
_________________________________________________________________
Summary  None
Red
-0.0018714016258323252
Typer KerasRegressor
Hello world
{'rate': 0.0, 'activation': 'tanh', 'kernel_initializer': 'glorot_uniform', 'HP_L2_REG': 0.2, 'epochs': 200, 'pool': 2, 'units': 200, 'learning_rate': 0.01, 'HP_L1_REG': 0.1, 'kernel': 2, 'HP_OPTIMIZER': 'SGD', 'batch_size': 16, 'strides': 2, 'HP_NUM_HIDDEN_LAYERS': 3, 'filters': 1}
Blue
Model: "sequential"
_________________________________________________________________
Layer (type)                 Output Shape              Param #   
=================================================================
conv1d (Conv1D)              (None, 5000, 1)           3         
_________________________________________________________________
max_pooling1d (MaxPooling1D) (None, 2500, 1)           0         
_________________________________________________________________
conv1d_1 (Conv1D)            (None, 1250, 1)           3         
_________________________________________________________________
max_pooling1d_1 (MaxPooling1 (None, 625, 1)            0         
_________________________________________________________________
conv1d_2 (Conv1D)            (None, 312, 1)            3         
_________________________________________________________________
max_pooling1d_2 (MaxPooling1 (None, 156, 1)            0         
_________________________________________________________________
flatten (Flatten)            (None, 156)               0         
_________________________________________________________________
dense (Dense)                (None, 1)                 157       
=================================================================
Total params: 166
Trainable params: 166
Non-trainable params: 0
_________________________________________________________________
Summary  None
Red
-0.004323264989035902
Typer KerasRegressor
Hello world
{'rate': 0.0, 'activation': 'tanh', 'kernel_initializer': 'glorot_uniform', 'HP_L2_REG': 0.2, 'epochs': 200, 'pool': 2, 'units': 200, 'learning_rate': 0.01, 'HP_L1_REG': 0.1, 'kernel': 2, 'HP_OPTIMIZER': 'SGD', 'batch_size': 128, 'strides': 2, 'HP_NUM_HIDDEN_LAYERS': 3, 'filters': 1}
Blue
Model: "sequential"
_________________________________________________________________
Layer (type)                 Output Shape              Param #   
=================================================================
conv1d (Conv1D)              (None, 5000, 1)           3         
_________________________________________________________________
max_pooling1d (MaxPooling1D) (None, 2500, 1)           0         
_________________________________________________________________
conv1d_1 (Conv1D)            (None, 1250, 1)           3         
_________________________________________________________________
max_pooling1d_1 (MaxPooling1 (None, 625, 1)            0         
_________________________________________________________________
conv1d_2 (Conv1D)            (None, 312, 1)            3         
_________________________________________________________________
max_pooling1d_2 (MaxPooling1 (None, 156, 1)            0         
_________________________________________________________________
flatten (Flatten)            (None, 156)               0         
_________________________________________________________________
dense (Dense)                (None, 1)                 157       
=================================================================
Total params: 166
Trainable params: 166
Non-trainable params: 0
_________________________________________________________________
Summary  None
Red
-0.0046138318052200145
Typer KerasRegressor
Hello world
{'rate': 0.0, 'activation': 'tanh', 'kernel_initializer': 'glorot_uniform', 'HP_L2_REG': 0.2, 'epochs': 100, 'pool': 1, 'units': 200, 'learning_rate': 0.01, 'HP_L1_REG': 0.1, 'kernel': 1, 'HP_OPTIMIZER': 'SGD', 'batch_size': 64, 'strides': 1, 'HP_NUM_HIDDEN_LAYERS': 3, 'filters': 2}
Blue
Model: "sequential"
_________________________________________________________________
Layer (type)                 Output Shape              Param #   
=================================================================
conv1d (Conv1D)              (None, 10000, 2)          4         
_________________________________________________________________
max_pooling1d (MaxPooling1D) (None, 10000, 2)          0         
_________________________________________________________________
conv1d_1 (Conv1D)            (None, 10000, 2)          6         
_________________________________________________________________
max_pooling1d_1 (MaxPooling1 (None, 10000, 2)          0         
_________________________________________________________________
conv1d_2 (Conv1D)            (None, 10000, 2)          6         
_________________________________________________________________
max_pooling1d_2 (MaxPooling1 (None, 10000, 2)          0         
_________________________________________________________________
flatten (Flatten)            (None, 20000)             0         
_________________________________________________________________
dense (Dense)                (None, 1)                 20001     
=================================================================
Total params: 20,017
Trainable params: 20,017
Non-trainable params: 0
_________________________________________________________________
Summary  None
Red
-0.0038282216762162147
Typer KerasRegressor
Hello world
{'rate': 0.0, 'activation': 'tanh', 'kernel_initializer': 'glorot_uniform', 'HP_L2_REG': 0.2, 'epochs': 200, 'pool': 1, 'units': 200, 'learning_rate': 0.01, 'HP_L1_REG': 0.1, 'kernel': 2, 'HP_OPTIMIZER': 'SGD', 'batch_size': 128, 'strides': 2, 'HP_NUM_HIDDEN_LAYERS': 3, 'filters': 1}
Blue
Model: "sequential"
_________________________________________________________________
Layer (type)                 Output Shape              Param #   
=================================================================
conv1d (Conv1D)              (None, 5000, 1)           3         
_________________________________________________________________
max_pooling1d (MaxPooling1D) (None, 2500, 1)           0         
_________________________________________________________________
conv1d_1 (Conv1D)            (None, 1250, 1)           3         
_________________________________________________________________
max_pooling1d_1 (MaxPooling1 (None, 625, 1)            0         
_________________________________________________________________
conv1d_2 (Conv1D)            (None, 312, 1)            3         
_________________________________________________________________
max_pooling1d_2 (MaxPooling1 (None, 156, 1)            0         
_________________________________________________________________
flatten (Flatten)            (None, 156)               0         
_________________________________________________________________
dense (Dense)                (None, 1)                 157       
=================================================================
Total params: 166
Trainable params: 166
Non-trainable params: 0
_________________________________________________________________
Summary  None
Red
-0.004422965249547994
Typer KerasRegressor
Hello world
{'rate': 0.0, 'activation': 'tanh', 'kernel_initializer': 'glorot_uniform', 'HP_L2_REG': 0.2, 'epochs': 500, 'pool': 2, 'units': 200, 'learning_rate': 0.001, 'HP_L1_REG': 0.1, 'kernel': 1, 'HP_OPTIMIZER': 'SGD', 'batch_size': 128, 'strides': 1, 'HP_NUM_HIDDEN_LAYERS': 3, 'filters': 1}
Blue
Model: "sequential"
_________________________________________________________________
Layer (type)                 Output Shape              Param #   
=================================================================
conv1d (Conv1D)              (None, 10000, 1)          2         
_________________________________________________________________
max_pooling1d (MaxPooling1D) (None, 9999, 1)           0         
_________________________________________________________________
conv1d_1 (Conv1D)            (None, 9999, 1)           2         
_________________________________________________________________
max_pooling1d_1 (MaxPooling1 (None, 9998, 1)           0         
_________________________________________________________________
conv1d_2 (Conv1D)            (None, 9998, 1)           2         
_________________________________________________________________
max_pooling1d_2 (MaxPooling1 (None, 9997, 1)           0         
_________________________________________________________________
flatten (Flatten)            (None, 9997)              0         
_________________________________________________________________
dense (Dense)                (None, 1)                 9998      
=================================================================
Total params: 10,004
Trainable params: 10,004
Non-trainable params: 0
_________________________________________________________________
Summary  None
Red
-0.004657455127904386
Typer KerasRegressor
Hello world
{'rate': 0.0, 'activation': 'tanh', 'kernel_initializer': 'glorot_uniform', 'HP_L2_REG': 0.2, 'epochs': 200, 'pool': 2, 'units': 200, 'learning_rate': 0.01, 'HP_L1_REG': 0.1, 'kernel': 1, 'HP_OPTIMIZER': 'SGD', 'batch_size': 64, 'strides': 1, 'HP_NUM_HIDDEN_LAYERS': 3, 'filters': 1}
Blue
Model: "sequential"
_________________________________________________________________
Layer (type)                 Output Shape              Param #   
=================================================================
conv1d (Conv1D)              (None, 10000, 1)          2         
_________________________________________________________________
max_pooling1d (MaxPooling1D) (None, 9999, 1)           0         
_________________________________________________________________
conv1d_1 (Conv1D)            (None, 9999, 1)           2         
_________________________________________________________________
max_pooling1d_1 (MaxPooling1 (None, 9998, 1)           0         
_________________________________________________________________
conv1d_2 (Conv1D)            (None, 9998, 1)           2         
_________________________________________________________________
max_pooling1d_2 (MaxPooling1 (None, 9997, 1)           0         
_________________________________________________________________
flatten (Flatten)            (None, 9997)              0         
_________________________________________________________________
dense (Dense)                (None, 1)                 9998      
=================================================================
Total params: 10,004
Trainable params: 10,004
Non-trainable params: 0
_________________________________________________________________
Summary  None
Red
0.3439799653444866
Typer KerasRegressor
Hello world
{'rate': 0.0, 'activation': 'tanh', 'kernel_initializer': 'glorot_uniform', 'HP_L2_REG': 0.2, 'epochs': 200, 'pool': 2, 'units': 200, 'learning_rate': 0.001, 'HP_L1_REG': 0.1, 'kernel': 2, 'HP_OPTIMIZER': 'SGD', 'batch_size': 64, 'strides': 2, 'HP_NUM_HIDDEN_LAYERS': 3, 'filters': 1}
Blue
Model: "sequential"
_________________________________________________________________
Layer (type)                 Output Shape              Param #   
=================================================================
conv1d (Conv1D)              (None, 5000, 1)           3         
_________________________________________________________________
max_pooling1d (MaxPooling1D) (None, 2500, 1)           0         
_________________________________________________________________
conv1d_1 (Conv1D)            (None, 1250, 1)           3         
_________________________________________________________________
max_pooling1d_1 (MaxPooling1 (None, 625, 1)            0         
_________________________________________________________________
conv1d_2 (Conv1D)            (None, 312, 1)            3         
_________________________________________________________________
max_pooling1d_2 (MaxPooling1 (None, 156, 1)            0         
_________________________________________________________________
flatten (Flatten)            (None, 156)               0         
_________________________________________________________________
dense (Dense)                (None, 1)                 157       
=================================================================
Total params: 166
Trainable params: 166
Non-trainable params: 0
_________________________________________________________________
Summary  None
Red
-0.0008256373765669345
Typer KerasRegressor
Hello world
{'rate': 0.0, 'activation': 'tanh', 'kernel_initializer': 'glorot_uniform', 'HP_L2_REG': 0.2, 'epochs': 200, 'pool': 2, 'units': 200, 'learning_rate': 0.001, 'HP_L1_REG': 0.1, 'kernel': 1, 'HP_OPTIMIZER': 'SGD', 'batch_size': 128, 'strides': 1, 'HP_NUM_HIDDEN_LAYERS': 3, 'filters': 2}
Blue
Model: "sequential"
_________________________________________________________________
Layer (type)                 Output Shape              Param #   
=================================================================
conv1d (Conv1D)              (None, 10000, 2)          4         
_________________________________________________________________
max_pooling1d (MaxPooling1D) (None, 9999, 2)           0         
_________________________________________________________________
conv1d_1 (Conv1D)            (None, 9999, 2)           6         
_________________________________________________________________
max_pooling1d_1 (MaxPooling1 (None, 9998, 2)           0         
_________________________________________________________________
conv1d_2 (Conv1D)            (None, 9998, 2)           6         
_________________________________________________________________
max_pooling1d_2 (MaxPooling1 (None, 9997, 2)           0         
_________________________________________________________________
flatten (Flatten)            (None, 19994)             0         
_________________________________________________________________
dense (Dense)                (None, 1)                 19995     
=================================================================
Total params: 20,011
Trainable params: 20,011
Non-trainable params: 0
_________________________________________________________________
Summary  None
Red
0.004404232377634987
Typer KerasRegressor
Hello world
{'rate': 0.0, 'activation': 'tanh', 'kernel_initializer': 'glorot_uniform', 'HP_L2_REG': 0.2, 'epochs': 500, 'pool': 2, 'units': 200, 'learning_rate': 0.001, 'HP_L1_REG': 0.1, 'kernel': 2, 'HP_OPTIMIZER': 'SGD', 'batch_size': 128, 'strides': 2, 'HP_NUM_HIDDEN_LAYERS': 3, 'filters': 2}
Blue
Model: "sequential"
_________________________________________________________________
Layer (type)                 Output Shape              Param #   
=================================================================
conv1d (Conv1D)              (None, 5000, 2)           6         
_________________________________________________________________
max_pooling1d (MaxPooling1D) (None, 2500, 2)           0         
_________________________________________________________________
conv1d_1 (Conv1D)            (None, 1250, 2)           10        
_________________________________________________________________
max_pooling1d_1 (MaxPooling1 (None, 625, 2)            0         
_________________________________________________________________
conv1d_2 (Conv1D)            (None, 312, 2)            10        
_________________________________________________________________
max_pooling1d_2 (MaxPooling1 (None, 156, 2)            0         
_________________________________________________________________
flatten (Flatten)            (None, 312)               0         
_________________________________________________________________
dense (Dense)                (None, 1)                 313       
=================================================================
Total params: 339
Trainable params: 339
Non-trainable params: 0
_________________________________________________________________
Summary  None
Red
-0.0036076539743188363
Typer KerasRegressor
Hello world
{'rate': 0.0, 'activation': 'tanh', 'kernel_initializer': 'glorot_uniform', 'HP_L2_REG': 0.2, 'epochs': 100, 'pool': 1, 'units': 200, 'learning_rate': 0.01, 'HP_L1_REG': 0.1, 'kernel': 2, 'HP_OPTIMIZER': 'SGD', 'batch_size': 64, 'strides': 2, 'HP_NUM_HIDDEN_LAYERS': 3, 'filters': 2}
Blue
Model: "sequential"
_________________________________________________________________
Layer (type)                 Output Shape              Param #   
=================================================================
conv1d (Conv1D)              (None, 5000, 2)           6         
_________________________________________________________________
max_pooling1d (MaxPooling1D) (None, 2500, 2)           0         
_________________________________________________________________
conv1d_1 (Conv1D)            (None, 1250, 2)           10        
_________________________________________________________________
max_pooling1d_1 (MaxPooling1 (None, 625, 2)            0         
_________________________________________________________________
conv1d_2 (Conv1D)            (None, 312, 2)            10        
_________________________________________________________________
max_pooling1d_2 (MaxPooling1 (None, 156, 2)            0         
_________________________________________________________________
flatten (Flatten)            (None, 312)               0         
_________________________________________________________________
dense (Dense)                (None, 1)                 313       
=================================================================
Total params: 339
Trainable params: 339
Non-trainable params: 0
_________________________________________________________________
Summary  None
Red
-0.003863174964221283
Typer KerasRegressor
Hello world
{'rate': 0.0, 'activation': 'tanh', 'kernel_initializer': 'glorot_uniform', 'HP_L2_REG': 0.2, 'epochs': 200, 'pool': 2, 'units': 200, 'learning_rate': 0.001, 'HP_L1_REG': 0.1, 'kernel': 2, 'HP_OPTIMIZER': 'SGD', 'batch_size': 64, 'strides': 1, 'HP_NUM_HIDDEN_LAYERS': 3, 'filters': 2}
Blue
Model: "sequential"
_________________________________________________________________
Layer (type)                 Output Shape              Param #   
=================================================================
conv1d (Conv1D)              (None, 9999, 2)           6         
_________________________________________________________________
max_pooling1d (MaxPooling1D) (None, 9998, 2)           0         
_________________________________________________________________
conv1d_1 (Conv1D)            (None, 9997, 2)           10        
_________________________________________________________________
max_pooling1d_1 (MaxPooling1 (None, 9996, 2)           0         
_________________________________________________________________
conv1d_2 (Conv1D)            (None, 9995, 2)           10        
_________________________________________________________________
max_pooling1d_2 (MaxPooling1 (None, 9994, 2)           0         
_________________________________________________________________
flatten (Flatten)            (None, 19988)             0         
_________________________________________________________________
dense (Dense)                (None, 1)                 19989     
=================================================================
Total params: 20,015
Trainable params: 20,015
Non-trainable params: 0
_________________________________________________________________
Summary  None
Red
0.11739845222189915
Typer KerasRegressor
Hello world
{'rate': 0.0, 'activation': 'tanh', 'kernel_initializer': 'glorot_uniform', 'HP_L2_REG': 0.2, 'epochs': 200, 'pool': 2, 'units': 200, 'learning_rate': 0.01, 'HP_L1_REG': 0.1, 'kernel': 2, 'HP_OPTIMIZER': 'SGD', 'batch_size': 64, 'strides': 2, 'HP_NUM_HIDDEN_LAYERS': 3, 'filters': 1}
Blue
Model: "sequential"
_________________________________________________________________
Layer (type)                 Output Shape              Param #   
=================================================================
conv1d (Conv1D)              (None, 5000, 1)           3         
_________________________________________________________________
max_pooling1d (MaxPooling1D) (None, 2500, 1)           0         
_________________________________________________________________
conv1d_1 (Conv1D)            (None, 1250, 1)           3         
_________________________________________________________________
max_pooling1d_1 (MaxPooling1 (None, 625, 1)            0         
_________________________________________________________________
conv1d_2 (Conv1D)            (None, 312, 1)            3         
_________________________________________________________________
max_pooling1d_2 (MaxPooling1 (None, 156, 1)            0         
_________________________________________________________________
flatten (Flatten)            (None, 156)               0         
_________________________________________________________________
dense (Dense)                (None, 1)                 157       
=================================================================
Total params: 166
Trainable params: 166
Non-trainable params: 0
_________________________________________________________________
Summary  None
Red
-0.003672247314186139
Typer KerasRegressor
Hello world
{'rate': 0.0, 'activation': 'tanh', 'kernel_initializer': 'glorot_uniform', 'HP_L2_REG': 0.2, 'epochs': 500, 'pool': 1, 'units': 200, 'learning_rate': 0.01, 'HP_L1_REG': 0.1, 'kernel': 2, 'HP_OPTIMIZER': 'SGD', 'batch_size': 16, 'strides': 1, 'HP_NUM_HIDDEN_LAYERS': 3, 'filters': 2}
Blue
Model: "sequential"
_________________________________________________________________
Layer (type)                 Output Shape              Param #   
=================================================================
conv1d (Conv1D)              (None, 9999, 2)           6         
_________________________________________________________________
max_pooling1d (MaxPooling1D) (None, 9999, 2)           0         
_________________________________________________________________
conv1d_1 (Conv1D)            (None, 9998, 2)           10        
_________________________________________________________________
max_pooling1d_1 (MaxPooling1 (None, 9998, 2)           0         
_________________________________________________________________
conv1d_2 (Conv1D)            (None, 9997, 2)           10        
_________________________________________________________________
max_pooling1d_2 (MaxPooling1 (None, 9997, 2)           0         
_________________________________________________________________
flatten (Flatten)            (None, 19994)             0         
_________________________________________________________________
dense (Dense)                (None, 1)                 19995     
=================================================================
Total params: 20,021
Trainable params: 20,021
Non-trainable params: 0
_________________________________________________________________
Summary  None
Red
-0.004344889113056194
Typer KerasRegressor
Hello world
{'rate': 0.0, 'activation': 'tanh', 'kernel_initializer': 'glorot_uniform', 'HP_L2_REG': 0.2, 'epochs': 100, 'pool': 2, 'units': 200, 'learning_rate': 0.001, 'HP_L1_REG': 0.1, 'kernel': 2, 'HP_OPTIMIZER': 'SGD', 'batch_size': 128, 'strides': 1, 'HP_NUM_HIDDEN_LAYERS': 3, 'filters': 1}
Blue
Model: "sequential"
_________________________________________________________________
Layer (type)                 Output Shape              Param #   
=================================================================
conv1d (Conv1D)              (None, 9999, 1)           3         
_________________________________________________________________
max_pooling1d (MaxPooling1D) (None, 9998, 1)           0         
_________________________________________________________________
conv1d_1 (Conv1D)            (None, 9997, 1)           3         
_________________________________________________________________
max_pooling1d_1 (MaxPooling1 (None, 9996, 1)           0         
_________________________________________________________________
conv1d_2 (Conv1D)            (None, 9995, 1)           3         
_________________________________________________________________
max_pooling1d_2 (MaxPooling1 (None, 9994, 1)           0         
_________________________________________________________________
flatten (Flatten)            (None, 9994)              0         
_________________________________________________________________
dense (Dense)                (None, 1)                 9995      
=================================================================
Total params: 10,004
Trainable params: 10,004
Non-trainable params: 0
_________________________________________________________________
Summary  None
Red
0.060313093400098494
Typer KerasRegressor
Hello world
{'rate': 0.0, 'activation': 'tanh', 'kernel_initializer': 'glorot_uniform', 'HP_L2_REG': 0.2, 'epochs': 500, 'pool': 1, 'units': 200, 'learning_rate': 0.001, 'HP_L1_REG': 0.1, 'kernel': 2, 'HP_OPTIMIZER': 'SGD', 'batch_size': 16, 'strides': 1, 'HP_NUM_HIDDEN_LAYERS': 3, 'filters': 1}
Blue
Model: "sequential"
_________________________________________________________________
Layer (type)                 Output Shape              Param #   
=================================================================
conv1d (Conv1D)              (None, 9999, 1)           3         
_________________________________________________________________
max_pooling1d (MaxPooling1D) (None, 9999, 1)           0         
_________________________________________________________________
conv1d_1 (Conv1D)            (None, 9998, 1)           3         
_________________________________________________________________
max_pooling1d_1 (MaxPooling1 (None, 9998, 1)           0         
_________________________________________________________________
conv1d_2 (Conv1D)            (None, 9997, 1)           3         
_________________________________________________________________
max_pooling1d_2 (MaxPooling1 (None, 9997, 1)           0         
_________________________________________________________________
flatten (Flatten)            (None, 9997)              0         
_________________________________________________________________
dense (Dense)                (None, 1)                 9998      
=================================================================
Total params: 10,007
Trainable params: 10,007
Non-trainable params: 0
_________________________________________________________________
Summary  None
Red
-0.0034439775066825717
Typer KerasRegressor
Hello world
{'rate': 0.0, 'activation': 'tanh', 'kernel_initializer': 'glorot_uniform', 'HP_L2_REG': 0.2, 'epochs': 200, 'pool': 2, 'units': 200, 'learning_rate': 0.01, 'HP_L1_REG': 0.1, 'kernel': 1, 'HP_OPTIMIZER': 'SGD', 'batch_size': 128, 'strides': 2, 'HP_NUM_HIDDEN_LAYERS': 3, 'filters': 2}
Blue
Model: "sequential"
_________________________________________________________________
Layer (type)                 Output Shape              Param #   
=================================================================
conv1d (Conv1D)              (None, 5000, 2)           4         
_________________________________________________________________
max_pooling1d (MaxPooling1D) (None, 2500, 2)           0         
_________________________________________________________________
conv1d_1 (Conv1D)            (None, 1250, 2)           6         
_________________________________________________________________
max_pooling1d_1 (MaxPooling1 (None, 625, 2)            0         
_________________________________________________________________
conv1d_2 (Conv1D)            (None, 313, 2)            6         
_________________________________________________________________
max_pooling1d_2 (MaxPooling1 (None, 156, 2)            0         
_________________________________________________________________
flatten (Flatten)            (None, 312)               0         
_________________________________________________________________
dense (Dense)                (None, 1)                 313       
=================================================================
Total params: 329
Trainable params: 329
Non-trainable params: 0
_________________________________________________________________
Summary  None
Red
-0.004069309435307034
Typer KerasRegressor
Hello world
{'rate': 0.0, 'activation': 'tanh', 'kernel_initializer': 'glorot_uniform', 'HP_L2_REG': 0.2, 'epochs': 200, 'pool': 2, 'units': 200, 'learning_rate': 0.01, 'HP_L1_REG': 0.1, 'kernel': 1, 'HP_OPTIMIZER': 'SGD', 'batch_size': 16, 'strides': 1, 'HP_NUM_HIDDEN_LAYERS': 3, 'filters': 2}
Blue
Model: "sequential"
_________________________________________________________________
Layer (type)                 Output Shape              Param #   
=================================================================
conv1d (Conv1D)              (None, 10000, 2)          4         
_________________________________________________________________
max_pooling1d (MaxPooling1D) (None, 9999, 2)           0         
_________________________________________________________________
conv1d_1 (Conv1D)            (None, 9999, 2)           6         
_________________________________________________________________
max_pooling1d_1 (MaxPooling1 (None, 9998, 2)           0         
_________________________________________________________________
conv1d_2 (Conv1D)            (None, 9998, 2)           6         
_________________________________________________________________
max_pooling1d_2 (MaxPooling1 (None, 9997, 2)           0         
_________________________________________________________________
flatten (Flatten)            (None, 19994)             0         
_________________________________________________________________
dense (Dense)                (None, 1)                 19995     
=================================================================
Total params: 20,011
Trainable params: 20,011
Non-trainable params: 0
_________________________________________________________________
Summary  None
Red
-0.004839429741905654
Typer KerasRegressor
Hello world
{'rate': 0.0, 'activation': 'tanh', 'kernel_initializer': 'glorot_uniform', 'HP_L2_REG': 0.2, 'epochs': 200, 'pool': 2, 'units': 200, 'learning_rate': 0.01, 'HP_L1_REG': 0.1, 'kernel': 2, 'HP_OPTIMIZER': 'SGD', 'batch_size': 16, 'strides': 2, 'HP_NUM_HIDDEN_LAYERS': 3, 'filters': 2}
Blue
Model: "sequential"
_________________________________________________________________
Layer (type)                 Output Shape              Param #   
=================================================================
conv1d (Conv1D)              (None, 5000, 2)           6         
_________________________________________________________________
max_pooling1d (MaxPooling1D) (None, 2500, 2)           0         
_________________________________________________________________
conv1d_1 (Conv1D)            (None, 1250, 2)           10        
_________________________________________________________________
max_pooling1d_1 (MaxPooling1 (None, 625, 2)            0         
_________________________________________________________________
conv1d_2 (Conv1D)            (None, 312, 2)            10        
_________________________________________________________________
max_pooling1d_2 (MaxPooling1 (None, 156, 2)            0         
_________________________________________________________________
flatten (Flatten)            (None, 312)               0         
_________________________________________________________________
dense (Dense)                (None, 1)                 313       
=================================================================
Total params: 339
Trainable params: 339
Non-trainable params: 0
_________________________________________________________________
Summary  None
Red
-0.004044142038490017
Typer KerasRegressor
Hello world
{'rate': 0.0, 'activation': 'tanh', 'kernel_initializer': 'glorot_uniform', 'HP_L2_REG': 0.2, 'epochs': 200, 'pool': 1, 'units': 200, 'learning_rate': 0.001, 'HP_L1_REG': 0.1, 'kernel': 1, 'HP_OPTIMIZER': 'SGD', 'batch_size': 128, 'strides': 2, 'HP_NUM_HIDDEN_LAYERS': 3, 'filters': 1}
Blue
Model: "sequential"
_________________________________________________________________
Layer (type)                 Output Shape              Param #   
=================================================================
conv1d (Conv1D)              (None, 5000, 1)           2         
_________________________________________________________________
max_pooling1d (MaxPooling1D) (None, 2500, 1)           0         
_________________________________________________________________
conv1d_1 (Conv1D)            (None, 1250, 1)           2         
_________________________________________________________________
max_pooling1d_1 (MaxPooling1 (None, 625, 1)            0         
_________________________________________________________________
conv1d_2 (Conv1D)            (None, 313, 1)            2         
_________________________________________________________________
max_pooling1d_2 (MaxPooling1 (None, 157, 1)            0         
_________________________________________________________________
flatten (Flatten)            (None, 157)               0         
_________________________________________________________________
dense (Dense)                (None, 1)                 158       
=================================================================
Total params: 164
Trainable params: 164
Non-trainable params: 0
_________________________________________________________________
Summary  None
Red
-0.0013416880383512186
Typer KerasRegressor
Hello world
{'rate': 0.0, 'activation': 'tanh', 'kernel_initializer': 'glorot_uniform', 'HP_L2_REG': 0.2, 'epochs': 500, 'pool': 1, 'units': 200, 'learning_rate': 0.001, 'HP_L1_REG': 0.1, 'kernel': 1, 'HP_OPTIMIZER': 'SGD', 'batch_size': 16, 'strides': 1, 'HP_NUM_HIDDEN_LAYERS': 3, 'filters': 2}
Blue
Model: "sequential"
_________________________________________________________________
Layer (type)                 Output Shape              Param #   
=================================================================
conv1d (Conv1D)              (None, 10000, 2)          4         
_________________________________________________________________
max_pooling1d (MaxPooling1D) (None, 10000, 2)          0         
_________________________________________________________________
conv1d_1 (Conv1D)            (None, 10000, 2)          6         
_________________________________________________________________
max_pooling1d_1 (MaxPooling1 (None, 10000, 2)          0         
_________________________________________________________________
conv1d_2 (Conv1D)            (None, 10000, 2)          6         
_________________________________________________________________
max_pooling1d_2 (MaxPooling1 (None, 10000, 2)          0         
_________________________________________________________________
flatten (Flatten)            (None, 20000)             0         
_________________________________________________________________
dense (Dense)                (None, 1)                 20001     
=================================================================
Total params: 20,017
Trainable params: 20,017
Non-trainable params: 0
_________________________________________________________________
Summary  None
Red
-0.0035733236962376402
Typer KerasRegressor
Hello world
{'rate': 0.0, 'activation': 'tanh', 'kernel_initializer': 'glorot_uniform', 'HP_L2_REG': 0.2, 'epochs': 500, 'pool': 1, 'units': 200, 'learning_rate': 0.01, 'HP_L1_REG': 0.1, 'kernel': 2, 'HP_OPTIMIZER': 'SGD', 'batch_size': 128, 'strides': 1, 'HP_NUM_HIDDEN_LAYERS': 3, 'filters': 1}
Blue
Model: "sequential"
_________________________________________________________________
Layer (type)                 Output Shape              Param #   
=================================================================
conv1d (Conv1D)              (None, 9999, 1)           3         
_________________________________________________________________
max_pooling1d (MaxPooling1D) (None, 9999, 1)           0         
_________________________________________________________________
conv1d_1 (Conv1D)            (None, 9998, 1)           3         
_________________________________________________________________
max_pooling1d_1 (MaxPooling1 (None, 9998, 1)           0         
_________________________________________________________________
conv1d_2 (Conv1D)            (None, 9997, 1)           3         
_________________________________________________________________
max_pooling1d_2 (MaxPooling1 (None, 9997, 1)           0         
_________________________________________________________________
flatten (Flatten)            (None, 9997)              0         
_________________________________________________________________
dense (Dense)                (None, 1)                 9998      
=================================================================
Total params: 10,007
Trainable params: 10,007
Non-trainable params: 0
_________________________________________________________________
Summary  None
Red
-0.0035430169760577446
Typer KerasRegressor
Hello world
{'rate': 0.0, 'activation': 'tanh', 'kernel_initializer': 'glorot_uniform', 'HP_L2_REG': 0.2, 'epochs': 200, 'pool': 2, 'units': 200, 'learning_rate': 0.01, 'HP_L1_REG': 0.1, 'kernel': 1, 'HP_OPTIMIZER': 'SGD', 'batch_size': 16, 'strides': 2, 'HP_NUM_HIDDEN_LAYERS': 3, 'filters': 2}
Blue
Model: "sequential"
_________________________________________________________________
Layer (type)                 Output Shape              Param #   
=================================================================
conv1d (Conv1D)              (None, 5000, 2)           4         
_________________________________________________________________
max_pooling1d (MaxPooling1D) (None, 2500, 2)           0         
_________________________________________________________________
conv1d_1 (Conv1D)            (None, 1250, 2)           6         
_________________________________________________________________
max_pooling1d_1 (MaxPooling1 (None, 625, 2)            0         
_________________________________________________________________
conv1d_2 (Conv1D)            (None, 313, 2)            6         
_________________________________________________________________
max_pooling1d_2 (MaxPooling1 (None, 156, 2)            0         
_________________________________________________________________
flatten (Flatten)            (None, 312)               0         
_________________________________________________________________
dense (Dense)                (None, 1)                 313       
=================================================================
Total params: 329
Trainable params: 329
Non-trainable params: 0
_________________________________________________________________
Summary  None
Red
-0.004452546163313809
Typer KerasRegressor
Hello world
{'rate': 0.0, 'activation': 'tanh', 'kernel_initializer': 'glorot_uniform', 'HP_L2_REG': 0.2, 'epochs': 200, 'pool': 1, 'units': 200, 'learning_rate': 0.001, 'HP_L1_REG': 0.1, 'kernel': 1, 'HP_OPTIMIZER': 'SGD', 'batch_size': 128, 'strides': 1, 'HP_NUM_HIDDEN_LAYERS': 3, 'filters': 2}
Blue
Model: "sequential"
_________________________________________________________________
Layer (type)                 Output Shape              Param #   
=================================================================
conv1d (Conv1D)              (None, 10000, 2)          4         
_________________________________________________________________
max_pooling1d (MaxPooling1D) (None, 10000, 2)          0         
_________________________________________________________________
conv1d_1 (Conv1D)            (None, 10000, 2)          6         
_________________________________________________________________
max_pooling1d_1 (MaxPooling1 (None, 10000, 2)          0         
_________________________________________________________________
conv1d_2 (Conv1D)            (None, 10000, 2)          6         
_________________________________________________________________
max_pooling1d_2 (MaxPooling1 (None, 10000, 2)          0         
_________________________________________________________________
flatten (Flatten)            (None, 20000)             0         
_________________________________________________________________
dense (Dense)                (None, 1)                 20001     
=================================================================
Total params: 20,017
Trainable params: 20,017
Non-trainable params: 0
_________________________________________________________________
Summary  None
Red
0.043366658476597264
Typer KerasRegressor
Hello world
{'rate': 0.0, 'activation': 'tanh', 'kernel_initializer': 'glorot_uniform', 'HP_L2_REG': 0.2, 'epochs': 100, 'pool': 1, 'units': 200, 'learning_rate': 0.001, 'HP_L1_REG': 0.1, 'kernel': 1, 'HP_OPTIMIZER': 'SGD', 'batch_size': 64, 'strides': 1, 'HP_NUM_HIDDEN_LAYERS': 3, 'filters': 2}
Blue
Model: "sequential"
_________________________________________________________________
Layer (type)                 Output Shape              Param #   
=================================================================
conv1d (Conv1D)              (None, 10000, 2)          4         
_________________________________________________________________
max_pooling1d (MaxPooling1D) (None, 10000, 2)          0         
_________________________________________________________________
conv1d_1 (Conv1D)            (None, 10000, 2)          6         
_________________________________________________________________
max_pooling1d_1 (MaxPooling1 (None, 10000, 2)          0         
_________________________________________________________________
conv1d_2 (Conv1D)            (None, 10000, 2)          6         
_________________________________________________________________
max_pooling1d_2 (MaxPooling1 (None, 10000, 2)          0         
_________________________________________________________________
flatten (Flatten)            (None, 20000)             0         
_________________________________________________________________
dense (Dense)                (None, 1)                 20001     
=================================================================
Total params: 20,017
Trainable params: 20,017
Non-trainable params: 0
_________________________________________________________________
Summary  None
Red
0.29298522878126176
Typer KerasRegressor
Hello world
{'rate': 0.0, 'activation': 'tanh', 'kernel_initializer': 'glorot_uniform', 'HP_L2_REG': 0.2, 'epochs': 500, 'pool': 1, 'units': 200, 'learning_rate': 0.001, 'HP_L1_REG': 0.1, 'kernel': 1, 'HP_OPTIMIZER': 'SGD', 'batch_size': 16, 'strides': 2, 'HP_NUM_HIDDEN_LAYERS': 3, 'filters': 2}
Blue
Model: "sequential"
_________________________________________________________________
Layer (type)                 Output Shape              Param #   
=================================================================
conv1d (Conv1D)              (None, 5000, 2)           4         
_________________________________________________________________
max_pooling1d (MaxPooling1D) (None, 2500, 2)           0         
_________________________________________________________________
conv1d_1 (Conv1D)            (None, 1250, 2)           6         
_________________________________________________________________
max_pooling1d_1 (MaxPooling1 (None, 625, 2)            0         
_________________________________________________________________
conv1d_2 (Conv1D)            (None, 313, 2)            6         
_________________________________________________________________
max_pooling1d_2 (MaxPooling1 (None, 157, 2)            0         
_________________________________________________________________
flatten (Flatten)            (None, 314)               0         
_________________________________________________________________
dense (Dense)                (None, 1)                 315       
=================================================================
Total params: 331
Trainable params: 331
Non-trainable params: 0
_________________________________________________________________
Summary  None
^Z
[1]+  Stopped                 python cv_grid_all_ml.py 20 /home/ciaran/arabadopsis/phenotypes/values_FT10.8424.dup.del /home/ciaran/completed_big_matrix_binary_new_snps_ids_first_10k.raw shuf FT10cv_new_10k 10000
…
