…
2021-12-08 16:38:22.497370: I tensorflow/core/platform/profile_utils/cpu_utils.cc:94] CPU Frequency: 2200045000 Hz
2021-12-08 16:38:22.501737: I tensorflow/compiler/xla/service/service.cc:168] XLA service 0x9d63030 executing computations on platform Host. Devices:
2021-12-08 16:38:22.501757: I tensorflow/compiler/xla/service/service.cc:175]   StreamExecutor device (0): <undefined>, <undefined>
Model: "sequential"
_________________________________________________________________
Layer (type)                 Output Shape              Param #   
=================================================================
dense (Dense)                (None, 400)               4000400   
_________________________________________________________________
dropout (Dropout)            (None, 400)               0         
_________________________________________________________________
dense_1 (Dense)              (None, 400)               160400    
_________________________________________________________________
dropout_1 (Dropout)          (None, 400)               0         
_________________________________________________________________
dense_2 (Dense)              (None, 400)               160400    
_________________________________________________________________
dropout_2 (Dropout)          (None, 400)               0         
_________________________________________________________________
dense_3 (Dense)              (None, 400)               160400    
_________________________________________________________________
dropout_3 (Dropout)          (None, 400)               0         
_________________________________________________________________
dense_4 (Dense)              (None, 400)               160400    
_________________________________________________________________
dropout_4 (Dropout)          (None, 400)               0         
_________________________________________________________________
dense_5 (Dense)              (None, 1)                 401       
=================================================================
Total params: 4,642,401
Trainable params: 4,642,401
Non-trainable params: 0
_________________________________________________________________
None
2021-12-08 16:38:24.577159: W tensorflow/compiler/jit/mark_for_compilation_pass.cc:1483] (One-time warning): Not using XLA:CPU for cluster because envvar TF_XLA_FLAGS=--tf_xla_cpu_global_jit was not set.  If you want XLA:CPU, either set that envvar, or use experimental_jit_scope to enable XLA:CPU.  To confirm that XLA is active, pass --vmodule=xla_compilation_cache=1 (as a proper command-line flag, not via TF_XLA_FLAGS) or set the envvar XLA_FLAGS=--xla_hlo_profile.
Red
0.1108438326082587
Typer KerasRegressor
Hello world
{'learning_rate': 0.01, 'batch_size': 64, 'rate': 0.5, 'HP_L1_REG': 0.001, 'activation': 'tanh', 'kernel_initializer': 'glorot_uniform', 'HP_L2_REG': 0.01, 'HP_OPTIMIZER': 'SGD', 'epochs': 100, 'HP_NUM_HIDDEN_LAYERS': 4, 'units': 400}
Blue
Model: "sequential"
_________________________________________________________________
Layer (type)                 Output Shape              Param #   
=================================================================
dense (Dense)                (None, 400)               4000400   
_________________________________________________________________
dropout (Dropout)            (None, 400)               0         
_________________________________________________________________
dense_1 (Dense)              (None, 400)               160400    
_________________________________________________________________
dropout_1 (Dropout)          (None, 400)               0         
_________________________________________________________________
dense_2 (Dense)              (None, 400)               160400    
_________________________________________________________________
dropout_2 (Dropout)          (None, 400)               0         
_________________________________________________________________
dense_3 (Dense)              (None, 400)               160400    
_________________________________________________________________
dropout_3 (Dropout)          (None, 400)               0         
_________________________________________________________________
dense_4 (Dense)              (None, 1)                 401       
=================================================================
Total params: 4,482,001
Trainable params: 4,482,001
Non-trainable params: 0
_________________________________________________________________
None
Red
0.18011355911490168
Typer KerasRegressor
Hello world
{'learning_rate': 0.001, 'batch_size': 64, 'rate': 0.0, 'HP_L1_REG': 0.001, 'activation': 'tanh', 'kernel_initializer': 'glorot_uniform', 'HP_L2_REG': 1e-08, 'HP_OPTIMIZER': 'Adam', 'epochs': 50, 'HP_NUM_HIDDEN_LAYERS': 2, 'units': 1000}
Blue
Model: "sequential"
_________________________________________________________________
Layer (type)                 Output Shape              Param #   
=================================================================
dense (Dense)                (None, 1000)              10001000  
_________________________________________________________________
dense_1 (Dense)              (None, 1000)              1001000   
_________________________________________________________________
dense_2 (Dense)              (None, 1)                 1001      
=================================================================
Total params: 11,003,001
Trainable params: 11,003,001
Non-trainable params: 0
_________________________________________________________________
None
Red
0.3263072895523971
Typer KerasRegressor
Hello world
{'learning_rate': 0.0001, 'batch_size': 16, 'rate': 0.5, 'HP_L1_REG': 0.01, 'activation': 'relu', 'kernel_initializer': 'glorot_uniform', 'HP_L2_REG': 1e-08, 'HP_OPTIMIZER': 'Adagrad', 'epochs': 100, 'HP_NUM_HIDDEN_LAYERS': 4, 'units': 200}
Blue
Model: "sequential"
_________________________________________________________________
Layer (type)                 Output Shape              Param #   
=================================================================
dense (Dense)                (None, 200)               2000200   
_________________________________________________________________
dropout (Dropout)            (None, 200)               0         
_________________________________________________________________
dense_1 (Dense)              (None, 200)               40200     
_________________________________________________________________
dropout_1 (Dropout)          (None, 200)               0         
_________________________________________________________________
dense_2 (Dense)              (None, 200)               40200     
_________________________________________________________________
dropout_2 (Dropout)          (None, 200)               0         
_________________________________________________________________
dense_3 (Dense)              (None, 200)               40200     
_________________________________________________________________
dropout_3 (Dropout)          (None, 200)               0         
_________________________________________________________________
dense_4 (Dense)              (None, 1)                 201       
=================================================================
Total params: 2,121,001
Trainable params: 2,121,001
Non-trainable params: 0
_________________________________________________________________
None
Red
0.00400326872415202
Typer KerasRegressor
Hello world
{'learning_rate': 0.01, 'batch_size': 16, 'rate': 0.1, 'HP_L1_REG': 0.0001, 'activation': 'relu', 'kernel_initializer': 'glorot_uniform', 'HP_L2_REG': 0.01, 'HP_OPTIMIZER': 'SGD', 'epochs': 200, 'HP_NUM_HIDDEN_LAYERS': 4, 'units': 200}
Blue
Model: "sequential"
_________________________________________________________________
Layer (type)                 Output Shape              Param #   
=================================================================
dense (Dense)                (None, 200)               2000200   
_________________________________________________________________
dropout (Dropout)            (None, 200)               0         
_________________________________________________________________
dense_1 (Dense)              (None, 200)               40200     
_________________________________________________________________
dropout_1 (Dropout)          (None, 200)               0         
_________________________________________________________________
dense_2 (Dense)              (None, 200)               40200     
_________________________________________________________________
dropout_2 (Dropout)          (None, 200)               0         
_________________________________________________________________
dense_3 (Dense)              (None, 200)               40200     
_________________________________________________________________
dropout_3 (Dropout)          (None, 200)               0         
_________________________________________________________________
dense_4 (Dense)              (None, 1)                 201       
=================================================================
Total params: 2,121,001
Trainable params: 2,121,001
Non-trainable params: 0
_________________________________________________________________
None
Red
0.21472383724929944
Typer KerasRegressor
Hello world
{'learning_rate': 0.01, 'batch_size': 128, 'rate': 0.1, 'HP_L1_REG': 0.0001, 'activation': 'tanh', 'kernel_initializer': 'glorot_uniform', 'HP_L2_REG': 0.01, 'HP_OPTIMIZER': 'Adagrad', 'epochs': 50, 'HP_NUM_HIDDEN_LAYERS': 5, 'units': 200}
Blue
Model: "sequential"
_________________________________________________________________
Layer (type)                 Output Shape              Param #   
=================================================================
dense (Dense)                (None, 200)               2000200   
_________________________________________________________________
dropout (Dropout)            (None, 200)               0         
_________________________________________________________________
dense_1 (Dense)              (None, 200)               40200     
_________________________________________________________________
dropout_1 (Dropout)          (None, 200)               0         
_________________________________________________________________
dense_2 (Dense)              (None, 200)               40200     
_________________________________________________________________
dropout_2 (Dropout)          (None, 200)               0         
_________________________________________________________________
dense_3 (Dense)              (None, 200)               40200     
_________________________________________________________________
dropout_3 (Dropout)          (None, 200)               0         
_________________________________________________________________
dense_4 (Dense)              (None, 200)               40200     
_________________________________________________________________
dropout_4 (Dropout)          (None, 200)               0         
_________________________________________________________________
dense_5 (Dense)              (None, 1)                 201       
=================================================================
Total params: 2,161,201
Trainable params: 2,161,201
Non-trainable params: 0
_________________________________________________________________
None
Red
0.2560699670936729
Typer KerasRegressor
Hello world
{'learning_rate': 0.001, 'batch_size': 64, 'rate': 0.5, 'HP_L1_REG': 0.001, 'activation': 'tanh', 'kernel_initializer': 'glorot_uniform', 'HP_L2_REG': 0.0001, 'HP_OPTIMIZER': 'Adagrad', 'epochs': 50, 'HP_NUM_HIDDEN_LAYERS': 2, 'units': 1000}
Blue
Model: "sequential"
_________________________________________________________________
Layer (type)                 Output Shape              Param #   
=================================================================
dense (Dense)                (None, 1000)              10001000  
_________________________________________________________________
dropout (Dropout)            (None, 1000)              0         
_________________________________________________________________
dense_1 (Dense)              (None, 1000)              1001000   
_________________________________________________________________
dropout_1 (Dropout)          (None, 1000)              0         
_________________________________________________________________
dense_2 (Dense)              (None, 1)                 1001      
=================================================================
Total params: 11,003,001
Trainable params: 11,003,001
Non-trainable params: 0
_________________________________________________________________
None
Red
0.2822061721686564
Typer KerasRegressor
Hello world
{'learning_rate': 0.001, 'batch_size': 64, 'rate': 0.0, 'HP_L1_REG': 0.01, 'activation': 'relu', 'kernel_initializer': 'glorot_uniform', 'HP_L2_REG': 1e-08, 'HP_OPTIMIZER': 'Adagrad', 'epochs': 100, 'HP_NUM_HIDDEN_LAYERS': 5, 'units': 400}
Blue
Model: "sequential"
_________________________________________________________________
Layer (type)                 Output Shape              Param #   
=================================================================
dense (Dense)                (None, 400)               4000400   
_________________________________________________________________
dense_1 (Dense)              (None, 400)               160400    
_________________________________________________________________
dense_2 (Dense)              (None, 400)               160400    
_________________________________________________________________
dense_3 (Dense)              (None, 400)               160400    
_________________________________________________________________
dense_4 (Dense)              (None, 400)               160400    
_________________________________________________________________
dense_5 (Dense)              (None, 1)                 401       
=================================================================
Total params: 4,642,401
Trainable params: 4,642,401
Non-trainable params: 0
_________________________________________________________________
None
Red
-0.0068385579534602225
Typer KerasRegressor
Hello world
{'learning_rate': 0.01, 'batch_size': 64, 'rate': 0.5, 'HP_L1_REG': 0.001, 'activation': 'tanh', 'kernel_initializer': 'glorot_uniform', 'HP_L2_REG': 1e-08, 'HP_OPTIMIZER': 'Adam', 'epochs': 100, 'HP_NUM_HIDDEN_LAYERS': 3, 'units': 1000}
Blue
Model: "sequential"
_________________________________________________________________
Layer (type)                 Output Shape              Param #   
=================================================================
dense (Dense)                (None, 1000)              10001000  
_________________________________________________________________
dropout (Dropout)            (None, 1000)              0         
_________________________________________________________________
dense_1 (Dense)              (None, 1000)              1001000   
_________________________________________________________________
dropout_1 (Dropout)          (None, 1000)              0         
_________________________________________________________________
dense_2 (Dense)              (None, 1000)              1001000   
_________________________________________________________________
dropout_2 (Dropout)          (None, 1000)              0         
_________________________________________________________________
dense_3 (Dense)              (None, 1)                 1001      
=================================================================
Total params: 12,004,001
Trainable params: 12,004,001
Non-trainable params: 0
_________________________________________________________________
None
Red
0.26538469537135523
Typer KerasRegressor
Hello world
{'learning_rate': 0.01, 'batch_size': 16, 'rate': 0.1, 'HP_L1_REG': 0.01, 'activation': 'relu', 'kernel_initializer': 'glorot_uniform', 'HP_L2_REG': 0.01, 'HP_OPTIMIZER': 'Adagrad', 'epochs': 50, 'HP_NUM_HIDDEN_LAYERS': 5, 'units': 1000}
Blue
Model: "sequential"
_________________________________________________________________
Layer (type)                 Output Shape              Param #   
=================================================================
dense (Dense)                (None, 1000)              10001000  
_________________________________________________________________
dropout (Dropout)            (None, 1000)              0         
_________________________________________________________________
dense_1 (Dense)              (None, 1000)              1001000   
_________________________________________________________________
dropout_1 (Dropout)          (None, 1000)              0         
_________________________________________________________________
dense_2 (Dense)              (None, 1000)              1001000   
_________________________________________________________________
dropout_2 (Dropout)          (None, 1000)              0         
_________________________________________________________________
dense_3 (Dense)              (None, 1000)              1001000   
_________________________________________________________________
dropout_3 (Dropout)          (None, 1000)              0         
_________________________________________________________________
dense_4 (Dense)              (None, 1000)              1001000   
_________________________________________________________________
dropout_4 (Dropout)          (None, 1000)              0         
_________________________________________________________________
dense_5 (Dense)              (None, 1)                 1001      
=================================================================
Total params: 14,006,001
Trainable params: 14,006,001
Non-trainable params: 0
_________________________________________________________________
None
Red
-0.015298338545828738
Typer KerasRegressor
Hello world
{'learning_rate': 0.001, 'batch_size': 16, 'rate': 0.0, 'HP_L1_REG': 0.001, 'activation': 'relu', 'kernel_initializer': 'glorot_uniform', 'HP_L2_REG': 0.2, 'HP_OPTIMIZER': 'Adagrad', 'epochs': 200, 'HP_NUM_HIDDEN_LAYERS': 5, 'units': 1000}
Blue
Model: "sequential"
_________________________________________________________________
Layer (type)                 Output Shape              Param #   
=================================================================
dense (Dense)                (None, 1000)              10001000  
_________________________________________________________________
dense_1 (Dense)              (None, 1000)              1001000   
_________________________________________________________________
dense_2 (Dense)              (None, 1000)              1001000   
_________________________________________________________________
dense_3 (Dense)              (None, 1000)              1001000   
_________________________________________________________________
dense_4 (Dense)              (None, 1000)              1001000   
_________________________________________________________________
dense_5 (Dense)              (None, 1)                 1001      
=================================================================
Total params: 14,006,001
Trainable params: 14,006,001
Non-trainable params: 0
_________________________________________________________________
None
Red
-0.014713477905964334
Typer KerasRegressor
Hello world
{'learning_rate': 1e-05, 'batch_size': 16, 'rate': 0.1, 'HP_L1_REG': 0.0001, 'activation': 'tanh', 'kernel_initializer': 'glorot_uniform', 'HP_L2_REG': 0.0001, 'HP_OPTIMIZER': 'SGD', 'epochs': 200, 'HP_NUM_HIDDEN_LAYERS': 3, 'units': 400}
Blue
Model: "sequential"
_________________________________________________________________
Layer (type)                 Output Shape              Param #   
=================================================================
dense (Dense)                (None, 400)               4000400   
_________________________________________________________________
dropout (Dropout)            (None, 400)               0         
_________________________________________________________________
dense_1 (Dense)              (None, 400)               160400    
_________________________________________________________________
dropout_1 (Dropout)          (None, 400)               0         
_________________________________________________________________
dense_2 (Dense)              (None, 400)               160400    
_________________________________________________________________
dropout_2 (Dropout)          (None, 400)               0         
_________________________________________________________________
dense_3 (Dense)              (None, 1)                 401       
=================================================================
Total params: 4,321,601
Trainable params: 4,321,601
Non-trainable params: 0
_________________________________________________________________
None
Red
0.21445803929118312
Typer KerasRegressor
Hello world
{'learning_rate': 0.01, 'batch_size': 128, 'rate': 0.2, 'HP_L1_REG': 0.0001, 'activation': 'tanh', 'kernel_initializer': 'glorot_uniform', 'HP_L2_REG': 0.2, 'HP_OPTIMIZER': 'SGD', 'epochs': 200, 'HP_NUM_HIDDEN_LAYERS': 4, 'units': 200}
Blue
Model: "sequential"
_________________________________________________________________
Layer (type)                 Output Shape              Param #   
=================================================================
dense (Dense)                (None, 200)               2000200   
_________________________________________________________________
dropout (Dropout)            (None, 200)               0         
_________________________________________________________________
dense_1 (Dense)              (None, 200)               40200     
_________________________________________________________________
dropout_1 (Dropout)          (None, 200)               0         
_________________________________________________________________
dense_2 (Dense)              (None, 200)               40200     
_________________________________________________________________
dropout_2 (Dropout)          (None, 200)               0         
_________________________________________________________________
dense_3 (Dense)              (None, 200)               40200     
_________________________________________________________________
dropout_3 (Dropout)          (None, 200)               0         
_________________________________________________________________
dense_4 (Dense)              (None, 1)                 201       
=================================================================
Total params: 2,121,001
Trainable params: 2,121,001
Non-trainable params: 0
_________________________________________________________________
None
Red
0.3550196244995949
Typer KerasRegressor
Hello world
{'learning_rate': 0.001, 'batch_size': 64, 'rate': 0.2, 'HP_L1_REG': 0.01, 'activation': 'tanh', 'kernel_initializer': 'glorot_uniform', 'HP_L2_REG': 0.0001, 'HP_OPTIMIZER': 'Adam', 'epochs': 50, 'HP_NUM_HIDDEN_LAYERS': 2, 'units': 1000}
Blue
Model: "sequential"
_________________________________________________________________
Layer (type)                 Output Shape              Param #   
=================================================================
dense (Dense)                (None, 1000)              10001000  
_________________________________________________________________
dropout (Dropout)            (None, 1000)              0         
_________________________________________________________________
dense_1 (Dense)              (None, 1000)              1001000   
_________________________________________________________________
dropout_1 (Dropout)          (None, 1000)              0         
_________________________________________________________________
dense_2 (Dense)              (None, 1)                 1001      
=================================================================
Total params: 11,003,001
Trainable params: 11,003,001
Non-trainable params: 0
_________________________________________________________________
None
Red
-0.01613292831527935
Typer KerasRegressor
Hello world
{'learning_rate': 0.01, 'batch_size': 128, 'rate': 0.0, 'HP_L1_REG': 0.01, 'activation': 'tanh', 'kernel_initializer': 'glorot_uniform', 'HP_L2_REG': 0.0001, 'HP_OPTIMIZER': 'SGD', 'epochs': 200, 'HP_NUM_HIDDEN_LAYERS': 3, 'units': 400}
Blue
Model: "sequential"
_________________________________________________________________
Layer (type)                 Output Shape              Param #   
=================================================================
dense (Dense)                (None, 400)               4000400   
_________________________________________________________________
dense_1 (Dense)              (None, 400)               160400    
_________________________________________________________________
dense_2 (Dense)              (None, 400)               160400    
_________________________________________________________________
dense_3 (Dense)              (None, 1)                 401       
=================================================================
Total params: 4,321,601
Trainable params: 4,321,601
Non-trainable params: 0
_________________________________________________________________
None
Red
-0.013587033741743193
Typer KerasRegressor
Hello world
{'learning_rate': 0.001, 'batch_size': 64, 'rate': 0.0, 'HP_L1_REG': 0.001, 'activation': 'relu', 'kernel_initializer': 'glorot_uniform', 'HP_L2_REG': 0.0001, 'HP_OPTIMIZER': 'SGD', 'epochs': 200, 'HP_NUM_HIDDEN_LAYERS': 5, 'units': 400}
Blue
Model: "sequential"
_________________________________________________________________
Layer (type)                 Output Shape              Param #   
=================================================================
dense (Dense)                (None, 400)               4000400   
_________________________________________________________________
dense_1 (Dense)              (None, 400)               160400    
_________________________________________________________________
dense_2 (Dense)              (None, 400)               160400    
_________________________________________________________________
dense_3 (Dense)              (None, 400)               160400    
_________________________________________________________________
dense_4 (Dense)              (None, 400)               160400    
_________________________________________________________________
dense_5 (Dense)              (None, 1)                 401       
=================================================================
Total params: 4,642,401
Trainable params: 4,642,401
Non-trainable params: 0
_________________________________________________________________
None
Red
0.1541399862553351
Typer KerasRegressor
Hello world
{'learning_rate': 0.01, 'batch_size': 64, 'rate': 0.1, 'HP_L1_REG': 0.01, 'activation': 'relu', 'kernel_initializer': 'glorot_uniform', 'HP_L2_REG': 0.2, 'HP_OPTIMIZER': 'SGD', 'epochs': 200, 'HP_NUM_HIDDEN_LAYERS': 2, 'units': 1000}
Blue
Model: "sequential"
_________________________________________________________________
Layer (type)                 Output Shape              Param #   
=================================================================
dense (Dense)                (None, 1000)              10001000  
_________________________________________________________________
dropout (Dropout)            (None, 1000)              0         
_________________________________________________________________
dense_1 (Dense)              (None, 1000)              1001000   
_________________________________________________________________
dropout_1 (Dropout)          (None, 1000)              0         
_________________________________________________________________
dense_2 (Dense)              (None, 1)                 1001      
=================================================================
Total params: 11,003,001
Trainable params: 11,003,001
Non-trainable params: 0
_________________________________________________________________
None
Red
-0.014284939907110994
Typer KerasRegressor
Hello world
{'learning_rate': 1e-05, 'batch_size': 64, 'rate': 0.1, 'HP_L1_REG': 0.1, 'activation': 'tanh', 'kernel_initializer': 'glorot_uniform', 'HP_L2_REG': 0.0001, 'HP_OPTIMIZER': 'Adam', 'epochs': 200, 'HP_NUM_HIDDEN_LAYERS': 3, 'units': 1000}
Blue
Model: "sequential"
_________________________________________________________________
Layer (type)                 Output Shape              Param #   
=================================================================
dense (Dense)                (None, 1000)              10001000  
_________________________________________________________________
dropout (Dropout)            (None, 1000)              0         
_________________________________________________________________
dense_1 (Dense)              (None, 1000)              1001000   
_________________________________________________________________
dropout_1 (Dropout)          (None, 1000)              0         
_________________________________________________________________
dense_2 (Dense)              (None, 1000)              1001000   
_________________________________________________________________
dropout_2 (Dropout)          (None, 1000)              0         
_________________________________________________________________
dense_3 (Dense)              (None, 1)                 1001      
=================================================================
Total params: 12,004,001
Trainable params: 12,004,001
Non-trainable params: 0
_________________________________________________________________
None
Red
-0.014697625324838093
Typer KerasRegressor
Hello world
{'learning_rate': 0.01, 'batch_size': 128, 'rate': 0.0, 'HP_L1_REG': 0.0001, 'activation': 'tanh', 'kernel_initializer': 'glorot_uniform', 'HP_L2_REG': 0.0001, 'HP_OPTIMIZER': 'Adam', 'epochs': 200, 'HP_NUM_HIDDEN_LAYERS': 3, 'units': 1000}
Blue
Model: "sequential"
_________________________________________________________________
Layer (type)                 Output Shape              Param #   
=================================================================
dense (Dense)                (None, 1000)              10001000  
_________________________________________________________________
dense_1 (Dense)              (None, 1000)              1001000   
_________________________________________________________________
dense_2 (Dense)              (None, 1000)              1001000   
_________________________________________________________________
dense_3 (Dense)              (None, 1)                 1001      
=================================================================
Total params: 12,004,001
Trainable params: 12,004,001
Non-trainable params: 0
_________________________________________________________________
None
Red
0.1686330030172073
Typer KerasRegressor
Hello world
{'learning_rate': 1e-05, 'batch_size': 16, 'rate': 0.0, 'HP_L1_REG': 0.1, 'activation': 'relu', 'kernel_initializer': 'glorot_uniform', 'HP_L2_REG': 0.2, 'HP_OPTIMIZER': 'SGD', 'epochs': 100, 'HP_NUM_HIDDEN_LAYERS': 3, 'units': 1000}
Blue
Model: "sequential"
_________________________________________________________________
Layer (type)                 Output Shape              Param #   
=================================================================
dense (Dense)                (None, 1000)              10001000  
_________________________________________________________________
dense_1 (Dense)              (None, 1000)              1001000   
_________________________________________________________________
dense_2 (Dense)              (None, 1000)              1001000   
_________________________________________________________________
dense_3 (Dense)              (None, 1)                 1001      
=================================================================
Total params: 12,004,001
Trainable params: 12,004,001
Non-trainable params: 0
_________________________________________________________________
None
Red
0.015043778418374454
Typer KerasRegressor
Hello world
{'learning_rate': 0.01, 'batch_size': 64, 'rate': 0.2, 'HP_L1_REG': 0.1, 'activation': 'relu', 'kernel_initializer': 'glorot_uniform', 'HP_L2_REG': 0.2, 'HP_OPTIMIZER': 'Adam', 'epochs': 200, 'HP_NUM_HIDDEN_LAYERS': 4, 'units': 1000}
Blue
Model: "sequential"
_________________________________________________________________
Layer (type)                 Output Shape              Param #   
=================================================================
dense (Dense)                (None, 1000)              10001000  
_________________________________________________________________
dropout (Dropout)            (None, 1000)              0         
_________________________________________________________________
dense_1 (Dense)              (None, 1000)              1001000   
_________________________________________________________________
dropout_1 (Dropout)          (None, 1000)              0         
_________________________________________________________________
dense_2 (Dense)              (None, 1000)              1001000   
_________________________________________________________________
dropout_2 (Dropout)          (None, 1000)              0         
_________________________________________________________________
dense_3 (Dense)              (None, 1000)              1001000   
_________________________________________________________________
dropout_3 (Dropout)          (None, 1000)              0         
_________________________________________________________________
dense_4 (Dense)              (None, 1)                 1001      
=================================================================
Total params: 13,005,001
Trainable params: 13,005,001
Non-trainable params: 0
_________________________________________________________________
None
Red
-0.014017046518524756
Typer KerasRegressor
Hello world
{'learning_rate': 0.001, 'batch_size': 64, 'rate': 0.1, 'HP_L1_REG': 0.1, 'activation': 'relu', 'kernel_initializer': 'glorot_uniform', 'HP_L2_REG': 0.0001, 'HP_OPTIMIZER': 'Adagrad', 'epochs': 100, 'HP_NUM_HIDDEN_LAYERS': 2, 'units': 400}
Blue
Model: "sequential"
_________________________________________________________________
Layer (type)                 Output Shape              Param #   
=================================================================
dense (Dense)                (None, 400)               4000400   
_________________________________________________________________
dropout (Dropout)            (None, 400)               0         
_________________________________________________________________
dense_1 (Dense)              (None, 400)               160400    
_________________________________________________________________
dropout_1 (Dropout)          (None, 400)               0         
_________________________________________________________________
dense_2 (Dense)              (None, 1)                 401       
=================================================================
Total params: 4,161,201
Trainable params: 4,161,201
Non-trainable params: 0
_________________________________________________________________
None
Red
-0.010093841584064345
Typer KerasRegressor
Hello world
{'learning_rate': 0.01, 'batch_size': 128, 'rate': 0.0, 'HP_L1_REG': 0.01, 'activation': 'tanh', 'kernel_initializer': 'glorot_uniform', 'HP_L2_REG': 1e-08, 'HP_OPTIMIZER': 'Adam', 'epochs': 200, 'HP_NUM_HIDDEN_LAYERS': 4, 'units': 400}
Blue
Model: "sequential"
_________________________________________________________________
Layer (type)                 Output Shape              Param #   
=================================================================
dense (Dense)                (None, 400)               4000400   
_________________________________________________________________
dense_1 (Dense)              (None, 400)               160400    
_________________________________________________________________
dense_2 (Dense)              (None, 400)               160400    
_________________________________________________________________
dense_3 (Dense)              (None, 400)               160400    
_________________________________________________________________
dense_4 (Dense)              (None, 1)                 401       
=================================================================
Total params: 4,482,001
Trainable params: 4,482,001
Non-trainable params: 0
_________________________________________________________________
None
Red
-0.027368740821952287
Typer KerasRegressor
Hello world
{'learning_rate': 0.01, 'batch_size': 128, 'rate': 0.1, 'HP_L1_REG': 0.0001, 'activation': 'tanh', 'kernel_initializer': 'glorot_uniform', 'HP_L2_REG': 0.0001, 'HP_OPTIMIZER': 'Adagrad', 'epochs': 100, 'HP_NUM_HIDDEN_LAYERS': 2, 'units': 200}
Blue
Model: "sequential"
_________________________________________________________________
Layer (type)                 Output Shape              Param #   
=================================================================
dense (Dense)                (None, 200)               2000200   
_________________________________________________________________
dropout (Dropout)            (None, 200)               0         
_________________________________________________________________
dense_1 (Dense)              (None, 200)               40200     
_________________________________________________________________
dropout_1 (Dropout)          (None, 200)               0         
_________________________________________________________________
dense_2 (Dense)              (None, 1)                 201       
=================================================================
Total params: 2,040,601
Trainable params: 2,040,601
Non-trainable params: 0
_________________________________________________________________
None
Red
0.25343127080731664
Typer KerasRegressor
Hello world
{'learning_rate': 0.001, 'batch_size': 128, 'rate': 0.2, 'HP_L1_REG': 0.1, 'activation': 'relu', 'kernel_initializer': 'glorot_uniform', 'HP_L2_REG': 0.2, 'HP_OPTIMIZER': 'SGD', 'epochs': 50, 'HP_NUM_HIDDEN_LAYERS': 4, 'units': 200}
Blue
Model: "sequential"
_________________________________________________________________
Layer (type)                 Output Shape              Param #   
=================================================================
dense (Dense)                (None, 200)               2000200   
_________________________________________________________________
dropout (Dropout)            (None, 200)               0         
_________________________________________________________________
dense_1 (Dense)              (None, 200)               40200     
_________________________________________________________________
dropout_1 (Dropout)          (None, 200)               0         
_________________________________________________________________
dense_2 (Dense)              (None, 200)               40200     
_________________________________________________________________
dropout_2 (Dropout)          (None, 200)               0         
_________________________________________________________________
dense_3 (Dense)              (None, 200)               40200     
_________________________________________________________________
dropout_3 (Dropout)          (None, 200)               0         
_________________________________________________________________
dense_4 (Dense)              (None, 1)                 201       
=================================================================
Total params: 2,121,001
Trainable params: 2,121,001
Non-trainable params: 0
_________________________________________________________________
None
Red
-3.815639111337532e-05
Typer KerasRegressor
Hello world
{'learning_rate': 0.01, 'batch_size': 64, 'rate': 0.0, 'HP_L1_REG': 0.0001, 'activation': 'tanh', 'kernel_initializer': 'glorot_uniform', 'HP_L2_REG': 1e-08, 'HP_OPTIMIZER': 'Adagrad', 'epochs': 50, 'HP_NUM_HIDDEN_LAYERS': 2, 'units': 200}
Blue
Model: "sequential"
_________________________________________________________________
Layer (type)                 Output Shape              Param #   
=================================================================
dense (Dense)                (None, 200)               2000200   
_________________________________________________________________
dense_1 (Dense)              (None, 200)               40200     
_________________________________________________________________
dense_2 (Dense)              (None, 1)                 201       
=================================================================
Total params: 2,040,601
Trainable params: 2,040,601
Non-trainable params: 0
_________________________________________________________________
None
Red
0.24773463864083678
Typer KerasRegressor
Hello world
{'learning_rate': 0.0001, 'batch_size': 64, 'rate': 0.1, 'HP_L1_REG': 0.01, 'activation': 'relu', 'kernel_initializer': 'glorot_uniform', 'HP_L2_REG': 1e-08, 'HP_OPTIMIZER': 'SGD', 'epochs': 50, 'HP_NUM_HIDDEN_LAYERS': 3, 'units': 1000}
Blue
Model: "sequential"
_________________________________________________________________
Layer (type)                 Output Shape              Param #   
=================================================================
dense (Dense)                (None, 1000)              10001000  
_________________________________________________________________
dropout (Dropout)            (None, 1000)              0         
_________________________________________________________________
dense_1 (Dense)              (None, 1000)              1001000   
_________________________________________________________________
dropout_1 (Dropout)          (None, 1000)              0         
_________________________________________________________________
dense_2 (Dense)              (None, 1000)              1001000   
_________________________________________________________________
dropout_2 (Dropout)          (None, 1000)              0         
_________________________________________________________________
dense_3 (Dense)              (None, 1)                 1001      
=================================================================
Total params: 12,004,001
Trainable params: 12,004,001
Non-trainable params: 0
_________________________________________________________________
None
Red
0.028317438134855544
Typer KerasRegressor
Hello world
{'learning_rate': 1e-05, 'batch_size': 64, 'rate': 0.1, 'HP_L1_REG': 0.01, 'activation': 'tanh', 'kernel_initializer': 'glorot_uniform', 'HP_L2_REG': 0.0001, 'HP_OPTIMIZER': 'Adam', 'epochs': 200, 'HP_NUM_HIDDEN_LAYERS': 2, 'units': 400}
Blue
Model: "sequential"
_________________________________________________________________
Layer (type)                 Output Shape              Param #   
=================================================================
dense (Dense)                (None, 400)               4000400   
_________________________________________________________________
dropout (Dropout)            (None, 400)               0         
_________________________________________________________________
dense_1 (Dense)              (None, 400)               160400    
_________________________________________________________________
dropout_1 (Dropout)          (None, 400)               0         
_________________________________________________________________
dense_2 (Dense)              (None, 1)                 401       
=================================================================
Total params: 4,161,201
Trainable params: 4,161,201
Non-trainable params: 0
_________________________________________________________________
None
Red
0.22314036041997054
Typer KerasRegressor
Hello world
{'learning_rate': 1e-05, 'batch_size': 128, 'rate': 0.5, 'HP_L1_REG': 0.01, 'activation': 'tanh', 'kernel_initializer': 'glorot_uniform', 'HP_L2_REG': 1e-08, 'HP_OPTIMIZER': 'SGD', 'epochs': 100, 'HP_NUM_HIDDEN_LAYERS': 3, 'units': 1000}
Blue
Model: "sequential"
_________________________________________________________________
Layer (type)                 Output Shape              Param #   
=================================================================
dense (Dense)                (None, 1000)              10001000  
_________________________________________________________________
dropout (Dropout)            (None, 1000)              0         
_________________________________________________________________
dense_1 (Dense)              (None, 1000)              1001000   
_________________________________________________________________
dropout_1 (Dropout)          (None, 1000)              0         
_________________________________________________________________
dense_2 (Dense)              (None, 1000)              1001000   
_________________________________________________________________
dropout_2 (Dropout)          (None, 1000)              0         
_________________________________________________________________
dense_3 (Dense)              (None, 1)                 1001      
=================================================================
Total params: 12,004,001
Trainable params: 12,004,001
Non-trainable params: 0
_________________________________________________________________
None
Red
-0.11784298590362008
Typer KerasRegressor
Hello world
{'learning_rate': 0.001, 'batch_size': 128, 'rate': 0.0, 'HP_L1_REG': 0.01, 'activation': 'relu', 'kernel_initializer': 'glorot_uniform', 'HP_L2_REG': 0.01, 'HP_OPTIMIZER': 'Adam', 'epochs': 50, 'HP_NUM_HIDDEN_LAYERS': 5, 'units': 1000}
Blue
Model: "sequential"
_________________________________________________________________
Layer (type)                 Output Shape              Param #   
=================================================================
dense (Dense)                (None, 1000)              10001000  
_________________________________________________________________
dense_1 (Dense)              (None, 1000)              1001000   
_________________________________________________________________
dense_2 (Dense)              (None, 1000)              1001000   
_________________________________________________________________
dense_3 (Dense)              (None, 1000)              1001000   
_________________________________________________________________
dense_4 (Dense)              (None, 1000)              1001000   
_________________________________________________________________
dense_5 (Dense)              (None, 1)                 1001      
=================================================================
Total params: 14,006,001
Trainable params: 14,006,001
Non-trainable params: 0
_________________________________________________________________
None
Red
-0.011312302122835405
Typer KerasRegressor
Hello world
{'learning_rate': 1e-05, 'batch_size': 128, 'rate': 0.1, 'HP_L1_REG': 0.01, 'activation': 'tanh', 'kernel_initializer': 'glorot_uniform', 'HP_L2_REG': 1e-08, 'HP_OPTIMIZER': 'Adam', 'epochs': 50, 'HP_NUM_HIDDEN_LAYERS': 5, 'units': 400}
Blue
Model: "sequential"
_________________________________________________________________
Layer (type)                 Output Shape              Param #   
=================================================================
dense (Dense)                (None, 400)               4000400   
_________________________________________________________________
dropout (Dropout)            (None, 400)               0         
_________________________________________________________________
dense_1 (Dense)              (None, 400)               160400    
_________________________________________________________________
dropout_1 (Dropout)          (None, 400)               0         
_________________________________________________________________
dense_2 (Dense)              (None, 400)               160400    
_________________________________________________________________
dropout_2 (Dropout)          (None, 400)               0         
_________________________________________________________________
dense_3 (Dense)              (None, 400)               160400    
_________________________________________________________________
dropout_3 (Dropout)          (None, 400)               0         
_________________________________________________________________
dense_4 (Dense)              (None, 400)               160400    
_________________________________________________________________
dropout_4 (Dropout)          (None, 400)               0         
_________________________________________________________________
dense_5 (Dense)              (None, 1)                 401       
=================================================================
Total params: 4,642,401
Trainable params: 4,642,401
Non-trainable params: 0
_________________________________________________________________
None
Red
0.05929835467040845
Typer KerasRegressor
Hello world
{'learning_rate': 1e-05, 'batch_size': 128, 'rate': 0.5, 'HP_L1_REG': 0.001, 'activation': 'tanh', 'kernel_initializer': 'glorot_uniform', 'HP_L2_REG': 0.01, 'HP_OPTIMIZER': 'SGD', 'epochs': 50, 'HP_NUM_HIDDEN_LAYERS': 3, 'units': 400}
Blue
Model: "sequential"
_________________________________________________________________
Layer (type)                 Output Shape              Param #   
=================================================================
dense (Dense)                (None, 400)               4000400   
_________________________________________________________________
dropout (Dropout)            (None, 400)               0         
_________________________________________________________________
dense_1 (Dense)              (None, 400)               160400    
_________________________________________________________________
dropout_1 (Dropout)          (None, 400)               0         
_________________________________________________________________
dense_2 (Dense)              (None, 400)               160400    
_________________________________________________________________
dropout_2 (Dropout)          (None, 400)               0         
_________________________________________________________________
dense_3 (Dense)              (None, 1)                 401       
=================================================================
Total params: 4,321,601
Trainable params: 4,321,601
Non-trainable params: 0
_________________________________________________________________
None
Red
-0.27416139243997817
Typer KerasRegressor
Hello world
{'learning_rate': 1e-05, 'batch_size': 128, 'rate': 0.2, 'HP_L1_REG': 0.1, 'activation': 'relu', 'kernel_initializer': 'glorot_uniform', 'HP_L2_REG': 0.01, 'HP_OPTIMIZER': 'Adagrad', 'epochs': 200, 'HP_NUM_HIDDEN_LAYERS': 2, 'units': 400}
Blue
Model: "sequential"
_________________________________________________________________
Layer (type)                 Output Shape              Param #   
=================================================================
dense (Dense)                (None, 400)               4000400   
_________________________________________________________________
dropout (Dropout)            (None, 400)               0         
_________________________________________________________________
dense_1 (Dense)              (None, 400)               160400    
_________________________________________________________________
dropout_1 (Dropout)          (None, 400)               0         
_________________________________________________________________
dense_2 (Dense)              (None, 1)                 401       
=================================================================
Total params: 4,161,201
Trainable params: 4,161,201
Non-trainable params: 0
_________________________________________________________________
None
Red
0.006491393511026677
Typer KerasRegressor
Hello world
{'learning_rate': 0.0001, 'batch_size': 64, 'rate': 0.0, 'HP_L1_REG': 0.0001, 'activation': 'relu', 'kernel_initializer': 'glorot_uniform', 'HP_L2_REG': 1e-08, 'HP_OPTIMIZER': 'Adam', 'epochs': 100, 'HP_NUM_HIDDEN_LAYERS': 5, 'units': 200}
Blue
Model: "sequential"
_________________________________________________________________
Layer (type)                 Output Shape              Param #   
=================================================================
dense (Dense)                (None, 200)               2000200   
_________________________________________________________________
dense_1 (Dense)              (None, 200)               40200     
_________________________________________________________________
dense_2 (Dense)              (None, 200)               40200     
_________________________________________________________________
dense_3 (Dense)              (None, 200)               40200     
_________________________________________________________________
dense_4 (Dense)              (None, 200)               40200     
_________________________________________________________________
dense_5 (Dense)              (None, 1)                 201       
=================================================================
Total params: 2,161,201
Trainable params: 2,161,201
Non-trainable params: 0
_________________________________________________________________
None
Red
0.38120578511366554
Typer KerasRegressor
Hello world
{'learning_rate': 1e-05, 'batch_size': 64, 'rate': 0.2, 'HP_L1_REG': 0.1, 'activation': 'relu', 'kernel_initializer': 'glorot_uniform', 'HP_L2_REG': 0.0001, 'HP_OPTIMIZER': 'Adam', 'epochs': 200, 'HP_NUM_HIDDEN_LAYERS': 2, 'units': 400}
Blue
Model: "sequential"
_________________________________________________________________
Layer (type)                 Output Shape              Param #   
=================================================================
dense (Dense)                (None, 400)               4000400   
_________________________________________________________________
dropout (Dropout)            (None, 400)               0         
_________________________________________________________________
dense_1 (Dense)              (None, 400)               160400    
_________________________________________________________________
dropout_1 (Dropout)          (None, 400)               0         
_________________________________________________________________
dense_2 (Dense)              (None, 1)                 401       
=================================================================
Total params: 4,161,201
Trainable params: 4,161,201
Non-trainable params: 0
_________________________________________________________________
None
Red
-0.0005216190574817148
Typer KerasRegressor
Hello world
{'learning_rate': 1e-05, 'batch_size': 16, 'rate': 0.2, 'HP_L1_REG': 0.0001, 'activation': 'tanh', 'kernel_initializer': 'glorot_uniform', 'HP_L2_REG': 0.01, 'HP_OPTIMIZER': 'Adam', 'epochs': 50, 'HP_NUM_HIDDEN_LAYERS': 5, 'units': 400}
Blue
Model: "sequential"
_________________________________________________________________
Layer (type)                 Output Shape              Param #   
=================================================================
dense (Dense)                (None, 400)               4000400   
_________________________________________________________________
dropout (Dropout)            (None, 400)               0         
_________________________________________________________________
dense_1 (Dense)              (None, 400)               160400    
_________________________________________________________________
dropout_1 (Dropout)          (None, 400)               0         
_________________________________________________________________
dense_2 (Dense)              (None, 400)               160400    
_________________________________________________________________
dropout_2 (Dropout)          (None, 400)               0         
_________________________________________________________________
dense_3 (Dense)              (None, 400)               160400    
_________________________________________________________________
dropout_3 (Dropout)          (None, 400)               0         
_________________________________________________________________
dense_4 (Dense)              (None, 400)               160400    
_________________________________________________________________
dropout_4 (Dropout)          (None, 400)               0         
_________________________________________________________________
dense_5 (Dense)              (None, 1)                 401       
=================================================================
Total params: 4,642,401
Trainable params: 4,642,401
Non-trainable params: 0
_________________________________________________________________
None
Red
0.32741423761242094
Typer KerasRegressor
Hello world
{'learning_rate': 0.01, 'batch_size': 64, 'rate': 0.1, 'HP_L1_REG': 0.01, 'activation': 'tanh', 'kernel_initializer': 'glorot_uniform', 'HP_L2_REG': 0.01, 'HP_OPTIMIZER': 'Adam', 'epochs': 200, 'HP_NUM_HIDDEN_LAYERS': 3, 'units': 1000}
Blue
Model: "sequential"
_________________________________________________________________
Layer (type)                 Output Shape              Param #   
=================================================================
dense (Dense)                (None, 1000)              10001000  
_________________________________________________________________
dropout (Dropout)            (None, 1000)              0         
_________________________________________________________________
dense_1 (Dense)              (None, 1000)              1001000   
_________________________________________________________________
dropout_1 (Dropout)          (None, 1000)              0         
_________________________________________________________________
dense_2 (Dense)              (None, 1000)              1001000   
_________________________________________________________________
dropout_2 (Dropout)          (None, 1000)              0         
_________________________________________________________________
dense_3 (Dense)              (None, 1)                 1001      
=================================================================
Total params: 12,004,001
Trainable params: 12,004,001
Non-trainable params: 0
_________________________________________________________________
None
Red
-0.010145566832163277
Typer KerasRegressor
Hello world
{'learning_rate': 0.01, 'batch_size': 128, 'rate': 0.5, 'HP_L1_REG': 0.1, 'activation': 'tanh', 'kernel_initializer': 'glorot_uniform', 'HP_L2_REG': 0.01, 'HP_OPTIMIZER': 'Adam', 'epochs': 50, 'HP_NUM_HIDDEN_LAYERS': 3, 'units': 200}
Blue
Model: "sequential"
_________________________________________________________________
Layer (type)                 Output Shape              Param #   
=================================================================
dense (Dense)                (None, 200)               2000200   
_________________________________________________________________
dropout (Dropout)            (None, 200)               0         
_________________________________________________________________
dense_1 (Dense)              (None, 200)               40200     
_________________________________________________________________
dropout_1 (Dropout)          (None, 200)               0         
_________________________________________________________________
dense_2 (Dense)              (None, 200)               40200     
_________________________________________________________________
dropout_2 (Dropout)          (None, 200)               0         
_________________________________________________________________
dense_3 (Dense)              (None, 1)                 201       
=================================================================
Total params: 2,080,801
Trainable params: 2,080,801
Non-trainable params: 0
_________________________________________________________________
None
Red
-0.021071334485500914
Typer KerasRegressor
Hello world
{'learning_rate': 0.0001, 'batch_size': 16, 'rate': 0.2, 'HP_L1_REG': 0.0001, 'activation': 'tanh', 'kernel_initializer': 'glorot_uniform', 'HP_L2_REG': 0.2, 'HP_OPTIMIZER': 'SGD', 'epochs': 100, 'HP_NUM_HIDDEN_LAYERS': 5, 'units': 400}
Blue
Model: "sequential"
_________________________________________________________________
Layer (type)                 Output Shape              Param #   
=================================================================
dense (Dense)                (None, 400)               4000400   
_________________________________________________________________
dropout (Dropout)            (None, 400)               0         
_________________________________________________________________
dense_1 (Dense)              (None, 400)               160400    
_________________________________________________________________
dropout_1 (Dropout)          (None, 400)               0         
_________________________________________________________________
dense_2 (Dense)              (None, 400)               160400    
_________________________________________________________________
dropout_2 (Dropout)          (None, 400)               0         
_________________________________________________________________
dense_3 (Dense)              (None, 400)               160400    
_________________________________________________________________
dropout_3 (Dropout)          (None, 400)               0         
_________________________________________________________________
dense_4 (Dense)              (None, 400)               160400    
_________________________________________________________________
dropout_4 (Dropout)          (None, 400)               0         
_________________________________________________________________
dense_5 (Dense)              (None, 1)                 401       
=================================================================
Total params: 4,642,401
Trainable params: 4,642,401
Non-trainable params: 0
_________________________________________________________________
None
Red
0.28973284968058166
Typer KerasRegressor
Hello world
{'learning_rate': 0.0001, 'batch_size': 16, 'rate': 0.5, 'HP_L1_REG': 0.001, 'activation': 'relu', 'kernel_initializer': 'glorot_uniform', 'HP_L2_REG': 0.01, 'HP_OPTIMIZER': 'Adagrad', 'epochs': 50, 'HP_NUM_HIDDEN_LAYERS': 4, 'units': 1000}
Blue
Model: "sequential"
_________________________________________________________________
Layer (type)                 Output Shape              Param #   
=================================================================
dense (Dense)                (None, 1000)              10001000  
_________________________________________________________________
dropout (Dropout)            (None, 1000)              0         
_________________________________________________________________
dense_1 (Dense)              (None, 1000)              1001000   
_________________________________________________________________
dropout_1 (Dropout)          (None, 1000)              0         
_________________________________________________________________
dense_2 (Dense)              (None, 1000)              1001000   
_________________________________________________________________
dropout_2 (Dropout)          (None, 1000)              0         
_________________________________________________________________
dense_3 (Dense)              (None, 1000)              1001000   
_________________________________________________________________
dropout_3 (Dropout)          (None, 1000)              0         
_________________________________________________________________
dense_4 (Dense)              (None, 1)                 1001      
=================================================================
Total params: 13,005,001
Trainable params: 13,005,001
Non-trainable params: 0
_________________________________________________________________
None
Red
0.02342292285077696
Typer KerasRegressor
Hello world
{'learning_rate': 0.001, 'batch_size': 16, 'rate': 0.5, 'HP_L1_REG': 0.001, 'activation': 'relu', 'kernel_initializer': 'glorot_uniform', 'HP_L2_REG': 1e-08, 'HP_OPTIMIZER': 'Adam', 'epochs': 50, 'HP_NUM_HIDDEN_LAYERS': 4, 'units': 200}
Blue
Model: "sequential"
_________________________________________________________________
Layer (type)                 Output Shape              Param #   
=================================================================
dense (Dense)                (None, 200)               2000200   
_________________________________________________________________
dropout (Dropout)            (None, 200)               0         
_________________________________________________________________
dense_1 (Dense)              (None, 200)               40200     
_________________________________________________________________
dropout_1 (Dropout)          (None, 200)               0         
_________________________________________________________________
dense_2 (Dense)              (None, 200)               40200     
_________________________________________________________________
dropout_2 (Dropout)          (None, 200)               0         
_________________________________________________________________
dense_3 (Dense)              (None, 200)               40200     
_________________________________________________________________
dropout_3 (Dropout)          (None, 200)               0         
_________________________________________________________________
dense_4 (Dense)              (None, 1)                 201       
=================================================================
Total params: 2,121,001
Trainable params: 2,121,001
Non-trainable params: 0
_________________________________________________________________
None
Red
0.16452622507417236
Typer KerasRegressor
Hello world
{'learning_rate': 0.0001, 'batch_size': 16, 'rate': 0.5, 'HP_L1_REG': 0.001, 'activation': 'relu', 'kernel_initializer': 'glorot_uniform', 'HP_L2_REG': 1e-08, 'HP_OPTIMIZER': 'SGD', 'epochs': 50, 'HP_NUM_HIDDEN_LAYERS': 5, 'units': 200}
Blue
Model: "sequential"
_________________________________________________________________
Layer (type)                 Output Shape              Param #   
=================================================================
dense (Dense)                (None, 200)               2000200   
_________________________________________________________________
dropout (Dropout)            (None, 200)               0         
_________________________________________________________________
dense_1 (Dense)              (None, 200)               40200     
_________________________________________________________________
dropout_1 (Dropout)          (None, 200)               0         
_________________________________________________________________
dense_2 (Dense)              (None, 200)               40200     
_________________________________________________________________
dropout_2 (Dropout)          (None, 200)               0         
_________________________________________________________________
dense_3 (Dense)              (None, 200)               40200     
_________________________________________________________________
dropout_3 (Dropout)          (None, 200)               0         
_________________________________________________________________
dense_4 (Dense)              (None, 200)               40200     
_________________________________________________________________
dropout_4 (Dropout)          (None, 200)               0         
_________________________________________________________________
dense_5 (Dense)              (None, 1)                 201       
=================================================================
Total params: 2,161,201
Trainable params: 2,161,201
Non-trainable params: 0
_________________________________________________________________
None
Red
0.009150821677662124
Typer KerasRegressor
Hello world
{'learning_rate': 0.001, 'batch_size': 128, 'rate': 0.0, 'HP_L1_REG': 0.01, 'activation': 'tanh', 'kernel_initializer': 'glorot_uniform', 'HP_L2_REG': 0.2, 'HP_OPTIMIZER': 'SGD', 'epochs': 100, 'HP_NUM_HIDDEN_LAYERS': 5, 'units': 400}
Blue
Model: "sequential"
_________________________________________________________________
Layer (type)                 Output Shape              Param #   
=================================================================
dense (Dense)                (None, 400)               4000400   
_________________________________________________________________
dense_1 (Dense)              (None, 400)               160400    
_________________________________________________________________
dense_2 (Dense)              (None, 400)               160400    
_________________________________________________________________
dense_3 (Dense)              (None, 400)               160400    
_________________________________________________________________
dense_4 (Dense)              (None, 400)               160400    
_________________________________________________________________
dense_5 (Dense)              (None, 1)                 401       
=================================================================
Total params: 4,642,401
Trainable params: 4,642,401
Non-trainable params: 0
_________________________________________________________________
None
Red
0.28329481183025085
Typer KerasRegressor
Hello world
{'learning_rate': 0.0001, 'batch_size': 128, 'rate': 0.2, 'HP_L1_REG': 0.001, 'activation': 'tanh', 'kernel_initializer': 'glorot_uniform', 'HP_L2_REG': 1e-08, 'HP_OPTIMIZER': 'SGD', 'epochs': 200, 'HP_NUM_HIDDEN_LAYERS': 3, 'units': 1000}
Blue
Model: "sequential"
_________________________________________________________________
Layer (type)                 Output Shape              Param #   
=================================================================
dense (Dense)                (None, 1000)              10001000  
_________________________________________________________________
dropout (Dropout)            (None, 1000)              0         
_________________________________________________________________
dense_1 (Dense)              (None, 1000)              1001000   
_________________________________________________________________
dropout_1 (Dropout)          (None, 1000)              0         
_________________________________________________________________
dense_2 (Dense)              (None, 1000)              1001000   
_________________________________________________________________
dropout_2 (Dropout)          (None, 1000)              0         
_________________________________________________________________
dense_3 (Dense)              (None, 1)                 1001      
=================================================================
Total params: 12,004,001
Trainable params: 12,004,001
Non-trainable params: 0
_________________________________________________________________
None
Red
0.2218516957865595
Typer KerasRegressor
Hello world
{'learning_rate': 0.0001, 'batch_size': 16, 'rate': 0.0, 'HP_L1_REG': 0.0001, 'activation': 'tanh', 'kernel_initializer': 'glorot_uniform', 'HP_L2_REG': 0.2, 'HP_OPTIMIZER': 'Adam', 'epochs': 200, 'HP_NUM_HIDDEN_LAYERS': 4, 'units': 1000}
Blue
Model: "sequential"
_________________________________________________________________
Layer (type)                 Output Shape              Param #   
=================================================================
dense (Dense)                (None, 1000)              10001000  
_________________________________________________________________
dense_1 (Dense)              (None, 1000)              1001000   
_________________________________________________________________
dense_2 (Dense)              (None, 1000)              1001000   
_________________________________________________________________
dense_3 (Dense)              (None, 1000)              1001000   
_________________________________________________________________
dense_4 (Dense)              (None, 1)                 1001      
=================================================================
Total params: 13,005,001
Trainable params: 13,005,001
Non-trainable params: 0
_________________________________________________________________
None
Red
0.21708969397695932
Typer KerasRegressor
Hello world
{'learning_rate': 0.001, 'batch_size': 64, 'rate': 0.0, 'HP_L1_REG': 0.001, 'activation': 'relu', 'kernel_initializer': 'glorot_uniform', 'HP_L2_REG': 0.2, 'HP_OPTIMIZER': 'Adam', 'epochs': 100, 'HP_NUM_HIDDEN_LAYERS': 2, 'units': 1000}
Blue
Model: "sequential"
_________________________________________________________________
Layer (type)                 Output Shape              Param #   
=================================================================
dense (Dense)                (None, 1000)              10001000  
_________________________________________________________________
dense_1 (Dense)              (None, 1000)              1001000   
_________________________________________________________________
dense_2 (Dense)              (None, 1)                 1001      
=================================================================
Total params: 11,003,001
Trainable params: 11,003,001
Non-trainable params: 0
_________________________________________________________________
None
Red
0.19409713768214942
Typer KerasRegressor
Hello world
{'learning_rate': 0.0001, 'batch_size': 64, 'rate': 0.5, 'HP_L1_REG': 0.01, 'activation': 'relu', 'kernel_initializer': 'glorot_uniform', 'HP_L2_REG': 0.2, 'HP_OPTIMIZER': 'Adagrad', 'epochs': 50, 'HP_NUM_HIDDEN_LAYERS': 2, 'units': 400}
Blue
Model: "sequential"
_________________________________________________________________
Layer (type)                 Output Shape              Param #   
=================================================================
dense (Dense)                (None, 400)               4000400   
_________________________________________________________________
dropout (Dropout)            (None, 400)               0         
_________________________________________________________________
dense_1 (Dense)              (None, 400)               160400    
_________________________________________________________________
dropout_1 (Dropout)          (None, 400)               0         
_________________________________________________________________
dense_2 (Dense)              (None, 1)                 401       
=================================================================
Total params: 4,161,201
Trainable params: 4,161,201
Non-trainable params: 0
_________________________________________________________________
None
Red
0.017428149308612584
Typer KerasRegressor
Hello world
{'learning_rate': 0.001, 'batch_size': 16, 'rate': 0.0, 'HP_L1_REG': 0.001, 'activation': 'relu', 'kernel_initializer': 'glorot_uniform', 'HP_L2_REG': 1e-08, 'HP_OPTIMIZER': 'Adam', 'epochs': 100, 'HP_NUM_HIDDEN_LAYERS': 5, 'units': 1000}
Blue
Model: "sequential"
_________________________________________________________________
Layer (type)                 Output Shape              Param #   
=================================================================
dense (Dense)                (None, 1000)              10001000  
_________________________________________________________________
dense_1 (Dense)              (None, 1000)              1001000   
_________________________________________________________________
dense_2 (Dense)              (None, 1000)              1001000   
_________________________________________________________________
dense_3 (Dense)              (None, 1000)              1001000   
_________________________________________________________________
dense_4 (Dense)              (None, 1000)              1001000   
_________________________________________________________________
dense_5 (Dense)              (None, 1)                 1001      
=================================================================
Total params: 14,006,001
Trainable params: 14,006,001
Non-trainable params: 0
_________________________________________________________________
None
Red
-0.015964887995561172
Typer KerasRegressor
Hello world
{'learning_rate': 0.001, 'batch_size': 128, 'rate': 0.5, 'HP_L1_REG': 0.01, 'activation': 'tanh', 'kernel_initializer': 'glorot_uniform', 'HP_L2_REG': 1e-08, 'HP_OPTIMIZER': 'SGD', 'epochs': 50, 'HP_NUM_HIDDEN_LAYERS': 2, 'units': 1000}
Blue
Model: "sequential"
_________________________________________________________________
Layer (type)                 Output Shape              Param #   
=================================================================
dense (Dense)                (None, 1000)              10001000  
_________________________________________________________________
dropout (Dropout)            (None, 1000)              0         
_________________________________________________________________
dense_1 (Dense)              (None, 1000)              1001000   
_________________________________________________________________
dropout_1 (Dropout)          (None, 1000)              0         
_________________________________________________________________
dense_2 (Dense)              (None, 1)                 1001      
=================================================================
Total params: 11,003,001
Trainable params: 11,003,001
Non-trainable params: 0
_________________________________________________________________
None
Red
0.30029182417554345
Typer KerasRegressor
Hello world
{'learning_rate': 0.0001, 'batch_size': 64, 'rate': 0.2, 'HP_L1_REG': 0.01, 'activation': 'relu', 'kernel_initializer': 'glorot_uniform', 'HP_L2_REG': 0.0001, 'HP_OPTIMIZER': 'SGD', 'epochs': 100, 'HP_NUM_HIDDEN_LAYERS': 2, 'units': 400}
Blue
Model: "sequential"
_________________________________________________________________
Layer (type)                 Output Shape              Param #   
=================================================================
dense (Dense)                (None, 400)               4000400   
_________________________________________________________________
dropout (Dropout)            (None, 400)               0         
_________________________________________________________________
dense_1 (Dense)              (None, 400)               160400    
_________________________________________________________________
dropout_1 (Dropout)          (None, 400)               0         
_________________________________________________________________
dense_2 (Dense)              (None, 1)                 401       
=================================================================
Total params: 4,161,201
Trainable params: 4,161,201
Non-trainable params: 0
_________________________________________________________________
None
Red
0.024940619326338065
Typer KerasRegressor
Hello world
{'learning_rate': 1e-05, 'batch_size': 16, 'rate': 0.2, 'HP_L1_REG': 0.001, 'activation': 'tanh', 'kernel_initializer': 'glorot_uniform', 'HP_L2_REG': 1e-08, 'HP_OPTIMIZER': 'Adagrad', 'epochs': 100, 'HP_NUM_HIDDEN_LAYERS': 3, 'units': 200}
Blue
Model: "sequential"
_________________________________________________________________
Layer (type)                 Output Shape              Param #   
=================================================================
dense (Dense)                (None, 200)               2000200   
_________________________________________________________________
dropout (Dropout)            (None, 200)               0         
_________________________________________________________________
dense_1 (Dense)              (None, 200)               40200     
_________________________________________________________________
dropout_1 (Dropout)          (None, 200)               0         
_________________________________________________________________
dense_2 (Dense)              (None, 200)               40200     
_________________________________________________________________
dropout_2 (Dropout)          (None, 200)               0         
_________________________________________________________________
dense_3 (Dense)              (None, 1)                 201       
=================================================================
Total params: 2,080,801
Trainable params: 2,080,801
Non-trainable params: 0
_________________________________________________________________
None
Red
0.033791930443905493
Typer KerasRegressor
Hello world
{'learning_rate': 0.001, 'batch_size': 16, 'rate': 0.1, 'HP_L1_REG': 0.0001, 'activation': 'tanh', 'kernel_initializer': 'glorot_uniform', 'HP_L2_REG': 0.0001, 'HP_OPTIMIZER': 'SGD', 'epochs': 50, 'HP_NUM_HIDDEN_LAYERS': 2, 'units': 200}
Blue
Model: "sequential"
_________________________________________________________________
Layer (type)                 Output Shape              Param #   
=================================================================
dense (Dense)                (None, 200)               2000200   
_________________________________________________________________
dropout (Dropout)            (None, 200)               0         
_________________________________________________________________
dense_1 (Dense)              (None, 200)               40200     
_________________________________________________________________
dropout_1 (Dropout)          (None, 200)               0         
_________________________________________________________________
dense_2 (Dense)              (None, 1)                 201       
=================================================================
Total params: 2,040,601
Trainable params: 2,040,601
Non-trainable params: 0
_________________________________________________________________
None
Red
0.24241657368868796
Typer KerasRegressor
Hello world
{'learning_rate': 0.0001, 'batch_size': 16, 'rate': 0.5, 'HP_L1_REG': 0.1, 'activation': 'relu', 'kernel_initializer': 'glorot_uniform', 'HP_L2_REG': 0.0001, 'HP_OPTIMIZER': 'Adam', 'epochs': 50, 'HP_NUM_HIDDEN_LAYERS': 3, 'units': 400}
Blue
Model: "sequential"
_________________________________________________________________
Layer (type)                 Output Shape              Param #   
=================================================================
dense (Dense)                (None, 400)               4000400   
_________________________________________________________________
dropout (Dropout)            (None, 400)               0         
_________________________________________________________________
dense_1 (Dense)              (None, 400)               160400    
_________________________________________________________________
dropout_1 (Dropout)          (None, 400)               0         
_________________________________________________________________
dense_2 (Dense)              (None, 400)               160400    
_________________________________________________________________
dropout_2 (Dropout)          (None, 400)               0         
_________________________________________________________________
dense_3 (Dense)              (None, 1)                 401       
=================================================================
Total params: 4,321,601
Trainable params: 4,321,601
Non-trainable params: 0
_________________________________________________________________
None
Red
-0.01550586272135801
Typer KerasRegressor
Hello world
{'learning_rate': 0.0001, 'batch_size': 128, 'rate': 0.5, 'HP_L1_REG': 0.001, 'activation': 'relu', 'kernel_initializer': 'glorot_uniform', 'HP_L2_REG': 0.2, 'HP_OPTIMIZER': 'Adagrad', 'epochs': 50, 'HP_NUM_HIDDEN_LAYERS': 2, 'units': 400}
Blue
Model: "sequential"
_________________________________________________________________
Layer (type)                 Output Shape              Param #   
=================================================================
dense (Dense)                (None, 400)               4000400   
_________________________________________________________________
dropout (Dropout)            (None, 400)               0         
_________________________________________________________________
dense_1 (Dense)              (None, 400)               160400    
_________________________________________________________________
dropout_1 (Dropout)          (None, 400)               0         
_________________________________________________________________
dense_2 (Dense)              (None, 1)                 401       
=================================================================
Total params: 4,161,201
Trainable params: 4,161,201
Non-trainable params: 0
_________________________________________________________________
None
Red
0.039363860849942145
Typer KerasRegressor
Hello world
{'learning_rate': 0.001, 'batch_size': 16, 'rate': 0.5, 'HP_L1_REG': 0.0001, 'activation': 'tanh', 'kernel_initializer': 'glorot_uniform', 'HP_L2_REG': 0.01, 'HP_OPTIMIZER': 'Adagrad', 'epochs': 200, 'HP_NUM_HIDDEN_LAYERS': 2, 'units': 200}
Blue
Model: "sequential"
_________________________________________________________________
Layer (type)                 Output Shape              Param #   
=================================================================
dense (Dense)                (None, 200)               2000200   
_________________________________________________________________
dropout (Dropout)            (None, 200)               0         
_________________________________________________________________
dense_1 (Dense)              (None, 200)               40200     
_________________________________________________________________
dropout_1 (Dropout)          (None, 200)               0         
_________________________________________________________________
dense_2 (Dense)              (None, 1)                 201       
=================================================================
Total params: 2,040,601
Trainable params: 2,040,601
Non-trainable params: 0
_________________________________________________________________
None
Red
0.30243195198104356
Typer KerasRegressor
Hello world
{'learning_rate': 0.001, 'batch_size': 64, 'rate': 0.0, 'HP_L1_REG': 0.001, 'activation': 'tanh', 'kernel_initializer': 'glorot_uniform', 'HP_L2_REG': 0.2, 'HP_OPTIMIZER': 'SGD', 'epochs': 200, 'HP_NUM_HIDDEN_LAYERS': 4, 'units': 1000}
Blue
Model: "sequential"
_________________________________________________________________
Layer (type)                 Output Shape              Param #   
=================================================================
dense (Dense)                (None, 1000)              10001000  
_________________________________________________________________
dense_1 (Dense)              (None, 1000)              1001000   
_________________________________________________________________
dense_2 (Dense)              (None, 1000)              1001000   
_________________________________________________________________
dense_3 (Dense)              (None, 1000)              1001000   
_________________________________________________________________
dense_4 (Dense)              (None, 1)                 1001      
=================================================================
Total params: 13,005,001
Trainable params: 13,005,001
Non-trainable params: 0
_________________________________________________________________
None
Red
0.3408260893020514
Typer KerasRegressor
Hello world
{'learning_rate': 0.01, 'batch_size': 16, 'rate': 0.5, 'HP_L1_REG': 0.1, 'activation': 'tanh', 'kernel_initializer': 'glorot_uniform', 'HP_L2_REG': 0.01, 'HP_OPTIMIZER': 'Adagrad', 'epochs': 100, 'HP_NUM_HIDDEN_LAYERS': 5, 'units': 400}
Blue
Model: "sequential"
_________________________________________________________________
Layer (type)                 Output Shape              Param #   
=================================================================
dense (Dense)                (None, 400)               4000400   
_________________________________________________________________
dropout (Dropout)            (None, 400)               0         
_________________________________________________________________
dense_1 (Dense)              (None, 400)               160400    
_________________________________________________________________
dropout_1 (Dropout)          (None, 400)               0         
_________________________________________________________________
dense_2 (Dense)              (None, 400)               160400    
_________________________________________________________________
dropout_2 (Dropout)          (None, 400)               0         
_________________________________________________________________
dense_3 (Dense)              (None, 400)               160400    
_________________________________________________________________
dropout_3 (Dropout)          (None, 400)               0         
_________________________________________________________________
dense_4 (Dense)              (None, 400)               160400    
_________________________________________________________________
dropout_4 (Dropout)          (None, 400)               0         
_________________________________________________________________
dense_5 (Dense)              (None, 1)                 401       
=================================================================
Total params: 4,642,401
Trainable params: 4,642,401
Non-trainable params: 0
_________________________________________________________________
None
Red
-0.015228427993926319
Typer KerasRegressor
Hello world
{'learning_rate': 0.0001, 'batch_size': 128, 'rate': 0.1, 'HP_L1_REG': 0.0001, 'activation': 'tanh', 'kernel_initializer': 'glorot_uniform', 'HP_L2_REG': 0.0001, 'HP_OPTIMIZER': 'Adagrad', 'epochs': 50, 'HP_NUM_HIDDEN_LAYERS': 5, 'units': 1000}
Blue
Model: "sequential"
_________________________________________________________________
Layer (type)                 Output Shape              Param #   
=================================================================
dense (Dense)                (None, 1000)              10001000  
_________________________________________________________________
dropout (Dropout)            (None, 1000)              0         
_________________________________________________________________
dense_1 (Dense)              (None, 1000)              1001000   
_________________________________________________________________
dropout_1 (Dropout)          (None, 1000)              0         
_________________________________________________________________
dense_2 (Dense)              (None, 1000)              1001000   
_________________________________________________________________
dropout_2 (Dropout)          (None, 1000)              0         
_________________________________________________________________
dense_3 (Dense)              (None, 1000)              1001000   
_________________________________________________________________
dropout_3 (Dropout)          (None, 1000)              0         
_________________________________________________________________
dense_4 (Dense)              (None, 1000)              1001000   
_________________________________________________________________
dropout_4 (Dropout)          (None, 1000)              0         
_________________________________________________________________
dense_5 (Dense)              (None, 1)                 1001      
=================================================================
Total params: 14,006,001
Trainable params: 14,006,001
Non-trainable params: 0
_________________________________________________________________
None
Red
0.20482010223544145
Typer KerasRegressor
Hello world
{'learning_rate': 0.001, 'batch_size': 64, 'rate': 0.1, 'HP_L1_REG': 0.1, 'activation': 'relu', 'kernel_initializer': 'glorot_uniform', 'HP_L2_REG': 0.0001, 'HP_OPTIMIZER': 'Adagrad', 'epochs': 100, 'HP_NUM_HIDDEN_LAYERS': 3, 'units': 1000}
Blue
Model: "sequential"
_________________________________________________________________
Layer (type)                 Output Shape              Param #   
=================================================================
dense (Dense)                (None, 1000)              10001000  
_________________________________________________________________
dropout (Dropout)            (None, 1000)              0         
_________________________________________________________________
dense_1 (Dense)              (None, 1000)              1001000   
_________________________________________________________________
dropout_1 (Dropout)          (None, 1000)              0         
_________________________________________________________________
dense_2 (Dense)              (None, 1000)              1001000   
_________________________________________________________________
dropout_2 (Dropout)          (None, 1000)              0         
_________________________________________________________________
dense_3 (Dense)              (None, 1)                 1001      
=================================================================
Total params: 12,004,001
Trainable params: 12,004,001
Non-trainable params: 0
_________________________________________________________________
None
Red
-0.011641069904542167
Typer KerasRegressor
Hello world
{'learning_rate': 0.0001, 'batch_size': 64, 'rate': 0.0, 'HP_L1_REG': 0.001, 'activation': 'relu', 'kernel_initializer': 'glorot_uniform', 'HP_L2_REG': 0.2, 'HP_OPTIMIZER': 'SGD', 'epochs': 50, 'HP_NUM_HIDDEN_LAYERS': 3, 'units': 200}
Blue
Model: "sequential"
_________________________________________________________________
Layer (type)                 Output Shape              Param #   
=================================================================
dense (Dense)                (None, 200)               2000200   
_________________________________________________________________
dense_1 (Dense)              (None, 200)               40200     
_________________________________________________________________
dense_2 (Dense)              (None, 200)               40200     
_________________________________________________________________
dense_3 (Dense)              (None, 1)                 201       
=================================================================
Total params: 2,080,801
Trainable params: 2,080,801
Non-trainable params: 0
_________________________________________________________________
None
Red
0.016014889340530636
Typer KerasRegressor
Hello world
{'learning_rate': 0.001, 'batch_size': 128, 'rate': 0.2, 'HP_L1_REG': 0.01, 'activation': 'tanh', 'kernel_initializer': 'glorot_uniform', 'HP_L2_REG': 0.2, 'HP_OPTIMIZER': 'Adagrad', 'epochs': 100, 'HP_NUM_HIDDEN_LAYERS': 2, 'units': 1000}
Blue
Model: "sequential"
_________________________________________________________________
Layer (type)                 Output Shape              Param #   
=================================================================
dense (Dense)                (None, 1000)              10001000  
_________________________________________________________________
dropout (Dropout)            (None, 1000)              0         
_________________________________________________________________
dense_1 (Dense)              (None, 1000)              1001000   
_________________________________________________________________
dropout_1 (Dropout)          (None, 1000)              0         
_________________________________________________________________
dense_2 (Dense)              (None, 1)                 1001      
=================================================================
Total params: 11,003,001
Trainable params: 11,003,001
Non-trainable params: 0
_________________________________________________________________
None
Red
0.18776769796336878
Typer KerasRegressor
Hello world
{'learning_rate': 0.0001, 'batch_size': 16, 'rate': 0.1, 'HP_L1_REG': 0.1, 'activation': 'relu', 'kernel_initializer': 'glorot_uniform', 'HP_L2_REG': 0.01, 'HP_OPTIMIZER': 'Adam', 'epochs': 50, 'HP_NUM_HIDDEN_LAYERS': 4, 'units': 200}
Blue
Model: "sequential"
_________________________________________________________________
Layer (type)                 Output Shape              Param #   
=================================================================
dense (Dense)                (None, 200)               2000200   
_________________________________________________________________
dropout (Dropout)            (None, 200)               0         
_________________________________________________________________
dense_1 (Dense)              (None, 200)               40200     
_________________________________________________________________
dropout_1 (Dropout)          (None, 200)               0         
_________________________________________________________________
dense_2 (Dense)              (None, 200)               40200     
_________________________________________________________________
dropout_2 (Dropout)          (None, 200)               0         
_________________________________________________________________
dense_3 (Dense)              (None, 200)               40200     
_________________________________________________________________
dropout_3 (Dropout)          (None, 200)               0         
_________________________________________________________________
dense_4 (Dense)              (None, 1)                 201       
=================================================================
Total params: 2,121,001
Trainable params: 2,121,001
Non-trainable params: 0
_________________________________________________________________
None
Red
-0.015092117140529382
Typer KerasRegressor
Hello world
{'learning_rate': 1e-05, 'batch_size': 128, 'rate': 0.2, 'HP_L1_REG': 0.01, 'activation': 'tanh', 'kernel_initializer': 'glorot_uniform', 'HP_L2_REG': 0.2, 'HP_OPTIMIZER': 'Adam', 'epochs': 200, 'HP_NUM_HIDDEN_LAYERS': 3, 'units': 400}
Blue
Model: "sequential"
_________________________________________________________________
Layer (type)                 Output Shape              Param #   
=================================================================
dense (Dense)                (None, 400)               4000400   
_________________________________________________________________
dropout (Dropout)            (None, 400)               0         
_________________________________________________________________
dense_1 (Dense)              (None, 400)               160400    
_________________________________________________________________
dropout_1 (Dropout)          (None, 400)               0         
_________________________________________________________________
dense_2 (Dense)              (None, 400)               160400    
_________________________________________________________________
dropout_2 (Dropout)          (None, 400)               0         
_________________________________________________________________
dense_3 (Dense)              (None, 1)                 401       
=================================================================
Total params: 4,321,601
Trainable params: 4,321,601
Non-trainable params: 0
_________________________________________________________________
None
Red
0.07759156890723673
Typer KerasRegressor
Hello world
{'learning_rate': 1e-05, 'batch_size': 64, 'rate': 0.0, 'HP_L1_REG': 0.0001, 'activation': 'tanh', 'kernel_initializer': 'glorot_uniform', 'HP_L2_REG': 0.01, 'HP_OPTIMIZER': 'Adagrad', 'epochs': 200, 'HP_NUM_HIDDEN_LAYERS': 4, 'units': 1000}
Blue
Model: "sequential"
_________________________________________________________________
Layer (type)                 Output Shape              Param #   
=================================================================
dense (Dense)                (None, 1000)              10001000  
_________________________________________________________________
dense_1 (Dense)              (None, 1000)              1001000   
_________________________________________________________________
dense_2 (Dense)              (None, 1000)              1001000   
_________________________________________________________________
dense_3 (Dense)              (None, 1000)              1001000   
_________________________________________________________________
dense_4 (Dense)              (None, 1)                 1001      
=================================================================
Total params: 13,005,001
Trainable params: 13,005,001
Non-trainable params: 0
_________________________________________________________________
None
Red
0.12301395894033107
Typer KerasRegressor
Hello world
{'learning_rate': 0.01, 'batch_size': 128, 'rate': 0.0, 'HP_L1_REG': 0.1, 'activation': 'relu', 'kernel_initializer': 'glorot_uniform', 'HP_L2_REG': 1e-08, 'HP_OPTIMIZER': 'Adagrad', 'epochs': 100, 'HP_NUM_HIDDEN_LAYERS': 5, 'units': 1000}
Blue
Model: "sequential"
_________________________________________________________________
Layer (type)                 Output Shape              Param #   
=================================================================
dense (Dense)                (None, 1000)              10001000  
_________________________________________________________________
dense_1 (Dense)              (None, 1000)              1001000   
_________________________________________________________________
dense_2 (Dense)              (None, 1000)              1001000   
_________________________________________________________________
dense_3 (Dense)              (None, 1000)              1001000   
_________________________________________________________________
dense_4 (Dense)              (None, 1000)              1001000   
_________________________________________________________________
dense_5 (Dense)              (None, 1)                 1001      
=================================================================
Total params: 14,006,001
Trainable params: 14,006,001
Non-trainable params: 0
_________________________________________________________________
None
Red
-0.016773400178729636
Typer KerasRegressor
Hello world
{'learning_rate': 1e-05, 'batch_size': 128, 'rate': 0.1, 'HP_L1_REG': 0.1, 'activation': 'relu', 'kernel_initializer': 'glorot_uniform', 'HP_L2_REG': 0.0001, 'HP_OPTIMIZER': 'Adagrad', 'epochs': 50, 'HP_NUM_HIDDEN_LAYERS': 2, 'units': 200}
Blue
Model: "sequential"
_________________________________________________________________
Layer (type)                 Output Shape              Param #   
=================================================================
dense (Dense)                (None, 200)               2000200   
_________________________________________________________________
dropout (Dropout)            (None, 200)               0         
_________________________________________________________________
dense_1 (Dense)              (None, 200)               40200     
_________________________________________________________________
dropout_1 (Dropout)          (None, 200)               0         
_________________________________________________________________
dense_2 (Dense)              (None, 1)                 201       
=================================================================
Total params: 2,040,601
Trainable params: 2,040,601
Non-trainable params: 0
_________________________________________________________________
None
Red
-0.10728788070123252
Typer KerasRegressor
Hello world
{'learning_rate': 0.0001, 'batch_size': 128, 'rate': 0.1, 'HP_L1_REG': 0.01, 'activation': 'relu', 'kernel_initializer': 'glorot_uniform', 'HP_L2_REG': 0.01, 'HP_OPTIMIZER': 'Adam', 'epochs': 200, 'HP_NUM_HIDDEN_LAYERS': 4, 'units': 1000}
Blue
Model: "sequential"
_________________________________________________________________
Layer (type)                 Output Shape              Param #   
=================================================================
dense (Dense)                (None, 1000)              10001000  
_________________________________________________________________
dropout (Dropout)            (None, 1000)              0         
_________________________________________________________________
dense_1 (Dense)              (None, 1000)              1001000   
_________________________________________________________________
dropout_1 (Dropout)          (None, 1000)              0         
_________________________________________________________________
dense_2 (Dense)              (None, 1000)              1001000   
_________________________________________________________________
dropout_2 (Dropout)          (None, 1000)              0         
_________________________________________________________________
dense_3 (Dense)              (None, 1000)              1001000   
_________________________________________________________________
dropout_3 (Dropout)          (None, 1000)              0         
_________________________________________________________________
dense_4 (Dense)              (None, 1)                 1001      
=================================================================
Total params: 13,005,001
Trainable params: 13,005,001
Non-trainable params: 0
_________________________________________________________________
None
Red
-0.0160688355121561
Typer KerasRegressor
Hello world
{'learning_rate': 0.001, 'batch_size': 64, 'rate': 0.1, 'HP_L1_REG': 0.1, 'activation': 'relu', 'kernel_initializer': 'glorot_uniform', 'HP_L2_REG': 0.0001, 'HP_OPTIMIZER': 'Adam', 'epochs': 200, 'HP_NUM_HIDDEN_LAYERS': 4, 'units': 400}
Blue
Model: "sequential"
_________________________________________________________________
Layer (type)                 Output Shape              Param #   
=================================================================
dense (Dense)                (None, 400)               4000400   
_________________________________________________________________
dropout (Dropout)            (None, 400)               0         
_________________________________________________________________
dense_1 (Dense)              (None, 400)               160400    
_________________________________________________________________
dropout_1 (Dropout)          (None, 400)               0         
_________________________________________________________________
dense_2 (Dense)              (None, 400)               160400    
_________________________________________________________________
dropout_2 (Dropout)          (None, 400)               0         
_________________________________________________________________
dense_3 (Dense)              (None, 400)               160400    
_________________________________________________________________
dropout_3 (Dropout)          (None, 400)               0         
_________________________________________________________________
dense_4 (Dense)              (None, 1)                 401       
=================================================================
Total params: 4,482,001
Trainable params: 4,482,001
Non-trainable params: 0
_________________________________________________________________
None
Red
-0.014591552514864103
Typer KerasRegressor
Hello world
{'learning_rate': 0.001, 'batch_size': 16, 'rate': 0.1, 'HP_L1_REG': 0.001, 'activation': 'relu', 'kernel_initializer': 'glorot_uniform', 'HP_L2_REG': 1e-08, 'HP_OPTIMIZER': 'Adam', 'epochs': 100, 'HP_NUM_HIDDEN_LAYERS': 2, 'units': 1000}
Blue
Model: "sequential"
_________________________________________________________________
Layer (type)                 Output Shape              Param #   
=================================================================
dense (Dense)                (None, 1000)              10001000  
_________________________________________________________________
dropout (Dropout)            (None, 1000)              0         
_________________________________________________________________
dense_1 (Dense)              (None, 1000)              1001000   
_________________________________________________________________
dropout_1 (Dropout)          (None, 1000)              0         
_________________________________________________________________
dense_2 (Dense)              (None, 1)                 1001      
=================================================================
Total params: 11,003,001
Trainable params: 11,003,001
Non-trainable params: 0
_________________________________________________________________
None
Red
0.17703394573887876
Typer KerasRegressor
Hello world
{'learning_rate': 1e-05, 'batch_size': 16, 'rate': 0.2, 'HP_L1_REG': 0.001, 'activation': 'relu', 'kernel_initializer': 'glorot_uniform', 'HP_L2_REG': 0.0001, 'HP_OPTIMIZER': 'SGD', 'epochs': 50, 'HP_NUM_HIDDEN_LAYERS': 4, 'units': 200}
Blue
Model: "sequential"
_________________________________________________________________
Layer (type)                 Output Shape              Param #   
=================================================================
dense (Dense)                (None, 200)               2000200   
_________________________________________________________________
dropout (Dropout)            (None, 200)               0         
_________________________________________________________________
dense_1 (Dense)              (None, 200)               40200     
_________________________________________________________________
dropout_1 (Dropout)          (None, 200)               0         
_________________________________________________________________
dense_2 (Dense)              (None, 200)               40200     
_________________________________________________________________
dropout_2 (Dropout)          (None, 200)               0         
_________________________________________________________________
dense_3 (Dense)              (None, 200)               40200     
_________________________________________________________________
dropout_3 (Dropout)          (None, 200)               0         
_________________________________________________________________
dense_4 (Dense)              (None, 1)                 201       
=================================================================
Total params: 2,121,001
Trainable params: 2,121,001
Non-trainable params: 0
_________________________________________________________________
None
Red
0.00529906004606584
Typer KerasRegressor
Hello world
{'learning_rate': 1e-05, 'batch_size': 16, 'rate': 0.0, 'HP_L1_REG': 0.01, 'activation': 'relu', 'kernel_initializer': 'glorot_uniform', 'HP_L2_REG': 0.01, 'HP_OPTIMIZER': 'SGD', 'epochs': 100, 'HP_NUM_HIDDEN_LAYERS': 4, 'units': 400}
Blue
Model: "sequential"
_________________________________________________________________
Layer (type)                 Output Shape              Param #   
=================================================================
dense (Dense)                (None, 400)               4000400   
_________________________________________________________________
dense_1 (Dense)              (None, 400)               160400    
_________________________________________________________________
dense_2 (Dense)              (None, 400)               160400    
_________________________________________________________________
dense_3 (Dense)              (None, 400)               160400    
_________________________________________________________________
dense_4 (Dense)              (None, 1)                 401       
=================================================================
Total params: 4,482,001
Trainable params: 4,482,001
Non-trainable params: 0
_________________________________________________________________
None
Red
0.01123675624992726
Typer KerasRegressor
Hello world
{'learning_rate': 1e-05, 'batch_size': 128, 'rate': 0.5, 'HP_L1_REG': 0.0001, 'activation': 'relu', 'kernel_initializer': 'glorot_uniform', 'HP_L2_REG': 0.2, 'HP_OPTIMIZER': 'Adagrad', 'epochs': 50, 'HP_NUM_HIDDEN_LAYERS': 3, 'units': 1000}
Blue
Model: "sequential"
_________________________________________________________________
Layer (type)                 Output Shape              Param #   
=================================================================
dense (Dense)                (None, 1000)              10001000  
_________________________________________________________________
dropout (Dropout)            (None, 1000)              0         
_________________________________________________________________
dense_1 (Dense)              (None, 1000)              1001000   
_________________________________________________________________
dropout_1 (Dropout)          (None, 1000)              0         
_________________________________________________________________
dense_2 (Dense)              (None, 1000)              1001000   
_________________________________________________________________
dropout_2 (Dropout)          (None, 1000)              0         
_________________________________________________________________
dense_3 (Dense)              (None, 1)                 1001      
=================================================================
Total params: 12,004,001
Trainable params: 12,004,001
Non-trainable params: 0
_________________________________________________________________
None
Red
-0.022731994119242538
Typer KerasRegressor
Hello world
{'learning_rate': 0.0001, 'batch_size': 128, 'rate': 0.0, 'HP_L1_REG': 0.0001, 'activation': 'tanh', 'kernel_initializer': 'glorot_uniform', 'HP_L2_REG': 1e-08, 'HP_OPTIMIZER': 'Adagrad', 'epochs': 200, 'HP_NUM_HIDDEN_LAYERS': 2, 'units': 1000}
Blue
Model: "sequential"
_________________________________________________________________
Layer (type)                 Output Shape              Param #   
=================================================================
dense (Dense)                (None, 1000)              10001000  
_________________________________________________________________
dense_1 (Dense)              (None, 1000)              1001000   
_________________________________________________________________
dense_2 (Dense)              (None, 1)                 1001      
=================================================================
Total params: 11,003,001
Trainable params: 11,003,001
Non-trainable params: 0
_________________________________________________________________
None
Red
0.2894356815129989
Typer KerasRegressor
Hello world
{'learning_rate': 0.01, 'batch_size': 16, 'rate': 0.2, 'HP_L1_REG': 0.1, 'activation': 'tanh', 'kernel_initializer': 'glorot_uniform', 'HP_L2_REG': 0.01, 'HP_OPTIMIZER': 'SGD', 'epochs': 100, 'HP_NUM_HIDDEN_LAYERS': 2, 'units': 1000}
Blue
Model: "sequential"
_________________________________________________________________
Layer (type)                 Output Shape              Param #   
=================================================================
dense (Dense)                (None, 1000)              10001000  
_________________________________________________________________
dropout (Dropout)            (None, 1000)              0         
_________________________________________________________________
dense_1 (Dense)              (None, 1000)              1001000   
_________________________________________________________________
dropout_1 (Dropout)          (None, 1000)              0         
_________________________________________________________________
dense_2 (Dense)              (None, 1)                 1001      
=================================================================
Total params: 11,003,001
Trainable params: 11,003,001
Non-trainable params: 0
_________________________________________________________________
None
Red
-0.011197017585257596
Typer KerasRegressor
Hello world
{'learning_rate': 0.001, 'batch_size': 64, 'rate': 0.1, 'HP_L1_REG': 0.0001, 'activation': 'relu', 'kernel_initializer': 'glorot_uniform', 'HP_L2_REG': 0.0001, 'HP_OPTIMIZER': 'Adagrad', 'epochs': 100, 'HP_NUM_HIDDEN_LAYERS': 4, 'units': 200}
Blue
Model: "sequential"
_________________________________________________________________
Layer (type)                 Output Shape              Param #   
=================================================================
dense (Dense)                (None, 200)               2000200   
_________________________________________________________________
dropout (Dropout)            (None, 200)               0         
_________________________________________________________________
dense_1 (Dense)              (None, 200)               40200     
_________________________________________________________________
dropout_1 (Dropout)          (None, 200)               0         
_________________________________________________________________
dense_2 (Dense)              (None, 200)               40200     
_________________________________________________________________
dropout_2 (Dropout)          (None, 200)               0         
_________________________________________________________________
dense_3 (Dense)              (None, 200)               40200     
_________________________________________________________________
dropout_3 (Dropout)          (None, 200)               0         
_________________________________________________________________
dense_4 (Dense)              (None, 1)                 201       
=================================================================
Total params: 2,121,001
Trainable params: 2,121,001
Non-trainable params: 0
_________________________________________________________________
None
Red
0.3370598207858949
Typer KerasRegressor
Hello world
{'learning_rate': 1e-05, 'batch_size': 128, 'rate': 0.5, 'HP_L1_REG': 0.1, 'activation': 'tanh', 'kernel_initializer': 'glorot_uniform', 'HP_L2_REG': 0.01, 'HP_OPTIMIZER': 'Adam', 'epochs': 50, 'HP_NUM_HIDDEN_LAYERS': 2, 'units': 400}
Blue
Model: "sequential"
_________________________________________________________________
Layer (type)                 Output Shape              Param #   
=================================================================
dense (Dense)                (None, 400)               4000400   
_________________________________________________________________
dropout (Dropout)            (None, 400)               0         
_________________________________________________________________
dense_1 (Dense)              (None, 400)               160400    
_________________________________________________________________
dropout_1 (Dropout)          (None, 400)               0         
_________________________________________________________________
dense_2 (Dense)              (None, 1)                 401       
=================================================================
Total params: 4,161,201
Trainable params: 4,161,201
Non-trainable params: 0
_________________________________________________________________
None
Red
-0.015412690952215424
Typer KerasRegressor
Hello world
{'learning_rate': 0.0001, 'batch_size': 128, 'rate': 0.5, 'HP_L1_REG': 0.01, 'activation': 'tanh', 'kernel_initializer': 'glorot_uniform', 'HP_L2_REG': 1e-08, 'HP_OPTIMIZER': 'Adagrad', 'epochs': 50, 'HP_NUM_HIDDEN_LAYERS': 5, 'units': 200}
Blue
Model: "sequential"
_________________________________________________________________
Layer (type)                 Output Shape              Param #   
=================================================================
dense (Dense)                (None, 200)               2000200   
_________________________________________________________________
dropout (Dropout)            (None, 200)               0         
_________________________________________________________________
dense_1 (Dense)              (None, 200)               40200     
_________________________________________________________________
dropout_1 (Dropout)          (None, 200)               0         
_________________________________________________________________
dense_2 (Dense)              (None, 200)               40200     
_________________________________________________________________
dropout_2 (Dropout)          (None, 200)               0         
_________________________________________________________________
dense_3 (Dense)              (None, 200)               40200     
_________________________________________________________________
dropout_3 (Dropout)          (None, 200)               0         
_________________________________________________________________
dense_4 (Dense)              (None, 200)               40200     
_________________________________________________________________
dropout_4 (Dropout)          (None, 200)               0         
_________________________________________________________________
dense_5 (Dense)              (None, 1)                 201       
=================================================================
Total params: 2,161,201
Trainable params: 2,161,201
Non-trainable params: 0
_________________________________________________________________
None
Red
-0.1272938293129111
Typer KerasRegressor
Hello world
{'learning_rate': 0.01, 'batch_size': 128, 'rate': 0.1, 'HP_L1_REG': 0.1, 'activation': 'tanh', 'kernel_initializer': 'glorot_uniform', 'HP_L2_REG': 0.01, 'HP_OPTIMIZER': 'SGD', 'epochs': 200, 'HP_NUM_HIDDEN_LAYERS': 5, 'units': 1000}
Blue
Model: "sequential"
_________________________________________________________________
Layer (type)                 Output Shape              Param #   
=================================================================
dense (Dense)                (None, 1000)              10001000  
_________________________________________________________________
dropout (Dropout)            (None, 1000)              0         
_________________________________________________________________
dense_1 (Dense)              (None, 1000)              1001000   
_________________________________________________________________
dropout_1 (Dropout)          (None, 1000)              0         
_________________________________________________________________
dense_2 (Dense)              (None, 1000)              1001000   
_________________________________________________________________
dropout_2 (Dropout)          (None, 1000)              0         
_________________________________________________________________
dense_3 (Dense)              (None, 1000)              1001000   
_________________________________________________________________
dropout_3 (Dropout)          (None, 1000)              0         
_________________________________________________________________
dense_4 (Dense)              (None, 1000)              1001000   
_________________________________________________________________
dropout_4 (Dropout)          (None, 1000)              0         
_________________________________________________________________
dense_5 (Dense)              (None, 1)                 1001      
=================================================================
Total params: 14,006,001
Trainable params: 14,006,001
Non-trainable params: 0
_________________________________________________________________
None
Red
-0.01742998489036207
Typer KerasRegressor
Hello world
{'learning_rate': 1e-05, 'batch_size': 64, 'rate': 0.5, 'HP_L1_REG': 0.001, 'activation': 'relu', 'kernel_initializer': 'glorot_uniform', 'HP_L2_REG': 0.0001, 'HP_OPTIMIZER': 'Adam', 'epochs': 100, 'HP_NUM_HIDDEN_LAYERS': 2, 'units': 1000}
Blue
Model: "sequential"
_________________________________________________________________
Layer (type)                 Output Shape              Param #   
=================================================================
dense (Dense)                (None, 1000)              10001000  
_________________________________________________________________
dropout (Dropout)            (None, 1000)              0         
_________________________________________________________________
dense_1 (Dense)              (None, 1000)              1001000   
_________________________________________________________________
dropout_1 (Dropout)          (None, 1000)              0         
_________________________________________________________________
dense_2 (Dense)              (None, 1)                 1001      
=================================================================
Total params: 11,003,001
Trainable params: 11,003,001
Non-trainable params: 0
_________________________________________________________________
None
Red
0.3891642004007516
Typer KerasRegressor
Hello world
{'learning_rate': 0.01, 'batch_size': 64, 'rate': 0.2, 'HP_L1_REG': 0.001, 'activation': 'tanh', 'kernel_initializer': 'glorot_uniform', 'HP_L2_REG': 1e-08, 'HP_OPTIMIZER': 'SGD', 'epochs': 200, 'HP_NUM_HIDDEN_LAYERS': 2, 'units': 400}
Blue
Model: "sequential"
_________________________________________________________________
Layer (type)                 Output Shape              Param #   
=================================================================
dense (Dense)                (None, 400)               4000400   
_________________________________________________________________
dropout (Dropout)            (None, 400)               0         
_________________________________________________________________
dense_1 (Dense)              (None, 400)               160400    
_________________________________________________________________
dropout_1 (Dropout)          (None, 400)               0         
_________________________________________________________________
dense_2 (Dense)              (None, 1)                 401       
=================================================================
Total params: 4,161,201
Trainable params: 4,161,201
Non-trainable params: 0
_________________________________________________________________
None
Red
0.1682676678945133
Typer KerasRegressor
Hello world
{'learning_rate': 0.0001, 'batch_size': 128, 'rate': 0.2, 'HP_L1_REG': 0.0001, 'activation': 'relu', 'kernel_initializer': 'glorot_uniform', 'HP_L2_REG': 1e-08, 'HP_OPTIMIZER': 'SGD', 'epochs': 50, 'HP_NUM_HIDDEN_LAYERS': 3, 'units': 400}
Blue
Model: "sequential"
_________________________________________________________________
Layer (type)                 Output Shape              Param #   
=================================================================
dense (Dense)                (None, 400)               4000400   
_________________________________________________________________
dropout (Dropout)            (None, 400)               0         
_________________________________________________________________
dense_1 (Dense)              (None, 400)               160400    
_________________________________________________________________
dropout_1 (Dropout)          (None, 400)               0         
_________________________________________________________________
dense_2 (Dense)              (None, 400)               160400    
_________________________________________________________________
dropout_2 (Dropout)          (None, 400)               0         
_________________________________________________________________
dense_3 (Dense)              (None, 1)                 401       
=================================================================
Total params: 4,321,601
Trainable params: 4,321,601
Non-trainable params: 0
_________________________________________________________________
None
Red
-0.021419276866997183
Typer KerasRegressor
Hello world
{'learning_rate': 0.01, 'batch_size': 64, 'rate': 0.1, 'HP_L1_REG': 0.001, 'activation': 'relu', 'kernel_initializer': 'glorot_uniform', 'HP_L2_REG': 0.0001, 'HP_OPTIMIZER': 'Adam', 'epochs': 200, 'HP_NUM_HIDDEN_LAYERS': 2, 'units': 400}
Blue
Model: "sequential"
_________________________________________________________________
Layer (type)                 Output Shape              Param #   
=================================================================
dense (Dense)                (None, 400)               4000400   
_________________________________________________________________
dropout (Dropout)            (None, 400)               0         
_________________________________________________________________
dense_1 (Dense)              (None, 400)               160400    
_________________________________________________________________
dropout_1 (Dropout)          (None, 400)               0         
_________________________________________________________________
dense_2 (Dense)              (None, 1)                 401       
=================================================================
Total params: 4,161,201
Trainable params: 4,161,201
Non-trainable params: 0
_________________________________________________________________
None
Red
0.024711789279762475
Typer KerasRegressor
Hello world
{'learning_rate': 1e-05, 'batch_size': 64, 'rate': 0.0, 'HP_L1_REG': 0.0001, 'activation': 'relu', 'kernel_initializer': 'glorot_uniform', 'HP_L2_REG': 0.2, 'HP_OPTIMIZER': 'SGD', 'epochs': 50, 'HP_NUM_HIDDEN_LAYERS': 3, 'units': 400}
Blue
Model: "sequential"
_________________________________________________________________
Layer (type)                 Output Shape              Param #   
=================================================================
dense (Dense)                (None, 400)               4000400   
_________________________________________________________________
dense_1 (Dense)              (None, 400)               160400    
_________________________________________________________________
dense_2 (Dense)              (None, 400)               160400    
_________________________________________________________________
dense_3 (Dense)              (None, 1)                 401       
=================================================================
Total params: 4,321,601
Trainable params: 4,321,601
Non-trainable params: 0
_________________________________________________________________
None
Red
-0.022223549039268153
Typer KerasRegressor
Hello world
{'learning_rate': 0.0001, 'batch_size': 64, 'rate': 0.0, 'HP_L1_REG': 0.1, 'activation': 'tanh', 'kernel_initializer': 'glorot_uniform', 'HP_L2_REG': 1e-08, 'HP_OPTIMIZER': 'Adagrad', 'epochs': 100, 'HP_NUM_HIDDEN_LAYERS': 2, 'units': 1000}
Blue
Model: "sequential"
_________________________________________________________________
Layer (type)                 Output Shape              Param #   
=================================================================
dense (Dense)                (None, 1000)              10001000  
_________________________________________________________________
dense_1 (Dense)              (None, 1000)              1001000   
_________________________________________________________________
dense_2 (Dense)              (None, 1)                 1001      
=================================================================
Total params: 11,003,001
Trainable params: 11,003,001
Non-trainable params: 0
_________________________________________________________________
None
Red
0.05740315929039852
Typer KerasRegressor
Hello world
{'learning_rate': 0.001, 'batch_size': 128, 'rate': 0.0, 'HP_L1_REG': 0.0001, 'activation': 'relu', 'kernel_initializer': 'glorot_uniform', 'HP_L2_REG': 0.0001, 'HP_OPTIMIZER': 'Adam', 'epochs': 50, 'HP_NUM_HIDDEN_LAYERS': 5, 'units': 400}
Blue
Model: "sequential"
_________________________________________________________________
Layer (type)                 Output Shape              Param #   
=================================================================
dense (Dense)                (None, 400)               4000400   
_________________________________________________________________
dense_1 (Dense)              (None, 400)               160400    
_________________________________________________________________
dense_2 (Dense)              (None, 400)               160400    
_________________________________________________________________
dense_3 (Dense)              (None, 400)               160400    
_________________________________________________________________
dense_4 (Dense)              (None, 400)               160400    
_________________________________________________________________
dense_5 (Dense)              (None, 1)                 401       
=================================================================
Total params: 4,642,401
Trainable params: 4,642,401
Non-trainable params: 0
_________________________________________________________________
None
Red
0.3306684696958885
Typer KerasRegressor
Hello world
{'learning_rate': 0.0001, 'batch_size': 16, 'rate': 0.1, 'HP_L1_REG': 0.1, 'activation': 'relu', 'kernel_initializer': 'glorot_uniform', 'HP_L2_REG': 0.01, 'HP_OPTIMIZER': 'SGD', 'epochs': 100, 'HP_NUM_HIDDEN_LAYERS': 2, 'units': 400}
Blue
Model: "sequential"
_________________________________________________________________
Layer (type)                 Output Shape              Param #   
=================================================================
dense (Dense)                (None, 400)               4000400   
_________________________________________________________________
dropout (Dropout)            (None, 400)               0         
_________________________________________________________________
dense_1 (Dense)              (None, 400)               160400    
_________________________________________________________________
dropout_1 (Dropout)          (None, 400)               0         
_________________________________________________________________
dense_2 (Dense)              (None, 1)                 401       
=================================================================
Total params: 4,161,201
Trainable params: 4,161,201
Non-trainable params: 0
_________________________________________________________________
None
Red
-0.000594059698511451
Typer KerasRegressor
Hello world
{'learning_rate': 0.01, 'batch_size': 16, 'rate': 0.2, 'HP_L1_REG': 0.001, 'activation': 'tanh', 'kernel_initializer': 'glorot_uniform', 'HP_L2_REG': 1e-08, 'HP_OPTIMIZER': 'SGD', 'epochs': 50, 'HP_NUM_HIDDEN_LAYERS': 5, 'units': 1000}
Blue
Model: "sequential"
_________________________________________________________________
Layer (type)                 Output Shape              Param #   
=================================================================
dense (Dense)                (None, 1000)              10001000  
_________________________________________________________________
dropout (Dropout)            (None, 1000)              0         
_________________________________________________________________
dense_1 (Dense)              (None, 1000)              1001000   
_________________________________________________________________
dropout_1 (Dropout)          (None, 1000)              0         
_________________________________________________________________
dense_2 (Dense)              (None, 1000)              1001000   
_________________________________________________________________
dropout_2 (Dropout)          (None, 1000)              0         
_________________________________________________________________
dense_3 (Dense)              (None, 1000)              1001000   
_________________________________________________________________
dropout_3 (Dropout)          (None, 1000)              0         
_________________________________________________________________
dense_4 (Dense)              (None, 1000)              1001000   
_________________________________________________________________
dropout_4 (Dropout)          (None, 1000)              0         
_________________________________________________________________
dense_5 (Dense)              (None, 1)                 1001      
=================================================================
Total params: 14,006,001
Trainable params: 14,006,001
Non-trainable params: 0
_________________________________________________________________
None
Red
0.29524502553274823
Typer KerasRegressor
Hello world
{'learning_rate': 0.01, 'batch_size': 64, 'rate': 0.5, 'HP_L1_REG': 0.1, 'activation': 'relu', 'kernel_initializer': 'glorot_uniform', 'HP_L2_REG': 0.2, 'HP_OPTIMIZER': 'Adam', 'epochs': 200, 'HP_NUM_HIDDEN_LAYERS': 3, 'units': 200}
Blue
Model: "sequential"
_________________________________________________________________
Layer (type)                 Output Shape              Param #   
=================================================================
dense (Dense)                (None, 200)               2000200   
_________________________________________________________________
dropout (Dropout)            (None, 200)               0         
_________________________________________________________________
dense_1 (Dense)              (None, 200)               40200     
_________________________________________________________________
dropout_1 (Dropout)          (None, 200)               0         
_________________________________________________________________
dense_2 (Dense)              (None, 200)               40200     
_________________________________________________________________
dropout_2 (Dropout)          (None, 200)               0         
_________________________________________________________________
dense_3 (Dense)              (None, 1)                 201       
=================================================================
Total params: 2,080,801
Trainable params: 2,080,801
Non-trainable params: 0
_________________________________________________________________
None
Red
-0.01608676109408602
Typer KerasRegressor
Hello world
{'learning_rate': 0.01, 'batch_size': 16, 'rate': 0.1, 'HP_L1_REG': 0.001, 'activation': 'tanh', 'kernel_initializer': 'glorot_uniform', 'HP_L2_REG': 0.0001, 'HP_OPTIMIZER': 'Adagrad', 'epochs': 200, 'HP_NUM_HIDDEN_LAYERS': 3, 'units': 1000}
Blue
Model: "sequential"
_________________________________________________________________
Layer (type)                 Output Shape              Param #   
=================================================================
dense (Dense)                (None, 1000)              10001000  
_________________________________________________________________
dropout (Dropout)            (None, 1000)              0         
_________________________________________________________________
dense_1 (Dense)              (None, 1000)              1001000   
_________________________________________________________________
dropout_1 (Dropout)          (None, 1000)              0         
_________________________________________________________________
dense_2 (Dense)              (None, 1000)              1001000   
_________________________________________________________________
dropout_2 (Dropout)          (None, 1000)              0         
_________________________________________________________________
dense_3 (Dense)              (None, 1)                 1001      
=================================================================
Total params: 12,004,001
Trainable params: 12,004,001
Non-trainable params: 0
_________________________________________________________________
None
Red
0.07698919054185394
Typer KerasRegressor
Hello world
{'learning_rate': 0.001, 'batch_size': 128, 'rate': 0.1, 'HP_L1_REG': 0.1, 'activation': 'relu', 'kernel_initializer': 'glorot_uniform', 'HP_L2_REG': 0.01, 'HP_OPTIMIZER': 'SGD', 'epochs': 200, 'HP_NUM_HIDDEN_LAYERS': 4, 'units': 400}
Blue
Model: "sequential"
_________________________________________________________________
Layer (type)                 Output Shape              Param #   
=================================================================
dense (Dense)                (None, 400)               4000400   
_________________________________________________________________
dropout (Dropout)            (None, 400)               0         
_________________________________________________________________
dense_1 (Dense)              (None, 400)               160400    
_________________________________________________________________
dropout_1 (Dropout)          (None, 400)               0         
_________________________________________________________________
dense_2 (Dense)              (None, 400)               160400    
_________________________________________________________________
dropout_2 (Dropout)          (None, 400)               0         
_________________________________________________________________
dense_3 (Dense)              (None, 400)               160400    
_________________________________________________________________
dropout_3 (Dropout)          (None, 400)               0         
_________________________________________________________________
dense_4 (Dense)              (None, 1)                 401       
=================================================================
Total params: 4,482,001
Trainable params: 4,482,001
Non-trainable params: 0
_________________________________________________________________
None
Red
-0.0087059546753816
Typer KerasRegressor
Hello world
{'learning_rate': 0.0001, 'batch_size': 128, 'rate': 0.5, 'HP_L1_REG': 0.001, 'activation': 'tanh', 'kernel_initializer': 'glorot_uniform', 'HP_L2_REG': 0.01, 'HP_OPTIMIZER': 'Adagrad', 'epochs': 100, 'HP_NUM_HIDDEN_LAYERS': 3, 'units': 400}
Blue
Model: "sequential"
_________________________________________________________________
Layer (type)                 Output Shape              Param #   
=================================================================
dense (Dense)                (None, 400)               4000400   
_________________________________________________________________
dropout (Dropout)            (None, 400)               0         
_________________________________________________________________
dense_1 (Dense)              (None, 400)               160400    
_________________________________________________________________
dropout_1 (Dropout)          (None, 400)               0         
_________________________________________________________________
dense_2 (Dense)              (None, 400)               160400    
_________________________________________________________________
dropout_2 (Dropout)          (None, 400)               0         
_________________________________________________________________
dense_3 (Dense)              (None, 1)                 401       
=================================================================
Total params: 4,321,601
Trainable params: 4,321,601
Non-trainable params: 0
_________________________________________________________________
None
Red
0.21192569442136533
Typer KerasRegressor
Hello world
{'learning_rate': 0.0001, 'batch_size': 128, 'rate': 0.1, 'HP_L1_REG': 0.001, 'activation': 'tanh', 'kernel_initializer': 'glorot_uniform', 'HP_L2_REG': 0.0001, 'HP_OPTIMIZER': 'Adam', 'epochs': 50, 'HP_NUM_HIDDEN_LAYERS': 4, 'units': 1000}
Blue
Model: "sequential"
_________________________________________________________________
Layer (type)                 Output Shape              Param #   
=================================================================
dense (Dense)                (None, 1000)              10001000  
_________________________________________________________________
dropout (Dropout)            (None, 1000)              0         
_________________________________________________________________
dense_1 (Dense)              (None, 1000)              1001000   
_________________________________________________________________
dropout_1 (Dropout)          (None, 1000)              0         
_________________________________________________________________
dense_2 (Dense)              (None, 1000)              1001000   
_________________________________________________________________
dropout_2 (Dropout)          (None, 1000)              0         
_________________________________________________________________
dense_3 (Dense)              (None, 1000)              1001000   
_________________________________________________________________
dropout_3 (Dropout)          (None, 1000)              0         
_________________________________________________________________
dense_4 (Dense)              (None, 1)                 1001      
=================================================================
Total params: 13,005,001
Trainable params: 13,005,001
Non-trainable params: 0
_________________________________________________________________
None
Red
0.1498589439884792
Typer KerasRegressor
Hello world
{'learning_rate': 0.001, 'batch_size': 128, 'rate': 0.2, 'HP_L1_REG': 0.01, 'activation': 'relu', 'kernel_initializer': 'glorot_uniform', 'HP_L2_REG': 0.0001, 'HP_OPTIMIZER': 'SGD', 'epochs': 100, 'HP_NUM_HIDDEN_LAYERS': 2, 'units': 400}
Blue
Model: "sequential"
_________________________________________________________________
Layer (type)                 Output Shape              Param #   
=================================================================
dense (Dense)                (None, 400)               4000400   
_________________________________________________________________
dropout (Dropout)            (None, 400)               0         
_________________________________________________________________
dense_1 (Dense)              (None, 400)               160400    
_________________________________________________________________
dropout_1 (Dropout)          (None, 400)               0         
_________________________________________________________________
dense_2 (Dense)              (None, 1)                 401       
=================================================================
Total params: 4,161,201
Trainable params: 4,161,201
Non-trainable params: 0
_________________________________________________________________
None
Red
0.17548550224419368
Typer KerasRegressor
Hello world
{'learning_rate': 0.0001, 'batch_size': 64, 'rate': 0.2, 'HP_L1_REG': 0.0001, 'activation': 'tanh', 'kernel_initializer': 'glorot_uniform', 'HP_L2_REG': 0.0001, 'HP_OPTIMIZER': 'Adagrad', 'epochs': 100, 'HP_NUM_HIDDEN_LAYERS': 4, 'units': 200}
Blue
Model: "sequential"
_________________________________________________________________
Layer (type)                 Output Shape              Param #   
=================================================================
dense (Dense)                (None, 200)               2000200   
_________________________________________________________________
dropout (Dropout)            (None, 200)               0         
_________________________________________________________________
dense_1 (Dense)              (None, 200)               40200     
_________________________________________________________________
dropout_1 (Dropout)          (None, 200)               0         
_________________________________________________________________
dense_2 (Dense)              (None, 200)               40200     
_________________________________________________________________
dropout_2 (Dropout)          (None, 200)               0         
_________________________________________________________________
dense_3 (Dense)              (None, 200)               40200     
_________________________________________________________________
dropout_3 (Dropout)          (None, 200)               0         
_________________________________________________________________
dense_4 (Dense)              (None, 1)                 201       
=================================================================
Total params: 2,121,001
Trainable params: 2,121,001
Non-trainable params: 0
_________________________________________________________________
None
Red
0.2565472657712051
Typer KerasRegressor
Hello world
…
dense_3 (Dense)              (None, 1)                 401       
=================================================================
Total params: 4,321,601
Trainable params: 4,321,601
Non-trainable params: 0
_________________________________________________________________
None
Red
-0.018888007120612782
Typer KerasRegressor
Hello world
{'learning_rate': 1e-05, 'batch_size': 64, 'rate': 0.1, 'HP_L1_REG': 0.001, 'activation': 'relu', 'kernel_initializer': 'glorot_uniform', 'HP_L2_REG': 1e-08, 'HP_OPTIMIZER': 'SGD', 'epochs': 200, 'HP_NUM_HIDDEN_LAYERS': 4, 'units': 200}
Blue
Model: "sequential"
_________________________________________________________________
Layer (type)                 Output Shape              Param #   
=================================================================
dense (Dense)                (None, 200)               2000200   
_________________________________________________________________
dropout (Dropout)            (None, 200)               0         
_________________________________________________________________
dense_1 (Dense)              (None, 200)               40200     
_________________________________________________________________
dropout_1 (Dropout)          (None, 200)               0         
_________________________________________________________________
dense_2 (Dense)              (None, 200)               40200     
_________________________________________________________________
dropout_2 (Dropout)          (None, 200)               0         
_________________________________________________________________
dense_3 (Dense)              (None, 200)               40200     
_________________________________________________________________
dropout_3 (Dropout)          (None, 200)               0         
_________________________________________________________________
dense_4 (Dense)              (None, 1)                 201       
=================================================================
Total params: 2,121,001
Trainable params: 2,121,001
Non-trainable params: 0
_________________________________________________________________
None
Red
-0.009002921504716266
Typer KerasRegressor
Hello world
{'learning_rate': 0.0001, 'batch_size': 128, 'rate': 0.0, 'HP_L1_REG': 0.01, 'activation': 'relu', 'kernel_initializer': 'glorot_uniform', 'HP_L2_REG': 0.01, 'HP_OPTIMIZER': 'Adagrad', 'epochs': 200, 'HP_NUM_HIDDEN_LAYERS': 5, 'units': 400}
Blue
Model: "sequential"
_________________________________________________________________
Layer (type)                 Output Shape              Param #   
=================================================================
dense (Dense)                (None, 400)               4000400   
_________________________________________________________________
dense_1 (Dense)              (None, 400)               160400    
_________________________________________________________________
dense_2 (Dense)              (None, 400)               160400    
_________________________________________________________________
dense_3 (Dense)              (None, 400)               160400    
_________________________________________________________________
dense_4 (Dense)              (None, 400)               160400    
_________________________________________________________________
dense_5 (Dense)              (None, 1)                 401       
=================================================================
Total params: 4,642,401
Trainable params: 4,642,401
Non-trainable params: 0
_________________________________________________________________
None
Red
-0.009278222651843304
Typer KerasRegressor
Hello world
{'learning_rate': 0.001, 'batch_size': 16, 'rate': 0.1, 'HP_L1_REG': 0.1, 'activation': 'relu', 'kernel_initializer': 'glorot_uniform', 'HP_L2_REG': 1e-08, 'HP_OPTIMIZER': 'Adam', 'epochs': 50, 'HP_NUM_HIDDEN_LAYERS': 5, 'units': 1000}
Blue
Model: "sequential"
_________________________________________________________________
Layer (type)                 Output Shape              Param #   
=================================================================
dense (Dense)                (None, 1000)              10001000  
_________________________________________________________________
dropout (Dropout)            (None, 1000)              0         
_________________________________________________________________
dense_1 (Dense)              (None, 1000)              1001000   
_________________________________________________________________
dropout_1 (Dropout)          (None, 1000)              0         
_________________________________________________________________
dense_2 (Dense)              (None, 1000)              1001000   
_________________________________________________________________
dropout_2 (Dropout)          (None, 1000)              0         
_________________________________________________________________
dense_3 (Dense)              (None, 1000)              1001000   
_________________________________________________________________
dropout_3 (Dropout)          (None, 1000)              0         
_________________________________________________________________
dense_4 (Dense)              (None, 1000)              1001000   
_________________________________________________________________
dropout_4 (Dropout)          (None, 1000)              0         
_________________________________________________________________
dense_5 (Dense)              (None, 1)                 1001      
=================================================================
Total params: 14,006,001
Trainable params: 14,006,001
Non-trainable params: 0
_________________________________________________________________
None
Red
-0.048851087922181735
Typer KerasRegressor
Hello world
{'learning_rate': 0.0001, 'batch_size': 16, 'rate': 0.5, 'HP_L1_REG': 0.1, 'activation': 'tanh', 'kernel_initializer': 'glorot_uniform', 'HP_L2_REG': 0.01, 'HP_OPTIMIZER': 'Adagrad', 'epochs': 50, 'HP_NUM_HIDDEN_LAYERS': 5, 'units': 400}
Blue
Model: "sequential"
_________________________________________________________________
Layer (type)                 Output Shape              Param #   
=================================================================
dense (Dense)                (None, 400)               4000400   
_________________________________________________________________
dropout (Dropout)            (None, 400)               0         
_________________________________________________________________
dense_1 (Dense)              (None, 400)               160400    
_________________________________________________________________
dropout_1 (Dropout)          (None, 400)               0         
_________________________________________________________________
dense_2 (Dense)              (None, 400)               160400    
_________________________________________________________________
dropout_2 (Dropout)          (None, 400)               0         
_________________________________________________________________
dense_3 (Dense)              (None, 400)               160400    
_________________________________________________________________
dropout_3 (Dropout)          (None, 400)               0         
_________________________________________________________________
dense_4 (Dense)              (None, 400)               160400    
_________________________________________________________________
dropout_4 (Dropout)          (None, 400)               0         
_________________________________________________________________
dense_5 (Dense)              (None, 1)                 401       
=================================================================
Total params: 4,642,401
Trainable params: 4,642,401
Non-trainable params: 0
_________________________________________________________________
None
Red
-0.029754851909062463
Typer KerasRegressor
Hello world
OUTER COUNT NO.  3
/external_storage/ciaran/arabadopsis/FT10cv_new_10k/shuf
test_raw_plink_shuf_3_in_4_out.raw
Set size set to 10000
Set size set to 10000
Model: "sequential"
_________________________________________________________________
Layer (type)                 Output Shape              Param #   
=================================================================
dense (Dense)                (None, 400)               4000400   
_________________________________________________________________
dense_1 (Dense)              (None, 400)               160400    
_________________________________________________________________
dense_2 (Dense)              (None, 1)                 401       
=================================================================
Total params: 4,161,201
Trainable params: 4,161,201
Non-trainable params: 0
_________________________________________________________________
None
0.5466377430698826
INNER COUNT NO.  1
/external_storage/ciaran/arabadopsis/FT10cv_new_10k/shuf
test_raw_plink_shuf_4_in_1_in.raw
Set size set to 10000
Set size set to 10000
{'learning_rate': 0.0001, 'batch_size': 128, 'rate': 0.1, 'HP_L1_REG': 0.001, 'activation': 'relu', 'kernel_initializer': 'glorot_uniform', 'HP_L2_REG': 0.01, 'HP_OPTIMIZER': 'Adagrad', 'epochs': 200, 'HP_NUM_HIDDEN_LAYERS': 3, 'units': 1000}
Blue
Model: "sequential_1"
_________________________________________________________________
Layer (type)                 Output Shape              Param #   
=================================================================
dense_3 (Dense)              (None, 1000)              10001000  
_________________________________________________________________
dropout (Dropout)            (None, 1000)              0         
_________________________________________________________________
dense_4 (Dense)              (None, 1000)              1001000   
_________________________________________________________________
dropout_1 (Dropout)          (None, 1000)              0         
_________________________________________________________________
dense_5 (Dense)              (None, 1000)              1001000   
_________________________________________________________________
dropout_2 (Dropout)          (None, 1000)              0         
_________________________________________________________________
dense_6 (Dense)              (None, 1)                 1001      
=================================================================
Total params: 12,004,001
Trainable params: 12,004,001
Non-trainable params: 0
_________________________________________________________________
None
Red
-0.004453675855254247
Typer KerasRegressor
Hello world
{'learning_rate': 1e-05, 'batch_size': 128, 'rate': 0.0, 'HP_L1_REG': 0.1, 'activation': 'relu', 'kernel_initializer': 'glorot_uniform', 'HP_L2_REG': 0.0001, 'HP_OPTIMIZER': 'SGD', 'epochs': 50, 'HP_NUM_HIDDEN_LAYERS': 3, 'units': 200}
Blue
Model: "sequential"
_________________________________________________________________
Layer (type)                 Output Shape              Param #   
=================================================================
dense (Dense)                (None, 200)               2000200   
_________________________________________________________________
dense_1 (Dense)              (None, 200)               40200     
_________________________________________________________________
dense_2 (Dense)              (None, 200)               40200     
_________________________________________________________________
dense_3 (Dense)              (None, 1)                 201       
=================================================================
Total params: 2,080,801
Trainable params: 2,080,801
Non-trainable params: 0
_________________________________________________________________
None
Red
-0.008855635227125624
Typer KerasRegressor
Hello world
{'learning_rate': 0.001, 'batch_size': 64, 'rate': 0.0, 'HP_L1_REG': 0.0001, 'activation': 'tanh', 'kernel_initializer': 'glorot_uniform', 'HP_L2_REG': 0.2, 'HP_OPTIMIZER': 'Adagrad', 'epochs': 200, 'HP_NUM_HIDDEN_LAYERS': 5, 'units': 1000}
Blue
Model: "sequential"
_________________________________________________________________
Layer (type)                 Output Shape              Param #   
=================================================================
dense (Dense)                (None, 1000)              10001000  
_________________________________________________________________
dense_1 (Dense)              (None, 1000)              1001000   
_________________________________________________________________
dense_2 (Dense)              (None, 1000)              1001000   
_________________________________________________________________
dense_3 (Dense)              (None, 1000)              1001000   
_________________________________________________________________
dense_4 (Dense)              (None, 1000)              1001000   
_________________________________________________________________
dense_5 (Dense)              (None, 1)                 1001      
=================================================================
Total params: 14,006,001
Trainable params: 14,006,001
Non-trainable params: 0
_________________________________________________________________
None
Red
0.34605245455396816
Typer KerasRegressor
Hello world
{'learning_rate': 1e-05, 'batch_size': 128, 'rate': 0.2, 'HP_L1_REG': 0.001, 'activation': 'relu', 'kernel_initializer': 'glorot_uniform', 'HP_L2_REG': 0.0001, 'HP_OPTIMIZER': 'Adam', 'epochs': 50, 'HP_NUM_HIDDEN_LAYERS': 4, 'units': 200}
Blue
Model: "sequential"
_________________________________________________________________
Layer (type)                 Output Shape              Param #   
=================================================================
dense (Dense)                (None, 200)               2000200   
_________________________________________________________________
dropout (Dropout)            (None, 200)               0         
_________________________________________________________________
dense_1 (Dense)              (None, 200)               40200     
_________________________________________________________________
dropout_1 (Dropout)          (None, 200)               0         
_________________________________________________________________
dense_2 (Dense)              (None, 200)               40200     
_________________________________________________________________
dropout_2 (Dropout)          (None, 200)               0         
_________________________________________________________________
dense_3 (Dense)              (None, 200)               40200     
_________________________________________________________________
dropout_3 (Dropout)          (None, 200)               0         
_________________________________________________________________
dense_4 (Dense)              (None, 1)                 201       
=================================================================
Total params: 2,121,001
Trainable params: 2,121,001
Non-trainable params: 0
_________________________________________________________________
None
Red
-0.02247348096795765
Typer KerasRegressor
Hello world
{'learning_rate': 0.0001, 'batch_size': 64, 'rate': 0.5, 'HP_L1_REG': 0.01, 'activation': 'relu', 'kernel_initializer': 'glorot_uniform', 'HP_L2_REG': 0.01, 'HP_OPTIMIZER': 'Adagrad', 'epochs': 100, 'HP_NUM_HIDDEN_LAYERS': 2, 'units': 400}
Blue
Model: "sequential"
_________________________________________________________________
Layer (type)                 Output Shape              Param #   
=================================================================
dense (Dense)                (None, 400)               4000400   
_________________________________________________________________
dropout (Dropout)            (None, 400)               0         
_________________________________________________________________
dense_1 (Dense)              (None, 400)               160400    
_________________________________________________________________
dropout_1 (Dropout)          (None, 400)               0         
_________________________________________________________________
dense_2 (Dense)              (None, 1)                 401       
=================================================================
Total params: 4,161,201
Trainable params: 4,161,201
Non-trainable params: 0
_________________________________________________________________
None
Red
0.036454523071141276
Typer KerasRegressor
Hello world
{'learning_rate': 0.01, 'batch_size': 64, 'rate': 0.2, 'HP_L1_REG': 0.001, 'activation': 'relu', 'kernel_initializer': 'glorot_uniform', 'HP_L2_REG': 0.01, 'HP_OPTIMIZER': 'Adam', 'epochs': 100, 'HP_NUM_HIDDEN_LAYERS': 3, 'units': 1000}
Blue
Model: "sequential"
_________________________________________________________________
Layer (type)                 Output Shape              Param #   
=================================================================
dense (Dense)                (None, 1000)              10001000  
_________________________________________________________________
dropout (Dropout)            (None, 1000)              0         
_________________________________________________________________
dense_1 (Dense)              (None, 1000)              1001000   
_________________________________________________________________
dropout_1 (Dropout)          (None, 1000)              0         
_________________________________________________________________
dense_2 (Dense)              (None, 1000)              1001000   
_________________________________________________________________
dropout_2 (Dropout)          (None, 1000)              0         
_________________________________________________________________
dense_3 (Dense)              (None, 1)                 1001      
=================================================================
Total params: 12,004,001
Trainable params: 12,004,001
Non-trainable params: 0
_________________________________________________________________
None
Red
-0.0665310358990372
Typer KerasRegressor
Hello world
{'learning_rate': 1e-05, 'batch_size': 16, 'rate': 0.0, 'HP_L1_REG': 0.1, 'activation': 'tanh', 'kernel_initializer': 'glorot_uniform', 'HP_L2_REG': 0.0001, 'HP_OPTIMIZER': 'Adam', 'epochs': 50, 'HP_NUM_HIDDEN_LAYERS': 5, 'units': 400}
Blue
Model: "sequential"
_________________________________________________________________
Layer (type)                 Output Shape              Param #   
=================================================================
dense (Dense)                (None, 400)               4000400   
_________________________________________________________________
dense_1 (Dense)              (None, 400)               160400    
_________________________________________________________________
dense_2 (Dense)              (None, 400)               160400    
_________________________________________________________________
dense_3 (Dense)              (None, 400)               160400    
_________________________________________________________________
dense_4 (Dense)              (None, 400)               160400    
_________________________________________________________________
dense_5 (Dense)              (None, 1)                 401       
=================================================================
Total params: 4,642,401
Trainable params: 4,642,401
Non-trainable params: 0
_________________________________________________________________
None
Red
-0.09047254017647721
Typer KerasRegressor
Hello world
{'learning_rate': 0.001, 'batch_size': 64, 'rate': 0.0, 'HP_L1_REG': 0.01, 'activation': 'tanh', 'kernel_initializer': 'glorot_uniform', 'HP_L2_REG': 1e-08, 'HP_OPTIMIZER': 'Adagrad', 'epochs': 50, 'HP_NUM_HIDDEN_LAYERS': 5, 'units': 200}
Blue
Model: "sequential"
_________________________________________________________________
Layer (type)                 Output Shape              Param #   
=================================================================
dense (Dense)                (None, 200)               2000200   
_________________________________________________________________
dense_1 (Dense)              (None, 200)               40200     
_________________________________________________________________
dense_2 (Dense)              (None, 200)               40200     
_________________________________________________________________
dense_3 (Dense)              (None, 200)               40200     
_________________________________________________________________
dense_4 (Dense)              (None, 200)               40200     
_________________________________________________________________
dense_5 (Dense)              (None, 1)                 201       
=================================================================
Total params: 2,161,201
Trainable params: 2,161,201
Non-trainable params: 0
_________________________________________________________________
None
Red
0.30093289750328944
Typer KerasRegressor
Hello world
{'learning_rate': 1e-05, 'batch_size': 64, 'rate': 0.2, 'HP_L1_REG': 0.01, 'activation': 'tanh', 'kernel_initializer': 'glorot_uniform', 'HP_L2_REG': 0.0001, 'HP_OPTIMIZER': 'SGD', 'epochs': 200, 'HP_NUM_HIDDEN_LAYERS': 2, 'units': 400}
Blue
Model: "sequential"
_________________________________________________________________
Layer (type)                 Output Shape              Param #   
=================================================================
dense (Dense)                (None, 400)               4000400   
_________________________________________________________________
dropout (Dropout)            (None, 400)               0         
_________________________________________________________________
dense_1 (Dense)              (None, 400)               160400    
_________________________________________________________________
dropout_1 (Dropout)          (None, 400)               0         
_________________________________________________________________
dense_2 (Dense)              (None, 1)                 401       
=================================================================
Total params: 4,161,201
Trainable params: 4,161,201
Non-trainable params: 0
_________________________________________________________________
None
Red
-0.04059962342250767
Typer KerasRegressor
Hello world
{'learning_rate': 0.01, 'batch_size': 16, 'rate': 0.1, 'HP_L1_REG': 0.1, 'activation': 'tanh', 'kernel_initializer': 'glorot_uniform', 'HP_L2_REG': 0.0001, 'HP_OPTIMIZER': 'SGD', 'epochs': 50, 'HP_NUM_HIDDEN_LAYERS': 5, 'units': 400}
Blue
Model: "sequential"
_________________________________________________________________
Layer (type)                 Output Shape              Param #   
=================================================================
dense (Dense)                (None, 400)               4000400   
_________________________________________________________________
dropout (Dropout)            (None, 400)               0         
_________________________________________________________________
dense_1 (Dense)              (None, 400)               160400    
_________________________________________________________________
dropout_1 (Dropout)          (None, 400)               0         
_________________________________________________________________
dense_2 (Dense)              (None, 400)               160400    
_________________________________________________________________
dropout_2 (Dropout)          (None, 400)               0         
_________________________________________________________________
dense_3 (Dense)              (None, 400)               160400    
_________________________________________________________________
dropout_3 (Dropout)          (None, 400)               0         
_________________________________________________________________
dense_4 (Dense)              (None, 400)               160400    
_________________________________________________________________
dropout_4 (Dropout)          (None, 400)               0         
_________________________________________________________________
dense_5 (Dense)              (None, 1)                 401       
=================================================================
Total params: 4,642,401
Trainable params: 4,642,401
Non-trainable params: 0
_________________________________________________________________
None
Red
-0.07090872873893228
Typer KerasRegressor
Hello world
{'learning_rate': 0.01, 'batch_size': 64, 'rate': 0.1, 'HP_L1_REG': 0.001, 'activation': 'relu', 'kernel_initializer': 'glorot_uniform', 'HP_L2_REG': 0.01, 'HP_OPTIMIZER': 'Adagrad', 'epochs': 50, 'HP_NUM_HIDDEN_LAYERS': 3, 'units': 200}
Blue
Model: "sequential"
_________________________________________________________________
Layer (type)                 Output Shape              Param #   
=================================================================
dense (Dense)                (None, 200)               2000200   
_________________________________________________________________
dropout (Dropout)            (None, 200)               0         
_________________________________________________________________
dense_1 (Dense)              (None, 200)               40200     
_________________________________________________________________
dropout_1 (Dropout)          (None, 200)               0         
_________________________________________________________________
dense_2 (Dense)              (None, 200)               40200     
_________________________________________________________________
dropout_2 (Dropout)          (None, 200)               0         
_________________________________________________________________
dense_3 (Dense)              (None, 1)                 201       
=================================================================
Total params: 2,080,801
Trainable params: 2,080,801
Non-trainable params: 0
_________________________________________________________________
None
Red
0.37198709077789127
Typer KerasRegressor
Hello world
{'learning_rate': 0.0001, 'batch_size': 64, 'rate': 0.1, 'HP_L1_REG': 0.01, 'activation': 'tanh', 'kernel_initializer': 'glorot_uniform', 'HP_L2_REG': 0.0001, 'HP_OPTIMIZER': 'Adagrad', 'epochs': 100, 'HP_NUM_HIDDEN_LAYERS': 5, 'units': 400}
Blue
Model: "sequential"
_________________________________________________________________
Layer (type)                 Output Shape              Param #   
=================================================================
dense (Dense)                (None, 400)               4000400   
_________________________________________________________________
dropout (Dropout)            (None, 400)               0         
_________________________________________________________________
dense_1 (Dense)              (None, 400)               160400    
_________________________________________________________________
dropout_1 (Dropout)          (None, 400)               0         
_________________________________________________________________
dense_2 (Dense)              (None, 400)               160400    
_________________________________________________________________
dropout_2 (Dropout)          (None, 400)               0         
_________________________________________________________________
dense_3 (Dense)              (None, 400)               160400    
_________________________________________________________________
dropout_3 (Dropout)          (None, 400)               0         
_________________________________________________________________
dense_4 (Dense)              (None, 400)               160400    
_________________________________________________________________
dropout_4 (Dropout)          (None, 400)               0         
_________________________________________________________________
dense_5 (Dense)              (None, 1)                 401       
=================================================================
Total params: 4,642,401
Trainable params: 4,642,401
Non-trainable params: 0
_________________________________________________________________
None
Red
0.16941659387327257
Typer KerasRegressor
Hello world
{'learning_rate': 0.0001, 'batch_size': 64, 'rate': 0.2, 'HP_L1_REG': 0.1, 'activation': 'tanh', 'kernel_initializer': 'glorot_uniform', 'HP_L2_REG': 1e-08, 'HP_OPTIMIZER': 'Adagrad', 'epochs': 200, 'HP_NUM_HIDDEN_LAYERS': 5, 'units': 400}
Blue
Model: "sequential"
_________________________________________________________________
Layer (type)                 Output Shape              Param #   
=================================================================
dense (Dense)                (None, 400)               4000400   
_________________________________________________________________
dropout (Dropout)            (None, 400)               0         
_________________________________________________________________
dense_1 (Dense)              (None, 400)               160400    
_________________________________________________________________
dropout_1 (Dropout)          (None, 400)               0         
_________________________________________________________________
dense_2 (Dense)              (None, 400)               160400    
_________________________________________________________________
dropout_2 (Dropout)          (None, 400)               0         
_________________________________________________________________
dense_3 (Dense)              (None, 400)               160400    
_________________________________________________________________
dropout_3 (Dropout)          (None, 400)               0         
_________________________________________________________________
dense_4 (Dense)              (None, 400)               160400    
_________________________________________________________________
dropout_4 (Dropout)          (None, 400)               0         
_________________________________________________________________
dense_5 (Dense)              (None, 1)                 401       
=================================================================
Total params: 4,642,401
Trainable params: 4,642,401
Non-trainable params: 0
_________________________________________________________________
None
Red
-0.031043066297798072
Typer KerasRegressor
Hello world
{'learning_rate': 1e-05, 'batch_size': 128, 'rate': 0.2, 'HP_L1_REG': 0.001, 'activation': 'relu', 'kernel_initializer': 'glorot_uniform', 'HP_L2_REG': 0.01, 'HP_OPTIMIZER': 'Adagrad', 'epochs': 100, 'HP_NUM_HIDDEN_LAYERS': 2, 'units': 200}
Blue
Model: "sequential"
_________________________________________________________________
Layer (type)                 Output Shape              Param #   
=================================================================
dense (Dense)                (None, 200)               2000200   
_________________________________________________________________
dropout (Dropout)            (None, 200)               0         
_________________________________________________________________
dense_1 (Dense)              (None, 200)               40200     
_________________________________________________________________
dropout_1 (Dropout)          (None, 200)               0         
_________________________________________________________________
dense_2 (Dense)              (None, 1)                 201       
=================================================================
Total params: 2,040,601
Trainable params: 2,040,601
Non-trainable params: 0
_________________________________________________________________
None
Red
0.02509508965980256
Typer KerasRegressor
Hello world
{'learning_rate': 0.01, 'batch_size': 64, 'rate': 0.1, 'HP_L1_REG': 0.001, 'activation': 'tanh', 'kernel_initializer': 'glorot_uniform', 'HP_L2_REG': 0.2, 'HP_OPTIMIZER': 'SGD', 'epochs': 50, 'HP_NUM_HIDDEN_LAYERS': 4, 'units': 1000}
Blue
Model: "sequential"
_________________________________________________________________
Layer (type)                 Output Shape              Param #   
=================================================================
dense (Dense)                (None, 1000)              10001000  
_________________________________________________________________
dropout (Dropout)            (None, 1000)              0         
_________________________________________________________________
dense_1 (Dense)              (None, 1000)              1001000   
_________________________________________________________________
dropout_1 (Dropout)          (None, 1000)              0         
_________________________________________________________________
dense_2 (Dense)              (None, 1000)              1001000   
_________________________________________________________________
dropout_2 (Dropout)          (None, 1000)              0         
_________________________________________________________________
dense_3 (Dense)              (None, 1000)              1001000   
_________________________________________________________________
dropout_3 (Dropout)          (None, 1000)              0         
_________________________________________________________________
dense_4 (Dense)              (None, 1)                 1001      
=================================================================
Total params: 13,005,001
Trainable params: 13,005,001
Non-trainable params: 0
_________________________________________________________________
None
Red
0.2673392359590069
Typer KerasRegressor
Hello world
{'learning_rate': 0.0001, 'batch_size': 128, 'rate': 0.0, 'HP_L1_REG': 0.01, 'activation': 'relu', 'kernel_initializer': 'glorot_uniform', 'HP_L2_REG': 0.0001, 'HP_OPTIMIZER': 'Adagrad', 'epochs': 200, 'HP_NUM_HIDDEN_LAYERS': 4, 'units': 1000}
Blue
Model: "sequential"
_________________________________________________________________
Layer (type)                 Output Shape              Param #   
=================================================================
dense (Dense)                (None, 1000)              10001000  
_________________________________________________________________
dense_1 (Dense)              (None, 1000)              1001000   
_________________________________________________________________
dense_2 (Dense)              (None, 1000)              1001000   
_________________________________________________________________
dense_3 (Dense)              (None, 1000)              1001000   
_________________________________________________________________
dense_4 (Dense)              (None, 1)                 1001      
=================================================================
Total params: 13,005,001
Trainable params: 13,005,001
Non-trainable params: 0
_________________________________________________________________
None
Red
0.00200128988736592
Typer KerasRegressor
Hello world
{'learning_rate': 0.001, 'batch_size': 16, 'rate': 0.1, 'HP_L1_REG': 0.001, 'activation': 'relu', 'kernel_initializer': 'glorot_uniform', 'HP_L2_REG': 0.0001, 'HP_OPTIMIZER': 'Adagrad', 'epochs': 100, 'HP_NUM_HIDDEN_LAYERS': 5, 'units': 1000}
Blue
Model: "sequential"
_________________________________________________________________
Layer (type)                 Output Shape              Param #   
=================================================================
dense (Dense)                (None, 1000)              10001000  
_________________________________________________________________
dropout (Dropout)            (None, 1000)              0         
_________________________________________________________________
dense_1 (Dense)              (None, 1000)              1001000   
_________________________________________________________________
dropout_1 (Dropout)          (None, 1000)              0         
_________________________________________________________________
dense_2 (Dense)              (None, 1000)              1001000   
_________________________________________________________________
dropout_2 (Dropout)          (None, 1000)              0         
_________________________________________________________________
dense_3 (Dense)              (None, 1000)              1001000   
_________________________________________________________________
dropout_3 (Dropout)          (None, 1000)              0         
_________________________________________________________________
dense_4 (Dense)              (None, 1000)              1001000   
_________________________________________________________________
dropout_4 (Dropout)          (None, 1000)              0         
_________________________________________________________________
dense_5 (Dense)              (None, 1)                 1001      
=================================================================
Total params: 14,006,001
Trainable params: 14,006,001
Non-trainable params: 0
_________________________________________________________________
None
Red
0.31314080138691625
Typer KerasRegressor
Hello world
{'learning_rate': 0.0001, 'batch_size': 128, 'rate': 0.5, 'HP_L1_REG': 0.01, 'activation': 'tanh', 'kernel_initializer': 'glorot_uniform', 'HP_L2_REG': 0.01, 'HP_OPTIMIZER': 'Adam', 'epochs': 200, 'HP_NUM_HIDDEN_LAYERS': 3, 'units': 400}
Blue
Model: "sequential"
_________________________________________________________________
Layer (type)                 Output Shape              Param #   
=================================================================
dense (Dense)                (None, 400)               4000400   
_________________________________________________________________
dropout (Dropout)            (None, 400)               0         
_________________________________________________________________
dense_1 (Dense)              (None, 400)               160400    
_________________________________________________________________
dropout_1 (Dropout)          (None, 400)               0         
_________________________________________________________________
dense_2 (Dense)              (None, 400)               160400    
_________________________________________________________________
dropout_2 (Dropout)          (None, 400)               0         
_________________________________________________________________
dense_3 (Dense)              (None, 1)                 401       
=================================================================
Total params: 4,321,601
Trainable params: 4,321,601
Non-trainable params: 0
_________________________________________________________________
None
Red
-0.06532432835864732
Typer KerasRegressor
Hello world
{'learning_rate': 0.0001, 'batch_size': 16, 'rate': 0.5, 'HP_L1_REG': 0.1, 'activation': 'tanh', 'kernel_initializer': 'glorot_uniform', 'HP_L2_REG': 0.0001, 'HP_OPTIMIZER': 'Adam', 'epochs': 200, 'HP_NUM_HIDDEN_LAYERS': 2, 'units': 400}
Blue
Model: "sequential"
_________________________________________________________________
Layer (type)                 Output Shape              Param #   
=================================================================
dense (Dense)                (None, 400)               4000400   
_________________________________________________________________
dropout (Dropout)            (None, 400)               0         
_________________________________________________________________
dense_1 (Dense)              (None, 400)               160400    
_________________________________________________________________
dropout_1 (Dropout)          (None, 400)               0         
_________________________________________________________________
dense_2 (Dense)              (None, 1)                 401       
=================================================================
Total params: 4,161,201
Trainable params: 4,161,201
Non-trainable params: 0
_________________________________________________________________
None
Red
-0.0684758272384609
Typer KerasRegressor
Hello world
{'learning_rate': 0.01, 'batch_size': 16, 'rate': 0.2, 'HP_L1_REG': 0.0001, 'activation': 'tanh', 'kernel_initializer': 'glorot_uniform', 'HP_L2_REG': 0.2, 'HP_OPTIMIZER': 'Adagrad', 'epochs': 200, 'HP_NUM_HIDDEN_LAYERS': 4, 'units': 200}
Blue
Model: "sequential"
_________________________________________________________________
Layer (type)                 Output Shape              Param #   
=================================================================
dense (Dense)                (None, 200)               2000200   
_________________________________________________________________
dropout (Dropout)            (None, 200)               0         
_________________________________________________________________
dense_1 (Dense)              (None, 200)               40200     
_________________________________________________________________
dropout_1 (Dropout)          (None, 200)               0         
_________________________________________________________________
dense_2 (Dense)              (None, 200)               40200     
_________________________________________________________________
dropout_2 (Dropout)          (None, 200)               0         
_________________________________________________________________
dense_3 (Dense)              (None, 200)               40200     
_________________________________________________________________
dropout_3 (Dropout)          (None, 200)               0         
_________________________________________________________________
dense_4 (Dense)              (None, 1)                 201       
=================================================================
Total params: 2,121,001
Trainable params: 2,121,001
Non-trainable params: 0
_________________________________________________________________
None
Red
0.2987065472006626
Typer KerasRegressor
Hello world
{'learning_rate': 0.001, 'batch_size': 16, 'rate': 0.1, 'HP_L1_REG': 0.0001, 'activation': 'relu', 'kernel_initializer': 'glorot_uniform', 'HP_L2_REG': 1e-08, 'HP_OPTIMIZER': 'SGD', 'epochs': 100, 'HP_NUM_HIDDEN_LAYERS': 2, 'units': 1000}
Blue
Model: "sequential"
_________________________________________________________________
Layer (type)                 Output Shape              Param #   
=================================================================
dense (Dense)                (None, 1000)              10001000  
_________________________________________________________________
dropout (Dropout)            (None, 1000)              0         
_________________________________________________________________
dense_1 (Dense)              (None, 1000)              1001000   
_________________________________________________________________
dropout_1 (Dropout)          (None, 1000)              0         
_________________________________________________________________
dense_2 (Dense)              (None, 1)                 1001      
=================================================================
Total params: 11,003,001
Trainable params: 11,003,001
Non-trainable params: 0
_________________________________________________________________
None
Red
0.360565813390606
Typer KerasRegressor
Hello world
{'learning_rate': 1e-05, 'batch_size': 128, 'rate': 0.2, 'HP_L1_REG': 0.01, 'activation': 'tanh', 'kernel_initializer': 'glorot_uniform', 'HP_L2_REG': 1e-08, 'HP_OPTIMIZER': 'SGD', 'epochs': 100, 'HP_NUM_HIDDEN_LAYERS': 3, 'units': 1000}
Blue
Model: "sequential"
_________________________________________________________________
Layer (type)                 Output Shape              Param #   
=================================================================
dense (Dense)                (None, 1000)              10001000  
_________________________________________________________________
dropout (Dropout)            (None, 1000)              0         
_________________________________________________________________
dense_1 (Dense)              (None, 1000)              1001000   
_________________________________________________________________
dropout_1 (Dropout)          (None, 1000)              0         
_________________________________________________________________
dense_2 (Dense)              (None, 1000)              1001000   
_________________________________________________________________
dropout_2 (Dropout)          (None, 1000)              0         
_________________________________________________________________
dense_3 (Dense)              (None, 1)                 1001      
=================================================================
Total params: 12,004,001
Trainable params: 12,004,001
Non-trainable params: 0
_________________________________________________________________
None
Red
-0.1671595912137791
Typer KerasRegressor
Hello world
{'learning_rate': 0.001, 'batch_size': 64, 'rate': 0.0, 'HP_L1_REG': 0.001, 'activation': 'relu', 'kernel_initializer': 'glorot_uniform', 'HP_L2_REG': 0.01, 'HP_OPTIMIZER': 'Adagrad', 'epochs': 50, 'HP_NUM_HIDDEN_LAYERS': 5, 'units': 200}
Blue
Model: "sequential"
_________________________________________________________________
Layer (type)                 Output Shape              Param #   
=================================================================
dense (Dense)                (None, 200)               2000200   
_________________________________________________________________
dense_1 (Dense)              (None, 200)               40200     
_________________________________________________________________
dense_2 (Dense)              (None, 200)               40200     
_________________________________________________________________
dense_3 (Dense)              (None, 200)               40200     
_________________________________________________________________
dense_4 (Dense)              (None, 200)               40200     
_________________________________________________________________
dense_5 (Dense)              (None, 1)                 201       
=================================================================
Total params: 2,161,201
Trainable params: 2,161,201
Non-trainable params: 0
_________________________________________________________________
None
Red
0.25723284241339295
Typer KerasRegressor
Hello world
{'learning_rate': 0.001, 'batch_size': 128, 'rate': 0.5, 'HP_L1_REG': 0.01, 'activation': 'tanh', 'kernel_initializer': 'glorot_uniform', 'HP_L2_REG': 0.2, 'HP_OPTIMIZER': 'SGD', 'epochs': 100, 'HP_NUM_HIDDEN_LAYERS': 5, 'units': 1000}
Blue
Model: "sequential"
_________________________________________________________________
Layer (type)                 Output Shape              Param #   
=================================================================
dense (Dense)                (None, 1000)              10001000  
_________________________________________________________________
dropout (Dropout)            (None, 1000)              0         
_________________________________________________________________
dense_1 (Dense)              (None, 1000)              1001000   
_________________________________________________________________
dropout_1 (Dropout)          (None, 1000)              0         
_________________________________________________________________
dense_2 (Dense)              (None, 1000)              1001000   
_________________________________________________________________
dropout_2 (Dropout)          (None, 1000)              0         
_________________________________________________________________
dense_3 (Dense)              (None, 1000)              1001000   
_________________________________________________________________
dropout_3 (Dropout)          (None, 1000)              0         
_________________________________________________________________
dense_4 (Dense)              (None, 1000)              1001000   
_________________________________________________________________
dropout_4 (Dropout)          (None, 1000)              0         
_________________________________________________________________
dense_5 (Dense)              (None, 1)                 1001      
=================================================================
Total params: 14,006,001
Trainable params: 14,006,001
Non-trainable params: 0
_________________________________________________________________
None
Red
0.09234866705981193
Typer KerasRegressor
Hello world
{'learning_rate': 0.0001, 'batch_size': 16, 'rate': 0.5, 'HP_L1_REG': 0.001, 'activation': 'relu', 'kernel_initializer': 'glorot_uniform', 'HP_L2_REG': 0.01, 'HP_OPTIMIZER': 'SGD', 'epochs': 200, 'HP_NUM_HIDDEN_LAYERS': 4, 'units': 1000}
Blue
Model: "sequential"
_________________________________________________________________
Layer (type)                 Output Shape              Param #   
=================================================================
dense (Dense)                (None, 1000)              10001000  
_________________________________________________________________
dropout (Dropout)            (None, 1000)              0         
_________________________________________________________________
dense_1 (Dense)              (None, 1000)              1001000   
_________________________________________________________________
dropout_1 (Dropout)          (None, 1000)              0         
_________________________________________________________________
dense_2 (Dense)              (None, 1000)              1001000   
______________