…
2021-12-10 18:04:59.005233: I tensorflow/core/platform/profile_utils/cpu_utils.cc:94] CPU Frequency: 2200045000 Hz
2021-12-10 18:04:59.009833: I tensorflow/compiler/xla/service/service.cc:168] XLA service 0x9890ad0 executing computations on platform Host. Devices:
2021-12-10 18:04:59.009866: I tensorflow/compiler/xla/service/service.cc:175]   StreamExecutor device (0): <undefined>, <undefined>
Model: "sequential"
_________________________________________________________________
Layer (type)                 Output Shape              Param #   
=================================================================
dense (Dense)                (None, 1000)              10001000  
_________________________________________________________________
dropout (Dropout)            (None, 1000)              0         
_________________________________________________________________
dense_1 (Dense)              (None, 1000)              1001000   
_________________________________________________________________
dropout_1 (Dropout)          (None, 1000)              0         
_________________________________________________________________
dense_2 (Dense)              (None, 1)                 1001      
=================================================================
Total params: 11,003,001
Trainable params: 11,003,001
Non-trainable params: 0
_________________________________________________________________
None
2021-12-10 18:05:01.245645: W tensorflow/compiler/jit/mark_for_compilation_pass.cc:1483] (One-time warning): Not using XLA:CPU for cluster because envvar TF_XLA_FLAGS=--tf
…
r set the envvar XLA_FLAGS=--xla_hlo_profile.
Red
0.34329065055886765
Typer KerasRegressor
Hello world
{'HP_OPTIMIZER': 'Adam', 'kernel_initializer': 'glorot_uniform', 'epochs': 100, 'HP_NUM_HIDDEN_LAYERS': 4, 'batch_size': 16, 'rate': 0.1, 'HP_L1_REG': 0.1, 'HP_L2_REG': 0.01, 'activation': 'relu', 'learning_rate': 0.01, 'units': 200}
Blue
Model: "sequential"
_________________________________________________________________
Layer (type)                 Output Shape              Param #   
=================================================================
dense (Dense)                (None, 200)               2000200   
_________________________________________________________________
dropout (Dropout)            (None, 200)               0         
_________________________________________________________________
dense_1 (Dense)              (None, 200)               40200     
_________________________________________________________________
dropout_1 (Dropout)          (None, 200)               0         
_________________________________________________________________
dense_2 (Dense)              (None, 200)               40200     
_________________________________________________________________
dropout_2 (Dropout)          (None, 200)               0         
_________________________________________________________________
dense_3 (Dense)              (None, 200)               40200     
_________________________________________________________________
dropout_3 (Dropout)          (None, 200)               0         
_________________________________________________________________
dense_4 (Dense)              (None, 1)                 201       
=================================================================
Total params: 2,121,001
Trainable params: 2,121,001
Non-trainable params: 0
_________________________________________________________________
None
^Z
[1]+  Stopped                 python cv_grid_all_ml.py 30 /home/ciaran/arabadopsis/phenotypes/values_FT10.8424.dup.del /home/ciaran/completed_big_matrix_binary_new_snps_ids_first_10k.raw shuf FT10cv_new_10k 10000
…
 64/192 [=========>....................] - ETA: 0s192/192 [==============================] - 0s 241us/sample
0.36329225324566394
Typer KerasRegressor
Hello world
{'HP_L1_REG': 0.0001, 'HP_NUM_HIDDEN_LAYERS': 5, 'HP_L2_REG': 0.0001, 'learning_rate': 0.001, 'epochs': 100, 'HP_OPTIMIZER': 'SGD', 'batch_size': 64, 'units': 200, 'rate': 0.0, 'activation': 'tanh', 'kernel_initializer': 'glorot_uniform'}
Blue
Model: "sequential"
_________________________________________________________________
Layer (type)                 Output Shape              Param #   
=================================================================
dense (Dense)                (None, 200)               2000200   
_________________________________________________________________
dense_1 (Dense)              (None, 200)               40200     
_________________________________________________________________
dense_2 (Dense)              (None, 200)               40200     
_________________________________________________________________
dense_3 (Dense)              (None, 200)               40200     
_________________________________________________________________
dense_4 (Dense)              (None, 200)               40200     
_________________________________________________________________
dense_5 (Dense)              (None, 1)                 201       
=================================================================
Total params: 2,161,201
Trainable params: 2,161,201
Non-trainable params: 0
_________________________________________________________________
None
Train on 573 samples
Epoch 1/100
 64/573 [==>...........................] - ETA: 1s - loss: 4.4881 - accuracy: 0.0000e+00 - mae: 0.9640 - coeff_determination: -0.1169
…
 64/192 [=========>....................] - ETA: 0s192/192 [==============================] - 0s 152us/sample
0.24355496483110572
Typer KerasRegressor
Hello world
{'HP_L1_REG': 0.01, 'HP_NUM_HIDDEN_LAYERS': 5, 'HP_L2_REG': 0.0001, 'learning_rate': 0.0001, 'epochs': 50, 'HP_OPTIMIZER': 'Adagrad', 'batch_size': 16, 'units': 400, 'rate': 0.5, 'activation': 'relu', 'kernel_initializer': 'glorot_uniform'}
Blue
Model: "sequential"
_________________________________________________________________
Layer (type)                 Output Shape              Param #   
=================================================================
dense (Dense)                (None, 400)               4000400   
_________________________________________________________________
dropout (Dropout)            (None, 400)               0         
_________________________________________________________________
dense_1 (Dense)              (None, 400)               160400    
_________________________________________________________________
dropout_1 (Dropout)          (None, 400)               0         
_________________________________________________________________
dense_2 (Dense)              (None, 400)               160400    
_________________________________________________________________
dropout_2 (Dropout)          (None, 400)               0         
_________________________________________________________________
dense_3 (Dense)              (None, 400)               160400    
_________________________________________________________________
dropout_3 (Dropout)          (None, 400)               0         
_________________________________________________________________
dense_4 (Dense)              (None, 400)               160400    
_________________________________________________________________
dropout_4 (Dropout)          (None, 400)               0         
_________________________________________________________________
dense_5 (Dense)              (None, 1)                 401       
=================================================================
Total params: 4,642,401
Trainable params: 4,642,401
Non-trainable params: 0
_________________________________________________________________
None
Train on 573 samples
Epoch 1/50
 16/573 [..............................] - ETA: 21s - loss: 758.8383 - accuracy: 0.0000e+00 - mae: 0.8997 - coeff_determination: -0.1853
…
 16/192 [=>............................] - ETA: 0s192/192 [==============================] - 0s 420us/sample
0.000983532125311215
Typer KerasRegressor
Hello world
{'HP_L1_REG': 0.001, 'HP_NUM_HIDDEN_LAYERS': 2, 'HP_L2_REG': 0.2, 'learning_rate': 0.0001, 'epochs': 200, 'HP_OPTIMIZER': 'SGD', 'batch_size': 128, 'units': 400, 'rate': 0.2, 'activation': 'tanh', 'kernel_initializer': 'glorot_uniform'}
Blue
Model: "sequential"
_________________________________________________________________
Layer (type)                 Output Shape              Param #   
=================================================================
dense (Dense)                (None, 400)               4000400   
_________________________________________________________________
dropout (Dropout)            (None, 400)               0         
_________________________________________________________________
dense_1 (Dense)              (None, 400)               160400    
_________________________________________________________________
dropout_1 (Dropout)          (None, 400)               0         
_________________________________________________________________
dense_2 (Dense)              (None, 1)                 401       
=================================================================
Total params: 4,161,201
Trainable params: 4,161,201
Non-trainable params: 0
_________________________________________________________________
None
Train on 573 samples
Epoch 1/200
128/573 [=====>........................] - ETA: 1s - loss: 289.7366 - accuracy: 0.0000e+00 - mae: 0.8890 - coeff_determination: -0.0801
…
2021-12-10 18:16:45.615564: I tensorflow/core/platform/profile_utils/cpu_utils.cc:94] CPU Frequency: 2200045000 Hz
2021-12-10 18:16:45.619770: I tensorflow/compiler/xla/service/service.cc:168] XLA service 0xab91b70 executing computations on platform Host. Devices:
2021-12-10 18:16:45.619801: I tensorflow/compiler/xla/service/service.cc:175]   StreamExecutor device (0): <undefined>, <undefined>
Model: "sequential"
_________________________________________________________________
Layer (type)                 Output Shape              Param #   
=================================================================
dense (Dense)                (None, 1000)              10001000  
_________________________________________________________________
dropout (Dropout)            (None, 1000)              0         
_________________________________________________________________
dense_1 (Dense)              (None, 1000)              1001000   
_________________________________________________________________
dropout_1 (Dropout)          (None, 1000)              0         
_________________________________________________________________
dense_2 (Dense)              (None, 1000)              1001000   
_________________________________________________________________
dropout_2 (Dropout)          (None, 1000)              0         
_________________________________________________________________
dense_3 (Dense)              (None, 1)                 1001      
=================================================================
Total params: 12,004,001
Trainable params: 12,004,001
Non-trainable params: 0
_________________________________________________________________
None
Train on 573 samples
Epoch 1/50
2021-12-10 18:16:48.340299: W tensorflow/compiler/jit/mark_for_compilation_pass.cc:1483] (One-time warning): Not using XLA:CPU for cluste
…
128/192 [===================>..........] - ETA: 0s192/192 [==============================] - 0s 509us/sample
0.18245086139450684
Typer KerasRegressor
Hello world
{'batch_size': 128, 'activation': 'relu', 'HP_OPTIMIZER': 'Adam', 'units': 1000, 'learning_rate': 1e-05, 'epochs': 200, 'HP_L2_REG': 0.0001, 'rate': 0.5, 'HP_L1_REG': 0.1, 'HP_NUM_HIDDEN_LAYERS': 4, 'kernel_initializer': 'glorot_uniform'}
Blue
Model: "sequential"
_________________________________________________________________
Layer (type)                 Output Shape              Param #   
=================================================================
dense (Dense)                (None, 1000)              10001000  
_________________________________________________________________
dropout (Dropout)            (None, 1000)              0         
_________________________________________________________________
dense_1 (Dense)              (None, 1000)              1001000   
_________________________________________________________________
dropout_1 (Dropout)          (None, 1000)              0         
_________________________________________________________________
dense_2 (Dense)              (None, 1000)              1001000   
_________________________________________________________________
dropout_2 (Dropout)          (None, 1000)              0         
_________________________________________________________________
dense_3 (Dense)              (None, 1000)              1001000   
_________________________________________________________________
dropout_3 (Dropout)          (None, 1000)              0         
_________________________________________________________________
dense_4 (Dense)              (None, 1)                 1001      
=================================================================
Total params: 13,005,001
Trainable params: 13,005,001
Non-trainable params: 0
_________________________________________________________________
None
Train on 573 samples
Epoch 1/200
128/573 [=====>........................] - ETA: 6s - loss: 19893.1309 - accuracy: 0.0000e+00 - mae: 0.9188 - coeff_determination: -0.08
…
 64/192 [=========>....................] - ETA: 0s192/192 [==============================] - 0s 292us/sample
0.02025983220008043
Typer KerasRegressor
Hello world
{'batch_size': 128, 'activation': 'tanh', 'HP_OPTIMIZER': 'Adagrad', 'units': 400, 'learning_rate': 1e-05, 'epochs': 50, 'HP_L2_REG': 1e-08, 'rate': 0.0, 'HP_L1_REG': 0.001, 'HP_NUM_HIDDEN_LAYERS': 4, 'kernel_initializer': 'glorot_uniform'}
Blue
Model: "sequential"
_________________________________________________________________
Layer (type)                 Output Shape              Param #   
=================================================================
dense (Dense)                (None, 400)               4000400   
_________________________________________________________________
dense_1 (Dense)              (None, 400)               160400    
_________________________________________________________________
dense_2 (Dense)              (None, 400)               160400    
_________________________________________________________________
dense_3 (Dense)              (None, 400)               160400    
_________________________________________________________________
dense_4 (Dense)              (None, 1)                 401       
=================================================================
Total params: 4,482,001
Trainable params: 4,482,001
Non-trainable params: 0
_________________________________________________________________
None
Train on 573 samples
Epoch 1/50
128/573 [=====>........................] - ETA: 1s - loss: 69.6276 - accuracy: 0.0000e+00 - mae: 0.8032 - coeff_determination: -0.0025
…
128/192 [===================>..........] - ETA: 0s192/192 [==============================] - 0s 201us/sample
-0.0025199309013246296
Typer KerasRegressor
Hello world
{'batch_size': 64, 'activation': 'relu', 'HP_OPTIMIZER': 'Adagrad', 'units': 400, 'learning_rate': 1e-05, 'epochs': 100, 'HP_L2_REG': 0.0001, 'rate': 0.5, 'HP_L1_REG': 0.001, 'HP_NUM_HIDDEN_LAYERS': 4, 'kernel_initializer': 'glorot_uniform'}
Blue
Model: "sequential"
_________________________________________________________________
Layer (type)                 Output Shape              Param #   
=================================================================
dense (Dense)                (None, 400)               4000400   
_________________________________________________________________
dropout (Dropout)            (None, 400)               0         
_________________________________________________________________
dense_1 (Dense)              (None, 400)               160400    
_________________________________________________________________
dropout_1 (Dropout)          (None, 400)               0         
_________________________________________________________________
dense_2 (Dense)              (None, 400)               160400    
_________________________________________________________________
dropout_2 (Dropout)          (None, 400)               0         
_________________________________________________________________
dense_3 (Dense)              (None, 400)               160400    
_________________________________________________________________
dropout_3 (Dropout)          (None, 400)               0         
_________________________________________________________________
dense_4 (Dense)              (None, 1)                 401       
=================================================================
Total params: 4,482,001
Trainable params: 4,482,001
Non-trainable params: 0
_________________________________________________________________
None
Train on 573 samples
Epoch 1/100
 64/573 [==>...........................] - ETA: 4s - loss: 69.9491 - accuracy: 0.0000e+00 - mae: 0.9370 - coeff_determination: -0.1112
…
128/192 [===================>..........] - ETA: 0s192/192 [==============================] - 0s 204us/sample
-0.11945352994715175
Typer KerasRegressor
Hello world
{'batch_size': 128, 'activation': 'relu', 'HP_OPTIMIZER': 'SGD', 'units': 200, 'learning_rate': 0.0001, 'epochs': 50, 'HP_L2_REG': 0.0001, 'rate': 0.5, 'HP_L1_REG': 0.0001, 'HP_NUM_HIDDEN_LAYERS': 5, 'kernel_initializer': 'glorot_uniform'}
Blue
Model: "sequential"
_________________________________________________________________
Layer (type)                 Output Shape              Param #   
=================================================================
dense (Dense)                (None, 200)               2000200   
_________________________________________________________________
dropout (Dropout)            (None, 200)               0         
_________________________________________________________________
dense_1 (Dense)              (None, 200)               40200     
_________________________________________________________________
dropout_1 (Dropout)          (None, 200)               0         
_________________________________________________________________
dense_2 (Dense)              (None, 200)               40200     
_________________________________________________________________
dropout_2 (Dropout)          (None, 200)               0         
_________________________________________________________________
dense_3 (Dense)              (None, 200)               40200     
_________________________________________________________________
dropout_3 (Dropout)          (None, 200)               0         
_________________________________________________________________
dense_4 (Dense)              (None, 200)               40200     
_________________________________________________________________
dropout_4 (Dropout)          (None, 200)               0         
_________________________________________________________________
dense_5 (Dense)              (None, 1)                 201       
=================================================================
Total params: 2,161,201
Trainable params: 2,161,201
Non-trainable params: 0
_________________________________________________________________
None
Train on 573 samples
Epoch 1/50
128/573 [=====>........................] - ETA: 1s - loss: 4.3843 - accuracy: 0.0000e+00 - mae: 0.8598 - coeff_determination: -0.2360573/573 [==============================] - 1s 1ms/sample - loss: 4.3580 - accuracy: 0.0000e+00 - mae: 0.8335 - coeff_determination: -0.1187
…
128/192 [===================>..........] - ETA: 0s192/192 [==============================] - 0s 579us/sample
0.0059463613056774944
Typer KerasRegressor
Hello world
{'batch_size': 128, 'activation': 'relu', 'HP_OPTIMIZER': 'SGD', 'units': 1000, 'learning_rate': 0.001, 'epochs': 50, 'HP_L2_REG': 0.0001, 'rate': 0.0, 'HP_L1_REG': 0.1, 'HP_NUM_HIDDEN_LAYERS': 5, 'kernel_initializer': 'glorot_uniform'}
Blue
Model: "sequential"
_________________________________________________________________
Layer (type)                 Output Shape              Param #   
=================================================================
dense (Dense)                (None, 1000)              10001000  
_________________________________________________________________
dense_1 (Dense)              (None, 1000)              1001000   
_________________________________________________________________
dense_2 (Dense)              (None, 1000)              1001000   
_________________________________________________________________
dense_3 (Dense)              (None, 1000)              1001000   
_________________________________________________________________
dense_4 (Dense)              (None, 1000)              1001000   
_________________________________________________________________
dense_5 (Dense)              (None, 1)                 1001      
=================================================================
Total params: 14,006,001
Trainable params: 14,006,001
Non-trainable params: 0
_________________________________________________________________
None
Train on 573 samples
Epoch 1/50
128/573 [=====>........................] - ETA: 6s - loss: 22629.1641 - accuracy: 0.0000e+00 - mae: 0.8174 - coeff_determination: -0.007
…
128/192 [===================>..........] - ETA: 0s192/192 [==============================] - 0s 316us/sample
-0.00044290227076237976
Typer KerasRegressor
Hello world
{'batch_size': 64, 'activation': 'tanh', 'HP_OPTIMIZER': 'SGD', 'units': 200, 'learning_rate': 0.0001, 'epochs': 100, 'HP_L2_REG': 1e-08, 'rate': 0.5, 'HP_L1_REG': 0.01, 'HP_NUM_HIDDEN_LAYERS': 2, 'kernel_initializer': 'glorot_uniform'}
Blue
Model: "sequential"
_________________________________________________________________
Layer (type)                 Output Shape              Param #   
=================================================================
dense (Dense)                (None, 200)               2000200   
_________________________________________________________________
dropout (Dropout)            (None, 200)               0         
_________________________________________________________________
dense_1 (Dense)              (None, 200)               40200     
_________________________________________________________________
dropout_1 (Dropout)          (None, 200)               0         
_________________________________________________________________
dense_2 (Dense)              (None, 1)                 201       
=================================================================
Total params: 2,040,601
Trainable params: 2,040,601
Non-trainable params: 0
_________________________________________________________________
None
Train on 573 samples
Epoch 1/100
 64/573 [==>...........................] - ETA: 1s - loss: 267.9855 - accuracy: 0.0000e+00 - mae: 0.7788 - coeff_determination: -0.1700
…
 64/192 [=========>....................] - ETA: 0s192/192 [==============================] - 0s 256us/sample
-0.08501387751849254
Typer KerasRegressor
Hello world
{'batch_size': 64, 'activation': 'relu', 'HP_OPTIMIZER': 'SGD', 'units': 400, 'learning_rate': 0.01, 'epochs': 100, 'HP_L2_REG': 0.01, 'rate': 0.2, 'HP_L1_REG': 0.1, 'HP_NUM_HIDDEN_LAYERS': 3, 'kernel_initializer': 'glorot_uniform'}
Blue
Model: "sequential"
_________________________________________________________________
Layer (type)                 Output Shape              Param #   
=================================================================
dense (Dense)                (None, 400)               4000400   
_________________________________________________________________
dropout (Dropout)            (None, 400)               0         
_________________________________________________________________
dense_1 (Dense)              (None, 400)               160400    
_________________________________________________________________
dropout_1 (Dropout)          (None, 400)               0         
_________________________________________________________________
dense_2 (Dense)              (None, 400)               160400    
_________________________________________________________________
dropout_2 (Dropout)          (None, 400)               0         
_________________________________________________________________
dense_3 (Dense)              (None, 1)                 401       
=================================================================
Total params: 4,321,601
Trainable params: 4,321,601
Non-trainable params: 0
_________________________________________________________________
None
Train on 573 samples
Epoch 1/100
 64/573 [==>...........................] - ETA: 2s - loss: 6204.4761 - accuracy: 0.0000e+00 - mae: 0.7575 - coeff_determination: -0.0136
…
